code/gnn/models/training/MLP/multi-graph-total/2/best_model.pt (torch, 8808 bytes, 3 tensors)

lin1.weight f4 [128, 11]
000000 98 96 fc 3e 17 b9 45 be a6 4d 03 be 2a 35 30 3d
       0.49333644 -0.19308887 -0.1282259 0.04301945
000010 f4 8f 8b 3d 70 41 3b bd 50 72 9a be 93 e1 b6 be
       0.06814566 -0.045716703 -0.3016534 -0.35718974
000020 0d ec 85 bc af 5e 7e be 86 d9 cf bf 7d f0 b7 bd
       -0.01634791 -0.24840806 -1.6238258 -0.089814164
000030 39 22 c9 bb 32 2c 2e bd 28 58 d9 bd 83 cb 36 3e
       -0.006138113 -0.042522617 -0.106125176 0.17851071
000040 1e 98 0e 3d 46 d8 45 be 25 f0 d8 be 43 62 c2 bc
       0.03481304 -0.19320783 -0.42370716 -0.023728495
000050 cc 9e 54 bd 4f e7 a5 bf d7 3a 11 3d b7 c4 12 be
       -0.051909253 -1.2961215 0.035456505 -0.14332853
000060 ba 10 ed be 06 57 75 3e 12 e3 4d bd ba 67 cd 3d
       -0.46301824 0.23958978 -0.05026538 0.1002955
000070 6d 20 79 be 19 8d 04 bf 5a e6 0a 3f dd 17 38 bf
       -0.24328776 -0.517778 0.5425774 -0.7191141
000080 57 db c2 bf 57 9c 45 3d 21 5b 8c be 51 09 51 bc
       -1.5223187 0.0482448 -0.27413276 -0.012758569
000090 af 6b 91 3e b5 65 9b bf ec f5 32 be 22 c2 5e be
       0.2840247 -1.2140414 -0.17476624 -0.21753743
0000a0 f7 99 95 3e 76 1f 6a bf f2 62 7f 3e d8 d6 cf 3c
       0.29219028 -0.91454256 0.24940088 0.025371
0000b0 82 2e 8b 3f 1e ed be be b6 32 81 3e 3c 3a fa 3d
       1.0873568 -0.3729028 0.25234002 0.122181386
0000c0 c0 1c 05 bf 3e 13 ca be 6c 24 2d be 69 e0 7c 3f
       -0.51996994 -0.39467806 -0.16908425 0.9877992
0000d0 bc ef 5e 3d fc 55 d4 be 25 d8 a2 bf a3 6f 9c 3e
       0.054427847 -0.4147185 -1.2722212 0.30553922
0000e0 eb 3c fa bc 95 ee 30 3e 09 ff 2e 3e 09 f2 9e 3e
       -0.030546626 0.17278512 0.17089476 0.31044033
0000f0 bf d5 c5 3d 5f f2 0c be 87 52 11 bf e4 7b 1e be
       0.096599095 -0.13764332 -0.5676655 -0.15476948
000100 c8 b2 0c 3f 84 44 1a bf 92 1f 0f 3f 64 e3 67 be
       0.549603 -0.60260797 0.5590755 -0.22645336
000110 bf 09 df bc a9 3e 85 3e 63 04 5d bc b4 ed 6e 3e
       -0.027226327 0.26024368 -0.013489815 0.23332864
000120 48 24 8f bd 98 05 b1 be 26 8d a0 bc 7a 59 7f 3d
       -0.06989342 -0.3457458 -0.019598555 0.06234119
000130 93 16 f8 be ba 21 83 3b cd 5e 81 bc 9e fb 98 bf
       -0.48454723 0.0040018233 -0.015792275 -1.1951787
000140 b8 cb db 3e 22 5b 66 bf ea 70 fd bd 51 8d 8a bd
       0.42928863 -0.8998281 -0.12375052 -0.06765235
000150 b9 86 2c 3d 5b a6 5c 3f 47 1d 44 bf 51 08 ae bf
       0.04212067 0.8619134 -0.76607174 -1.3596288
000160 b7 35 da be c6 a5 95 be 83 81 e7 be 21 99 6f be
       -0.42619106 -0.29228038 -0.45215997 -0.23398258
000170 68 b3 8a be 06 b6 03 3e 96 eb a7 be 59 66 f5 3e
       -0.2709 0.12862405 -0.32796925 0.47929648
000180 f5 54 42 bb 24 06 44 bf 1a a7 93 bf 80 fe a3 3f
       -0.002965269 -0.7657187 -1.153537 1.2812042
000190 e2 28 f4 be 60 95 97 be 00 ba 82 be aa 68 b6 3c
       -0.4768744 -0.29606152 -0.25532532 0.022266705
0001a0 cb 25 19 3e a8 e8 3d be 3b 4f 33 3e 68 c7 92 3e
       0.14955823 -0.18545783 0.17510693 0.2866776
0001b0 a6 e1 3a bf 32 2e 7b bf f2 ec 15 3e 96 3d 43 be
       -0.7300056 -0.98117363 0.14641169 -0.19066462
0001c0 99 5d db bd e7 fa eb 3d 42 07 1a be 55 07 21 be
       -0.10711212 0.11522465 -0.15041831 -0.15725453
0001d0 bf a1 1d 3d 8a 86 50 3e 04 ed 34 be 81 d3 80 3e
       0.03848433 0.20363823 -0.1766854 0.25161365
0001e0 27 8d 86 bc b0 c2 ef 3d 91 5f 2a be 5c a1 f5 3d
       -0.016424729 0.117070556 -0.16638018 0.119936675
0001f0 dc 11 8c 3e 4a b0 e5 bd ef 8c 04 be 6f 7c 0e 3e
       0.27357376 -0.11215265 -0.12944387 0.13914655
000200 aa 22 b5 be 33 e6 ad be 6e fa ce bd 67 6c 82 3b
       -0.3537801 -0.3396469 -0.101063594 0.0039802077
000210 a9 2b a6 bc d2 d2 1e bf 39 52 ca 3e 30 c6 b6 3e
       -0.02028449 -0.62040436 0.39515856 0.3569808
000220 5c 5b 21 bf ce 7f 38 bd 51 44 f4 be d2 b0 72 3f
       -0.6303003 -0.04504376 -0.4770837 0.94801056
000230 2e 6d b5 bf 4a 6b 20 be 7f 99 a5 be 77 88 ba 3f
       -1.4173944 -0.15665928 -0.3234367 1.4572896
000240 7c 6c de be f7 53 52 3d 8a 3c 84 be e5 ca ba 3d
       -0.43442142 0.051349606 -0.25827438 0.0912073
000250 7a 1a a3 3e e9 75 9f be b9 70 81 3d e3 c1 ce 3d
       0.31856138 -0.31144646 0.06320328 0.10095575
000260 e8 17 02 bf 17 ed 33 bf 02 e4 68 be 0b 2a b4 bd
       -0.5081773 -0.70283645 -0.22743228 -0.087970816
000270 7b 78 13 be 62 76 82 bd b7 d5 03 bd df 56 ac 3c
       -0.14401428 -0.06370236 -0.032186236 0.021037517
000280 64 bf a6 bd e1 35 4d bd 18 0e f6 bc 7b 73 30 be
       -0.081419736 -0.05010021 -0.030036017 -0.17231552
000290 f6 f9 14 bf f7 19 84 3f a8 d4 de be 27 2a 6f 3e
       -0.5819391 1.0320424 -0.4352162 0.23355924
0002a0 2e 31 1f 3d be 48 1f bf 08 8a 8d be 56 53 ae be
       0.03886526 -0.6222037 -0.27644372 -0.34047955
0002b0 1c ed 33 3f 14 47 1c be c7 56 37 bf 06 1d 99 bf
       0.70283675 -0.15261489 -0.71616787 -1.1961982
0002c0 99 2b 3e 3f e1 2c 24 be 5c b9 e3 3d 31 67 82 3e
       0.74285275 -0.16032745 0.11119339 0.25469354
0002d0 e0 09 08 be 7a c2 19 be 34 6a 99 3c c5 fe 6f 3e
       -0.13285017 -0.15015593 0.0187274 0.2343703
0002e0 ff 85 aa be 83 48 7f be c0 96 76 bf f1 64 63 3f
       -0.33305356 -0.24930005 -0.96323776 0.888259
0002f0 0e b5 b4 be bf 36 29 bd eb 92 03 3e c3 d7 f3 bd
       -0.35294384 -0.041311976 0.12849014 -0.11906388
000300 ca 4a 47 3e de e0 2e be 9d 86 83 be 99 02 63 bd
       0.19462124 -0.17077968 -0.2568864 -0.0554224
000310 b1 75 88 be 2b 3b 92 bf 26 06 1c 3e d8 b2 17 bc
       -0.2665229 -1.1424307 0.1523672 -0.009258948
000320 bd d8 8d be bb d9 3f bd 0a cf 67 bc 20 e8 a7 be
       -0.2770442 -0.046838503 -0.014148483 -0.32794285
000330 a8 df 8b 3d 58 ca 88 3d 14 ce 69 3d fb a3 bb bc
       0.068297684 0.06679219 0.057081297 -0.02290534
000340 95 18 cf be 1a c6 81 3e 06 7d ad be 3c 86 96 3e
       -0.40448442 0.25346452 -0.33884448 0.29399288
000350 ea ee 5d bc 9e b3 25 bf d2 7f f1 3b 82 fd 6b be
       -0.013545731 -0.647272 0.0073699737 -0.23045924
000360 55 bd 2b 3f 05 ad 42 be 27 65 96 be 80 c8 9d be
       0.6708577 -0.19011314 -0.29374048 -0.30817032
000370 44 dd 65 3f 99 c9 ce be 10 d5 b1 3e 7b fd 6f 3d
       0.8979075 -0.40388182 0.34732866 0.058591347
000380 f0 5a 19 bf 99 e6 5d be 84 04 d2 be 8d e0 4a 3f
       -0.59904385 -0.21669997 -0.4101907 0.7924889
000390 3f 9e 30 be ce 9d c7 be 88 18 1c bf b5 e3 3d 3e
       -0.17247866 -0.38987583 -0.6097493 0.18543895
0003a0 4f c5 4c be a4 fa 8f be d5 bd 31 be a4 53 79 bc
       -0.19997142 -0.2812091 -0.17357571 -0.015217695
0003b0 ab 22 a3 3d 12 6b e5 be 94 0d 08 bf 98 ff 31 bc
       0.07965597 -0.4480825 -0.5314572 -0.010864161
0003c0 96 69 ce be ac 93 d9 bf d8 9c e1 3d bd 2c b2 be
       -0.4031493 -1.6998191 0.11016244 -0.34799758
0003d0 7a 01 b1 bd ea f2 29 3d dd c9 09 be 2b 02 68 3e
       -0.0864286 0.041491427 -0.13455911 0.22657077
0003e0 02 52 90 be 4d 74 15 be 8c a9 9d bc fc cd 1b be
       -0.28187567 -0.14595146 -0.019245885 -0.15215296
0003f0 02 51 73 bf 49 65 50 be 4b 92 64 be 0f 18 e0 be
       -0.95045483 -0.20351137 -0.22321431 -0.43768355

lin1.bias f4 [128]
000000 58 16 16 3f 24 99 04 be 99 dd 55 be c4 e8 ea bd
       0.58627844 -0.12949044 -0.20885314 -0.11470178
000010 d3 dd 8d 3f 43 e3 a8 bd 27 ff c0 3e 59 f0 8f 3e
       1.108332 -0.08246472 0.37694666 0.28113058
000020 e1 d4 3c be e9 71 13 3f 96 26 b0 3c 8d b4 71 be
       -0.18440582 0.5759569 0.021502774 -0.23604031
000030 ac e4 80 be 1b 9b ce 3e 14 35 9b bd f1 33 8d 3f
       -0.25174463 0.4035271 -0.07578483 1.1031476
000040 49 08 0f 3f 8e 88 4a 3f 98 54 3c 3e 2a 0b f2 3d
       0.5587202 0.79114616 0.18391645 0.118185356
000050 01 b1 26 3f 87 10 a6 bc 1e a5 2c 3d df 59 cb be
       0.65113837 -0.020271553 0.042149656 -0.39717004
000060 29 01 02 bf 72 70 8e be 1b 71 b3 be 7d 79 56 3f
       -0.5078302 -0.27820164 -0.3504723 0.83779126
000070 3a a7 f4 be 18 19 e1 3e fd e4 75 3f c4 47 47 3e
       -0.47783834 0.43964458 0.96052533 0.1946097
000080 d0 92 f2 be 91 8d 63 3f ae 8c f6 3c 59 54 37 3f
       -0.47377634 0.8888789 0.030096378 0.7161308
000090 86 7b 33 be 46 c1 71 3f 13 df 2b 3d 61 a9 38 be
       -0.17527589 0.94435537 0.041960787 -0.18033363
0000a0 08 55 a7 bd a3 30 3e 3f d3 e7 6f bd 73 60 08 3b
       -0.08170515 0.74292964 -0.058570694 0.0020809441
0000b0 46 52 8c bc 7d 39 d0 bd 55 df cc 3d 1d b0 89 3d
       -0.017129075 -0.10167215 0.10003535 0.06723044
0000c0 bd 2b 57 3f 50 32 40 bc 87 f4 c4 bd 15 35 b1 3e
       0.84051114 -0.011730745 -0.096169524 0.3461081
0000d0 0c 30 bd 3e 5b 4a 76 be d2 b6 a6 3d a0 65 db bd
       0.3695072 -0.24051802 0.08140339 -0.10712743
0000e0 72 fc eb be b4 7e 16 3f a8 73 c9 bd cf c2 77 3f
       -0.46091038 0.58787084 -0.09836513 0.9678163
0000f0 fa 0d 1b be 83 ab 09 be 09 72 12 be 44 f5 0f be
       -0.1514205 -0.13444333 -0.14301313 -0.14058405
000100 ab bf d3 be e4 09 66 3f 66 0f 89 be 70 f7 de bb
       -0.4135717 0.8985884 -0.2676956 -0.006804399
000110 1b a9 96 be 66 a8 8f be 2b 9f 2b 3f 82 be 46 3e
       -0.29425892 -0.28058165 0.67039746 0.1940861
000120 ae 97 e7 3e c3 85 28 be 49 6c 7a bd b6 41 a1 be
       0.4523291 -0.16457276 -0.061138425 -0.31495446
000130 00 99 10 3f 2c 10 81 3f a1 e1 19 3f c9 f2 42 be
       0.5648346 1.008306 0.6010991 -0.19037928
000140 03 0b 94 3f 46 05 82 be 2d b7 10 3f d9 24 8f 3e
       1.156586 -0.25394648 0.56529504 0.279578
000150 4c 5e 36 be 78 24 c9 3d 14 45 b4 3e a7 56 0b 3f
       -0.17809409 0.09821409 0.35208952 0.54429096
000160 99 7c bc be 75 67 c3 bd 15 dd d4 be 11 22 09 bf
       -0.3681381 -0.09541217 -0.41574922 -0.53567606
000170 ab a3 66 3f aa ae 02 be 4f ca 38 3d 88 9c 4c 3f
       0.9009349 -0.12761942 0.04511481 0.7992635
000180 fe 98 84 3f 40 eb 6f be 40 a3 ba be dc 3f 94 bd
       1.035919 -0.23429585 -0.36452675 -0.07238743
000190 50 6b bf be 87 ee 48 be 75 6a 08 bc 7e 0b 2e 3e
       -0.3738656 -0.19622241 -0.008326163 0.16996571
0001a0 a9 a3 fe be 3a d3 27 be ac 08 b4 bd 78 fc c1 bd
       -0.49734238 -0.1638917 -0.087907165 -0.09471983
0001b0 b3 93 26 be 5a 78 eb 3e cc 64 a5 bd 63 4f a8 3e
       -0.1626728 0.45990258 -0.08075866 0.32873067
0001c0 dd 34 6b be 95 11 90 3f 74 6d 5b bc 3c 41 73 3f
       -0.22969384 1.1255366 -0.013392795 0.95021415
0001d0 da ec 56 be af 12 25 be e6 b1 c2 bd 2c c1 84 3e
       -0.20988789 -0.16120408 -0.09506588 0.25928628
0001e0 80 87 1b 3d 6f 9b a1 3e 10 89 36 3d 59 d6 77 be
       0.03797102 0.315639 0.044564307 -0.24202861
0001f0 b7 98 b3 bd fb 41 59 be 48 8b b1 bd dd f4 6b 3f
       -0.087693624 -0.21216576 -0.08669144 0.92170507

lin2.weight f4 [1, 128]
000000 d5 49 f6 3e 31 b0 27 3e b2 bb 24 3f 13 37 90 3e
       0.48103204 0.16375805 0.643489 0.28167018
000010 e0 30 ae 3f e6 f3 23 3e c5 57 09 3e 34 98 ba 3e
       1.3608665 0.16011009 0.13412388 0.36444247
000020 61 d3 e6 3e 6e fa 85 3e b8 5c 82 3d 1a 46 f2 3c
       0.45083144 0.26167625 0.06365341 0.029574443
000030 59 db 70 3f e8 09 a4 3e e9 48 91 3d 79 db d6 3e
       0.940847 0.32038808 0.07093985 0.4196432
000040 ce b4 47 3e 85 0e 9f 3e 25 b2 83 3d 32 96 91 3e
       0.19502565 0.31065765 0.06430463 0.28434902
000050 8c ab d5 3e ad ab 1f 3f 88 12 25 3e 31 1c c6 3e
       0.41732442 0.6237133 0.1612035 0.38693383
000060 cb a9 cb 3e 7a bd 1d 3d a3 14 55 3d c8 ae 43 3f
       0.3977798 0.038510777 0.052021634 0.7643857
000070 16 f6 4a 3e 26 7e a6 3e fe 46 ac 3e 30 13 89 3e
       0.19820437 0.3251812 0.33647913 0.2677245
000080 f1 45 32 3f 49 c5 08 3f 11 84 f5 3e 04 54 86 3f
       0.6963797 0.53426033 0.4795232 1.049439
000090 66 9c 6d 3d f0 71 c1 3e ef c9 9b 3e c0 cd fc 3c
       0.05801048 0.3778224 0.304275 0.030859828
0000a0 6a 56 94 3d 59 6a d9 3e fa ea b3 3d d1 cc 29 3e
       0.07243045 0.4246395 0.087850526 0.16582038
0000b0 4e a3 03 3e 5b 45 6b 3e 2f 8f 85 3e c4 22 c3 3e
       0.12855265 0.22975676 0.26085803 0.38112462
0000c0 a1 ad 04 3f 3a 99 91 3e 59 96 a2 3d 4d 73 87 3e
       0.51827437 0.28437215 0.07938833 0.26455155
0000d0 02 1f 0f 3f e6 8f 1d 3e 01 e7 64 3f 74 69 b9 3e
       0.5590669 0.15386924 0.89414984 0.36213267
0000e0 d9 01 2f 3f e9 c0 67 3e 00 20 7b 3d 15 84 1b 3f
       0.68362194 0.22632183 0.061309814 0.60748416
0000f0 8a 7d f0 3d 77 fa cb bf 87 bf f0 3c 0b 79 9a 3d
       0.11742695 -1.5935811 0.029388202 0.07542618
000100 96 cd ee 3e 85 ac af 3e 0c 4b 22 3d 2f be 90 3e
       0.46641225 0.3431131 0.03962235 0.282701
000110 2f 18 b7 3e 61 d5 e7 3e 75 e7 6e 3e b7 6f 84 3e
       0.35760638 0.45279983 0.23330481 0.25866482
000120 56 fa 83 3e 4f 33 89 3e 31 0f db 3e a9 2f 7d 3f
       0.2577693 0.26796958 0.42785028 0.9890085
000130 3e f0 93 3e a7 17 ea 3e f5 7e ac 3e 7f 2f b7 3d
       0.28894228 0.4572117 0.3369061 0.08944606
000140 4c d9 6a 3f d0 6d 9b 3f dc ea a9 3e 9c c4 5e 3e
       0.9173782 1.2142887 0.33186996 0.21754688
000150 dd 19 f8 3e ec ed c6 3e 46 8c e3 3e 29 97 78 3e
       0.48457232 0.38853395 0.44442958 0.24276413
000160 46 24 10 3f c2 97 1a 3d 68 71 39 3f d8 b5 5b 3f
       0.5630535 0.037742384 0.7243867 0.85824347
000170 78 8b 9a 3e bd d2 61 bf 35 09 9f 3e 08 c9 01 40
       0.3018453 -0.88212186 0.31061712 2.027895
000180 b5 ba ef 3e 5d e0 34 3f 6a 7e 87 3f e9 83 8d 3e
       0.46822134 0.7065485 1.0585454 0.27639702
000190 bd a1 28 3f ff 4d 40 3d 52 2d 92 3e 38 e5 97 3e
       0.65871793 0.046949383 0.28550202 0.29667068
0001a0 1a f3 ca 3f 36 69 d3 3d 56 17 e2 3e 11 94 15 3f
       1.5855439 0.10322802 0.4415843 0.58429056
0001b0 71 3a 21 3f e3 e4 11 3f 33 92 d4 3d 12 60 d1 3e
       0.629798 0.5698988 0.10379448 0.40893608
0001c0 c3 39 de 3d 9e 11 11 3f df d4 7a 3d 26 13 b4 3e
       0.10850861 0.56667507 0.061238166 0.3517086
0001d0 a0 b2 ce 3d b0 1d 4e 3e 1c 77 76 3e 9d 55 1b bf
       0.10092664 0.20128512 0.24068874 -0.6067751
0001e0 da bb ac bf d3 9e 05 3e 24 41 d1 3e f8 bf 88 3c
       -1.3494828 0.13048868 0.4087001 0.0166931
0001f0 e7 fa e1 3e 94 d0 d0 3e dd a4 a2 3e 42 ed 12 3f
       0.44136736 0.40784132 0.31766406 0.57393277
