code/gnn/models/training/GCN/export-layered/1/best_model.pt (torch, 5352 bytes, 3 tensors)

layers.0.bias f4 [32]
00000000: 97ee 1040 8cb1 0240 9a9b 0f40 e352 433f
00000010: d39a 1abe bc55 0840 5948 823f 46f9 24bc
00000020: 1ec8 d53e 39e9 95be f2dc cf3f 1437 1240
00000030: b8cc ec3f 077e 0240 ed20 c1be 77ad 403e
00000040: e7ef 1440 cf55 08be 453d 773f b26a ca3e
00000050: 4ef7 2840 a607 e4bd d343 0640 e6c9 fabd
00000060: b1b6 f9bc 3c2f d6be cad9 37bf d976 2840
00000070: a468 a93f e4d5 23bf 926c e83e 94ee f03f
2.2645624 2.0420866 2.2438722 0.7629835 -0.15098123 2.1302328 1.0178329 -0.010069197
0.4175424 -0.29279497 1.6239302 2.2846117 1.8499975 2.038942 -0.37720433 0.18816172
2.3271425 -0.13313983 0.96577865 0.39534527 2.6400943 -0.11134271 2.0978897 -0.1224554
-0.030482622 -0.41832912 -0.71816695 2.632254 1.3235059 -0.63998246 0.45395333 1.8822808

layers.0.lin.weight f4 [32, 22]
00000000: 1d48 5bbe 9220 63bf 1613 0e3e 0e84 bbbe
00000010: f03b e9bc 1563 cf3e 711e f9be 6657 e0bf
00000020: f71d 193d 4ed1 3d3f 3834 ddbf eea8 d13f
00000030: 2f1a b8bf 9fa3 423f 7dc8 02be e698 c3bc
00000040: c9b6 413e adf0 b4be 778e 07bf edf2 6bbf
00000050: 8918 f73e acd3 20bf 84cb 38be 7544 10bf
00000060: e023 aa3e 7f42 4abf 07fb 3abe 1ae6 b43f
00000070: 0d08 c1be 5c80 eabf 8e38 be3c 9937 693f
00000080: 157d 64bf 4038 623f 275d 43bf d1e7 f8bd
00000090: 7892 f1bd 77a6 6fbe 77d6 ee3f b8d7 b83f
000000a0: 5b28 b93d 20fe 51bf 5f1f 0440 9b3a 27c0
000000b0: a974 01bd 9e00 31bf ff6d 0d3e 6318 89bf
000000c0: 9fb7 e9be 43c3 263f ad0f 79be 3769 b1bf
000000d0: 3917 1c3e a193 2f3f 655c b8bf c916 d23f
000000e0: 4e48 a9bf 85c0 d33e e5d0 abbe e8c5 36bf
000000f0: f65c ea3e 7c02 ef3e a3f3 0cbf 9004 0cbf
00000100: efe5 fc3e 8e52 40bf 317c e1bf 08e4 b2bf
00000110: 01c9 95bf c294 293f e426 73bf f30a bc3f
00000120: 37fb 3c3f 52a3 bcbf e8a4 0b3d 525a 4fbf
00000130: a095 babf bf23 b5be 9208 aebf 2451 333e
00000140: 8ec4 a23e 7a12 ed3e 95c5 44be 8346 32bf
00000150: 0104 1ebf ea42 9e3e 964e 603e a6e7 e23e
00000160: 9f3a 7bbd 36fe d63d cda0 373e e3dd 38bd
00000170: 35d2 e13d 16d1 f43b ce9d 1d3e b64c 95be
00000180: 0b6f 523e b613 fe3d 119c fa3d 27ce d93e
00000190: 3225 86be 5565 863d 16cd 833d 7b39 343e
000001a0: 1e3f 3fbe c8e9 b4bd f159 40bd 1662 86be
000001b0: 8f61 013e a256 8ebd 0788 d1be a622 18bf
000001c0: 206c a13e 85ee 8dbf 48bd edbe 5fdc 323f
000001d0: 8bb5 6c3d 2243 9fbf d24b c5be 7881 603f
000001e0: 04d2 b6bf 6a48 c43f fbb2 80bf 8644 c53e
000001f0: d9b2 25bf 2fad 03bf 195a 1e3f 72d6 8f3f
00000200: 2d46 f8be 9909 99bf f90c 063f e1a2 8dbf
00000210: 28ca 1cc0 f6c4 6ec0 9d46 86bf 7adb 363f
00000220: 7300 623f 5171 623e 3d82 1bbf a0d1 53bf
00000230: 5e18 3dbe 0f5a 413f b2cf 58bf 4897 0e3e
00000240: 301e 8abf 1ff9 db3b df3a 8c3f 9e08 743f
00000250: 31c9 3a3f 78cf 933f e06e 0fc0 3165 863e
00000260: 1ab3 1140 5df7 b8bf bf5a 1bbf d8a6 78bf
00000270: d268 1bbf 384b 2b3d f95c c2bf d8d5 c3bd
00000280: c0d9 2640 9095 233f cf96 26bd fbba 07c0
00000290: 1bfb 65bf 1f78 d43f 0abd 213f b076 56bd
000002a0: 343c 9cbf b1c8 b9bf cb9f 8c3f 098d 023f
000002b0: 8113 15bf 5cf4 f33d bcf7 1e3f 3463 b7bd
000002c0: 352b 44c0 244e 56c0 6146 45be 70e0 3ebe
000002d0: 3b3f 423f 403f 1b3d 5a98 2fbe 15f0 e4bd
000002e0: 7dbc d0be 4025 713f 7d42 a7be 003d 80be
000002f0: 59d1 513d 3e70 b13a b827 1040 9580 823f
00000300: 22ee 093f 12aa dc3f ed86 14c0 cc80 94be
00000310: d4a9 d43f 8a0a cdbf 7ec0 fabf 8dae c5bf
00000320: 4a2d dc3e 0ba0 65bf 9dbf f6bf 6458 aebe
00000330: 86e6 123f cddc 2c3f 895c 39bf 0c9a 893f
00000340: e7aa 05c0 ef03 0640 bd38 153f 0a67 4940
00000350: 3ebc 8d3f cc60 7dbf 54c6 85bf 1ef3 0b40
00000360: 37c8 c3bf 2b67 0340 9b37 3ebf 96f5 aebf
00000370: 2092 4bc0 aa9b 51c0 512c 7abf 5e7e bf3d
00000380: 35a3 523f 8b33 9f3e 19ee f7be 3014 aabf
00000390: 9fcd 14bd 0f90 7e3f bdda 98bf 4df9 603f
000003a0: 6132 2dbf 8976 a93e be84 853f 3ce7 823f
000003b0: 3ee5 dd3e c92a b8bd aaf7 d9bf 4de1 23bf
000003c0: 75ae ba3f 8ccc 58bf f6fe e0be 2b23 d3be
000003d0: a926 2bbe fed5 a1be d036 37be ad8b 033f
000003e0: 94fd c2be 8f24 bfbf ba81 45be 2033 353f
000003f0: 1d47 96bf 1e4e 0040 d904 4abf e4db 143f
-0.21414228 -0.88721573 0.13874468 -0.36624187 -0.028470963 0.4050528 -0.48656037 -1.7526672
0.037382092 0.741475 -1.7281561 1.6379678 -1.4382991 0.76030916 -0.12771793 -0.023876619
0.18917383 -0.3533987 -0.5295176 -0.9216755 0.48260906 -0.62822986 -0.18046385 -0.5635446
0.33230495 -0.79007715 -0.18259822 1.4132721 -0.37701455 -1.8320422 0.023220327 0.9110046
-0.8925336 0.8836708 -0.76314014 -0.121535905 -0.11795515 -0.23403345 1.86592 1.4440832
0.090409 -0.8202839 2.0644147 -2.612952 -0.031605396 -0.69141567 0.13811491 -1.0710567
-0.45647904 0.65141696 -0.24322386 -1.3860234 0.15243234 0.6858464 -1.4403197 1.6413203
-1.3225191 0.41357818 -0.3355781 -0.7139573 0.4577405 0.46681583 -0.5505926 -0.5469446
0.49394175 -0.7512597 -1.7616025 -1.397584 -1.1701967 0.6624261 -0.9498122 1.4690841
0.73820823 -1.4737341 0.034092814 -0.8099719 -1.4576912 -0.35378835 -1.3596365 0.17511421
0.31790584 0.4630316 -0.19215997 -0.6963884 -0.6172486 0.30910426 0.21904978 0.4431736
-0.061335202 0.10497706 0.17932434 -0.045133483 0.11026422 0.007471214 0.15392229 -0.29160088
0.20550172 0.12406103 0.122367986 0.42540094 -0.26200253 0.06562296 0.064356014 0.17600052
-0.18676421 -0.08833653 -0.046960775 -0.2624671 0.12634872 -0.06950118 -0.40924093 -0.5942787
0.31527805 -1.1088415 -0.46433473 0.6986751 0.05779032 -1.2442362 -0.3853441 0.87697554
-1.4282842 1.5334599 -1.005462 0.38528842 -0.64726025 -0.5143613 0.6185623 1.1237319
-0.4849104 -1.1956054 0.52363545 -1.1065332 -2.4498386 -3.7307715 -1.04903 0.71428645
0.88281935 0.2211354 -0.607456 -0.8274174 -0.18466327 0.75528044 -0.8469192 0.13924897
-1.0790462 0.006713047 1.0955466 0.9532565 0.72963244 1.154769 -2.2411423 0.26249078
2.2765565 -1.4450489 -0.6068534 -0.97129583 -0.6070682 0.04181978 -1.5184623 -0.09562272
2.6070404 0.6390009 -0.040671166 -2.1207874 -0.8983628 1.6599158 0.63179076 -0.052359283
-1.2205873 -1.4514371 1.0986265 0.5099645 -0.58232886 0.11911842 0.6209676 -0.08954468
-3.0651371 -3.3485193 -0.19265129 -0.18640304 0.7587773 0.037902117 -0.17147961 -0.111786045
-0.40768805 0.94197464 -0.32667914 -0.2504654 0.05122504 0.0013537479 2.2524242 1.019549
0.53878987 1.7239401 -2.3207352 -0.29004514 1.6614327 -1.6018841 -1.9589994 -1.5443894
0.43003303 -0.8969733 -1.9277226 -0.34051812 0.57383 0.67524415 -0.7240682 1.0750136
-2.088556 2.09399 0.582897 3.146914 1.1073072 -0.98975825 -1.045115 2.1867137
-1.5295476 2.0531719 -0.743036 -1.3668697 -3.1807938 -3.275126 -0.9772387 0.093502745
0.82280284 0.31094012 -0.48423842 -1.3287411 -0.036328908 0.99438566 -1.1941754 0.878804
-0.67655 0.33098248 1.0431135 1.0226817 0.4333896 -0.089925356 -1.7028706 -0.64015657
1.458449 -0.84687114 -0.4394452 -0.4123777 -0.16713966 -0.31608576 -0.17892003 0.51385003
-0.3808409 -1.4933032 -0.19287768 0.70781136 -1.1740452 2.004768 -0.78913647 0.58148026

layers.1.lin.weight f4 [1, 32]
00000000: 6263 5240 538c 1440 c91b 3840 2bce 9cbf
00000010: f69f b2be 1e3e 3440 8d35 f2bf af93 663f
00000020: c2c7 b8bf 6a5b 1e40 8bf6 0ac0 8907 3d40
00000030: b483 da3f 5285 ee3f 3fda 06c0 5508 5bbf
00000040: a722 4140 e86d 12be 7db3 d9bf 90ef 78c0
00000050: 16d4 6140 7f8f 80bf 1b15 2740 651f 663e
00000060: 8d66 ddbf 0649 bebf 3736 ddbe 7d8b 8340
00000070: 5778 dcbf 6979 18bf f6d4 e5bf f65b ef3f
3.2873158 2.3210647 2.8766959 -1.2250417 -0.34887666 2.8162913 -1.8922592 0.900691
-1.4435961 2.4743295 -2.1712978 2.953585 1.7071443 1.8634436 -2.1070707 -0.8555959
3.01774 -0.14299738 -1.70079 -3.8896217 3.5285697 -1.0043792 2.6106632 0.22472914
-1.7296921 -1.4866035 -0.43205425 4.1107774 -1.7224225 -0.5956026 -1.7955616 1.8699939
