code/gnn/models/training/GAT/total/10/best_model.pt (torch, 266466 bytes, 10 tensors)

layers.0.att f4 [1, 8, 128]
000000 8a ec ce be ed 66 c1 bd 8e a2 ac 3e a3 14 c0 3d
       -0.4041484 -0.0944346 0.3371777 0.09378936
000010 5a 90 e7 3d 48 67 85 be 98 f7 74 3d d3 10 df bd
       0.1130683 -0.2605536 0.059806436 -0.10891881
000020 98 b7 2b 3e 5f 6a 68 be 69 d7 2e 3d 92 9c 0f be
       0.16769254 -0.22696827 0.0426859 -0.1402457
000030 fe 23 a0 bc 12 99 94 bc 79 fc 52 3e f0 2d 70 be
       -0.019548412 -0.018139396 0.20604123 -0.23455024
000040 db 95 8e bd 4e 4a a0 bd 2d 96 95 3e f3 c1 83 3e
       -0.069621764 -0.078266725 0.29216138 0.2573391
000050 3b aa 51 be 5c 41 12 3e a0 1f c7 3d a6 54 c2 be
       -0.20475094 0.14282745 0.09722829 -0.37955207
000060 78 30 8f 3e 64 2d 3a be 2b 29 69 be 57 ed 6d 3e
       0.27966666 -0.18181378 -0.2276961 0.23235069
000070 14 d0 ae be ce f3 f9 3d eb 90 35 bc 3d 68 7e be
       -0.34143126 0.12204705 -0.011081914 -0.24844451
000080 64 4a 2b be 1b b7 dd bd 9e 83 5e be 5d e2 1a 3e
       -0.16727597 -0.1082594 -0.21729895 0.15125413
000090 65 02 ae be a5 a0 9b bd a2 8f 08 3c a4 8f ce bd
       -0.33986202 -0.07599 0.008335026 -0.10085991
0000a0 3d 02 b1 bc cb fd b6 be 66 ef b7 be 14 7b 30 bd
       -0.021607513 -0.35740504 -0.35924834 -0.043086126
0000b0 6d 1c f5 3d de c7 db 3d 68 ae 9a 3d c5 b4 8b be
       0.119683124 0.10731481 0.075527966 -0.27286354
0000c0 83 6a 8a be 7c 5c 3b be 39 fa d3 bd f7 1d 92 bd
       -0.27034387 -0.18296999 -0.103504606 -0.071346216
0000d0 33 3a d9 3d ad 41 21 be eb a9 34 3e b6 00 9c 3d
       0.10606804 -0.1574771 0.17642944 0.07617323
0000e0 84 3d 6c bd 03 ec 06 bd f4 a6 de bb 4d 4a de bd
       -0.057675853 -0.032939922 -0.0067948047 -0.108540155
0000f0 66 16 33 be a6 89 18 be 85 e2 c7 3d 9d 7f d2 bd
       -0.17489013 -0.14896259 0.09760002 -0.102782466
000100 2d 45 0f 3e 9e ec 9a 3e 22 d3 24 3e de ff 50 3e
       0.13991232 0.3025865 0.16096166 0.20410106
000110 c2 e4 c2 bd 00 03 62 bd dc c0 8a 3e 2b 4f c0 bd
       -0.09516288 -0.055178642 0.27100265 -0.093901
000120 cf ac 13 3e d4 66 6a bd 3f a5 17 3e 3f 4b 8a be
       0.1442139 -0.05722697 0.1480913 -0.27010533
000130 8a e2 9c bd ac a7 a3 3c 63 8b 7f 3e 59 32 11 3e
       -0.076603964 0.019977413 0.24955516 0.14179362
000140 83 e1 0e ba ae da 74 3c b7 01 49 3e f4 ee 63 3e
       -0.0005450474 0.014944715 0.1962956 0.22259122
000150 c0 ac 33 be 75 a0 9b 3d 33 98 3b be 3e 27 7c be
       -0.17546368 0.07598964 -0.18319778 -0.24624345
000160 e1 dc 91 3d 41 14 59 be 13 e6 2a 3e 77 b4 07 be
       0.071222074 -0.21199133 0.16689329 -0.13252436
000170 36 39 1b bd 62 98 7e be a6 71 0b 3e a9 0d b9 3d
       -0.037896357 -0.24862817 0.13617572 0.090358086
000180 89 0b 0b be a5 70 90 be d3 ae 30 3e fc 62 4d 3d
       -0.13578619 -0.2821094 0.1725419 0.050143227
000190 e3 c5 11 be 3f cf dd bd fa dc 81 3e db d7 b9 3d
       -0.14235644 -0.10830545 0.25363904 0.09074374
0001a0 0a d8 ea 3d a8 4c d8 bd ef 44 51 3e e5 14 64 be
       0.114669874 -0.10561496 0.20436452 -0.22273596
0001b0 65 61 84 3e e7 b3 e7 bd c0 4d 16 3e a2 ae 3a bd
       0.25855556 -0.113136105 0.14678097 -0.0455767
0001c0 f1 bf 08 be e7 14 1e 3e e8 38 5c 3e db 6f 10 bd
       -0.1335447 0.15437661 0.21506083 -0.035262924
0001d0 10 18 d6 bd c4 d1 2e be b5 68 42 be cd 0a 00 be
       -0.10453808 -0.17072207 -0.18985255 -0.1250412
0001e0 fd c8 d6 3c a7 ad 54 3e 5c 2a 86 be 9c da 79 3e
       0.026218886 0.20769368 -0.26204193 0.24399799
0001f0 cf a9 94 bc 57 8d 22 3e 64 9e 50 be f5 db 8b 3e
       -0.018147377 0.1587423 -0.20372921 0.2731625
000200 c6 c4 1d be bf 2b 0c 3e 03 b1 12 3e b5 31 e6 3d
       -0.15407094 0.13688563 0.14325337 0.112399496
000210 5d 9a 80 3e 33 69 b4 3c 8c ee 5d 3e fa bb a7 3d
       0.2511777 0.02202282 0.2167303 0.081901506
000220 79 db 2d 3e 4b 26 b9 3e 20 5a fd bd 7f 1f a3 3e
       0.16978253 0.36162028 -0.123707056 0.31859967
000230 e1 d8 04 3e 19 84 32 be 6a 5f 50 3e 5c 76 68 3e
       0.12973358 -0.17433204 0.20348898 0.227014
000240 55 81 2e 3e 53 50 16 be 92 61 03 ba db ba 4b be
       0.17041524 -0.14679079 -0.00050117925 -0.19895498
000250 45 05 9f bd 98 7a ee 3d 13 14 71 bd a3 e0 ac bd
       -0.07764677 0.11644477 -0.058857035 -0.084412836
000260 b3 b1 0d be 4f 02 e1 bd 1d b1 fc 3d 39 46 50 3e
       -0.13837318 -0.109867685 0.12338469 0.20339288
000270 8c b7 05 be d9 ac cb bd e2 85 9c 3d c7 6d b2 bd
       -0.13058299 -0.099450774 0.076427236 -0.087123446
000280 b0 61 9e 3c 16 53 1e be c3 bf 39 be ad b6 67 3e
       0.01933369 -0.15461382 -0.18139558 0.22628279
000290 11 15 6e 3e 21 21 54 3e 01 d5 e4 3d d3 76 4c be
       0.23250224 0.20715763 0.1117344 -0.19967203
0002a0 a9 be e6 3c bd 3a c3 bd c7 4d 13 be 0d 61 8e 3d
       0.028167086 -0.09532688 -0.14385138 0.06952105
0002b0 68 6f e7 3c 7e 31 1b 3e 01 2a 7d bd 1a 71 9e 3e
       0.028251365 0.15155599 -0.061807636 0.30945665
0002c0 9b 34 96 3e d7 70 ea 3d 0b e1 38 3d 2b 9a 3f bd
       0.2933701 0.11447304 0.045136493 -0.046777885
0002d0 2f 7a 3e 3d 64 d4 4a 3e 88 cd c5 bd 9f f1 19 bd
       0.046503242 0.19807583 -0.096583426 -0.037583943
0002e0 cd 91 44 3e 70 ac 5c be e7 c6 aa 3c ce 91 17 3e
       0.19196244 -0.21550155 0.020846797 0.14801714
0002f0 19 ff ad bd 4e e3 4e be c8 bb 04 be 26 8c df bd
       -0.08495922 -0.20203897 -0.12962258 -0.10915403
000300 0c c5 f1 bb c0 49 4f be 11 f0 a5 3d 0a 1b 82 be
       -0.007378226 -0.20242977 0.0810243 -0.25411254
000310 41 b4 a0 3c 39 26 4e be 86 fb 04 3d 82 cf 7a be
       0.019617202 -0.20131768 0.032466434 -0.2449322
000320 6d ed 0c 3e 6a 9e 58 be 59 4d 58 3e 2e ed 1a be
       0.13762446 -0.2115418 0.21123256 -0.1512954
000330 2a 9d fb bd 7d f7 26 bb e6 78 d7 bc 0b 12 09 3e
       -0.12285836 -0.0025477104 -0.026302766 0.13385789
000340 ba 91 b1 3d 4a 0d bb 3d e0 b9 64 bc 60 bd a4 bd
       0.08670373 0.09133394 -0.013960332 -0.08043933
000350 21 f8 2d be 72 ff 31 3e 62 09 60 bd d3 52 70 be
       -0.16989185 0.17382601 -0.05469645 -0.23469095
000360 12 d1 59 be 65 4e af bc 1e 56 27 3e 75 ab 8d 3e
       -0.2127116 -0.021399686 0.16341445 0.27669874
000370 f3 98 0e be c6 76 d0 bd b0 0d ac bd 4a da d3 3d
       -0.13925533 -0.10178904 -0.08401048 0.1034437
000380 10 e0 14 3e 7c 4e 98 bc 32 1e d6 bd c4 98 40 3e
       0.14538598 -0.018592112 -0.10454978 0.18808275
000390 ca 92 6a 3d 7f 32 05 bd 60 98 3f 3e a4 b7 4b be
       0.057268895 -0.03251886 0.1871047 -0.19894272
0003a0 6b 7e ae 3c 52 9d 65 3e 79 7a 36 be 51 43 21 be
       0.021300515 0.22423294 -0.17820157 -0.15748335
0003b0 4a ae 17 3e 79 dc ef bd ab 4d 36 3d d0 8e 0f 3e
       0.1481258 -0.11711974 0.044507664 0.14019322
0003c0 74 b3 76 3d 0b 12 e2 bd 5b b1 52 bd 8d f2 66 bd
       0.060229734 -0.11038598 -0.05143867 -0.05638366
0003d0 0d fa 9e 3e 65 fb 84 3e 6a df 29 be c3 04 94 bd
       0.3105015 0.2597305 -0.16589132 -0.07227471
0003e0 78 94 dc 3d 49 e9 ee 3c 6d fd 42 be 07 55 61 be
       0.10770506 0.029163973 -0.19041987 -0.22005092
0003f0 91 3e 03 3e 50 e2 af bd f0 98 96 bd a4 61 ca 3d
       0.12816836 -0.085880876 -0.07353389 0.09881905

layers.0.lin_l.weight f4 [1024, 14]
000000 77 fe da 3d e1 81 bf bd ce 5c 52 3e f0 a5 0c be
       0.106930666 -0.09350944 0.20543215 -0.13735175
000010 a3 f5 56 3d ac b6 9c 3d 16 cc ad bd 8b 8c c7 bd
       0.05248035 0.076520294 -0.08486192 -0.09743603
000020 87 e8 c3 3d 89 ed 04 3d 8d 38 18 bd 52 ef 4d bd
       0.095658354 0.032453094 -0.037163306 -0.05027706
000030 34 a5 8f be f2 37 64 3e b2 86 24 3e c8 c3 24 3e
       -0.28055727 0.22286966 0.16067007 0.1609031
000040 57 20 24 3e eb c6 3e 3e c6 e9 8d 3d 29 07 0d 3e
       0.16027962 0.18630569 0.06929354 0.13772263
000050 e3 97 b8 bd 08 cb c5 3b 41 29 37 3c da 5b 06 3e
       -0.09013345 0.006036166 0.011179269 0.13120976
000060 6a 43 1b 3e 01 7c 6c be 12 52 c0 bd bf d6 10 3e
       0.15162435 -0.23094179 -0.09390654 0.14144419
000070 5b 0e 8d bc 14 b3 55 3d 5b 2a 85 be e1 a4 87 3d
       -0.01721876 0.052172735 -0.26008877 0.06623245
000080 42 b3 95 bc ea 9a 00 3c ec de 8c 3d 66 a3 e5 bd
       -0.018273953 0.007849434 0.068784565 -0.112128064
000090 fd f6 f7 3d 86 c3 59 be c8 db 8e 3d ab 61 ba 3d
       0.12107656 -0.21265993 0.06975514 0.0910066
0000a0 2f de 15 3d 28 be 96 bd 93 cb 2d 3e bd 9b 5e 3e
       0.036588844 -0.07360488 0.16972189 0.21739097
0000b0 f1 ba 5b 3e 80 03 63 3d de 37 ca 3c ad d3 e0 3d
       0.21458031 0.05542326 0.024684843 0.10977874
0000c0 58 fd 5d be 16 37 14 be ee 99 29 be 94 f9 86 3e
       -0.21678674 -0.14474139 -0.16562626 0.26362288
0000d0 20 33 18 3e 15 da 2f be ab ae c0 3d bd 61 eb 3c
       0.14863253 -0.17173035 0.09408315 0.028733129
0000e0 fd 8a de bd 81 73 a2 3d d8 09 5a be b6 f2 3e bf
       -0.10866354 0.07932187 -0.21292818 -0.745891
0000f0 47 b4 85 3d 13 80 b6 bd 76 71 0b be ce d4 be 3d
       0.06528526 -0.08911147 -0.136175 0.09317933
000100 81 38 ef bd 54 36 1a 3e f3 00 79 bd bd 0d 5b 3d
       -0.11680699 0.15059787 -0.06079192 0.0534799
000110 2e 09 cd 3b e7 31 a9 3c c5 6e 6c bc f5 ec 05 3d
       0.006257198 0.020653678 -0.014430706 0.032696683
000120 59 3b 52 3e 60 aa 56 be 85 40 2a 3d 63 29 f6 3d
       0.20530452 -0.2096343 0.041565437 0.12019613
000130 17 ce c0 bd b0 3d 1e bd e7 d2 c5 3c ae c3 d1 3d
       -0.094143085 -0.03863305 0.024148418 0.10242401
000140 78 3d 2c bd 9b 55 fb bd 6a 30 3b be 17 8b 58 3e
       -0.04205081 -0.12272187 -0.18280187 0.21146809
000150 d5 af ab 3d d1 ca dc 3d 8b 2b 9c 3e de e2 50 3e
       0.08383147 0.10780872 0.3050197 0.20399043
000160 e0 00 82 3d 6c af 85 bc 84 b1 cd bd 6c 06 1b bc
       0.06347823 -0.016319 -0.10043624 -0.00946198
000170 5c 4f b4 3c ce 4a d9 3d c1 14 2a 3e 7a 41 05 be
       0.022010498 0.10609971 0.1660948 -0.13013259
000180 52 a1 7f bc 5d d1 10 3e f1 a5 6e bd 31 ce 20 3d
       -0.015602427 0.14142366 -0.058263723 0.03925914
000190 e8 3b bb 3e e4 fa 74 3d f0 e4 31 3c 26 b3 12 bd
       0.36569142 0.05980958 0.010857806 -0.03581538
0001a0 a7 b1 21 be 9f 0d 16 3d 90 40 81 bd 9a 54 9b 3d
       -0.15790425 0.036634084 -0.063111424 0.07584496
0001b0 2b 0d 6b 3d 0f 65 13 be 4b c2 c7 3c e2 cb 74 3d
       0.057385605 -0.1439402 0.024384638 0.05976475
0001c0 f9 f8 c3 3d cd 5d 3a 3e 7e 14 12 3e 53 14 a4 3d
       0.09568972 0.18199845 0.1426563 0.08011689
0001d0 06 05 2a bd e8 59 d6 3d aa df ea bd 1b db 6b bd
       -0.041508697 0.10466367 -0.11468442 -0.057582002
0001e0 bd bb a5 bd 56 24 1d 3e fc 2b e7 3d ab f2 07 be
       -0.08092449 0.15345892 0.11287686 -0.13276164
0001f0 94 e8 98 3d fe 24 14 3e 61 bb 50 be 5f b8 16 3e
       0.07466236 0.14467236 -0.2038398 0.1471877
000200 1f 94 64 bc b6 4c ca be cc 14 b5 bc a6 45 e0 bd
       -0.01395133 -0.3951165 -0.022104643 -0.109507844
000210 67 89 42 ba 11 e2 eb 3d 7f 72 8f 3d bb 0b 04 be
       -0.0007420987 0.11517728 0.0700426 -0.128951
000220 f0 7b bc 3d b8 b1 29 be 7d 6d b1 3c a3 50 ae 3e
       0.09203327 -0.165717 0.021658653 0.34045896
000230 aa 2a 15 be aa a0 8b bd 22 da 07 be 6c d7 b1 3c
       -0.14567056 -0.068177536 -0.13266805 0.021709166
000240 64 d6 38 3d 64 1e 1e 3e d5 f9 24 bd 43 7e 86 be
       0.045126334 0.1544128 -0.04027732 -0.26268205
000250 5e 73 03 3d 52 c5 d5 bc 77 66 69 be 7d 4e 23 3d
       0.032092445 -0.026095066 -0.22792993 0.039869774
000260 37 bc a3 3d df e8 39 3d a9 a7 01 bd 92 bb bf bd
       0.079948835 0.0453881 -0.031654034 -0.09361948
000270 09 6f 52 3e e2 28 64 be d5 d6 96 bd 59 52 d3 bc
       0.20550169 -0.2228122 -0.07365195 -0.025796102
000280 c9 3c ce bd f7 33 a1 3d 5d 7c 16 bc 66 56 92 3d
       -0.100701876 0.0787124 -0.009184924 0.071453854
000290 47 cf 1f bd 69 9b 29 be d5 87 f4 bd f6 79 48 3e
       -0.039016034 -0.1656319 -0.119399704 0.19577774
0002a0 5b 1a d0 bd 2b 71 86 3d d9 12 94 bd 4a 47 cc 3c
       -0.10161277 0.06564554 -0.072301574 0.024936337
0002b0 4d 23 c9 3b f3 5c 8d 3d f4 e7 17 3e 54 b1 5a bd
       0.0061382414 0.06902494 0.14834577 -0.05339177
0002c0 c9 91 d4 3d 94 35 24 be 6f 11 50 3d ea 22 7d 3d
       0.10379369 -0.16036063 0.050797876 0.061800875
0002d0 55 a7 b7 bd 88 81 63 bd 3e 28 03 3e 29 17 48 3e
       -0.08967463 -0.055543453 0.1280832 0.19540085
0002e0 59 1b 8a 3e 5f 40 ae bd 46 05 b1 3d 6a 8d 71 bd
       0.2697399 -0.085083716 0.08643584 -0.058972754
0002f0 29 48 54 be c4 cd 27 bc 26 3b 9c bc fc a3 96 3d
       -0.20730652 -0.010241929 -0.019071173 0.07355496
000300 f3 65 0b 3e 6c b6 21 be 9e 40 f6 3c 3f 98 20 3e
       0.1361311 -0.15792245 0.030060109 0.15683077
000310 6e 0a 72 3d e2 c2 47 3e 9f c7 f9 3d f3 63 42 be
       0.059091978 0.19507936 0.12196278 -0.1898344
000320 9d f7 d7 3c c2 39 c5 3d 65 05 6d bd a4 49 43 be
       0.026363188 0.09630157 -0.057866473 -0.1907106
000330 23 4b 3f bd 25 f7 b2 3d b1 0e 62 3d 6c 6c ed bd
       -0.046702515 0.08738545 0.055189792 -0.115929455
000340 a8 c3 25 3d 90 d2 97 3c 84 65 66 bd 65 9e 86 be
       0.040469795 0.018533021 -0.056249157 -0.2629272
000350 04 00 15 bc f4 b9 aa 3d 29 a4 53 bc e5 81 1c be
       -0.009094242 0.08336249 -0.012917557 -0.15283926
000360 bf b1 86 bd 0a 67 81 3d 52 4f e9 bd 5d 6b f6 3d
       -0.06576871 0.06318481 -0.11392082 0.12032197
000370 b6 fc 2e be ce 68 92 3d 35 8c f7 3d a2 65 0a bd
       -0.17088589 0.07148896 0.12087289 -0.03378833
000380 70 7a 57 bd 4a 20 d5 3c b4 c8 01 be b5 56 2d 3d
       -0.052607 0.026016373 -0.12674218 0.04231902
000390 01 88 fd 3b 49 12 f8 3d da 20 83 3d b4 7e e6 3c
       0.00773716 0.121128626 0.0640275 0.028136589
0003a0 2e c6 82 3d 3b 1d d0 bc ef 84 8b bc 14 b6 6b 3d
       0.06385456 -0.025404563 -0.017031161 0.05754669
0003b0 a1 27 c7 bd d6 3e 7f 3d f1 7d 1d be d1 f0 82 bc
       -0.097243555 0.062315784 -0.15380074 -0.01598397
0003c0 4e 13 07 3e 44 8e 43 3e b7 d7 05 3e 32 02 24 be
       0.13190958 0.19097239 0.1307057 -0.16016462
0003d0 58 d3 d2 bd df 1c 98 3d f8 d1 6f 3d 39 eb b4 bd
       -0.10294217 0.07427382 0.05854985 -0.08833928
0003e0 2f 21 66 3d d5 55 03 be 52 3d fd bb 6c ea 02 3e
       0.05618399 -0.12825711 -0.007728257 0.12784737
0003f0 06 e4 ca 3d 66 c9 31 bd a2 08 3e be 63 da 89 3d
       0.09906773 -0.04340496 -0.1855798 0.06731107

layers.0.lin_r.weight f4 [1024, 14]
000000 98 29 99 be 5b 60 8c bd 66 2c a9 3d bd 82 48 be
       -0.29914546 -0.06854316 0.082604215 -0.19581123
000010 0a d0 38 be 77 04 12 3d 38 a9 e1 3c 80 25 03 3e
       -0.1804811 0.03564879 0.02754651 0.12807274
000020 ae f5 22 be a5 db 8e 3d 87 2b 1d be 3e ac 53 bb
       -0.15914032 0.069754876 -0.15348636 -0.003229871
000030 63 ae c3 3d 04 4b 76 3d 0f 92 63 be c0 27 0d be
       0.09554746 0.060130134 -0.22223686 -0.13784695
000040 1b 69 be 3d d5 c3 98 bd 4f a8 21 3e 41 f2 62 bd
       0.09297391 -0.07459227 0.15786861 -0.055406813
000050 5e 15 55 be c5 87 13 be 26 03 d0 3c ad 63 2d bb
       -0.20808932 -0.1440726 0.025392126 -0.0026457116
000060 8b d0 96 bd c0 3c 2d 3e e5 05 39 bc f2 9b 8d 3d
       -0.07363995 0.16917706 -0.011292909 0.0691451
000070 d0 64 64 be 08 12 35 be 7b 22 ea 39 a4 d0 53 be
       -0.22304082 -0.1768266 0.00044657648 -0.20685059
000080 72 68 62 be 34 47 53 3e 2e 10 e3 3d cc 2e aa bd
       -0.22110155 0.2063263 0.110870704 -0.08309707
000090 32 50 6f be d3 cf ba 3d 53 07 cf be b9 9e 9b 3d
       -0.23370436 0.091216706 -0.40435275 0.07598633
0000a0 94 4d 0a 3e 73 99 ae 3c 4e 2c 4a 3e 6e ec c8 3d
       0.13506156 0.021313405 0.19743463 0.098107204
0000b0 fc a3 c0 3a 9b 21 bc 3e 82 b6 b5 3d 88 48 92 bd
       0.0014697309 0.3674439 0.08872701 -0.071427405
0000c0 a0 36 ae bc d3 9c 92 3d fe ed 40 3d 7f c6 cb bd
       -0.021266282 0.07158818 0.047101967 -0.099499695
0000d0 23 1b 01 3e 3c ef 6f 3b 3c 63 70 be f6 6e 1d be
       0.12608008 0.00366111 -0.23475355 -0.1537436
0000e0 cd 64 6f 3e 17 d7 f8 3d 84 a3 16 be 0e 1f 28 3e
       0.23378296 0.121504 -0.14710814 0.16418096
0000f0 29 84 e8 3d 68 dc fb 3c 87 3d 02 3c 0a 6b a5 3d
       0.113533325 0.030744746 0.00794924 0.08077057
000100 ef f4 51 3e dc e3 05 be c2 c7 96 3e 32 b5 16 bd
       0.20503591 -0.13075203 0.29449278 -0.036793895
000110 5e 76 ac 3d 52 71 09 be d8 14 33 be a0 98 82 be
       0.08421014 -0.13422135 -0.1748842 -0.2550707
000120 2f 71 87 bc 37 21 24 3c 47 24 be bd 9e d2 e0 bb
       -0.016533462 0.010017685 -0.09284263 -0.006861045
000130 85 a2 cc 3d e6 8d 0d 3e 53 8f ab bd 8c bd 0f be
       0.09991936 0.13823661 -0.08376946 -0.1403715
000140 f5 44 dd bd 8e 9b e2 3b 21 6d f4 3d 27 ce 18 3d
       -0.10804168 0.006915516 0.11934877 0.037305977
000150 b7 1d 6f 3e e7 39 86 3e 47 67 86 3c a2 b4 55 bd
       0.23351179 0.2621605 0.016406668 -0.052174218
000160 4a 28 a8 3c 63 c7 a8 bd 83 c7 99 bd 25 a2 24 3a
       0.020527024 -0.08241155 -0.07508757 0.0006280265
000170 62 97 1a 3e 02 94 b8 bd 1a 82 2e 3e ee 91 99 bd
       0.1509681 -0.09012605 0.17041817 -0.07498537
000180 a2 dd 10 be d2 22 37 bd 4d 21 02 be 48 2e 18 bd
       -0.14147046 -0.04471094 -0.12708016 -0.037153512
000190 03 af 0f 3e fe 45 77 be 21 bf c0 3d 41 7c e2 3d
       0.14031605 -0.24147794 0.09411455 0.11058856
0001a0 14 c1 79 bd 17 2b ac bd b1 c2 3b 3d 78 e2 20 bc
       -0.06097515 -0.08406656 0.04583997 -0.009819619
0001b0 df 90 6e 3d 87 b0 de 3b 00 1a de bd ef 81 5a bd
       0.05824363 0.006795946 -0.10844803 -0.05334657
0001c0 dc ad 86 3e eb 6c 72 3e d8 8f 9e 3d 5e 28 85 3c
       0.2630452 0.23674361 0.0774228 0.0162546
0001d0 27 ec f6 3d 37 f1 56 be eb 31 ac bd 28 74 70 3d
       0.12056761 -0.20990454 -0.084079586 0.058704525
0001e0 b0 c8 99 3d 9e 35 35 bd 8b bc 49 3e f5 57 c6 bd
       0.07508981 -0.044240586 0.1970083 -0.09684745
0001f0 3d 2b ef 3a c4 b2 78 3e 12 bd 0f 3d af 17 fa bd
       0.0018247139 0.24286944 0.03509242 -0.122115485
000200 9e 9c a2 3d 94 94 05 be c5 76 d3 bd 93 85 51 3e
       0.079400286 -0.1304496 -0.10325388 0.20461111
000210 3b c2 88 3c a9 e8 74 3c 17 d0 64 be 95 fc 2d 3e
       0.016694179 0.014948049 -0.22345005 0.16990884
000220 3d cf 96 be 66 0b 54 3e 53 cd 1d bd b9 8f 0b 3e
       -0.29454985 0.20707473 -0.03852589 0.13629045
000230 13 aa 6e bd c3 85 c3 bd 1b 61 e5 3d cc 87 d1 bb
       -0.058267664 -0.095469974 0.11200162 -0.006394362
000240 b5 09 19 3e 8b dd 07 be 6d ec c9 bd 86 da 19 3d
       0.14945109 -0.13268106 -0.09859548 0.037561916
000250 57 6c 95 3b 6c 2b f5 3c cf 69 88 3c 73 83 c5 bd
       0.0045600343 0.029927932 0.016652016 -0.096442126
000260 34 80 33 3d 6a db 09 3e a2 fc e1 bd 6a 4d a3 be
       0.043823436 0.13462606 -0.11034514 -0.31895
000270 d9 25 0f 3e dc e1 76 bd db 69 c5 3d 47 ec 1f 3e
       0.13979281 -0.06027399 0.09639331 0.15617476
000280 8d e3 28 bd a1 bf a1 bd b8 83 15 be 97 8c 14 3e
       -0.041232634 -0.078978784 -0.14601028 0.14506756
000290 80 bd 0e be 9a 3e b0 bc 42 7e 49 bd e4 13 e7 3c
       -0.13939476 -0.021514226 -0.049192674 0.028207727
0002a0 b0 62 b2 3d 50 d2 82 bd 19 4b 5a bd 0b ca 09 3e
       0.087102294 -0.0638777 -0.053294275 0.1345598
0002b0 f0 43 bd 3c 7e e8 25 bd e4 35 a3 bd 72 de 31 bd
       0.023103684 -0.040504925 -0.07969263 -0.04342503
0002c0 45 cb 03 3d 1d e0 0c bd 7c 0e 4e bd eb fb 4a bd
       0.032176275 -0.03439342 -0.050306782 -0.049556654
0002d0 e1 35 f4 bd 30 0c 66 bd 0d d3 71 bd fc 60 7f bc
       -0.11924339 -0.056163967 -0.059039164 -0.015587088
0002e0 1c d5 14 be a7 29 1c 3d 7f 5a 49 bd 71 3a b9 3d
       -0.1453442 0.03812566 -0.04915857 0.0904435
0002f0 d2 58 c7 3d 09 2b 4a bd 6f 89 fe bc 2d 9c b2 3c
       0.09733738 -0.049357448 -0.031071393 0.021802986
000300 34 b3 58 bd 66 37 ab 3d 10 66 93 bd 31 3a 0c 3e
       -0.052905276 0.08360176 -0.07197201 0.13694073
000310 8f e8 ad 3d 9b 86 38 3e bd 9f a1 bd b4 22 bf 3e
       0.08491623 0.18020098 -0.07891796 0.37331164
000320 99 97 d9 3d cb bc fd bd 31 a8 d7 bd f0 20 0c be
       0.10624618 -0.12389525 -0.10530127 -0.1368444
000330 2f 8d 08 3c 37 ec 47 3c 07 66 51 3e a8 06 00 be
       0.008334442 0.012202314 0.20449077 -0.12502539
000340 23 81 3f bc e4 58 cc bd 64 a8 2c bd 61 e5 75 3d
       -0.011688503 -0.09977892 -0.042152777 0.060033206
000350 ba e4 d7 bd d2 bd 7a bc 04 9b 30 be d9 f4 cf bd
       -0.10541673 -0.015304046 -0.17246634 -0.10154123
000360 10 90 87 3e d4 6e 55 3e 5a d8 10 bc 65 53 4c be
       0.26477098 0.20843059 -0.008840645 -0.19953687
000370 28 03 3a 3d 5e 98 90 bd a0 bf 1e 3e 2c 56 ef bd
       0.045413166 -0.07060312 0.15502787 -0.11686358
000380 9f 8b 86 3d fd f1 fc 3d f9 75 2e 3b c5 ab bd 3c
       0.06569599 0.12350843 0.002662061 0.023153195
000390 b3 bf 7f 3e 6d d8 02 be fc 08 8b bd 2b 32 41 be
       0.24975471 -0.12777872 -0.06788823 -0.18866794
0003a0 ee a8 8e 3e 09 4b 7b 3c a9 f4 3c 3e 07 9b 66 3d
       0.27863258 0.015337714 0.18452705 0.05630019
0003b0 2d 60 d0 bd 57 b5 1c bd 2f 56 78 3d f3 67 11 3a
       -0.10174594 -0.038258877 0.060629066 0.00055468007
0003c0 a4 f8 09 3d 44 2f 2c 3e d5 67 da 3d e9 46 64 3d
       0.033684388 0.16814905 0.10664336 0.055731688
0003d0 fc c5 45 be ed 07 72 3c a3 37 85 3d 07 2a 96 3d
       -0.19313806 0.0147723975 0.065047525 0.07332235
0003e0 73 d8 37 bd c0 dc 28 bd ee 45 9b 3d 92 33 dc bb
       -0.044884156 -0.04122615 0.075816974 -0.006720015
0003f0 8d 16 fa bd 52 93 ff bd 9d b7 4b bb 91 c7 48 be
       -0.122113325 -0.12479271 -0.0031084784 -0.19607379

layers.0.lin_edge.weight f4 [1024, 4]
000000 51 a4 5b 3d 29 d4 20 3e 08 2b 00 3d d8 0d dd 3d
       0.0536235 0.15705933 0.031291038 0.10793656
000010 86 83 46 3d e5 0d 4c 3d d9 3c de 3c 1f 57 27 3d
       0.048465274 0.04981794 0.027128624 0.04085457
000020 42 fd 3f 3d 42 7f 41 3e 4e 94 56 bd bd 13 c3 3b
       0.046872385 0.18896201 -0.052387528 0.0059532807
000030 39 14 af bd aa 3e 83 3d 7f 1e c5 3c b2 4c 6b 3d
       -0.08548779 0.064084366 0.024062393 0.05744619
000040 0a 74 a5 bd 39 8e 0d be ab 77 06 bd 24 5d 18 3e
       -0.08078773 -0.13823785 -0.032828968 0.1487928
000050 4d b8 1b 3d a6 2e 05 3e 28 65 18 bb c1 ac 8e 3d
       0.03801756 0.13006076 -0.0023253653 0.06966544
000060 cd e1 0b be c9 e0 4d 3c ad 09 81 bc 2b 2c e3 3d
       -0.13660355 0.0125658 -0.015751684 0.11092409
000070 32 9f c9 3c 59 5e ce 3d 5a cb 13 3d 64 f4 f8 3c
       0.024612043 0.10076589 0.036082603 0.030389972
000080 66 bd 9c bd 2a f7 33 3c 72 1f b4 3b 08 e9 60 3d
       -0.076533124 0.0109842215 0.0054969126 0.054909736
000090 20 1a 87 3a 2b ac 7a bd cd b0 52 3c f3 a7 41 bd
       0.0010307468 -0.06119935 0.012859535 -0.04727931
0000a0 65 03 d2 3c b3 a0 db bd 05 02 d3 3d 37 ca 5e bd
       0.025636384 -0.1072401 0.103031196 -0.054392066
0000b0 5b 42 77 3d bd b4 2d 3d 70 85 cb 3c 00 d5 ec 3b
       0.060366016 0.042408694 0.024843901 0.00722754
0000c0 ad 26 98 bd b1 40 14 bd 3e 39 06 3d b3 36 c1 bb
       -0.07429252 -0.036194507 0.032769434 -0.0058964132
0000d0 20 8b fc bd 03 2d b3 3c 62 22 ff 3d 1a 6e 50 bd
       -0.123312235 0.02187205 0.1245773 -0.05088625
0000e0 c2 4e 48 bd 3d 6a 7b 3e 58 ac 83 bd c8 a3 96 3c
       -0.048903234 0.24552245 -0.06429356 0.018388644
0000f0 62 02 00 bd d2 8a 5f bd 1b da 97 bd 98 26 54 be
       -0.031252272 -0.05457575 -0.07414647 -0.20717847
000100 0a 1b cb 3c 49 31 00 3e 76 14 75 3d 5f 3a a5 3d
       0.024793167 0.12518801 0.059833966 0.08067774
000110 54 99 a0 3d ef 5d 46 bc b5 fe dc 3c 27 31 8a bc
       0.07841745 -0.012107356 0.026976923 -0.01686914
000120 bf 1e 27 3d 24 c0 cb 3d e6 32 05 be 9e 87 1c 3c
       0.040800806 0.09948757 -0.13007697 0.009553818
000130 d8 81 97 bd 41 2a 24 3d 3d 44 d0 3c 14 27 86 3d
       -0.073978126 0.04007936 0.025423164 0.06550422
000140 75 12 70 bd 91 b8 47 bd d1 cd 29 bd 54 7d 0d be
       -0.058611352 -0.04876 -0.041456047 -0.1381734
000150 97 8a af bd 4a eb 13 be 87 9a a7 bd 59 63 c1 3d
       -0.08571356 -0.14445224 -0.081837706 0.09442777
000160 a0 5a ad bd 1a fe a4 3d b2 c8 05 3d b4 e4 88 3d
       -0.08464551 0.080562785 0.0326621 0.06684247
000170 ae 0d 3e 3d 0d ab 72 3e ad 3f 2b 3e e8 f0 b0 bc
       0.046399765 0.23698063 0.16723509 -0.021599248
000180 40 de 88 bd ce 2c 17 be b0 64 8e bd 19 7f 8f 3d
       -0.06683016 -0.14763185 -0.06952798 0.07006664
000190 ca 26 d6 3c f4 fd 81 be 93 00 0b 3e fc 9a 83 be
       0.026141543 -0.25389063 0.13574438 -0.2570418
0001a0 61 ea 8f 3d 56 1b 7f be 81 39 01 3e 64 0f 69 bd
       0.07027126 -0.24912772 0.12619592 -0.056899443
0001b0 7c 21 43 bd 04 cf 0f be 43 d1 fc bd b1 b8 07 3e
       -0.047639355 -0.14043814 -0.12344601 0.13254048
0001c0 f8 2a 23 bd 3f ce a2 3b a6 e0 25 bd fd 6c 1b be
       -0.0398359 0.004968434 -0.040497445 -0.15178294
0001d0 1a 4f 70 bd 3b 12 fe bd 86 fc 7b 3c 51 d0 17 3e
       -0.058669187 -0.12405821 0.0153800305 0.1482556
0001e0 c7 05 c6 bd d2 8d 27 bc cd 8f 24 3d 8b 07 fe bb
       -0.09669071 -0.010226684 0.0401762 -0.007752364
0001f0 1a be 5d 3d 6c 0c 8f 3d e6 a8 3e 3e 9e 16 ec 3b
       0.054136373 0.06984791 0.18619117 0.0072048446
000200 17 4d 7b 3d c2 b6 8d bd e4 48 be 3d 32 01 b8 bd
       0.061352815 -0.06919624 0.092912465 -0.08984603
000210 a3 cf 3c be c7 19 ee 3d 48 df d5 3d 1f e0 8b bc
       -0.18438582 0.116260104 0.10442978 -0.017074643
000220 1f e1 3a bc c9 0a d8 3d 00 85 03 3d a2 62 99 3d
       -0.011406212 0.10548932 0.03210926 0.07489516
000230 9a d0 32 bd d8 fe 6e 3e 0b 90 e3 bd 2c e6 e5 bc
       -0.04365597 0.23339403 -0.111114584 -0.028063856
000240 73 b9 47 3c fc c5 0f be ba 5e e8 3b 40 92 c1 bd
       0.012190211 -0.14040369 0.0070913704 -0.09451723
000250 d5 66 9c 3d 45 c8 be bd 85 44 ba 3c 4e 47 1d be
       0.07636801 -0.09315542 0.02273775 -0.15359232
000260 92 93 0e be 66 ad 94 3c 2d d3 99 bc 19 4d 8d 3d
       -0.13923481 0.018149089 -0.018777454 0.06899471
000270 42 ea 0a bd ed a8 5a be af 17 53 3d a1 0c f6 bd
       -0.033914812 -0.21353503 0.05153626 -0.120141275
000280 fc 8a 57 bd 6f c2 2c bd 53 4a 60 3d 58 ad 2b bd
       -0.05262278 -0.042177614 0.05475838 -0.04191336
000290 2e 5b 34 bd d5 5a c3 3e 6e 8d 29 bd a9 36 e7 bd
       -0.04403227 0.38155237 -0.041394643 -0.112897225
0002a0 e8 49 25 bc 72 43 04 3e 78 ad 8f 3d 79 15 5a 3d
       -0.010088421 0.12916353 0.070155084 0.053243134
0002b0 95 ca a5 3d b0 7b 6f bd da 73 00 3e f3 4f db bc
       0.0809528 -0.058467567 0.12544194 -0.026771521
0002c0 b9 dd ae 3c a4 79 96 bd 21 61 81 bd 93 4b 5e 3d
       0.02134596 -0.0734742 -0.06317354 0.054271292
0002d0 98 7a bc 3b 98 17 0b 3d 6e 5f f1 bd a5 2a 83 3c
       0.005751919 0.033958048 -0.1178578 0.016011545
0002e0 89 c0 a3 bc ef 71 8e be 3a 92 a6 3d 1e 4a a3 3d
       -0.019989269 -0.278213 0.08133359 0.07973121
0002f0 e8 d8 37 3d 5b 06 c4 3d b7 6e 3f 3c 75 24 53 3b
       0.044884592 0.09571525 0.011684111 0.0032217775
000300 57 12 4f 3d 76 d2 a6 3d 0b c4 fd 3d f2 85 4f bd
       0.0505546 0.08145611 0.12390908 -0.05066485
000310 a6 f9 2a bd e3 27 ac 3e 20 b9 54 bd 4e 90 a2 bd
       -0.04174199 0.3362418 -0.05193436 -0.0793768
000320 63 38 78 bd 6a 67 a3 bc da cc 77 3d 69 6c e0 bd
       -0.06060065 -0.019946773 0.060498096 -0.109581776
000330 1d ed 93 3d 78 d7 a2 3c 82 ca e5 3d f8 ed 85 bd
       0.0722296 0.019878134 0.11220266 -0.065395296
000340 c2 3e 39 bd 22 c1 9f be 7d e2 83 3d 2c 8a 67 3e
       -0.045225866 -0.31202036 0.064396836 0.22611302
000350 b3 de 45 3d 89 2e bf 3d 59 dd 16 3e bf f4 14 bd
       0.048308086 0.09335048 0.14732875 -0.03636622
000360 02 0c 8b 3c 37 2b 01 be 69 6f 3e be b2 47 04 3e
       0.0169735 -0.12614141 -0.18597187 0.12917975
000370 5e 2a 36 3d 3e a3 10 be 01 e2 e8 bc 9f 7d af 3d
       0.044474 -0.14124772 -0.02842808 0.08568882
000380 6e 88 18 be cd ab 0c 3d ad b7 24 3e f4 07 a5 3c
       -0.14895794 0.03434353 0.16085692 0.020145394
000390 d9 83 df bd 02 81 33 3d 4b a3 ee 3d 67 86 8b bd
       -0.1091382 0.043824203 0.116522394 -0.068127446
0003a0 3b 06 8c bd 5f 96 80 3d dd 03 af 3d 02 4c c5 3d
       -0.06837126 0.06278681 0.08545659 0.09633638
0003b0 84 1c aa 3d 9a bf c1 3d b3 df 1a 3e 87 95 9b bd
       0.0830622 0.09460373 0.15124397 -0.075968795
0003c0 bf ac a2 bd 96 29 18 be 67 c3 17 3e 8b 13 14 be
       -0.07943105 -0.14859614 0.14820634 -0.1446058
0003d0 5b 20 58 bd 24 9f c2 3c 8c 7d 4d bd 24 1c cf bd
       -0.05276523 0.023757525 -0.05016856 -0.10112789
0003e0 05 36 ae bd 5e 0e 0c 3e bd 40 c3 bb 96 2e 27 3e
       -0.08506397 0.13677356 -0.005958645 0.16326365
0003f0 85 27 6f 3c 6d c0 8d 3d 77 c4 11 3c 94 bc 40 3d
       0.0145968245 0.06921468 0.0088969385 0.047054842

layers.0.res.weight f4 [1024, 14]
000000 2a 64 1d 3e c9 20 ca bd 6e 51 15 be db b0 d4 3d
       0.15370241 -0.098695345 -0.14581844 0.10385295
000010 27 65 a9 3d e2 5e fb bb 25 cb ac bc a4 02 17 3e
       0.082712464 -0.007671223 -0.02109296 0.14747101
000020 cd 36 9d 3e 2e db 42 be aa 48 6a 3e 3b 7f 8d 3d
       0.30705872 -0.19028923 0.22879282 0.06909033
000030 d3 23 21 3b 20 0f b9 3e 79 40 3d 3d 3d f7 18 be
       0.0024588003 0.36144352 0.046204064 -0.14938064
000040 f6 56 1e be ca 56 15 bd 4f 0c 96 3d 94 52 27 3d
       -0.1546286 -0.03645972 0.073265664 0.040850237
000050 b3 f3 31 bd 53 2e d8 3c a5 dd b4 bd 16 96 ba 3d
       -0.0434453 0.026389277 -0.08831338 0.09110658
000060 6b 0f 14 be e3 a8 c8 ba 49 82 80 bc 1e 8c 6d bc
       -0.14459006 -0.0015309121 -0.015687125 -0.014498739
000070 59 9a 40 bd df 19 aa bd 95 24 5c bd 7b fa 29 3d
       -0.047022197 -0.08305716 -0.053745825 0.041498642
000080 03 65 47 bd 74 66 71 bd d9 a7 b6 3d c2 31 cf bc
       -0.048680317 -0.058935598 0.08918733 -0.025292281
000090 63 81 df bd d1 07 00 3d c3 ec 3b be e8 90 c3 3e
       -0.109133504 0.031257454 -0.18352036 0.38196492
0000a0 6d 86 8e be 7e 68 95 3c 42 0c 05 3e 52 d4 38 bc
       -0.27836934 0.018238302 0.12992957 -0.01128109
0000b0 6b df c2 bd 2d 79 87 bd fc 2e 95 3d fd 6b ea 3d
       -0.0951527 -0.06614909 0.07284352 0.114463784
0000c0 b1 3e a7 bd 0b c2 6d 39 a5 f7 bb bd ab d7 11 3e
       -0.08166254 0.00022674368 -0.09178094 0.14242427
0000d0 59 dc 60 bd bc 47 0c 3a ef ff ae 3d 28 57 2f 3e
       -0.05489764 0.00053512654 0.08544909 0.17123091
0000e0 41 87 79 3c a3 65 cd 3c c1 02 ff bd 60 94 09 3c
       0.015230001 0.025072878 -0.12451697 0.008397192
0000f0 1e 24 3d be bb 4e 84 3d 30 fb 19 3d 32 d7 f2 3c
       -0.18470809 0.06460329 0.037593067 0.029643629
000100 c2 f6 dd bd 68 ba d3 3d 59 6f b8 bd cf 73 35 bc
       -0.10838081 0.103382885 -0.09005613 -0.011074974
000110 d2 78 33 3e fc cf 62 3d f9 fb 43 3d 92 4c 7f bd
       0.17526558 0.05537413 0.04784772 -0.062328883
000120 f9 d9 db bd 0f 54 0d bd 91 a4 8f 3d e7 09 f8 bd
       -0.10734934 -0.034503993 0.070138104 -0.12111264
000130 59 3a a0 bd 4e 8e 48 be 9f c2 71 3b 34 70 ba 3c
       -0.07823629 -0.19585535 0.0036889685 0.02275858
000140 3b fa 05 be 2f 80 2c 3e 68 21 ae 3d ac 3a 99 bd
       -0.13083737 0.16845773 0.085024655 -0.07481894
000150 ff 3a 98 3d a1 37 77 bd 84 56 43 be 20 0a 5d bd
       0.074331276 -0.060355786 -0.19075972 -0.053964734
000160 73 bc b2 3c 3a 9a 30 bd f5 c2 0a be 15 df 01 3e
       0.021818375 -0.043115832 -0.13550933 0.12682755
000170 33 c8 12 bc be ad e1 3d 0e de 16 bd ee 3d 99 bc
       -0.008958864 0.11019467 -0.03683286 -0.018706288
000180 ec d8 00 3d af 36 30 bd 44 ee 3f 3d d0 29 56 bd
       0.031456873 -0.0430209 0.046858087 -0.05228597
000190 e8 1e 7a be 6d 9a 1b 3e 7b 10 a5 3d db c0 d3 bd
       -0.24425852 0.15195628 0.08059784 -0.10339519
0001a0 64 18 a0 bd ef d2 8e 3d 65 b9 82 bd da d5 05 3e
       -0.07817152 0.06973826 -0.063830175 0.13069859
0001b0 8f 29 c9 bd 78 d7 da bd 31 47 b8 bb 8b f6 af bc
       -0.0982238 -0.10685629 -0.005623721 -0.021479866
0001c0 ce 85 40 3d f2 04 ea bd 1d 08 1e be fb 11 8d bc
       0.047002606 -0.114267245 -0.15432782 -0.017220488
0001d0 23 74 1e 3d 79 23 0d bd a3 45 2c 3c a2 bc 22 3d
       0.038684975 -0.034457657 0.01051465 0.039730676
0001e0 5c 20 d9 bd 69 25 0d 3e cb 13 2f be 64 50 fc 3b
       -0.10601875 0.13783802 -0.17097394 0.007700013
0001f0 e7 4f c9 bd cc ab f1 bc 2b 50 b2 3d b3 fb 5a bd
       -0.09829693 -0.029500864 0.08706697 -0.053462695
000200 ec ee 1d be 21 72 4a 3d 2c 39 76 3d 20 00 9a bd
       -0.15423173 0.049425248 0.060113117 -0.07519555
000210 44 c9 ec bc 40 8b 7f 3d 27 98 b1 bd 4a 2a de 3d
       -0.028904565 0.06238866 -0.08671599 0.1084791
000220 c3 83 19 be c9 6b 39 3b cd 07 3b 3d 5e c1 c6 bb
       -0.1499167 0.0028293005 0.045661736 -0.0060655316
000230 7d 08 a9 bd ba 1c 06 bd 7d b1 0a 3e 18 f6 2f 3e
       -0.08253572 -0.03274224 0.13544269 0.17183721
000240 b9 d1 0e 3e bb ee 2d 3e 89 42 b1 bd a2 35 4d be
       0.1394719 0.169856 -0.08655269 -0.2003999
000250 97 3d 4e 3c 15 e9 21 3e 49 ba 42 3d e2 f3 15 3e
       0.012587926 0.1581157 0.047540937 0.14643815
000260 bd f1 8a be 0c e3 0c be dd d1 2c 3e ee 28 45 be
       -0.27137557 -0.13758487 0.16876931 -0.19253895
000270 0d 1e 01 be 59 d8 3e 3d af 47 94 bd da 9e b1 bc
       -0.1260912 0.046593044 -0.07240235 -0.021682192
000280 dd 34 cd 3d 7d fb f5 3d 88 af 8e bd f2 d9 ca bc
       0.100198485 0.12010858 -0.06967074 -0.024762128
000290 98 ec 19 3d fd 17 09 be 33 0d bd bd f9 b8 66 bd
       0.03757915 -0.13388057 -0.09231033 -0.056328747
0002a0 e8 e2 0a 3e 6a ba df bd dc e6 95 bb c4 89 a8 bc
       0.1356312 -0.109242275 -0.0045746397 -0.020573504
0002b0 ef c2 6b 3c 58 e8 42 3d 57 85 be bc d4 3d 77 bd
       0.0143897375 0.04758486 -0.02325694 -0.0603617
0002c0 3d 27 f1 3b 69 f1 bc 3d 31 89 87 bd 0e cb 94 3d
       0.007359414 0.09225733 -0.06617964 0.07265292
0002d0 30 2f 44 bc 28 28 ba 3e 30 24 08 3e c5 22 2b be
       -0.011974141 0.36358762 0.13295054 -0.16712482
0002e0 68 99 9d bd bf e9 c5 bb b9 6a 0a bc fa 4c ab 3c
       -0.076952755 -0.0060398276 -0.008448296 0.020910729
0002f0 be 3a 50 3c f7 ca 0a 3b b8 78 24 bd 86 3e 02 3e
       0.012709318 0.0021178105 -0.04015419 0.12719163
000300 e2 5b c7 bd 6f c4 ab bc e8 69 b9 3c 73 28 65 bd
       -0.09734322 -0.02096769 0.022633508 -0.05594678
000310 1b 36 0c 3c a9 4b 9b 3d 70 f4 98 bd 17 a3 2f 3b
       0.008557822 0.075827904 -0.07468498 0.002680009
000320 b1 bc 00 3c d8 04 21 bd 27 9e f9 bd 3d f8 c4 3c
       0.007857488 -0.03931126 -0.12188368 0.02404415
000330 5d e8 bb bc 56 bb 9d 3c b5 59 33 ba 32 b7 87 3d
       -0.022937948 0.019254368 -0.00068416755 0.066267386
000340 c0 70 0e 3e 54 99 47 3b 90 66 be 3c be 23 27 bc
       0.13910198 0.003045638 0.023242265 -0.010201393
000350 05 8b d3 3c 51 02 46 bb 2a 3f 81 be e0 1f d9 3d
       0.025823126 -0.0030213783 -0.25243503 0.10601783
000360 4e 8c 05 3e d1 e8 1f 3e 3f 9b f5 bc 0a 54 94 3c
       0.13041803 0.15616156 -0.029981254 0.01810648
000370 79 1e 3e 3d 6f a6 ac bd f1 0b b2 bb e4 32 cb 3d
       0.04641578 -0.08430182 -0.0054335524 0.09921816
000380 ee 6c 81 3e 5b 4b 47 3e 9a 95 d3 3d a9 09 f9 3d
       0.2527842 0.1946234 0.103312686 0.12160046
000390 31 e8 17 bd 63 e9 f2 3d 95 73 8b bd c4 2f 84 3c
       -0.03708667 0.11860921 -0.06809155 0.016136058
0003a0 94 4e b0 bd 73 60 ac 3d a9 5b 8a bb ac 63 bd 3c
       -0.086087376 0.08416834 -0.0042223525 0.023118816
0003b0 de 8f 72 bd 51 1c 34 3f 43 d1 50 3d 88 40 88 3d
       -0.059219234 0.7035571 0.050980818 0.06652933
0003c0 ad ee 11 be 63 64 20 3e db 47 4c 3d 45 5f f8 bd
       -0.14251204 0.15663294 0.049873214 -0.12127546
0003d0 8c b7 7c bd 72 0d e9 3d ec d3 f4 bb 3d 30 8e 3d
       -0.06169848 0.113795176 -0.007471552 0.069427945
0003e0 96 48 0b be 7b a5 7a bd 18 24 fd 3d da bd 69 bc
       -0.13601908 -0.06119297 0.123604 -0.014266456
0003f0 b0 18 59 3e 75 c4 8b 3d 1e 8e e5 3d cb 4f 50 bd
       0.21200824 0.068245806 0.11208747 -0.050857347

layers.1.att f4 [1, 8, 1]
000000 a6 43 e1 be 7f 24 19 bf 1c 06 24 3f 1f 2f 07 be
       -0.43996924 -0.59821314 0.6407182 -0.13201569
000010 d6 57 15 bf 16 f1 01 3f 1f 6c 4b 3e 49 9c 1e be
       -0.5833715 0.5075849 0.19865464 -0.15489306

layers.1.lin_l.weight f4 [8, 1024]
000000 f1 8e 92 3d cf ec de 3d 9f ef 51 3b b2 3b 89 3e
       0.0715617 0.108850114 0.0032033694 0.26803356
000010 67 13 89 3d 77 0b cf 3d 98 ee 8b 3e fe 30 bf 3d
       0.06693154 0.101096086 0.2733047 0.093355164
000020 cc 9b 2a 3e df b0 30 b9 86 a3 74 be 37 74 e9 3d
       0.16660994 -0.00016850558 -0.23890504 0.11399119
000030 9d 5e 3d be 99 af 62 3e dc 76 e1 3d 6b f4 c1 3d
       -0.18493123 0.22137298 0.11008999 0.09470447
000040 23 16 2e be 6b 88 8f 3d d9 52 b7 bd 90 87 48 3d
       -0.17000632 0.070084415 -0.08951349 0.048957407
000050 87 28 34 be 1c 6c ee 3d 8f 64 1e be 11 81 a0 3c
       -0.17593585 0.11641714 -0.15468048 0.019592794
000060 cc 7a bb 3d 59 3b de 3d d8 18 9d 3e c6 bd 3b be
       0.09154281 0.108511634 0.30683017 -0.18334112
000070 c3 ef 4f be 61 a3 4a 3e 2d 9b 54 3e 7e 02 83 3d
       -0.20306306 0.19788887 0.2076232 0.0639696
000080 55 59 00 3e 80 1a 67 3e 91 d9 0e bd 93 65 ae 3c
       0.12534077 0.22568703 -0.034875456 0.021288669
000090 aa b0 58 3e ea 75 68 3e f7 29 a1 3e c3 d3 2b 3e
       0.21161142 0.2270123 0.3147733 0.1678
0000a0 00 6b 3c 3d ff c4 42 bd 52 c3 4e 3c 3d fe d8 bd
       0.04600048 -0.04755115 0.01261981 -0.10595367
0000b0 d2 37 b7 bd 80 6b 61 3d a1 bd 3c 3d 7f 84 a1 3e
       -0.08946194 0.05503416 0.04607928 0.315464
0000c0 c8 7d 5e bd 7e 25 b8 bc 68 1d 1c 3e ce 62 49 bd
       -0.054319173 -0.022478815 0.15245593 -0.049166493
0000d0 f3 bc 8d 3d 42 09 c0 3d 35 5d d5 bd 05 5d 8b bd
       0.06920805 0.09376766 -0.104181685 -0.068048514
0000e0 34 ab 27 3e 59 ee 0a 3e 9f ad f1 3d 43 63 80 bd
       0.16373903 0.13567485 0.11800694 -0.06268933
0000f0 28 16 6e be aa 66 58 bd 7f 23 8b 3e 9b 67 f3 3d
       -0.2325064 -0.052832283 0.2717552 0.118849955
000100 5a fd 81 bc d2 c6 1b 3e 9d cc 87 3d e4 ad 89 bc
       -0.015867878 0.15212563 0.06630824 -0.01680655
000110 41 90 ed 3d 55 01 ed 3d 52 73 6b 3e a0 e0 22 3e
       0.1159978 0.1157252 0.2299321 0.15906
000120 91 2c ad bb cc 91 d5 3d 5a 11 15 3e a6 96 2b be
       -0.0052848537 0.10428199 0.145574 -0.16756687
000130 72 16 ce 3c 9f 26 11 b9 1b d0 36 be 6a 46 c7 3c
       0.025157187 -0.00013842665 -0.17852823 0.024325568
000140 bb ba 64 be da 0a 1f 3d b2 4a 2a 3e 29 c0 20 3e
       -0.22336857 0.03882871 0.16630057 0.15698303
000150 ef 12 90 3e bd 60 f2 3d f0 bd 56 3d fc 79 0f bd
       0.28139445 0.118348576 0.052427232 -0.035028443
000160 00 b7 b4 bd ef 4b 87 bc 36 9e 34 be 96 ce 6d be
       -0.08823967 -0.0165157 -0.17638478 -0.23223338
000170 6e 47 70 3d 5b bc d5 bd f2 be 91 3d d5 5e 51 3e
       0.05866187 -0.104363166 0.07116498 0.20446332
000180 bc c1 4f 3e 73 82 ea bd a2 2d 21 be 41 5c 1f be
       0.20288748 -0.114506625 -0.15740064 -0.15562536
000190 35 aa 9b bd bb 56 c4 3d 9e 27 bd bd 7e 10 6f 3d
       -0.07600824 0.09586855 -0.09236072 0.058365338
0001a0 f2 da a8 be 52 fc 2f be 20 e6 48 3d ee ed fd bd
       -0.32979542 -0.17186096 0.04904759 -0.12398897
0001b0 6a 22 c8 bd 6e eb 9e be 3e 4f 02 3e 7b 3c 73 bc
       -0.09772189 -0.31038994 0.12725541 -0.014845963
0001c0 23 db 61 3e 41 b0 ed bd 8e 4b 42 bd d3 fe d8 bd
       0.2205625 -0.116058834 -0.047435336 -0.10595479
0001d0 95 c1 01 3e aa e7 78 bd 66 ed f7 3d 0e 46 54 3e
       0.12671502 -0.060767807 0.12105827 0.20729849
0001e0 a7 ce 61 3d 91 f7 21 3e ab a8 a1 bd 31 15 d7 3c
       0.05512872 0.15817095 -0.07893499 0.026255222
0001f0 a3 e7 8c 3d 11 41 5a 3e e3 f6 4e 3e 7b bb da bd
       0.06880119 0.21313883 0.20211367 -0.1068029
000200 52 0a 61 3e d9 ba c1 bd 25 6a 05 3e 5a 77 e0 bd
       0.21976593 -0.094594665 0.13028772 -0.109602645
000210 2c 0c 9e 3d 3e 99 c4 3d 65 76 87 bd f6 ed 26 be
       0.07717165 0.09599541 -0.06614379 -0.16301712
000220 a2 4a ed bd 90 69 bd 3a d5 d7 89 3d 9f 9f 16 be
       -0.11586501 0.0014451016 0.0673062 -0.14709328
000230 b4 80 ec bc 9b f7 eb 3d 16 b4 3c bd b0 45 62 bd
       -0.028869964 0.11521836 -0.04607018 -0.05524224
000240 8e 5b cc bd 81 fd 61 be e1 6c 8f bd 59 4b 22 be
       -0.099784 -0.2206936 -0.07003189 -0.15849055
000250 70 51 9f bd 70 b6 af 3d b1 4e 43 3e aa d5 81 3d
       -0.07779205 0.08579719 0.19072987 0.06339581
000260 d4 9a 2c bd ac 17 93 3e 96 ce 20 bd a5 39 da bd
       -0.042139843 0.28728998 -0.039259516 -0.10655526
000270 b6 f5 09 be f6 73 03 be 32 a4 62 3d 7d 7e a1 bd
       -0.13472638 -0.12837204 0.05533237 -0.07885454
000280 ba 30 ea 3d cb f1 f8 bd dc d6 87 be 6a 9e a0 3e
       0.11435075 -0.12155493 -0.26531112 0.3137086
000290 55 69 50 3d f8 64 46 3e bd ee 63 bd 32 51 68 3e
       0.050881702 0.19374454 -0.0556476 0.22687224
0002a0 fb 9c 3c bd 7d 7f 80 3e fd 03 df bd b9 37 f7 3d
       -0.046048146 0.25097266 -0.108894326 0.12071175
0002b0 d8 bf a4 bd 7d 51 33 be de bc f0 3c 90 12 d7 bd
       -0.08044404 -0.17511554 0.029386934 -0.105015874
0002c0 92 39 da bc 4d f0 f9 bd cb 22 8e 3e 1c 1a 08 3e
       -0.02663878 -0.12204037 0.2776092 0.1329121
0002d0 4b 94 6a 3d 38 3a ee 3c cc e5 65 bd b1 c9 38 3e
       0.05727033 0.029080495 -0.056127355 0.18045689
0002e0 06 9d 12 be 71 c2 0b be 05 a0 02 3e 5d 5c 62 be
       -0.14317712 -0.13648392 0.12756355 -0.22105546
0002f0 b3 39 3a 3e 53 93 fc 3d 87 be 11 be 67 ad b3 3e
       0.18186073 0.12332787 -0.14232837 0.35093233
000300 f1 33 25 bd 7e cc 1a be 0c 64 8b 3e 3a 4d 38 be
       -0.04033274 -0.1511707 0.27224767 -0.1799821
000310 92 97 67 bd 30 fa 2c be b4 39 cf 3d 4f 90 2a 3e
       -0.056541033 -0.16892314 0.10118428 0.16656612
000320 af 05 2d 3e a0 37 83 be 62 9e e4 bd 0d 44 f4 3d
       0.168967 -0.25628376 -0.111630216 0.11927042
000330 b7 21 20 bd ab b3 4b be 20 1d e6 3d 96 cb 31 3e
       -0.039094653 -0.19892757 0.11236024 0.17362818
000340 d4 a8 16 bd 38 86 e8 3d c6 c9 86 3e 0c ae 47 be
       -0.0367821 0.11353725 0.26325816 -0.19499987
000350 a9 01 15 3c 28 d9 8a 3e 31 c7 64 3e 7e 35 f9 3d
       0.009094634 0.27118802 0.2234161 0.12168406
000360 cd f5 3c bd 54 6c 8c 3e 42 15 8a 3e 74 ab 0d 3e
       -0.04613285 0.27426398 0.26969343 0.13834935
000370 7b fa f5 bc 20 d0 25 3e c1 24 73 bd a5 82 ac bb
       -0.030026665 0.16192675 -0.059361223 -0.0052645975
000380 0e 45 33 3e c5 48 d6 3c fe bb 98 3e 8e 06 5d 3e
       0.17506811 0.026157746 0.29830927 0.21584532
000390 b9 d7 5c 3e 9a 1c fc 3d 39 21 1c 3c 9f c8 96 bd
       0.21566667 0.12310143 0.009529405 -0.07362484
0003a0 68 44 5d 3d 35 1f 5b 3e 90 f3 2c be 1b c8 35 3d
       0.054020315 0.21398623 -0.16889787 0.04438029
0003b0 89 a3 a1 bd b5 c3 ec bd 2b b9 90 3c 9c 9f 9c bd
       -0.0789252 -0.11560766 0.01766642 -0.076476306
0003c0 0c f1 d7 bc 43 72 43 be 2e f0 a9 bc a7 ae 27 3e
       -0.026360057 -0.19086556 -0.02074441 0.16375218
0003d0 0d bd 07 3e a2 6a a8 bd 3d 0c c8 3d 30 ab 74 3d
       0.13255711 -0.082234636 0.09767959 0.05973357
0003e0 f6 3d 8e bd 4b 87 31 3e ff 2b 20 be cf 40 75 bd
       -0.06945412 0.17336766 -0.15641783 -0.05987626
0003f0 01 f0 4a 3c d8 57 a7 3e 63 7b d4 3d 20 d7 8e 3e
       0.012386323 0.32684207 0.10375097 0.27898502

layers.1.lin_r.weight f4 [8, 1024]
000000 b7 9e a6 be 78 25 c8 3d 45 5a b9 3c c4 b9 04 3d
       -0.32542965 0.097727716 0.022626052 0.032403722
000010 a6 4f 44 3d 25 f8 43 3d 79 83 bd 3b b6 76 90 3d
       0.04792752 0.04784407 0.005783495 0.07053892
000020 14 f7 51 bc 8c f8 52 3e f3 02 6a bd 50 d8 04 be
       -0.012815256 0.20602626 -0.05713172 -0.12973142
000030 45 42 21 3e 34 c5 4a bb 19 c0 7f bd a7 ea 42 be
       0.15747936 -0.0030940296 -0.062439058 -0.19034825
000040 9e cf 4b be 2b 1a 10 3e d3 b4 ad bd 10 68 05 bd
       -0.19903418 0.14072482 -0.08481755 -0.032569945
000050 2d fa 6f ba f8 14 c7 bd f7 76 2f 3e fa aa 80 3e
       -0.00091544056 -0.09720796 0.17135225 0.25130445
000060 b2 54 85 3d a3 6f 57 3e bf fa 92 3d a7 8b b9 3d
       0.06510295 0.2103868 0.07176732 0.0905984
000070 2c 60 17 be e4 79 bb 3d b8 d5 8c be d8 6a 83 3e
       -0.1478278 0.09154108 -0.27506804 0.25667453
000080 73 28 fb 3d ec 07 a9 bc b9 e7 91 bd 0d da 7d 3c
       0.122635745 -0.02063366 -0.07124276 0.015493882
000090 7e 7c 79 3d 74 63 02 3d f3 49 87 3d 60 84 82 bd
       0.06090974 0.031833127 0.066059016 -0.06372905
0000a0 b8 87 69 3d 0f 92 ab bb 07 b1 52 be c9 5e ce 3c
       0.057014197 -0.0052359174 -0.20575343 0.025191681
0000b0 5b 8b f3 3d 1a 6e 6c 3e 65 92 75 3e e7 00 78 bd
       0.11891814 0.23088875 0.23981626 -0.060547736
0000c0 4c d0 ea 3d 91 da 85 3e 7d 09 aa 3d 52 bf 7d 3d
       0.11465511 0.26143315 0.08302591 0.061950035
0000d0 a0 04 a9 3d 90 74 d8 3c f3 bf 09 bc d9 c6 82 bc
       0.08252835 0.026422769 -0.008407581 -0.015963959
0000e0 0d fc b7 3d 1d 2a 68 3c e1 21 23 be e0 5b d3 bd
       0.08983622 0.014170197 -0.15930893 -0.10320258
0000f0 e2 03 0d 3e 3d 18 62 be d9 2f 2d be 6a 7f 32 3d
       0.13771012 -0.22079559 -0.16912784 0.043578543
000100 e7 a1 9d 3d 64 de 46 bd 46 08 c9 3d 21 a9 0d 3e
       0.07696896 -0.048551932 0.09816031 0.13834049
000110 a8 e7 eb 3d 8d f9 04 3e 2c 0b 7f bb 28 50 0f bc
       0.11518794 0.12985821 -0.003891657 -0.008747138
000120 d0 37 32 ba f2 1a 0f 3e 08 1c 11 3c 11 57 19 3e
       -0.0006798478 0.13975123 0.008856781 0.1497462
000130 e9 96 07 be dc b1 a2 3d 0e ec 36 3e 51 62 6a 3e
       -0.13241161 0.0794408 0.17863485 0.22889067
000140 13 d4 d2 3d 13 d9 90 3c ec cb 78 3d a1 3c 09 3e
       0.10294356 0.017681634 0.06074135 0.13402034
000150 b9 39 b4 bc c4 22 00 3e 45 b2 11 be e7 65 b0 3e
       -0.02200018 0.12513262 -0.1422816 0.34452745
000160 46 5b 24 3d f1 4d 11 be 4e 96 13 be 74 9a 07 3e
       0.040126108 -0.14189889 -0.14412805 0.13242513
000170 84 9c 25 bd c8 86 03 3d a6 1b a4 bd cd 60 e1 3c
       -0.040432468 0.03211096 -0.08013086 0.027511979
000180 64 19 43 bd 4a a8 b4 3d a5 cd 1f 3e 73 5c 14 3e
       -0.047631636 0.08821161 0.15605791 0.14488392
000190 62 07 0b be 95 f4 2a bb 54 f0 de 3d d3 6b 1b 3d
       -0.13577035 -0.0026085724 0.10885683 0.037944626
0001a0 9c 7e ac bd 11 64 a4 3d 1e 72 05 3e 3d cc 06 3e
       -0.08422586 0.08026899 0.13031814 0.13163848
0001b0 78 33 c9 3d 79 7c 00 3e c5 de 90 3e 18 da 0b 3d
       0.0982427 0.12547483 0.2829496 0.034143537
0001c0 b8 0e 3a 3e 33 01 2a 3e f2 1b 4a 3e aa 74 94 3c
       0.18169677 0.1660202 0.19737223 0.018122036
0001d0 d0 b6 0c 3d d9 80 40 be 86 09 00 3d c0 c1 c0 3d
       0.03435403 -0.18799151 0.031259082 0.09411955
0001e0 50 b0 01 3e 96 b4 eb bd b1 37 9e 3e a9 79 94 bd
       0.12664914 -0.115090534 0.30901864 -0.07249767
0001f0 f8 2e aa 3e d3 9d a1 bd 1f 82 2e 3e 74 de c2 3d
       0.3323896 -0.07891431 0.17041825 0.09515086
000200 54 9e 0f 3e 5c a0 44 bd 35 ad 26 3d b1 75 2b bc
       0.14025241 -0.048004493 0.040692527 -0.010465072
000210 d1 f2 5b bd 3c 43 47 3e da db ae be 96 f1 93 bd
       -0.053698365 0.19459242 -0.34152108 -0.07223813
000220 3c 10 58 be 13 20 31 be 07 84 02 bd 19 e4 69 3c
       -0.21099943 -0.17297392 -0.031864192 0.014275574
000230 51 e3 fc bd 21 60 be 3d ac 81 45 3d 75 2f 86 bd
       -0.12348045 0.09295679 0.048219368 -0.065520205
000240 ae c6 2f be 0d 00 ae bd 7e 59 dc 3c fa 8d 10 be
       -0.17165634 -0.084961034 0.026898142 -0.1411666
000250 80 ee d1 3d 03 5e d4 bd 0c 0b ac 3d d5 ea d7 bd
       0.102505684 -0.10369494 0.084005445 -0.105428375
000260 99 18 ba 3d 15 2b a3 bd 87 14 d3 bd 8b 81 b0 be
       0.09086723 -0.079672016 -0.1030665 -0.34473833
000270 95 c8 2f 3e 38 10 05 be 3f 30 dd 3d fb 3a bd bd
       0.1716636 -0.12994468 0.10800218 -0.09239765
000280 c7 b4 50 3e 60 be 6e 3e 90 23 8d be 6b 26 e6 3d
       0.20381461 0.2331481 -0.27566195 0.112377964
000290 d7 c9 11 bd f2 78 a8 3d b2 0e 7b bd 5a f5 43 3e
       -0.03559288 0.082261935 -0.06129331 0.19136563
0002a0 ad 0d 53 bd ef a6 03 3e 55 e3 8c 3e a6 1f 04 be
       -0.051526714 0.12856649 0.2751719 -0.12902698
0002b0 f4 0e 0b be 8d 8e 5f bd 17 dc 67 3e 2e 44 12 be
       -0.13579923 -0.054579306 0.22642551 -0.14283821
0002c0 1f e4 b9 bb c6 8f 14 be cb 8a 66 3e e1 6a b6 3c
       -0.005672946 -0.1450797 0.22513883 0.02226776
0002d0 92 33 0a bd e4 29 d4 bd d8 b7 c0 ba f8 c9 6c bd
       -0.033740588 -0.103595525 -0.0014703227 -0.0578098
0002e0 f6 0a be bd 9e f9 cf bd dc 4e e1 3e 45 1d 72 be
       -0.092794344 -0.101550326 0.44005477 -0.23643978
0002f0 39 80 42 be 8f f0 3a 3d 6b 5f 52 be cd c2 d7 3e
       -0.18994226 0.04563957 -0.20544212 0.4214081
000300 cc fd 58 be 8e 2d 78 bd 73 57 09 3e 42 71 67 be
       -0.21190566 -0.06059032 0.13412265 -0.22601798
000310 f7 67 ca 3c 5f 0a 34 bd 16 2f 9e bd 9d db de 3d
       0.024707777 -0.043955203 -0.07723825 0.10881732
000320 cd cb 02 3d ac 91 f8 bc bc f4 8f be 81 01 c5 bd
       0.03193264 -0.0303429 -0.28116405 -0.096194275
000330 10 e4 b2 3c b2 5e 11 be 83 4e c8 bd bc 6a a7 3d
       0.021837264 -0.1419628 -0.097806 0.08174655
000340 1f 83 1d be 21 a6 34 3e c3 95 8a 3e d6 26 cc bd
       -0.1538205 0.17641498 0.27067384 -0.09968345
000350 53 24 05 3e 7c 74 30 3d 7a ed ca bd 41 26 64 3d
       0.13002138 0.04307984 -0.09908576 0.055700544
000360 fe 63 9f bd dc 6a 77 3d d6 f7 82 3b 79 38 fa 3e
       -0.07782744 0.060404643 0.0039968295 0.4887121
000370 a6 6b c3 3e 78 bd 11 3e b5 bc ef bd 7a e7 12 bd
       0.38168067 0.14232433 -0.11705915 -0.035865285
000380 41 a1 0c 3d fe 47 6e 3c f6 2a cc 3c 0a 88 1d bd
       0.03433347 0.014543531 0.02492283 -0.038459815
000390 2b 4c 90 bd 95 9c 1c 3e c1 5a 1c 3e aa 28 4a 3e
       -0.07045778 0.15294106 0.15268995 0.19742075
0003a0 a6 0d cc bd 9e 3b d7 3c ca cc 48 3d ff ab 0a be
       -0.09963541 0.026273545 0.049023427 -0.13542174
0003b0 de 20 6f be 9f f3 54 be 76 8f 03 be e5 b0 51 be
       -0.23352382 -0.20796059 -0.12847695 -0.20477636
0003c0 db 21 86 bc a4 df 32 be 94 97 94 bd f9 24 97 bb
       -0.016373565 -0.17468125 -0.07255474 -0.004612562
0003d0 44 c3 d2 3d 5e a9 b0 be 68 ff 80 3e 4f 85 24 3e
       0.1029115 -0.34504217 0.2519486 0.16066478
0003e0 48 ee 0d be 27 22 e1 3d 8e 1a c2 be 1a 65 81 3e
       -0.13860428 0.10992842 -0.37910885 0.25272447
0003f0 87 a3 6b 3e 96 fb de 3d fd 66 19 3e 0e ed 76 3d
       0.230116 0.1088783 0.14980693 0.060284667

layers.1.lin_edge.weight f4 [8, 4]
000000 2f 37 f7 be be 03 f4 be b1 b7 4b be f4 7e 12 3f
       -0.4828429 -0.47659105 -0.19894291 0.57224965
000010 dc f4 3d 3f eb 77 82 bf a5 20 06 3f 8e f9 9b be
       0.7420175 -1.0192846 0.5239356 -0.30463833
000020 22 49 9b be 68 4e 84 3e b6 87 d3 be 8b 07 83 3d
       -0.30329233 0.2584107 -0.41314477 0.06397923
000030 10 b6 c3 3e 8f 76 e5 be 81 23 a7 3d 75 d2 f8 bd
       0.3822484 -0.44817016 0.08161069 -0.121495165
000040 b2 01 3a 3f 32 8c 6a be fb 37 fd 3e c1 5a 90 be
       0.72658837 -0.22905043 0.49456772 -0.2819424
000050 fa c3 d1 3c 5a 4b c2 be 61 cc a9 be 9e a7 bc 3e
       0.025606144 -0.37948114 -0.3316374 0.36846632
000060 6a 1d d1 be 55 8b 1d be 27 1b 02 bf 7c 65 c4 3e
       -0.40842754 -0.15385182 -0.5082268 0.38358676
000070 19 b1 8c be 70 df 00 bf 0c 0a a0 3e d2 57 a7 bd
       -0.27478865 -0.5034094 0.31257665 -0.08171047
