code/gnn/models/training/SAGE/multi-graph-export/1/best_model.pt (torch, 1961 bytes, 2 tensors)

layers.0.lin_l.weight f4 [1, 11]
00000000: 3280 10bf 42f3 ffbf a4f0 9b3d def7 be3f
00000010: 214d 7e40 187a 493f e564 d43f 5e46 4b3f
00000020: 5261 febe 08d2 4c40 1876 9440
-0.5644561 -1.9996111 0.07614258 1.4919393 3.9734576 0.78701925 1.659329 0.79404247
-0.49683625 3.2003193 4.6394157

layers.0.lin_r.weight f4 [1, 11]
00000000: c875 9840 385d 73c0 692c d3bf 6af6 f7be
00000010: c1c5 ddbf 5192 0240 e7ad a9bf e2eb b33f
00000020: 92ee 9dbf 3076 b4c0 7615 e2c0
4.7643776 -3.8025646 -1.6497928 -0.48430187 -1.7325975 2.0401804 -1.3256196 1.4056361
-1.2338431 -5.639427 -7.0651197
