code/gnn/models/training/MLP/export/7/best_model.pt (torch, 6248 bytes, 3 tensors)

lin1.weight f4 [64, 14]
0	0x3e14ff94	0.1455062
1	0xbec692ce	-0.38783878
2	0x3eaeb0e3	0.3411933
3	0x3d126b44	0.035746828
4	0xbd883236	-0.06650202
5	0xbd9213f5	-0.07132713
6	0x3e9ee923	0.31037244
7	0xbe7e6d20	-0.24846315
8	0x3e99188c	0.2990154
9	0x3d0ec173	0.034852456
10	0x3e63bf4b	0.22240941
11	0x3e8dd9b0	0.27705145
12	0xbe555b60	-0.20835638
13	0x3f07f3bc	0.53106284
14	0xbef3e088	-0.4763224
15	0xbd4596b3	-0.04823942
16	0x3eadb2ae	0.33925384
17	0xbe3bf979	-0.18356885
18	0x3e77c0b4	0.24194604
19	0x3d8d3f65	0.06896857
20	0x3f20f008	0.6286626
21	0xbf5a2dc4	-0.8522608
22	0xbdc93864	-0.09825209
23	0x3e984a28	0.29744077
24	0x3bfce2bf	0.00771746
25	0x3d8b5d4f	0.068049066
26	0xbd8a7e43	-0.06762364
27	0x3d75bb8c	0.05999331
28	0x3ec1113c	0.3770846
29	0x3da739b7	0.08165305
30	0x3f230b8f	0.6368951
31	0xbdb7aa0d	-0.089679815
32	0x3c865f99	0.016403006
33	0x3e44c565	0.19215925
34	0x3ec12a4e	0.37727588
35	0xbe66adac	-0.22527188
36	0x3e3cac07	0.18424998
37	0xbd3ef74d	-0.046622563
38	0x3e6a0d9b	0.22856753
39	0xbdc06c8e	-0.09395705
40	0xbde4143a	-0.111366704
41	0x3ef851db	0.4849995
42	0x3d230de0	0.039808154
43	0xbc3efb12	-0.0116565395
44	0x3f38deca	0.7221495
45	0x3eab3265	0.33436885
46	0x3e1c9cf4	0.15294248
47	0xbdfbfa86	-0.12303643
48	0x3f00d747	0.5032849
49	0xbf199b34	-0.60002446
50	0xbc4ef6f8	-0.012632124
51	0x3e9a5c10	0.30148363
52	0xbdea91de	-0.11453603
53	0x3eef5107	0.46741506
54	0xbf002a2f	-0.5006437
55	0x3e1e73c0	0.15473843
56	0xbed0b7e4	-0.40765297
57	0xbda6d099	-0.081452556
58	0x3e877d9e	0.26463026
59	0x3dbd02a0	0.09229016
60	0x3e8d37c1	0.275816
61	0x3e7f3b59	0.24924983
62	0x3f0f71b1	0.56032854
63	0xbf38c1fc	-0.72170997
64	0x3e314b87	0.17313968
65	0x3d9a79ee	0.075427875
66	0xbd0d1baf	-0.03445023
67	0x3c0dba5b	0.008650388
68	0xbc51591f	-0.012777596
69	0x3dfbe303	0.122991584
70	0x3ef1e887	0.47247717
71	0x3d73cfd3	0.05952437
72	0x3f217fb6	0.63085496
73	0xbe08c261	-0.133554
74	0xbdd16328	-0.10223991
75	0x3e62c702	0.22146228
76	0x3e8c66cc	0.27422178
77	0xbe216e1f	-0.15764664
78	0x3e2bcc81	0.16777231
79	0xbe1c065e	-0.15236804
80	0x3ea0d45f	0.31412026
81	0xbe2b9944	-0.16757685
82	0x3dad40ed	0.08459649
83	0x3f425aaf	0.7591962
84	0x3ed45277	0.41469166
85	0x3e5a3f60	0.21313238
86	0x3f42ab62	0.7604276
87	0xbdc8baa6	-0.09801225
88	0xbd834ef1	-0.06411541
89	0x3e98941c	0.29800498
90	0x3e50f8ea	0.20407453
91	0xbe5db5c8	-0.21651375
92	0x3e858ce0	0.26084042
93	0xbe4d5a24	-0.20053917
94	0x3eb9c519	0.36283186
95	0xbeb0dc18	-0.34542918
96	0x3db1edbc	0.08687922
97	0x3f39d6ef	0.7259359
98	0xbdccd64e	-0.10001813
99	0xbdf4a3f7	-0.11945336
100	0xbef1b13c	-0.47205532
101	0xbef08344	-0.46975148
102	0x3e1fb872	0.15597704
103	0xbf0be9c4	-0.54653573
104	0xbf49acdb	-0.7877938
105	0xbf1d8321	-0.6152821
106	0x3e8bd6ab	0.27312216
107	0xbdc452a9	-0.09586079
108	0xbf13bca3	-0.5770971
109	0x3cb22c84	0.021749742
110	0xbebb579b	-0.36590275
111	0xbf83b4ea	-1.0289586
112	0x3f1e418a	0.61818755
113	0xbdbb5ba1	-0.09148336
114	0x3da24d53	0.07924905
115	0xbf3946b2	-0.723735
116	0xbf102b45	-0.56316024
117	0xbdacf175	-0.08444492
118	0x3db86015	0.09002701
119	0x3e75a91f	0.23990296
120	0x3ebf9c34	0.3742386
121	0xbf269b3e	-0.6508063
122	0x3ee08a19	0.4385536
123	0x3d10b5a9	0.035329495
124	0x3efae83a	0.490053
125	0x3f125b9a	0.5717102
126	0xbefa19af	-0.4884772
127	0xbe146c3c	-0.14494413
128	0x3e76b674	0.24093038
129	0xbe3ebc2a	-0.18626466
130	0x3e7769a5	0.24161394
131	0x3e90133b	0.28139672
132	0x3ecaa9bd	0.39582625
133	0xbf6b8302	-0.9199678
134	0xbccc07af	-0.024906008
135	0x3ec5b306	0.38613147
136	0xbe885ad7	-0.26631805
137	0x3ec389c3	0.3819104
138	0xbe7fc3f0	-0.24977088
139	0xbdb454c3	-0.088052295
140	0x3ecafef8	0.3964765
141	0xbf221892	-0.6331874
142	0xbe097125	-0.13422067
143	0xbe029b46	-0.12754545
144	0xbe80161a	-0.25016862
145	0x3e3529b5	0.17691691
146	0x3db818e9	0.08989126
147	0x3e5aa12a	0.21350542
148	0x3ef0e3c5	0.47048774
149	0xbeb1f495	-0.34756914
150	0x3f2f4306	0.68461645
151	0xbf4bbeaf	-0.79587835
152	0x3e45a3b3	0.19300728
153	0x40507c3a	3.2575822
154	0xbe86922a	-0.2628339
155	0xbd27865e	-0.040899627
156	0xbf015245	-0.5051616
157	0xbd36f4a2	-0.044666894
158	0x3ead3461	0.33829024
159	0xbf09c155	-0.53810626
160	0xbf29ec8d	-0.6637657
161	0x3d1b530c	0.037920997
162	0x3d4e9a31	0.050440017
163	0xbe84c516	-0.25931615
164	0xbebd33e7	-0.3695366
165	0xbd8b4a94	-0.06801334
166	0x3ea99c14	0.3312689
167	0xbf6339d4	-0.88760114
168	0x3eb1c20d	0.34718361
169	0xbcd58715	-0.026065389
170	0x3eba8c21	0.36435035
171	0xbeb0d70c	-0.34539068
172	0x3da7a870	0.08186424
173	0x3daa202f	0.0830692
174	0x3e3b187e	0.18271062
175	0xbeafd552	-0.34342438
176	0x3ea66a69	0.3250306
177	0xbe75b2ef	-0.23994039
178	0x3e4b082a	0.19827333
179	0xbd93aa1f	-0.072101824
180	0x3e35bf6c	0.17748803
181	0x3f2913e8	0.66046
182	0xbe8a8767	-0.2705643
183	0x3e9e5c80	0.30929947
184	0xbe5cae24	-0.21550804
185	0x3ef3206f	0.47485682
186	0xbf541c0f	-0.82855314
187	0x3ef1d1c3	0.47230348
188	0x3f8bda06	1.092591
189	0x3e8420b4	0.258062
190	0xbeb6d53d	-0.35709563
191	0x3d6d8025	0.057983536
192	0x3ee931ae	0.45545715
193	0xbecb9aed	-0.39766636
194	0x3f11d315	0.5696271
195	0x3e9f8262	0.31154162
196	0x3ef7a73c	0.48369777
197	0x3c8edb27	0.017438484
198	0x3f07a639	0.5298801
199	0xbe8d2728	-0.27568936
200	0xbb99634b	-0.004681026
201	0x3e9fc5e7	0.31205675
202	0x3e8680c2	0.2627011
203	0xbeade19c	-0.3396119
204	0x3dacc833	0.084366225
205	0xbe10ea4e	-0.1415188
206	0x3e84d24c	0.25941694
207	0xbe1e4093	-0.1545432
208	0x3e85893b	0.2608126
209	0x3f741684	0.95346856
210	0xbde9a913	-0.114092015
211	0x3dce6663	0.100781225
212	0xbede05a2	-0.43363672
213	0xbe4d4e8c	-0.20049495
214	0x3ea66a99	0.32503203
215	0xbf0a2e5f	-0.53977007
216	0xbf0ec5a4	-0.55770326
217	0x3cf997da	0.030467916
218	0x3e6b84fb	0.22999947
219	0xbe5b5627	-0.21419583
220	0xbed12087	-0.4084513
221	0xbc1a9a1d	-0.0094361575
222	0x3dadd5d7	0.08488052
223	0xbf276bf8	-0.6539912
224	0xbe063ea1	-0.13109829
225	0x3d638bf8	0.055553406
226	0x3e01f6c4	0.1269179
227	0xbb62caa0	-0.0034605637
228	0x3e1c0908	0.1523782
229	0x3e815c86	0.25265902
230	0x3e78d838	0.24301231
231	0xbf306783	-0.68907946
232	0xbd576943	-0.05259062
233	0x3eec6573	0.4617115
234	0xbdc677cc	-0.09690818
235	0x3f0704db	0.52741784
236	0x3d0647e7	0.032783415
237	0xbd6b086a	-0.05738107
238	0x3ee93703	0.45549783
239	0xbefd32fd	-0.49452963
240	0xbedb8828	-0.42877316
241	0xbde05b43	-0.10954907
242	0x3c037d95	0.008025547
243	0xbd8215a0	-0.06351781
244	0x3e13c56a	0.14430776
245	0xbef560a8	-0.47925305
246	0xbf01ba71	-0.5067511
247	0x3ed776cc	0.42082822
248	0x3cc1dd74	0.023665167
249	0x3f62a16a	0.8852755
250	0x3ea6eda5	0.32603183
251	0x3fbb7613	1.4645408
252	0x3d428ae6	0.047495745
253	0x3de2c884	0.110734016
254	0xbee2e489	-0.44314983
255	0x3e0b3493	0.13594274

lin1.bias f4 [64]
0	0x3e117c00	0.14207458
1	0x3eca7dda	0.39549142
2	0x3e6dcff0	0.23223853
3	0x3d5cfe55	0.053953487
4	0x3e2726f5	0.16323455
5	0x3eb74633	0.35795745
6	0x3eaf0974	0.341869
7	0xbe0eb6bc	-0.13936895
8	0x3e55aacd	0.20865937
9	0x3e34a9a9	0.17642845
10	0x3d303591	0.043019835
11	0xbd9e365e	-0.077252135
12	0x3e5b0571	0.21388794
13	0xbd2e769c	-0.042593583
14	0x3e9aad9d	0.3021058
15	0xbd927318	-0.07150859
16	0x3d1f4351	0.038882557
17	0xbdb935ac	-0.0904344
18	0xbe17ca4f	-0.14823268
19	0xbeb4face	-0.353476
20	0xbe6a0bc4	-0.2285605
21	0xbcf2c0f0	-0.029633015
22	0x3e973042	0.29529005
23	0xbe60aa8c	-0.21940058
24	0xbd78ec5f	-0.060772296
25	0x3db269df	0.087115996
26	0x3e504466	0.20338592
27	0xbd9588d9	-0.07301492
28	0xbdd5e671	-0.10444344
29	0xbea0e9b4	-0.314283
30	0xbd75f43d	-0.060047377
31	0x3e2c5579	0.1682948
32	0x3e084f1f	0.13311432
33	0xbcffb516	-0.031214278
34	0xbe03ef77	-0.12884317
35	0xbd389ebb	-0.045073252
36	0xbe933b7d	-0.28756323
37	0xbe1eb0f2	-0.15497187
38	0xbbb235b7	-0.005438532
39	0x3e0809c1	0.13284971
40	0x3eb432e5	0.3519508
41	0xbe8744d3	-0.26419696
42	0xbdee7afe	-0.11644553
43	0xbe3eebda	-0.18644658
44	0xbcc03c0f	-0.023466138
45	0xbdf9ea4f	-0.12202894
46	0xbe125c02	-0.1429291
47	0xbc74f493	-0.014950889
48	0xbe386819	-0.1800846
49	0x3d9a12db	0.07523128
50	0xbd93be0e	-0.072139844
51	0xbd9454e3	-0.07242753
52	0x3c4535b2	0.012036728
53	0xbc5dadc3	-0.013530198
54	0xbe3e547e	-0.18586919
55	0xbe197f99	-0.14990081
56	0xbd9bf932	-0.076158896
57	0x3d10c371	0.035342637
58	0xbc7b9cdb	-0.0153572215
59	0xbde9c773	-0.11414995
60	0xbac80936	-0.0015261534
61	0xbdf486ce	-0.119397745
62	0xbe5895ee	-0.21150944
63	0xbd00443c	-0.031315073

lin2.weight f4 [1, 64]
0	0x3d3ed39e	0.046588533
1	0x3ef09d84	0.46995175
2	0x3e8ea6f2	0.27861744
3	0x3f13c539	0.5772281
4	0x3e6de565	0.23232038
5	0x3ebb1dcb	0.36546168
6	0x3f0b08e8	0.54310465
7	0xbf9aa388	-1.2081156
8	0x3f44c832	0.76867974
9	0x3ecc095a	0.39850885
10	0x3f91e160	1.1396904
11	0xbf071ae7	-0.52775425
12	0x3e1609a6	0.14652118
13	0xbf9635f9	-1.1735221
14	0x3ec21914	0.37909758
15	0xbec9d479	-0.39419916
16	0x3e101e26	0.14074
17	0x3f519abb	0.81876725
18	0xbeaf19cd	-0.34199372
19	0x3f28f900	0.66004944
20	0xbf761ac3	-0.96134585
21	0xbf46d9fe	-0.7767638
22	0x3e70de86	0.23522386
23	0xbf8d6861	-1.1047479
24	0xbf0a49c7	-0.54018825
25	0xbf32f0d8	-0.6989875
26	0x3f883149	1.0640041
27	0xbf834236	-1.0254581
28	0x3f0bc0cb	0.54591054
29	0x3f27868a	0.65439665
30	0xbf0fb4f2	-0.56135476
31	0x3efcf246	0.4940359
32	0xbf60ce8c	-0.87815166
33	0xbee0ec0c	-0.4393009
34	0xbf167b85	-0.58782226
35	0xbf9d93ad	-1.2310692
36	0xbfa61321	-1.2974588
37	0xbf2d26f5	-0.6763757
38	0xbf651f8d	-0.8950127
39	0x3e8c1a44	0.2736379
40	0x3e3d58df	0.18490933
41	0x3f53ed6a	0.8278414
42	0xbf1b22a6	-0.60599744
43	0xbf0973f6	-0.5369257
44	0xbf348f80	-0.70531464
45	0x3f695473	0.91144484
46	0xbf805dfa	-1.0028679
47	0xbf3b49a3	-0.73159236
48	0xbf9e1f95	-1.2353388
49	0x3fa6436f	1.2989329
50	0xbf9c591f	-1.2214698
51	0xbfe60d93	-1.7972893
52	0xbf8939a5	-1.0720717
53	0xbf175f0a	-0.59129393
54	0xbf39f407	-0.7263798
55	0x3f8292c9	1.0201045
56	0xbfa7e263	-1.3115963
57	0xbf3b08cc	-0.730603
58	0x3f45eb5f	0.7731227
59	0xbf2a57d7	-0.6654028
60	0xbf2fa379	-0.68608814
61	0xbfa70c01	-1.3050538
62	0xbf6cb687	-0.92466015
63	0xbf35adde	-0.70968425
