code/gnn/models/training/GAT/total/5/best_model.pt (torch, 266466 bytes, 10 tensors)

layers.0.att f4 [1, 8, 128]
0.21094765 -0.031169578 0.07272985 -0.18850596 0.086407565 -0.038059782 0.15305229 -0.3528824
-0.0057586143 -0.41165692 0.15585816 0.016653745 0.14902027 0.065226726 -0.17857003 -0.28122315
0.16297884 -0.060066316 -0.12733082 0.14786455 0.10306535 0.14534263 -0.22281386 -0.13712668
0.18930465 0.2867093 -0.19983816 -0.15212387 -0.23047148 -0.08203057 -0.25313345 -0.14164816
-0.08618726 -0.24350576 0.24913551 -0.19533248 0.18334478 -0.15901573 0.12880717 -0.22604853
0.28724393 0.23506452 -0.20132492 0.16901149 0.18377802 0.2514867 0.050249703 -0.17042851
0.093672656 0.052490406 -0.12634994 0.2315843 0.22912818 0.16494824 -0.17284511 -0.25478378
-0.03169656 -0.22521345 0.040402956 0.14245218 0.29975793 -0.26801512 0.19319078 -0.31654698
0.0032954908 -0.17572293 -0.13826951 0.06739535 0.2027572 0.09053999 -0.3743541 -0.19206071
-0.16565989 0.18571933 -0.280017 -0.26494738 0.0025047152 0.19937156 -0.15039933 -0.2743752
0.049458366 -0.096039705 -0.33839875 0.26587674 -0.03149844 -0.43950576 -0.19212526 -0.28021425
-0.18642502 0.15221454 0.19121504 -0.14279152 0.2066689 -0.30439362 0.18809 -0.23537876
-0.3282504 -0.09716619 0.123921454 0.061716024 -0.077502705 0.09415117 -0.13314609 0.012165048
0.253002 0.2935577 -0.23586494 -0.42492357 0.24003406 -0.24542707 0.10259173 0.056037392
-0.27967218 -0.44508505 -0.16970627 0.07123012 0.09557921 0.09455783 0.11864038 0.15454052
-0.1648453 -0.0806217 -0.107823566 0.1382515 -0.11248423 0.28795898 -0.2051412 0.15320168
0.18707672 0.022546334 -0.07611939 0.06630668 0.108892165 0.09708394 -0.17892826 0.1492873
0.08593365 0.07637593 0.02801441 -0.21031292 -0.1397423 0.18876319 -0.306336 -0.22206259
0.22918643 -0.06906699 -0.07980052 0.24133012 -0.20963766 0.18610264 -0.15184277 -0.002315712
0.0018059995 -0.12492292 0.20740545 0.31020325 0.19349708 -0.045464184 -0.27341372 0.14347084
0.14548236 0.21155076 0.06543106 0.12978217 0.32483515 -0.17935362 0.061725415 0.1718918
0.0878012 0.053271737 0.22182949 -0.09502246 0.16228546 -0.22123711 -0.09323347 0.18997449
-0.1679538 -0.018286714 0.09960075 -0.17917736 0.24920739 0.1619211 -0.04577166 -0.09737289
0.18748172 -0.18367149 -0.032361344 0.059335656 -0.1965028 0.24041136 -0.028712263 -0.12030648
0.10281355 -0.16225253 0.08047588 -0.29890645 0.11569032 0.113451816 -0.14508201 -0.3528032
0.16596779 -0.14531085 -0.1905 0.12951756 -0.008696413 0.18593659 0.1364576 -0.03820092
-0.046999864 0.091238 -0.09908516 -0.21740243 0.18343182 0.0074869455 0.21744889 0.09207614
-0.046101004 0.11227198 -0.12182401 0.36687797 -0.15712231 -0.118718475 0.11640532 -0.05255362
-0.026094997 0.41525388 0.16976495 -0.11431889 0.15653239 -0.2536469 0.31587952 0.028245892
-0.06679469 -0.046841238 -0.0826046 -0.31718168 -0.024141846 -0.1250793 -0.082179874 -0.065142676
-0.060168732 -0.18796691 -0.10766973 0.16201288 -0.29737577 0.08200446 -0.247473 -0.39256147
-0.033108715 -0.042060558 0.2060283 -0.07297963 -0.08006075 -0.25043413 0.33228865 -0.12106353
00000000: a902 583e 5857 ffbc 63f3 943d b507 41be
00000010: 73f6 b03d 93e4 1bbd bdb9 1c3e 00ad b4be
00000020: c2b2 bcbb b2c4 d2be 4899 1f3e 6f6d 883c
00000030: c598 183e 9795 853d 10db 36be 7bfc 8fbe
00000040: ede3 263e 1908 76bd 0363 02be ce69 173e
00000050: ed13 d33d b3d4 143e 5129 64be f06a 0cbe
00000060: 14d9 413e 90cb 923e 60a2 4cbe 5cc6 1bbe
00000070: b700 6cbe a5ff a7bd b59a 81be 370c 11be
00000080: f282 b0bd 9359 79be 611d 7f3e 3d05 48be
00000090: bcbe 3b3e 05d5 22be 07e6 033e 4479 67be
000000a0: a311 933e c1b4 703e 1f28 4ebe 5911 2d3e
000000b0: 4e30 3c3e ddc2 803e a2d2 4d3d d084 2ebe
000000c0: 73d7 bf3d 2e00 573d e161 01be 6f24 6d3e
000000d0: 94a0 6a3e 31e8 283e 4ffe 30be 0573 82be
000000e0: 41d4 01bd 5b9e 66be 927d 253d fcde 113e
000000f0: df79 993e 4739 89be ced3 453e 7212 a2be
00000100: 29f9 573b b6f0 33be 8696 0dbe 9306 8a3d
00000110: 959f 4f3e 086d b93d 57ab bfbe 90ab 44be
00000120: bfa2 29be 352d 3e3e 635e 8fbe 2fa7 87be
00000130: 2626 243b 0f28 4c3e 4802 1abe e87a 8cbe
00000140: db94 4a3d 77b0 c4bd 9a42 adbe ff20 883e
00000150: 8204 01bd e606 e1be 7cbc 44be 3e78 8fbe
00000160: 33e6 3ebe 21de 1b3e e0cd 433e f137 12be
00000170: 03a1 533e 7bd9 9bbe aa9a 403e 2107 71be
00000180: 7010 a8be 11ff c6bd 88ca fd3d f1c9 7c3d
00000190: bdb9 9ebd 54d2 c03d 7357 08be e94f 473c
000001a0: 7a89 813e 324d 963e 9486 71be 958f d9be
000001b0: 7dcb 753e 3c51 7bbe 9d1b d23d 7787 653d
000001c0: 3131 8fbe 30e2 e3be 7bc7 2dbe 19e1 913d
000001d0: 08bf c33d 89a7 c13d baf9 f23d df3f 1e3e
000001e0: 35cd 28be fd1c a5bd 9ad2 dcbd cd91 0d3e
000001f0: 225e e6bd 5c6f 933e 8910 52be e7e0 1c3e
00000200: 0a91 3f3e 17b3 b83c 7ce4 9bbd cccb 873d
00000210: db02 df3d f2d3 c63d f838 37be c5de 183e
00000220: fbfd af3d fc6a 9c3d 7a7e e53c 455c 57be
00000230: 9b18 0fbe 234b 413e 12d8 9cbe 6064 63be
00000240: d9af 6a3e fe72 8dbd 746e a3bd 3e1f 773e
00000250: 41ab 56be b191 3e3e ac7c 1bbe 33c3 17bb
00000260: 4ab7 ec3a 96d7 ffbd 1862 543e f6d2 9e3e
00000270: 1924 463e a738 3abd e2fc 8bbe 05ea 123e
00000280: 54f9 143e c3a0 583e b800 863d 9ee5 043e
00000290: cb50 a63e 7aa8 37be cad3 7c3d 6704 303e
000002a0: 1ed1 b33d 7733 5a3d 4527 633e 239b c2bd
000002b0: 292e 263e fb8b 62be 31f1 bebd ac88 423e
000002c0: 15fc 2bbe 05ce 95bc 7afb cb3d 457a 37be
000002d0: 3930 7f3e a5ce 253e 107b 3bbd 706b c7bd
000002e0: 35fb 3f3e 6114 3cbe 548d 04bd f209 733d
000002f0: 0838 49be 652e 763e fb35 ebbc 3e63 f6bd
00000300: e98f d23d 8725 26be 8ad0 a43d 440a 99be
00000310: 0cef ec3d 6d59 e83d 6190 14be 9fa2 b4be
00000320: 76f3 293e 5ecc 14be 6f12 43be 40a0 043e
00000330: 667b 0ebc 2966 3e3e 8bbb 0b3e 9178 1cbd
00000340: ee82 40bd fdda ba3d 29ed cabd be9e 5ebe
00000350: 8dd5 3b3e 0d55 f53b ecaa 5e3e 6a92 bc3d
00000360: 68d4 3cbd daee e53d de7e f9bd 6ed7 bb3e
00000370: ace4 20be ac22 f3bd ea65 ee3d 7742 57bd
00000380: 2dc5 d5bc 289c d43e ddd6 2d3e 0620 eabd
00000390: 074a 203e 02de 81be f6ba a13e ee63 e73c
000003a0: a8cb 88bd 99dc 3fbd 9a2c a9bd a365 a2be
000003b0: 1fc5 c5bc ca14 00be ec4d a8bd 8669 85bd
000003c0: 7d73 76bd 667a 40be f381 dcbd b4e6 253e
000003d0: a341 98be f4f1 a73d 9069 7dbe d1fd c8be
000003e0: 019d 07bd b147 2cbd 15f9 523e 5876 95bd
000003f0: e4f6 a3bd e738 80be bd21 aa3e 28f0 f7bd

layers.0.lin_l.weight f4 [1024, 14]
-0.007605174 0.16438283 -0.050193343 -0.079365246 -0.11329522 0.05582174 0.05261477 0.10961267
0.024054449 -0.11784759 0.15755476 -0.103191845 -0.06574918 0.06760809 -0.19401051 -0.13069613
0.017581733 0.06267142 0.016371008 0.024315067 0.044284854 -0.062978 -0.04324835 0.13495952
-0.107935 -0.054621585 -0.04929348 -0.0045331647 -0.13865475 -0.071011186 -0.019636955 0.03795407
-0.021938717 0.20761737 -0.036344294 -0.051975876 -0.00104934 0.047840368 -0.14735593 0.025635967
0.07991353 0.03641453 0.08998566 0.05561587 0.07614656 -0.038815625 0.06443058 0.072332874
-0.0210044 -0.06285145 0.1669923 -0.041994777 0.14710824 -0.1993553 -0.015051588 -0.083504
-0.10265327 -0.05396763 0.029075941 0.0245413 -0.061816353 0.19614229 0.045011833 -0.025746012
-0.0002022144 -0.0038233914 -0.21875475 0.06161364 0.21503425 -0.022748303 0.023301486 0.0041414383
0.012741369 0.014770326 -0.04799067 -0.13718782 -0.010518597 0.015322991 0.002248154 -0.013877681
0.15880859 -0.012511223 -0.041589983 -0.087033324 -0.16010694 0.029253094 0.06947875 -0.027702447
-0.12427944 0.17832503 0.010835968 -0.062158894 -0.02534561 -0.041797426 0.001311952 -0.004765684
0.14716439 -0.060072713 -0.20549284 -0.13894948 0.054099675 -0.0235459 -0.07293017 -0.054037638
0.012340487 0.039045665 -0.053478155 0.034646988 -0.17511491 0.14174843 0.024167325 -0.11426422
-0.16501746 -0.058061644 -0.028246075 0.061935343 0.051632326 0.12537472 -0.09110809 -0.07362838
0.022108579 0.16798416 -0.08551361 -0.08954349 0.10825974 -0.06588149 -0.19120538 -0.07862013
0.15917453 -0.029220112 -0.10703087 0.0647771 0.039706264 0.11768816 -0.045779962 0.093369335
-0.09401921 -0.06926334 0.1299795 -0.08369457 -0.025922347 -0.099623024 -0.16715917 0.03410336
0.10713317 -0.062418096 -0.077434696 -0.094583124 0.025436314 0.05422644 -0.20673102 0.12163602
0.05489133 0.09824318 0.079511836 0.17645484 0.02936706 -0.047763437 0.05263049 0.020253114
-0.114349574 -0.12874311 0.055007853 0.037278406 0.0846337 -0.049182452 -0.24698201 0.016486472
-0.047347605 -0.040957663 -0.23073262 0.060094617 -0.075795 0.05683947 0.056555294 0.027109649
-0.071535714 -0.011707141 -0.12268231 0.039451968 0.10647253 -0.09734855 -0.09447284 0.1505054
0.002645209 -0.15584515 0.033062004 -0.097015455 0.027013892 -0.05589809 0.043822307 0.0394921
0.012697684 0.09079605 -0.038289838 0.041959517 -0.03383624 0.13819997 0.06160854 0.021548813
-0.16584207 0.058258813 0.07946812 0.084336326 0.038312614 -0.13301226 0.038799472 -0.09700466
0.089565694 -0.14073114 0.005220352 0.1005449 0.10229797 -0.10351556 -0.020072361 0.1622911
-0.004427614 -0.08651408 0.078768246 -0.11527745 0.046286248 -0.15393658 -0.058304496 0.20817757
-0.1465435 -0.16409667 -0.039380718 0.0034022264 -0.04779202 0.07565163 -0.06622202 -0.07824475
-0.09087212 0.040700424 -0.25579715 0.10604616 0.22868936 0.019602949 -0.10952955 -0.05851532
0.07660469 -0.032146428 -0.11089176 -0.008285002 0.14079738 0.12267029 -0.095240235 0.019745052
-0.15135069 0.00023502982 0.06220273 -0.024527647 -0.013466273 0.03222422 -0.0018271735 0.056374144
00000000: d334 f9bb f953 283e 8997 4dbd 3f8a a2bd
00000010: 5307 e8bd 56a5 643d 9682 573d 9c7c e03d
00000020: d60d c53c 145a f1bd 0956 213e 3f56 d3bd
00000030: 82a7 86bd 1c76 8a3d b1aa 46be 35d5 05be
00000040: 9107 903c e059 803d 7e1c 863c 6430 c73c
00000050: 0964 353d 9cfa 80bd 2f25 31bd d432 0a3e
00000060: 060d ddbd e2ba 5fbd f6e7 49bd f18a 94bb
00000070: 83fb 0dbe 506e 91bd aedd a0bc ba75 1b3d
00000080: d3b8 b3bc a699 543e c1dd 14bd a8e4 54bd
00000090: 028a 89ba 43f4 433d 79e4 16be 8502 d23c
000000a0: b4a9 a33d 6727 153d 674a b83d 77cd 633d
000000b0: baf2 9b3d 22fd 1ebd 2ef4 833d 4223 943d
000000c0: 6b11 acbc 43b8 80bd 0800 2b3e b702 2cbd
000000d0: 8ba3 163e cc23 4cbe f09a 76bc 2504 abbd
000000e0: e13b d2bd 290d 5dbd ab30 ee3c d60a c93c
000000f0: 2533 7dbd 86d9 483e 545e 383d 4de9 d2bc
00000100: 8409 54b9 dd91 7abb 3f01 60be 965e 7c3d
00000110: f031 5c3e a65a babc c2e2 be3c e7b4 873b
00000120: 2dc1 503c 3dff 713c dd91 44bd f77a 0cbe
00000130: 3256 2cbc 480d 7b3c c455 133b 375f 63bc
00000140: b89e 223e dffb 4cbc 425a 2abd 873e b2bd
00000150: 13f3 23be 2fa4 ef3c e04a 8e3d 3ef0 e2bc
00000160: 3886 febd d69a 363e 5889 313c 539a 7ebd
00000170: 99a1 cfbc c733 2bbd cef5 ab3a 7429 9cbb
00000180: 43b2 163e ce0e 76bd b76c 52be c648 0ebe
00000190: 9f97 5d3d 55e3 c0bc 6a5c 95bd 9256 5dbd
000001a0: c12f 4a3c 59ee 1f3d e90b 5bbd 00ea 0d3d
000001b0: 5351 33be 8026 113e 8efa c53c 5c03 eabd
000001c0: 56fa 28be 0cd2 6dbd 5064 e7bc eaaf 7d3d
000001d0: 6b7c 533d 3b62 003e e196 babd 7aca 96bd
000001e0: 0d1d b53c 0a04 2c3e c221 afbd 9462 b7bd
000001f0: 48b7 dd3d e0ec 86bd 58cb 43be 9703 a1bd
00000200: a6fe 223e 045f efbc 0033 dbbd dba9 843d
00000210: 09a3 223d 7d06 f13d c583 3bbd 6c38 bf3d
00000220: 258d c0bd f0d9 8dbd 5919 053e 0f68 abbd
00000230: 1a5b d4bc 2807 ccbd c62b 2bbe f7af 0b3d
00000240: a368 db3d 1eaa 7fbd 1596 9ebd ccb4 c1bd
00000250: d15f d03c 8b1c 5e3d 4cb1 53be 4e1c f93d
00000260: bbd5 603d b833 c93d 1ad7 a23d 94b0 343e
00000270: 3093 f03c 98a3 43bd 1293 573d dce9 a53c
00000280: 1c30 eabd 3cd5 03be ea4f 613d 3eb1 183d
00000290: 6f54 ad3d 8a73 49bd dae8 7cbe a30e 873c
000002a0: 90ef 41bd 39c3 27bd 2c45 6cbe c625 763d
000002b0: 693a 9bbd 81d0 683d 86a6 673d 0e15 de3c
000002c0: 5181 92bd 4fcf 3fbc dd40 fbbd 6398 213d
000002d0: 450e da3d ad5e c7bd fa7a c1bd 161e 1a3e
000002e0: 3e5b 2d3b df95 1fbe 066c 073d 0ab0 c6bd
000002f0: 3d4c dd3c 65f5 64bd 057f 333d 78c2 213d
00000300: f209 503c 48f3 b93d ced5 1cbd bedd 2b3d
00000310: df97 0abd 4b84 0d3e 3d59 7c3d 2387 b03c
00000320: 81d2 29be cba0 6e3d 2fc0 a23d 86b8 ac3d
00000330: b0ed 1c3d 5e34 08be 32ec 1e3d 61aa c6bd
00000340: 386e b73d d31b 10be 7d0f ab3b 7cea cd3d
00000350: 9981 d13d f7ff d3bd cb6e a4bc a32f 263e
00000360: 8515 91bb 4b2e b1bd 3f51 a13d 9516 ecbd
00000370: a696 3d3d 8da1 1dbe b2d0 6ebd 802c 553e
00000380: 800f 16be f508 28be ad4d 21bd e3f7 5e3b
00000390: 91c1 43bd 3eef 9a3d 699f 87bd c93e a0bd
000003a0: 291b babd 7db5 263d d8f7 82be bb2e d93d
000003b0: 8b2d 6a3e 5d96 a03c 0751 e0bd c3ad 6fbd
000003c0: ebe2 9c3d f9ab 03bd 381b e3bd d1bd 07bc
000003d0: 302d 103e 903a fb3d 500d c3bd 60c0 a13c
000003e0: adfb 1abe 5672 7639 4ac8 7e3d 34ee c8bc
000003f0: a5a1 5cbc 8bfd 033d c57d efba 93e8 663d

layers.0.lin_r.weight f4 [1024, 14]
0.068396285 -0.04043658 -0.10752765 0.34726638 0.00920887 -0.02386344 -0.065588914 0.08983463
-0.07633674 0.15415634 -0.10645156 -0.12047854 0.019246519 -0.0064107436 0.013049257 -0.043191224
-0.05372285 0.05240796 0.04389781 -0.05254857 -0.029004518 -0.03939019 0.13464645 -0.050271098
-0.11976205 -0.026507506 -0.0718127 0.038753737 -0.32400957 0.013988841 0.0021219563 0.01665854
0.11809983 -0.006966959 -0.0005861159 -0.1967962 0.27166647 -0.058247432 0.16350101 0.020233266
-0.20503184 -0.11206061 -0.03985862 -0.023119088 0.04644969 0.080350466 -0.121409565 0.045628723
0.12859644 0.16363013 0.09656299 -0.19048288 0.025483355 -0.041665394 0.01707804 0.04052871
0.12466488 0.27940148 -0.22863612 -0.15163647 -0.10299762 0.28213713 0.026843872 -0.06067784
0.0072380803 0.07529197 0.04814096 -0.036757026 -0.07656051 0.1575371 -0.20335045 -0.012986516
0.041901987 -0.1500481 0.15392956 -0.07274179 -0.0192335 -0.08969268 0.24717747 -0.066507384
0.13413818 -0.04441939 0.10372324 -0.019573428 -0.35991436 -0.20954601 -0.03630946 -0.04383711
-0.0135608595 0.08107423 0.11146604 -0.17702311 -0.17338018 0.040080156 -0.20780341 0.12209735
-0.17797992 0.15520968 0.14217764 0.11906081 -0.018523458 0.024220029 0.1553648 -0.23408104
-0.17191471 -0.0028980249 -0.04401303 0.07279471 -0.12942863 0.03472532 -0.074571446 -0.018895542
-0.0133716045 0.12874964 -0.052812785 0.06350748 0.039782334 -0.051056754 0.036104627 -0.1588814
0.110981494 -0.02728245 0.12712972 0.016951788 0.041483734 0.21709272 0.35471782 0.12818749
-0.07151316 0.1479074 0.0015118801 0.035520025 0.0066405567 -0.054332353 -0.22155534 0.019648332
-0.106439546 -0.023991324 0.12034362 0.017520053 0.10755119 0.11912081 -0.12410198 -0.21825562
-0.01603232 0.12721027 0.10377608 -0.07569872 0.103236414 -0.0915467 -0.13190702 0.18548888
-0.20087422 0.18428224 0.13753228 0.011821401 0.010144261 -0.013969924 0.082412556 -0.10003239
0.028340897 -0.06970843 0.14636299 -0.010925172 0.060356893 -0.022839593 0.05802753 -0.016040213
0.09404605 0.09146691 -0.20285328 0.020263966 -0.009607678 0.076929905 0.14209567 -0.033049386
0.16745844 -0.024137968 0.13611211 -0.114943616 -0.12003961 0.15184912 -0.032534838 -0.07269596
0.19290765 0.04546541 0.09286762 -0.1036907 -0.06885441 0.09305655 0.009625867 0.17173137
0.0646156 -0.13059033 0.08836369 0.03494947 -0.12244335 -0.018240325 0.03067809 -0.11831165
-0.025596607 0.110836424 0.033163674 -0.05254018 0.038123373 0.13984115 -0.041963622 0.054579724
0.09986306 -0.6041621 0.11088431 0.040684033 0.13055813 -0.17344835 -0.08219763 0.11193062
0.10539547 -0.15795913 0.021078575 -0.0881485 0.17137036 0.0061553637 -0.012769171 0.20840557
-0.28722173 -0.0037080913 0.13210031 -0.089730486 -0.056685004 0.13378336 0.10889338 0.003030305
0.055083 -0.051439464 0.14273733 0.045360923 -0.13780716 0.09916171 -0.003314411 -0.1134849
0.040111385 0.16072905 0.027460577 -0.10394175 -0.18674026 0.03438569 -0.09913712 0.2547717
0.20260741 0.12798245 -0.026554793 -0.268488 -0.18882173 -0.27972877 0.08173988 0.06770887
00000000: 5a13 8c3d d4a0 25bd 7537 dcbd e6cc b13e
00000010: cde0 163c 437d c3bc 7b53 86bd 38fb b73d
00000020: 7056 9cbd 29db 1d3e 4703 dabd 74bd f6bd
00000030: e0aa 9d3c 3711 d2bb 8dcc 553c 48e9 30bd
00000040: 7e0c 5cbd bba9 563d 31ce 333d 2b3d 57bd
00000050: e29a edbc 9c57 21bd c2e0 093e 11e9 4dbd
00000060: ce45 f5bd 4526 d9bc 8912 93bd 3dbc 1e3d
00000070: 95e4 a5be 7431 653c 8510 0b3b 7e77 883c
00000080: 53de f13d 174b e4bb 92a5 19ba f184 49be
00000090: de17 8b3e dc94 6ebd cf6c 273e 3cc0 a53c
000000a0: def3 51be 0880 e5bd cb42 23bd 3e64 bdbc
000000b0: 0842 3e3d c98e a43d 94a5 f8bd 2fe5 3a3d
000000c0: c9ae 033e a88e 273e d1c2 c53d f20d 43be
000000d0: 78c2 d03c 55a9 2abd 3fe7 8b3c 6f01 263d
000000e0: 4d50 ff3d b60d 8f3e 961f 6abe 9746 1bbe
000000f0: 6bf0 d2bd 4774 903e aee7 db3c 5489 78bd
00000100: 6b2d ed3b ad32 9a3d 752f 453d 898e 16bd
00000110: c2cb 9cbd 6851 213e 1a3b 50be 65c5 54bc
00000120: 6ba1 2b3d 36a6 19be b69f 1d3e a6f9 94bd
00000130: 938f 9dbc ccb0 b7bd 171c 7d3e 0635 88bd
00000140: 855b 093e 1bf1 35bd da6c d43d 7458 a0bc
00000150: b246 b8be 3b93 56be 3ab9 14bd 8b8e 33bd
00000160: 5e2e 5ebc 3f0a a63d 4f48 e43d 8c45 35be
00000170: 938a 31be 172b 243d 6bca 54be 2d0e fa3d
00000180: 5e40 36be 49ef 1e3e 0497 113e 27d6 f33d
00000190: 82be 97bc 1569 c63c f317 1f3e f1b2 6fbe
000001a0: 690a 30be caec 3dbb 0247 34bd 6515 953d
000001b0: f088 04be 233c 0e3d eab8 98bd d3ca 9abc
000001c0: 9314 5bbc f2d6 033e 3852 58bd 3610 823d
000001d0: cdf2 223d e320 51bd 72e2 133d ceb1 22be
000001e0: 444a e33d 727f dfbc 4b2e 023e 7ade 8a3c
000001f0: d9ea 293d 8e4d 5e3e 939d b53e 9543 033e
00000200: 7e75 92bd 0a75 173e 472a c63a 727d 113d
00000210: 0799 d93b 9a8b 5ebd 67df 62be 8af5 a03c
00000220: fafc d9bd 7489 c4bc b776 f63d 3786 8f3c
00000230: cc43 dc3d 9cf5 f33d 2e29 febd 677e 5fbe
00000240: 3656 83bc 6943 023e 8e88 d43d ee07 9bbd
00000250: 9d6d d33d d67c bbbd a212 07be ccf0 3d3e
00000260: f9b1 4dbe 7cb4 3c3e 43d5 0c3e 8dae 413c
00000270: 1d34 263c 1ce2 64bc eac7 a83d c8dd ccbd
00000280: 2b2b e83c 4bc3 8ebd 2ee0 153e 7eff 32bc
00000290: ca38 773d 191a bbbc 46ae 6d3d c466 83bc
000002a0: 379b c03d 0153 bb3d c5b8 4fbe 9e00 a63c
000002b0: 8669 1dbc 6d8d 9d3d 8781 113e cb5e 07bd
000002c0: 3a7a 2b3e fdbc c5bc f960 0b3e 8f67 ebbd
000002d0: 54d7 f5bd 567e 1b3e 4043 05bd 9fe1 94bd
000002e0: 9589 453e f039 3a3d 6131 be3d ca5b d4bd
000002f0: 8a03 8dbd 6f94 be3d d0b5 1d3c 59da 2f3e
00000300: 2f55 843d 79b9 05be 06f8 b43d 2d27 0f3d
00000310: 94c3 fabd bc6c 95bc 9e50 fb3c 614d f2bd
00000320: faaf d1bc 35fe e23d a2d6 073d 5f34 57bd
00000330: 4127 1c3d 8532 0f3e 0ce2 2bbd fd8e 5f3d
00000340: 0185 cc3d 5eaa 1abf 5017 e33d 4da4 263d
00000350: 08b1 053e 729c 31be 3b57 a8bd e23b e53d
00000360: 95d9 d73d 0ac0 21be faac ac3c 3387 b4bd
00000370: b67b 2f3e efb2 c93b c935 51bc 4568 553e
00000380: ba0e 93be 7303 73bb 4e45 073e 9ec4 b7bd
00000390: 892e 68bd 81fe 083e 7e03 df3d 1598 463b
000003a0: b69e 613d 30b2 52bd bc29 123e 60cc 393d
000003b0: 521d 0dbe 4b15 cb3d 9736 59bb c56a e8bd
000003c0: d64b 243d 2896 243e 01f5 e03c 6adf d4bd
000003d0: d738 3fbe 02d8 0c3d 6708 cbbd 7071 823e
000003e0: 5178 4f3e d50d 033e 7089 d9bc 4277 89be
000003f0: 7c5a 41be 9c38 8fbe 3d67 a73d f3aa 8a3d

layers.0.lin_edge.weight f4 [1024, 4]
0.0067884503 0.0908857 -0.061696403 0.13900004 -0.112321444 0.10270808 0.11206912 0.072061956
0.016386248 0.18726265 0.0927767 0.01929295 0.0029696652 -0.30350584 -0.07829207 -0.3113429
0.10648633 0.2697103 -0.07116217 0.114472516 -0.022290459 -0.08942422 0.13173258 -0.1855211
0.029295193 0.35574684 -0.110871635 0.13270053 -0.029382711 0.12562136 -0.20673461 -0.10317432
-0.082741134 0.13752885 0.069343306 0.039259356 -0.017720053 -0.068588525 -0.30338565 -0.15637065
0.15869565 0.24253824 -0.06290768 0.08960367 -0.06281352 0.12616105 -0.07797661 0.10668088
0.1241255 0.240038 0.009897909 0.060480375 0.18204586 0.32850045 -0.031431504 0.055175196
-0.039887227 -0.30229118 0.059838988 -0.3319903 0.019121947 -0.28769326 0.19038513 -0.15753813
0.04910647 0.2327141 0.046862345 0.101795964 -8.612491e-05 -0.19052476 0.090064615 -0.09134192
-0.05464954 -0.18221866 0.15255898 -0.14121965 0.054011766 0.33326983 -0.07086048 0.1507847
0.030730167 0.2367264 -0.022962404 0.14617537 -0.040874295 0.27572173 0.023146449 0.32676676
-0.08745262 -0.1526162 -0.1305237 0.0016406107 0.013872844 -0.036173712 0.04887176 -0.20065701
0.15585476 0.27107707 0.015921393 0.11771115 -0.009971066 0.20187102 -0.18673551 0.24553376
-0.06225549 -0.039549213 0.04464093 0.11509888 -0.04347395 -0.3232514 0.11159946 -0.11543733
-0.17775252 -0.25696912 0.0040491936 -0.08993947 -0.0005795012 -0.23398776 0.08175056 -0.0038999212
0.034002643 -0.3500841 0.056268506 -0.20192592 -0.13500014 -0.31748825 0.012640877 -0.056284502
-0.13383207 -0.21501562 0.067226134 -0.1164681 -0.123264454 -0.2894261 -0.0075889584 -0.049210414
0.15969084 0.31677312 -0.054138295 0.076124795 0.016856484 -0.45983142 0.07561217 -0.20628396
0.11395457 0.17545906 0.08532333 0.07580209 -0.004129414 -0.2261819 -0.05498121 -0.017773537
0.16496664 0.2935437 -0.030654881 0.13652657 -0.029254187 -0.031198733 -0.12429864 -0.14315246
0.023873303 0.19458275 0.043077193 0.13779284 -0.047847997 0.020309472 -0.10925787 0.12992291
-0.16597152 -0.23582998 0.0033792418 -0.14935333 0.18394206 0.26270935 -0.061221384 0.16460782
0.16544716 0.30987653 0.012557869 0.15184663 0.14493042 0.24812382 -0.02889913 0.045357354
0.115104795 0.24310243 -0.011610209 0.032216873 -0.032560933 -0.24897337 0.061752237 -0.09245714
0.15580024 0.32340205 -0.065899394 0.04254249 0.16331926 0.19831723 -0.018230112 0.025079988
0.009141127 -0.49418923 0.14323677 -0.20721443 0.024513379 0.15600605 0.15734762 0.17043822
0.17054835 0.29530355 -0.05436072 0.06929973 0.02062194 0.36009985 0.17514274 0.047515173
0.025902096 -0.2266447 0.14742485 -0.29135987 -0.022104768 -0.06384776 -0.19169755 -0.06691483
-0.09239144 -0.1381605 0.025829101 -0.04892653 -0.16499847 -0.24619533 0.01685221 -0.15181324
-0.054692905 0.11817344 -0.15766655 -0.050712034 -0.006664893 0.25755933 0.03684105 -0.042776544
-0.027891714 -0.07782053 0.11547734 0.24161646 -0.061688367 -0.118183784 -0.2872268 -0.11425318
0.0049300585 -0.031094704 0.10774478 0.07314467 -0.025894511 -0.049019758 -0.05215735 -0.14951396
00000000: a671 de3b 4822 ba3d 5eb5 7cbd 0756 0e3e
00000010: c908 e6bd 9d58 d23d 7f84 e53d 3895 933d
00000020: 743c 863c c8c1 3f3e b601 be3d 400c 9e3c
00000030: b79e 423b 1e65 9bbe 9857 a0bd 5668 9fbe
00000040: 8115 da3d 7817 8a3e 79bd 91bd 9170 ea3d
00000050: 7b9a b6bc 0c24 b7bd e8e4 063e 3ef9 3dbe
00000060: 79fc ef3c 7324 b63e ab10 e3bd a6e2 073e
00000070: 03b4 f0bc e3a2 003e 3db2 53be 0f4d d3bd
00000080: 2f74 a9bd 5dd4 0c3e dd03 8e3d 6bce 203d
00000090: a529 91bc 2478 8cbd 5d55 9bbe a11f 20be
000000a0: 1d81 223e f25b 783e bed5 80bd 2182 b73d
000000b0: 60a4 80bd 5d30 013e 33b2 9fbd 817b da3d
000000c0: 8335 fe3d 85cc 753e d72a 223c 45ba 773d
000000d0: 3b6a 3a3e 3631 a83e 52be 00bd 63ff 613d
000000e0: ca60 23bd e9c5 9abe ba19 753d a2fa a9be
000000f0: a1a5 9c3c 884c 93be 52f4 423e ad51 21be
00000100: de23 493d 9b4c 6e3e bbf2 3f3d 677a d03d
00000110: f59d b4b8 ec18 43be cc73 b83d 7911 bbbd
00000120: 32d8 5fbd 8797 3abe 6c38 1c3e e29b 10be
00000130: 713b 5d3d 58a2 aa3e 4d1f 91bd 4e67 1a3e
00000140: d5bd fb3c 6868 723e a71b bcbc ffae 153e
00000150: ce6b 27bd 662b 8d3e 9f9d bd3c f94d a73e
00000160: 5c1a b3bd 6c47 1cbe 01a8 05be c309 d73a
00000170: ed4a 633c e32a 14bd c12d 483d 0879 4dbe
00000180: 6498 1f3e 9dca 8a3e 956d 823c 8b12 f13d
00000190: af5d 23bc 47b7 4e3e 9837 3fbe 346d 7b3e
000001a0: 9dff 7ebd 5bfe 21bd 68d9 363d f6b8 eb3d
000001b0: be11 32bd 3581 a5be 428e e43d 686a ecbd
000001c0: c204 36be 7591 83be 19af 843b 2f32 b8bd
000001d0: abe9 17ba 7d9a 6fbe d66c a73d d295 7fbb
000001e0: 5b46 0b3d 393e b3be ce79 663d abc5 4ebe
000001f0: 7a3d 0abe d28d a2be ae1b 4f3c 948a 66bd
00000200: 460b 09be 0e2d 5cbe dbad 893d d486 eebd
00000210: 1372 fcbd a82f 94be ccac f8bb dc90 49bd
00000220: ff85 233e 1630 a23e 1ec0 5dbd 51e7 9b3d
00000230: 9c16 8a3c 066f ebbe 8eda 9a3d 1a3c 53be
00000240: 0361 e93d 8aab 333e ffbd ae3d 203e 9b3d
00000250: 0950 87bb 3a9c 67be fa33 61bd cf99 91bc
00000260: 04ed 283e 5c4b 963e f21f fbbc 9fcd 0b3e
00000270: 7aa6 efbc 7c94 ffbc 4990 febd 8f96 12be
00000280: f291 c33c b340 473e b671 303d 9119 0d3e
00000290: 43fc 43bd 0d60 a63c 97c2 dfbd 830a 053e
000002a0: 70f4 29be 6a7d 71be 4576 5d3b 14f0 18be
000002b0: 4f5b 3c3e d781 863e 46c3 7abd f48e 283e
000002c0: fb6a 293e 23a8 9e3e 85bf 4d3c af7d 1b3e
000002d0: a468 143e 2c14 7e3e debd ecbc a2c8 393d
000002e0: 10bc eb3d d8ef 783e bf38 3ebc d7f5 033d
000002f0: 9d5e 05bd e0f2 7ebe eaef 7c3d 2b5a bdbd
00000300: 198a 1f3e f494 a53e 43f6 86bd 0941 2e3d
00000310: 2a3d 273e ac13 4b3e 5157 95bc 8c74 cd3c
00000320: aac4 153c 5f06 fdbe a9ac 123e 0530 54be
00000330: 48d0 c83c 0dc0 1f3e bc1f 213e 5b87 2e3e
00000340: 3aa4 2e3e 0732 973e 59a9 5ebd 04ed 8d3d
00000350: 58ef a83c 025f b83e 9e58 333e 459f 423d
00000360: a230 d43c 8c15 68be 8af6 163e 1f2d 95be
00000370: 0f15 b5bc 9dc2 82bd 5d4c 44be a40a 89bd
00000380: b937 bdbd f279 0dbe 8d97 d33c 2f67 48bd
00000390: 5cf5 28be a11a 7cbe a50d 8a3c ee74 1bbe
000003a0: ab05 60bd eb04 f23d 5773 21be 6cb7 4fbd
000003b0: 2d65 dabb d1de 833e a4e6 163d 7536 2fbd
000003c0: 2a7d e4bc 5f60 9fbd 627f ec3d 4e6a 773e
000003d0: f1ac 7cbd 570a f2bd 640f 93be 92fd e9bd
000003e0: 548c a13b 52ba febc 4ca9 dc3d dfcc 953d
000003f0: ba20 d4bc f1c8 48bd f2a2 55bd 301a 19be

layers.0.res.weight f4 [1024, 14]
0.06792864 -0.07649239 -0.08230987 0.01705725 -0.09774813 0.011526878 0.05106616 -0.025337016
-0.09835995 -0.061552733 0.099171214 -0.12018337 -0.19000104 -0.045663077 -0.18997627 -0.021306416
0.10682896 0.060221177 0.10328474 0.098304264 0.09220057 -0.070356846 -0.060179066 0.13062434
0.020473503 0.06537952 -0.10420446 -0.09922999 -0.082946874 -0.05343798 0.18337373 0.059555583
0.09247781 0.07186676 0.0037048694 -0.2327953 0.092406705 0.0617344 0.06279594 -0.021861047
0.03175792 0.06706552 -0.21505053 -0.013304353 0.16836217 0.10429282 0.05036406 -0.039263237
0.12375963 -0.011741743 0.019424684 -0.0056415945 0.09126123 -0.03888764 0.11453767 0.03997199
0.110234916 0.0057053138 0.15948395 -0.0033534751 0.14849073 0.024382235 0.01627022 -0.17467168
-0.0008833184 -0.065430984 0.027405122 -0.11911702 0.22456484 0.6884338 -0.20168918 0.13769513
-0.057679243 -0.053931624 -0.0013133086 -0.0577072 -0.16354467 0.09442083 -0.0014962567 -0.008888861
-0.09391678 0.06483824 -0.09311219 0.2890698 -0.10287419 0.069677055 0.2312716 0.14024651
-0.032906484 0.070373245 0.17397282 -0.1905267 0.1216438 -0.12131422 0.02455748 -0.08866222
0.06631584 0.5402977 -0.07037175 -0.15412 0.11849062 -0.1281137 0.12375265 0.015670486
-0.036405485 -0.05182436 0.06892814 0.06342286 -0.029557852 -0.035575602 -0.17307763 0.0024476398
-0.11600848 -0.03233268 0.13071606 -0.106698014 0.050314948 -0.059338532 0.07310757 -0.15327011
-0.08049364 0.05407326 -0.10182157 -0.021986097 0.038031545 -0.03350495 0.18301146 0.09555008
0.11608684 0.022600748 0.101905845 -6.8297e-05 0.053377256 -0.09916543 0.079989016 -0.081622876
0.09531327 -0.10591257 0.21165629 0.77530235 -0.074147046 -0.08955354 0.1389017 0.05059214
0.09895451 0.029447151 0.011939526 -0.03824772 -0.09206718 0.21093473 -0.08026158 0.23768184
-0.15245315 -0.11055925 0.12602706 -0.09967527 -0.19039327 -0.059887223 0.105019234 -0.0427547
-0.029388463 -0.25962543 0.059506677 -0.0033016517 0.002347524 -0.04685304 -0.18209249 0.010754945
0.018266236 -0.05926743 0.13633287 -0.42140114 0.081603624 -0.0067177024 -0.04205778 0.005425436
0.05717593 0.115788154 -0.02051739 0.040114265 -0.0598202 -0.05004831 -0.21264425 0.046652496
-0.12708712 -0.029288765 0.09874943 -0.19134946 -0.1382704 -0.12044236 0.18634857 -0.0038860743
-0.019388909 0.035723057 0.053923506 0.16682959 0.036351483 0.062414687 0.0013121208 -0.028860303
0.021876222 0.040599197 0.0002045344 0.02845906 0.102371626 -0.1359965 0.14351545 -0.120625295
0.023888303 0.7220011 0.010212226 0.102801524 0.06359519 0.20574725 -0.024150543 0.05552014
0.08865769 -0.13892862 0.08029642 -0.18084471 0.0775878 0.12216978 -0.067872204 0.5087644
0.00056700915 -0.11534373 0.1495458 0.05687665 0.06345385 0.0155024715 -0.04764918 -0.17169036
0.09898803 0.15405908 0.087177664 0.04422608 -0.08974865 0.04764004 0.09508414 -0.08413268
0.1893114 -0.0037419426 0.09899181 -0.008761407 0.08916022 -0.0037542963 0.00962292 -0.11624759
0.061374724 0.032607984 -0.034600437 0.2841943 0.064988755 -0.061733708 0.12853447 0.06541803
00000000: 2c1e 8b3d 0ba8 9cbd 1492 a8bd a5bb 8b3c
00000010: 2c30 c8bd 3bdb 3c3c c02a 513d 938f cfbc
00000020: f170 c9bd b81e 7cbd 471a cb3d b322 f6bd
00000030: a28f 42be 3509 3bbd 2489 42be cb8a aebc
00000040: 24c9 da3d 7baa 763d f386 d33d bf53 c93d
00000050: a7d3 bc3d 4017 90bd 537e 76bd 63c2 053e
00000060: 0cb8 a73c b3e5 853d 2669 d5bd 1839 cbbd
00000070: 0de0 a9bd c9e1 5abd 53c6 3b3e 8ef0 733d
00000080: 0265 bd3d e12e 933d 65cd 723b e461 6ebe
00000090: ba3f bd3d 36dd 7c3d 289b 803d f015 b3bc
000000a0: 9814 023d a659 893d 3536 5cbe 80fa 59bc
000000b0: 2267 2c3e 7997 d53d 8b4a 4e3d 7dd2 20bd
000000c0: b075 fd3d 7160 40bc 8420 9f3c 20dd b8bb
000000d0: 2be7 ba3d a548 1fbd ba92 ea3d abb9 233d
000000e0: d8c2 e13d a4f3 ba3b c34f 233e fac5 5bbb
000000f0: f40d 183e 41bd c73c 2049 853c 22dd 32be
00000100: 7f8e 67ba ae00 86bd b580 e03c a0f3 f3bd
00000110: 53f4 653e 333d 303f 9c87 4ebe f4ff 0c3e
00000120: 1241 6cbd 68e7 5cbd 5323 acba 635e 6cbd
00000130: 4178 27be b55f c13d 0b1e c4ba 96a2 11bc
00000140: 7157 c0bd e9c9 843d 9bb1 bebd f500 943e
00000150: b4af d2bd d8b2 8e3d 76d2 6c3e c89c 0f3e
00000160: f3c8 06bd d91f 903d ee25 323e 6e19 43be
00000170: 6220 f93d 9773 f8bd c52c c93c 8a94 b5bd
00000180: 99d0 873d f350 0a3f 101f 90bd a2d1 1dbe
00000190: 36ab f23d 3d30 03be 0872 fd3d 645f 803c
000001a0: eb1d 15bd c845 54bd 322a 8d3d d8e3 813d
000001b0: 4f23 f2bc b9b7 11bd 433b 31be 9568 203b
000001c0: db95 edbd 466f 04bd 6eda 053e 7d84 dabd
000001d0: 0c17 4e3d f60c 73bd 6cb9 953d d7f2 1cbe
000001e0: d9d9 a4bd ec7b 5d3d d487 d0bd 301c b4bc
000001f0: f7c6 1b3d 7d3c 09bd 5b67 3b3e c3af c33d
00000200: f0be ed3d 3425 b93c 03b4 d03d ac3a 8fb8
00000210: 1ca2 5a3d 3f17 cbbd 48d1 a33d e529 a7bd
00000220: 9b33 c33d b1e8 d8bd 6dbc 583e 377a 463f
00000230: 68da 97bd d967 b7bd 3f3c 0e3e b439 4f3d
00000240: aaa8 ca3d 273b f13c 009e 433c a4a9 1cbd
00000250: b88d bcbd 46ff 573e 2f60 a4bd de62 733e
00000260: ae1c 1cbe e36c e2bd 3d0d 013e 8c22 ccbd
00000270: 74f6 42be 4e4c 75bd 5314 d73d 8d1f 2fbd
00000280: 13c0 f0bc a0ed 84be 46bd 733d 8660 58bb
00000290: ebd8 193b f9e8 3fbd 7476 3abe 8235 303c
000002a0: 13a3 953c 68c2 72bd d89a 0b3e e4c1 d7be
000002b0: cd1f a73d 2c20 dcbb c744 2cbd dbc7 b13b
000002c0: 4f31 6a3d 5722 ed3d 1614 a8bc db4e 243d
000002d0: 0706 75bd 75ff 4cbd 6abf 59be b016 3f3d
000002e0: 2023 02be feee efbc 243d ca3d 1df1 43be
000002f0: c196 0dbe 7caa f6bd 29d2 3e3e 82ad 7ebb
00000300: 7dd5 9ebc 5752 123d e5de 5c3d 60d5 2a3e
00000310: 4be5 143d 8ba6 7f3d 78fb ab3a 716c ecbc
00000320: c335 b33c 584b 263d 4978 5639 f922 e93c
00000330: 37a8 d13d ab42 0bbe b7f5 123e 650a f7bd
00000340: 67b1 c33c 10d5 383f 2e51 273c 9b89 d23d
00000350: 323e 823d 68af 523e 5cd7 c5bc 1669 633d
00000360: 2a92 b53d 4e43 0ebe 7372 a43d 5b2f 39be
00000370: 5ae6 9e3d 2634 fa3d 9500 8bbd 623e 023f
00000380: 57a3 143a 5539 ecbd 8922 193e 7df7 683d
00000390: 18f4 813d 14fe 7d3c c92b 43bd 99cf 2fbe
000003a0: 3cba ca3d aac1 1d3e 348a b23d 6826 353d
000003b0: 24ce b7bd 3422 433d 79bb c23d c14d acbd
000003c0: d9da 413e 613b 75bb 38bc ca3d 018c 0fbc
000003d0: a299 b63d a40a 76bb 74a9 1d3c 3713 eebd
000003e0: 1064 7b3d f38f 053d 30b9 0dbd ea81 913e
000003f0: d318 853d 7cdc 7cbd 8a9e 033e e3f9 853d

layers.1.att f4 [1, 8, 1]
0.08268644 -0.22731398 -0.51656806 -0.19062126 -0.1467196 -0.035416566 0.2088541 -0.056793638
00000000: 8257 a93d ffc4 68be ce3d 04bf 3832 43be
00000010: aa3d 16be f610 11bd d9dd 553e 72a0 68bd

layers.1.lin_l.weight f4 [8, 1024]
-0.046330146 -0.11405268 -0.080203496 -0.06439043 -0.13488044 0.040137656 -0.23790267 -0.024197098
-0.09056386 -0.14847273 -0.02116791 0.16430798 -0.1474047 0.1502877 -0.14257918 -0.19114274
-0.015334368 -0.087356634 -0.060273323 0.14866634 0.10789338 0.14811969 -0.1434793 0.12397919
-0.036560133 0.14243415 0.009944388 -0.1668731 -0.098808624 -0.18507516 -0.08635829 -0.14699623
-0.14852698 0.06762836 0.04626995 0.053880718 -0.06413386 -0.03315021 -0.026470937 -0.15775011
-0.13651638 0.13322207 -0.14293577 -0.11125945 0.18311875 0.03583907 -0.12690593 -0.14161673
-0.012327661 0.09579934 -0.12889022 -0.08443528 -0.0069849347 -0.16025196 0.021678869 -0.08097847
-0.08728364 0.07173438 0.08054738 -0.110840484 -0.0626185 -0.15263449 -0.095710754 -0.16967952
-0.11207427 -0.09115566 0.017119102 0.15482788 -0.1085427 -0.098004386 -0.073876336 -0.12654185
0.017361678 -0.13598628 -0.013478416 -0.09035066 0.07450035 0.047590233 -0.11622435 -0.15794036
0.10440515 0.083848186 -0.002485717 -0.1519995 -0.11919865 -0.027525535 -0.06400196 -0.14681487
-0.12422418 0.07117608 -0.13709028 -0.12228819 0.13574025 -0.17972776 0.0010055376 -0.17418955
-0.052828856 -0.049884975 0.03307104 -0.077742994 -0.03602378 -0.010986501 0.13291605 -0.03546925
-0.016290091 -0.01916952 -0.02361208 -0.056885988 -0.04225081 0.0020713024 0.04059803 -0.03255098
0.031803634 -0.1418688 0.00890495 0.11751461 0.10139566 -0.08815091 0.18844202 -0.11000585
-0.2075371 0.042160507 -0.029693315 0.055265997 0.029885277 -0.09640742 -0.22935028 0.08165899
0.14072528 0.09662276 -0.29006696 -0.069924705 0.08339886 -0.07702825 -0.17170756 -0.24648587
-0.22517419 0.06567163 0.12663965 0.11404039 0.031366825 -0.08326059 0.114053674 -0.0737482
-0.20850901 0.093679555 -0.23557803 -0.20258965 -0.012979939 -0.012119156 -0.13801347 -0.04541412
0.055798445 -0.1725256 0.12910983 -0.18494853 -0.16928296 -0.19136341 -0.014168965 0.102689646
-0.21396668 0.07821998 -0.15826172 -0.13661535 -0.14698076 -0.1887095 0.09123988 0.12185202
0.017249862 0.007180977 -0.30047265 0.096164085 -0.07901316 0.04097231 0.18802747 0.08010824
-0.14538912 -0.16725358 0.00010783866 0.11701559 0.17793438 -0.10846827 0.2000117 -0.122272275
0.15366562 0.14063847 0.0105391685 -0.2181356 0.18722595 -0.0011970105 0.006428366 0.03388049
0.10989522 -0.20854782 -0.14554533 -0.15241694 -0.059560157 0.00045685327 0.06666557 -0.074139126
-0.12084095 -0.031432923 -0.055208396 -0.019059494 -0.2257916 0.12950547 0.15760542 0.01815639
-0.18681876 -0.050389156 -0.16854085 -0.123670466 -0.22246252 -0.16432947 -0.1796588 -0.07779813
-0.08675773 -0.18119979 -0.19802709 -0.2331954 0.0035110507 -0.21844107 0.1378479 0.0519637
0.019665651 -0.27928692 0.09158532 0.008063317 0.055668183 0.21931244 0.13795677 0.13326241
-0.01172228 0.14954744 0.19759084 -0.19984442 -0.16499981 -0.24780521 -0.04175352 0.032235473
-0.05055956 -0.06789548 0.18683009 0.05549652 -0.16504934 0.11057122 0.056457542 -0.11449469
-0.21886842 -0.10988454 -0.13903588 -0.032241244 -0.068675116 0.06274766 0.11264051 0.12302438
00000000: aec4 3dbd 7494 e9bd bb41 a4bd 21df 83bd
00000010: 191e 0abe 6267 243d c29c 73be fe38 c6bc
00000020: 8c79 b9bd 3c09 18be 5368 adbc 5a40 283e
00000030: 42f1 16be 05e5 193e 4700 12be ecba 43be
00000040: 003d 7bbc 09e8 b2bd 29e1 76bd fd3b 183e
00000050: 34f7 dc3d b0ac 173e 3dec 12be cde8 fd3d
00000060: 14c0 15bd 42da 113e c9ed 223c c8e0 2abe
00000070: 2d5c cabd 5884 3dbe 9ddc b0bd 2e86 16be
00000080: 7517 18be bd80 8a3d 8f85 3d3d 07b2 5c3d
00000090: 9d58 83bd 84c8 07bd 94d9 d8bc 3f89 21be
000000a0: f3ca 0bbe 5e6b 083e c15d 12be ffdb e3bd
000000b0: 7b83 3b3e fdcb 123d a1f3 01be fa03 11be
000000c0: f5f9 49bc 7232 c43d ccfb 03be 67ec acbd
000000d0: e1e1 e4bb 1719 24be e297 b13c 0ad8 a5bd
000000e0: c4c1 b2bd 7ae9 923d 06f6 a43d 5600 e3bd
000000f0: 213e 80bd 374c 1cbe 0004 c4bd 78c0 2dbe
00000100: 3287 e5bd d2af babd 5c3d 8c3c 338b 1e3e
00000110: a34b debd 86b6 c8bd 7a4c 97bd 3094 01be
00000120: 143a 8e3c fd3f 0bbe 93d4 5cbc c409 b9bd
00000130: a493 983d faed 423d 0807 eebd 1ebb 21be
00000140: 5ed2 d53d 99b8 ab3d 69e7 22bb c2a5 1bbe
00000150: 6c1e f4bd 3b7d e1bc 7613 83bd a356 16be
00000160: 3f69 febd c4c4 913d 6561 0cbe 3b72 fabd
00000170: 7eff 0a3e 8e0a 38be 3ecc 833a bf5e 32be
00000180: 1263 58bd 3054 4cbd 8075 073d b837 9fbd
00000190: ac8d 13bd ba00 34bc 251b 083e 3448 11bd
000001a0: cc72 85bc 6609 9dbc 1f6e c1bc 4801 69bd
000001b0: 2f0f 2dbd b0be 073b 1f4a 263d 2d54 05bd
000001c0: 8744 023d 0e46 11be 11e6 113c 80ab f03d
000001d0: 87a8 cf3d 7788 b4bd f2f6 403e bf4a e1bd
000001e0: 9b84 54be 7fb0 2c3d 653f f3bc 995e 623d
000001f0: f8d1 f43c 4171 c5bd cdda 6abe d43c a73d
00000200: 4a1a 103e 27e2 c53d a883 94be af34 8fbd
00000210: 06cd aa3d fdc0 9dbd 1bd4 2fbe cb66 7cbe
00000220: 1094 66be d97e 863d d3ad 013e 028e e93d
00000230: 807a 003d 8784 aabd f994 e93d 4c09 97bd
00000240: 6383 55be 11db bf3d 5e3b 71be a973 4fbe
00000250: cfa9 54bc 6d8f 46bc 6753 0dbe 2804 3abd
00000260: e98c 643d 8daa 30be 5e35 043e 2663 3dbe
00000270: 8358 2dbe c5f4 43be f224 68bc f34e d23d
00000280: 151a 5bbe cc31 a03d 5c0f 22be e5e4 0bbe
00000290: 2082 16be 103d 41be f9db ba3d 8d8d f93d
000002a0: 954f 8d3c 674e eb3b 8dd7 99be adf1 c43d
000002b0: a7d1 a1bd 95d2 273d 468a 403e ca0f a43d
000002c0: e3e0 14be 8644 2bbe 7127 e238 dfa5 ef3d
000002d0: 6e34 363e 9d24 debd decf 4c3e e369 fabd
000002e0: 855a 1d3e 8803 103e 7aac 2c3c f05e 5fbe
000002f0: 29b8 3f3e 02e5 9cba 0ba5 d23b 45c6 0a3d
00000300: bf10 e13d 8f8d 55be d609 15be 3013 1cbe
00000310: 5af5 73bd cf85 ef39 f587 883d 41d6 97bd
00000320: 767b f7bd cfbf 00bd 3322 62bd a822 9cbc
00000330: ea35 67be 159d 043e 5163 213e b6bc 943c
00000340: 6b4d 3fbe dc64 4ebd f995 2cbe f146 fdbd
00000350: 37cd 63be fc45 28be 7af8 37be a054 9fbd
00000360: 09ae b1bd 708c 39be 9dc7 4abe c6ca 6ebe
00000370: a819 663b 04af 5fbe 0028 0d3e e4d7 543d
00000380: dc19 a13c b2fe 8ebe 1691 bb3d 011c 043c
00000390: 5204 643d 7193 603e 8a44 0d3e f175 083e
000003a0: ce0e 40bc f722 193e 4155 4a3e 04a4 4cbe
000003b0: b6f5 28be a6c0 7dbe bd05 2bbd 5809 043d
000003c0: 8b17 4fbd c90c 8bbd 6350 3f3e 5250 633d
000003d0: b202 29be 2a73 e23d 0640 673d 317c eabd
000003e0: 0b1f 60be 250b e1bd 6c5f 0ebe 650f 04bd
000003f0: 8aa5 8cbd d881 803d 11b0 e63d 35f4 fb3d

layers.1.lin_r.weight f4 [8, 1024]
-0.26870224 -0.21627904 -0.2131083 -0.42779577 -0.06927454 -0.005149103 -0.22170848 -0.3175943
-0.14945391 -0.11789336 -0.028056554 -0.3597918 -0.06601383 -0.14244236 -0.14531818 -0.24846902
-0.24242008 -0.2365119 -0.15549113 -0.19703665 -0.33014622 -0.22732958 -0.51405805 -0.08956527
-0.10570798 -0.24256966 -0.2976007 -0.12065129 -0.34509102 -0.28972715 -0.6176832 -0.3660503
-0.155416 -0.14606827 -0.14770676 -0.16770807 -0.12582283 -0.21388654 -0.17496966 -0.16536316
-0.33221108 -0.17813848 -0.011775236 -0.0513364 -0.11414023 -0.103580385 -0.15025778 -0.08290827
-0.055292033 -0.23984028 -0.022187516 -0.16523565 -0.00789769 -0.18876322 -0.087341964 -0.3322603
-0.23492068 -0.08952797 -0.1532234 -0.09618825 -0.26018804 -0.34091198 -0.028403653 -0.15799053
0.03821212 -0.34498316 -0.16636208 -0.13450208 -0.22305496 -0.17538159 -0.27042788 -0.14757854
-0.17930764 -0.3938891 -0.5085262 -0.31187335 -0.4026503 -0.29112783 -0.21757564 -0.089918725
-0.21755596 -0.10190024 -0.29182485 -0.0787654 -0.31410336 -0.12639679 -0.031728957 -0.050832078
-0.14540547 -0.18733655 -0.15411681 -0.26687655 -0.10762901 -0.04596537 -0.0816878 -0.1286896
-0.12443746 -0.28417102 -0.17587346 -0.15381229 -0.4700935 -0.18844917 -0.18238775 -0.10714095
-0.07651327 -0.25603426 -0.124389686 -0.30070233 -0.27793822 -0.37923062 -0.15400103 -0.09210733
-0.22539526 -0.28291488 -0.2402801 -0.19438493 -0.13186963 -0.16377953 -0.16522968 -0.011917746
-0.3445147 0.014963898 -0.3285274 -0.14650106 -0.37028453 -0.31213564 -0.3524347 -0.16263865
-0.26836407 -0.20658588 -0.19606417 -0.12796336 -0.48786712 -0.12601732 -0.07367659 -0.04353654
-0.18578564 -0.33521473 -0.3467251 -0.3399942 -0.40043074 -0.12999421 -0.1754244 -0.1924804
-0.21014328 -0.2752682 -0.12243635 -0.07372346 -0.2475786 -0.41748223 -0.25580198 -0.1932743
-0.42523977 -0.0013480582 -0.2730449 -0.17137547 -0.17429088 -0.23059754 -0.10674962 -0.1465851
-0.13814169 -0.3581224 -0.16308314 -0.03128728 -0.14205374 -0.31768164 -0.23512436 -0.39404368
-0.5485386 -0.09942313 -0.10585604 -0.51827776 -0.12103932 0.0035824021 -0.36662248 -0.34400725
0.019083943 -0.15830764 -0.20232911 -0.3759432 -0.33442977 -0.09455481 -0.28537747 -0.024216497
-0.25864947 -0.27809456 -0.4396127 -0.1729407 -0.22956909 -0.34121266 -0.09395432 -0.31374493
-0.23947936 -0.18585707 -0.059794094 -0.06923715 -0.0679026 -0.13129936 -0.44267166 -0.060866416
-0.08270081 -0.41056666 -0.05618987 -0.306003 0.06349789 -0.13481955 -0.2362521 -0.3492646
-0.28603864 -0.1602612 -0.058671918 0.013880376 -0.100989774 -0.19575182 -0.046390872 -0.17909947
-0.027817974 -0.049037423 -0.094053224 -0.13564107 -0.31934828 -0.2654899 -0.4074536 -0.37989694
-0.3858381 0.11792917 -0.33716244 -0.5074977 -0.41713 -0.17473365 -0.23759922 -0.30249733
-0.18269318 -0.42323807 -0.2704644 -0.22218436 -0.19837603 -0.093101285 -0.5732826 -0.36299035
-0.12433514 -0.04333166 -0.3429202 -0.4476594 -0.41768095 -0.17947066 -0.1230814 -0.41662693
-0.110243104 -0.0057742526 -0.33501488 -0.24646398 -0.099164546 -0.33998042 -0.35214257 -0.3705003
00000000: 5793 89be 4178 5dbe 1039 5abe 0c08 dbbe
00000010: cfdf 8dbd ceb9 a8bb 8c07 63be b89b a2be
00000020: 720a 19be 1372 f1bd dcd6 e5bc a136 b8be
00000030: 4232 87bd 69dc 11be 4ace 14be aa6e 7ebe
00000040: f83c 78be 2d30 72be 1139 1fbe fac3 49be
00000050: ed08 a9be 16c9 68be 4f99 03bf ff6d b7bd
00000060: 6d7d d8bd 2e64 78be 1e5f 98be 0618 f7bd
00000070: c5af b0be 1e57 94be 7c20 1ebf f26a bbbe
00000080: 5f25 1fbe ec92 15be 7140 17be aabb 2bbe
00000090: b3d7 00be 1305 5bbe 3f2b 33be f654 29be
000000a0: 9217 aabe ef69 36be ebec 40bc 1e46 52bd
000000b0: 5ac2 e9bd f421 d4bd 2ddd 19be d0cb a9bd
000000c0: e679 62bd b198 75be 98c2 b5bc 8933 29be
000000d0: 5065 01bc 254b 41be 58e0 b2bd 061e aabe
000000e0: 0c8f 70be 715a b7bd 98e6 1cbe 58fe c4bd
000000f0: 5e37 85be 048c aebe c7ae e8bc 45c8 21be
00000100: 5084 1c3d a2a1 b0be d25a 2abe eaba 09be
00000110: 8568 64be 3b97 33be 8675 8abe d41e 17be
00000120: 6c9c 37be d5ab c9be c62e 02bf ddad 9fbe
00000130: 2e28 cebe b50e 95be 26cc 5ebe 4f27 b8bd
00000140: fdc6 5ebe 13b1 d0bd 116a 95be c14f a1bd
00000150: 28d2 a0be 296e 01be 39f6 01bd 4c35 50bd
00000160: 2ce5 14be 27d5 3fbe ccd0 1dbe 0ba4 88be
00000170: 996c dcbd 2f46 3cbd ef4b a7bd 35c7 03be
00000180: 11d9 febd dd7e 91be 2c18 34be f880 1dbe
00000190: 18b0 f0be d2f8 40be dbc3 3abe b76c dbbd
000001a0: fdb2 9cbd ec16 83be 05c0 febd a8f5 99be
000001b0: eb4d 8ebe 842a c2be 72b2 1dbe c5a2 bcbd
000001c0: 04ce 66be 38da 90be fd0b 76be d80c 47be
000001d0: d508 07be d2b5 27be f831 29be a642 43bc
000001e0: 3b64 b0be 232b 753c be34 a8be 6004 16be
000001f0: ef95 bdbe 3ed0 9fbe 5272 b4be bf8a 26be
00000200: 0467 89be 408b 53be 0cc5 48be d408 03be
00000210: b8c9 f9be af0a 01be c1e3 96bd 5f53 32bd
00000220: 973e 3ebe 44a1 abbe f485 b1be b813 aebe
00000230: 4205 cdbe 341d 05be 74a2 33be 9519 45be
00000240: cd2f 57be f4ef 8cbe e9bf fabd 53fc 96bd
00000250: 3f85 7dbe 3bc0 d5be 7af8 82be b3e9 45be
00000260: 07b9 d9be 54b1 b0ba 8bcc 8bbe 0d7d 2fbe
00000270: 4f79 32be c321 6cbe 8b9f dabd 681a 16be
00000280: 0475 0dbe d25b b7be 44ff 26be 1727 00bd
00000290: 8976 11be 2ba7 a2be 71c4 70be 18c0 c9be
000002a0: 076d 0cbf 5b9e cbbd 0dcb d8bd daad 04bf
000002b0: 77e3 f7bd bcc6 6a3b f1b5 bbbe b821 b0be
000002c0: ee55 9c3c 661b 22be 5d2f 4fbe a17b c0be
000002d0: 613a abbe f4a5 c1bd ff1c 92be ad61 c6bc
000002e0: b46d 84be 6962 8ebe ea14 e1be 5e17 31be
000002f0: 2914 6bbe 6db3 aebe 1f6b c0bd 2da3 a0be
00000300: 143a 75be 5151 3ebe a7ea 74bd 35cc 8dbd
00000310: 8510 8bbd 5773 06be dca5 e2be 104f 79bd
00000320: 0b5f a9bd cb35 d2be 5927 66bd 6dac 9cbe
00000330: 2f0b 823d 230e 0abe 12ec 71be cfd2 b2be
00000340: a873 92be 831b 24be f751 70bd 846a 633c
00000350: bad3 cebd 2a73 48be 5b04 3ebd da65 37be
00000360: 85e2 e3bc 77db 48bd fa9e c0bd 7ee5 0abe
00000370: 9e81 a3be 4bee 87be c29d d0be da81 c2be
00000380: 928c c5be d984 f13d 8ea0 acbe 5feb 01bf
00000390: 1092 d5be 61ed 32be 364d 73be eee0 9abe
000003a0: ec13 3bbe a9b2 d8be 4f7a 8abe 4c84 63be
000003b0: 1623 4bbe e3ab bebd a6c2 12bf dfd9 b9be
000003c0: 6ca3 febd 8a7c 31bd 3d93 afbe 9d33 e5be
000003d0: 47da d5be 28c7 37be 1a12 fcbd 2050 d5be
000003e0: 23c7 e1bd f135 bdbb 1287 abbe 0e61 7cbe
000003f0: c816 cbbd ea11 aebe 084c b4be 37b2 bdbe

layers.1.lin_edge.weight f4 [8, 4]
-0.6800641 -0.34843415 -0.08054225 0.3625859 0.62435865 0.21404679 0.57488406 -0.39701435
0.18939355 -0.24781863 0.56697726 -0.70385766 -0.47689646 0.6582237 0.30628133 0.76396734
0.47293836 -0.3031098 0.611553 -0.4890291 0.77218646 0.5480584 -0.14715895 0.27522117
-0.12189734 -0.07097665 0.048387785 0.18393382 -0.50033504 0.45290294 0.04093536 0.5372891
00000000: ae18 2ebf f665 b2be 56f3 a4bd dca4 b93e
00000010: f8d5 1f3f 152f 5b3e 9a2b 133f 7745 cbbe
00000020: 62f0 413e 2bc4 7dbe 6c25 113f 0430 34bf
00000030: c62b f4be 5981 283f e8d0 9c3e 5d93 433f
00000040: fa24 f23e 3531 9bbe bd8e 1c3f 0662 fabe
00000050: 03ae 453f 8e4d 0c3f d6b0 16be cae9 8c3e
00000060: 50a5 f9bd 355c 91bd 4532 463d 2659 3c3e
00000070: f515 00bf e5e2 e73e d6ab 273d c78b 093f
