code/gnn/models/training/GCN/multi-graph-export/9/best_model.pt (torch, 5608 bytes, 3 tensors)

layers.0.bias f4 [64]
00000000: 52ca 1f3f 899c 843f b804 943f 35cf a63f
00000010: 2f03 49bd 5279 f8bc f1ed c3bd 7a7a 6ebd
00000020: 63d0 c3bd 74c7 36bd 0000 0000 fff5 0c3f
00000030: 638f 45bd ba2d 94bd 484c f33e 868a 7e3f
00000040: 29a5 48bd 6b5e 983f 38ca 7b3f 32ee 7e3f
00000050: 31ea 68bd 7753 3b3f 1b07 a6bd c897 81bd
00000060: fcb0 953f 8858 5d3f 0d00 6d3f 7ebc 4cbd
00000070: 9a40 e43e f372 39bd 1d96 5cbd cbdb abbd
00000080: 0d42 fc3e 171d c5bd e726 143f 0407 eabd
00000090: 52cf bdbd 0000 0000 cd87 82bd f588 76bd
000000a0: 3657 e93e 97eb c0be c988 82bd b6b6 473f
000000b0: 30d4 d83e a665 66bd 6e48 bcbd 3382 2d3f
000000c0: fa74 133f 8f2c b6bd fa43 843f a3ad 923f
000000d0: 23c0 d93e 228a 233f 0000 0000 b36d 0e3f
000000e0: 9407 6abd 21d7 3a3f 4015 c63f db19 a2bd
000000f0: 9ab5 d6bd 00b6 713f 1ffa 96bd 0040 a1bd
0.6241809 1.0360271 1.156394 1.3031985 -0.0490753 -0.030331288 -0.09566868 -0.05822227
-0.09561231 -0.044623807 0.0 0.5506286 -0.048232447 -0.07235284 0.47519135 0.9943012
-0.048985634 1.1903814 0.98355436 0.9958221 -0.056863967 0.7317423 -0.08106824 -0.06327778
1.1694636 0.8646321 0.925782 -0.049984448 0.44580537 -0.04527564 -0.053854097 -0.083915316
0.49269143 -0.09624689 0.5787186 -0.114271194 -0.09268059 0.0 -0.06373558 -0.060189206
0.4557435 -0.3767974 -0.06373746 0.7801317 0.42349386 -0.056249283 -0.09193502 0.67776793
0.5760037 -0.088952176 1.0333245 1.145924 0.425294 0.6388265 0.0 0.5563614
-0.057136133 0.7298451 1.5475235 -0.07915088 -0.104838565 0.94418335 -0.073719256 -0.07873535

layers.0.lin.weight f4 [64, 11]
00000000: 6963 083f 3f2e 543d 8b0e d6bd 42b0 c53e
00000010: 5020 5bbd f5ea 9dbe 02c2 fd3e ebd9 5b3d
00000020: 9c10 c0be 67a9 b03d 805d 46bf 3a99 a93f
00000030: 341c 2e3f ad44 083e 13ef 233f cccf c5be
00000040: 0f39 3fbf 4837 d63e b6dd ad3e 33c0 f1be
00000050: 92d3 963e 437d 79bf 2ec0 b43f 9317 ba3e
00000060: 5777 f7be e712 8d3f 01bb e0be bba5 85bf
00000070: 8981 963e b9e6 963e b224 11bf fb06 ec3e
00000080: d136 80bf 8a46 b83f 1159 0f3f 02c0 cebe
00000090: bba2 8e3f 183d b3be 11ef afbf b72e af3d
000000a0: ad72 333f 89e5 25bf b1c2 6a3e 313a b8bf
000000b0: 9ee7 44bd 1549 75bd 5284 c03d b4ea 103e
000000c0: 8568 d1bd 7bb3 efbc 2027 8cbd 1846 84be
000000d0: d97d 3fbe 342c 8d3d b838 193e f471 c5be
000000e0: c9c3 303e 6d04 e5be d350 963e 3cd6 333f
000000f0: 7556 0d3e 7e85 4d3e a794 65be 2afb 52be
00000100: 972b f4bd 747d 113e f51b 143e 102c 143d
00000110: 2357 90be 51a1 693e 9b79 d9bd f595 92be
00000120: f262 6abd 8044 1e3e 0b18 9ebe fd6f 853e
00000130: fb3e 82be ccd9 26be a92f 2b3e df5b 80bd
00000140: 22ce fd3d 64af ec3d d805 36be 6725 49bd
00000150: 70a2 63be e005 6ebe a791 333d a82e 073e
00000160: 0f6f bfbc 25b4 65be 1979 463d 1efb b43e
00000170: 3c66 b13d 0b0b 1b3e ca70 a2bd 8bb7 593c
00000180: a875 08be 6078 443d 3954 79be 78e3 3f3e
00000190: 4b33 0dbe 82be 90bc 15aa 9e3d 6410 0e3e
000001a0: fe07 84be 4a6f d83d 4e89 1c3e 4827 3c3d
000001b0: 9d05 6f3e add1 a5bd 67ab 8e3d bf7d 73be
000001c0: dac8 2abc d75d 513e bae2 103e 8db9 5cbe
000001d0: df84 99bd 0d73 4e3e 04fb 4d3e 80d2 edbc
000001e0: 97ae df3d 570f d13e b155 a43e abac 85be
000001f0: 3c23 a23e 8039 29be 2daa bbbe 9c75 d83e
00000200: 622b a83d 6bd5 a7be 1fb5 923d a15d 42bf
00000210: f505 223e 59e5 80be 835e 65be 55b5 21be
00000220: e9b9 64bd fd2b 60be 8342 25bc 424c 22be
00000230: 1c9b c23c debb 463e d896 fbbd 9d48 9a3d
00000240: 4fb5 c8bc fa2c f63d e864 6f3c f070 02be
00000250: b398 3ebd f1bd f33d 4744 99be e5e3 97be
00000260: 2d47 543e 7b32 993c 8c0f 303f 3189 c93e
00000270: f1b9 05be 453e 963e 6ecc 00bd ff7a b9be
00000280: 536a 153e 1e99 fa3d ae40 23be 2587 fd3e
00000290: a3a2 36bf 6654 863f 2f99 cb3e e5fe c93d
000002a0: ca17 3d3f 0140 c9bd 3526 5abf 2a8b 533e
000002b0: 9527 b03e b6bf 14bf 2404 1d3f 2799 85bf
000002c0: 83d5 56be 4a04 ba3d 7371 3d3e f03b 84bc
000002d0: 326b 563e b389 8dbe f459 03be 2158 b4bd
000002e0: 7d6d a0bd 2cd3 823e bf4f 97be baba d63f
000002f0: e4c3 0f3f 1ecc b8be 8a29 323f 38d9 31be
00000300: faa3 5abf 4bf7 033f 3b52 d03d 46e5 4cbf
00000310: d189 353f e0c6 8cbf 98a5 993f 70cc 223f
00000320: 8f79 bebd 2c5f 243f 6c0a fabd aa67 28bf
00000330: 5166 063e c2dd f9bc fc38 06bf d234 bd3e
00000340: 9714 72bf c832 833f 7d96 053f c047 e5bc
00000350: 42ca 203f 1c85 e5be caf9 27bf 4960 de3e
00000360: 094c b43c 23e0 f2be f6b2 313e fcc5 31bf
00000370: 30fe 90be 50a6 083d 1182 08be 0d4a a1bd
00000380: 439b 0b3e ff9e 63be 043b 11be 942e 26bd
00000390: 4e6a 45be 91e1 703e 1632 90be 9b4d c23e
000003a0: 1fc7 bc3e ebec 513e 9785 3d3f aa02 04bf
000003b0: e3bc 54bf 350f f03d ad6e 073f fc99 5ebf
000003c0: 394e 913e c4ad 49bf 10b1 103e f4e5 873d
000003d0: 90fa b2bd 6a6a 5e3e d83c 443e e3fb a1bd
000003e0: a1ca 4c3e 4f24 9abe 55d3 c0bd 43c1 2d3d
000003f0: 6a16 97be 599f b03d 46ee e6bd c44e 38be
0.5327669 0.051801916 -0.104519926 0.38611037 -0.053497612 -0.3084332 0.4956208 0.05367462
-0.37512672 0.08626061 -0.7748642 1.3249886 0.68011785 0.13307448 0.64036673 -0.386351
-0.7469644 0.4183905 0.33958215 -0.4721695 0.2945829 -0.9745676 1.4121149 0.3634611
-0.48333237 1.1021394 -0.43892673 -1.0441202 0.29395702 0.29472902 -0.5669662 0.46099076
-1.0016729 1.4396527 0.5599528 -0.40380865 1.1143411 -0.35007548 -1.3744832 0.08553832
0.70096856 -0.6480337 0.22925831 -1.4392759 -0.04807245 -0.05988415 0.09400238 0.14152032
-0.10225014 -0.029260388 -0.068434 -0.25834727 -0.18700351 0.06893197 0.14963043 -0.38563502
0.17262186 -0.4472994 0.2935854 0.7024877 0.13802512 0.20070454 -0.22419988 -0.20603624
-0.119223766 0.14208013 0.1446379 0.036174834 -0.2819148 0.22815444 -0.106188975 -0.28630033
-0.057223268 0.15455818 -0.30877718 0.26062003 -0.25438675 -0.1629402 0.167174 -0.06267523
0.12392832 0.115568906 -0.17775667 -0.049107935 -0.22229934 -0.23244429 0.043840077 0.13201392
-0.023368387 -0.22432001 0.04845533 0.35347837 0.08662078 0.15140931 -0.07931669 0.013288389
-0.13326132 0.04796636 -0.24348535 0.18739116 -0.13789098 -0.017668966 0.07747284 0.1387344
-0.25787348 0.10568102 0.15286753 0.0459359 0.23341985 -0.08096633 0.06966286 -0.23778437
-0.010423863 0.20445953 0.1414899 -0.21555157 -0.07496046 0.20161076 0.20115286 -0.029031038
0.10921972 0.40832016 0.32096627 -0.26108298 0.31667507 -0.16525841 -0.3665327 0.4227723
0.082113996 -0.32780012 0.07163452 -0.75924116 0.15822585 -0.25174978 -0.22399335 -0.15791829
-0.05584136 -0.2189178 -0.010086658 -0.15849403 0.023755603 0.19407603 -0.122846305 0.07533381
-0.024500517 0.12020297 0.01461146 -0.12738395 -0.046532344 0.11901463 -0.29934904 -0.29666057
0.20730276 0.018700829 0.6877372 0.3936248 -0.13059212 0.29344383 -0.03144496 -0.3622665
0.1459134 0.12236236 -0.15942642 0.4951717 -0.71341914 1.0494506 0.39765307 0.098630704
0.73864424 -0.09826661 -0.8521455 0.20658556 0.344052 -0.5810503 0.61334443 -1.0437363
-0.20979886 0.09082849 0.18500309 -0.016141862 0.2093933 -0.2764412 -0.12827283 -0.08805872
-0.07833383 0.25551736 -0.2955303 1.6775734 0.5615828 -0.3609323 0.69594634 -0.17368019
-0.8540646 0.51549214 0.10171934 -0.80037344 0.70913416 -1.0998192 1.200366 0.63593197
-0.09300529 0.6420772 -0.12209019 -0.6578318 0.13124968 -0.03050125 -0.524307 0.3695436
-0.9456267 1.0249872 0.5218275 -0.027988315 0.6280862 -0.44828117 -0.6561552 0.43432835
0.022008913 -0.47436628 0.17353424 -0.69442725 -0.2831893 0.033361733 -0.13330866 -0.07875452
0.13633446 -0.22228621 -0.14182669 -0.040571764 -0.19278833 0.23523547 -0.28163213 0.37949833
0.36870667 0.20500533 0.74031967 -0.51566565 -0.8310072 0.117216505 0.5290325 -0.8695371
0.28379992 -0.7878077 0.14130044 0.06635657 -0.08739197 0.21720281 0.19163835 -0.07909372
0.19999172 -0.30105826 -0.094153084 0.042420637 -0.29509288 0.08624143 -0.11275916 -0.17998797

layers.1.lin.weight f4 [1, 64]
00000000: b963 753f 8033 8f3f 2396 2040 dcdf 3740
00000010: f4ba 00be 9b04 c4be 8e39 71bd 0b95 5fbe
00000020: f23f 0cbe 5342 bcbd 1674 03be b7c2 7e3f
00000030: c474 1cbd 0e17 83bd 7c1f 373f d321 2240
00000040: e51c 49be a996 fa3f 192f d53f 626c 793f
00000050: f756 6bbd f08a ab3f c490 febc 09cb 6fbd
00000060: 6d3e c53f ec01 fc3f 6c92 c93f 156a 5d3d
00000070: a370 013f 3470 5abe b333 eeba a4d6 bcbd
00000080: 72e3 fe3e da18 0b3d da0c 153f 2d22 06be
00000090: 8f7b 22be 78a1 45be fb68 09be 36b2 5a3d
000000a0: 70fa 223f 173f 49bf 1cb3 44be 5cad aa3f
000000b0: 82bd f83e 2e86 823c 5fcd 853c 7a36 5b3f
000000c0: e1e7 343f 1f72 8dbd a951 0f40 eef7 9d3f
000000d0: c394 1d3f 6646 eb3e e084 533d 7886 5f3f
000000e0: 116c 1ebe 692b 983f e3fb 8840 065f c4bd
000000f0: 045f 28bd cdbb 5f3f fbd5 f4bb 7bae 0fbe
0.9585529 1.1187592 2.5091636 2.8730383 -0.12571317 -0.38284764 -0.05889278 -0.21834199
-0.13696268 -0.09192338 -0.12837252 0.9951586 -0.038197294 -0.06400882 0.71532416 2.5333145
-0.19639929 1.9577228 1.6654998 0.97431004 -0.057455983 1.3401775 -0.031074889 -0.05854324
1.5409676 1.9688087 1.574781 0.054056246 0.50562495 -0.21331865 -0.0018173367 -0.09220627
0.49782902 0.033959247 0.58222735 -0.13098975 -0.15867446 -0.19299877 -0.13418953 0.05339261
0.6366339 -0.7861189 -0.1920895 1.3334155 0.48582083 0.015933122 0.01633328 0.8563
0.7066632 -0.069065325 2.2393591 1.2341287 0.6155512 0.45952147 0.05164039 0.8731456
-0.15470912 1.1888248 4.280748 -0.09588437 -0.04110624 0.87395936 -0.0074717975 -0.14031403
