code/gnn/models/training/SAGE/export/3/best_model.pt (torch, 18790 bytes, 5 tensors)

layers.0.lin_l.weight f4 [128, 14]
000000 2e 68 f4 3d c4 8f fb bd 71 f5 4c be 7c 40 b2 3d
       0.11933933 -0.122832805 -0.20015503 0.08703706
000010 14 69 14 3d 72 92 20 3e 1f b8 06 be d3 66 8c be
       0.036233023 0.15680864 -0.13156174 -0.274222
000020 c2 28 5a be 8a 05 2e 3e c6 bf 2b 3e 38 5e d8 bd
       -0.2130461 0.169943 0.16772375 -0.10564846
000030 b0 62 93 be 5f 75 c9 3e 31 c7 91 bc fb af 23 be
       -0.2878623 0.3934736 -0.017795177 -0.159851
000040 70 a3 92 bd af 14 c7 be 4a a6 ce be 2f 3c 9f 3e
       -0.071600795 -0.38882968 -0.40361243 0.31100604
000050 be de cc bd be 1e c1 be e3 14 87 bd 79 b7 c1 3b
       -0.10003422 -0.37718767 -0.06595781 0.005911764
000060 8a 7d eb 3d 5f e3 0e bc 72 72 87 be 87 5f 89 bd
       0.11498554 -0.008721202 -0.26454502 -0.067076735
000070 af 9c 9e 3e af ad 2d be 11 cd f1 3e a5 9b 59 3e
       0.30978915 -0.16960786 0.47226766 0.2125078
000080 08 a5 de bd 4a d8 85 be cf e5 2c bf a9 cf f2 be
       -0.10871321 -0.26141578 -0.6753816 -0.47424057
000090 b8 13 6b be 9a db 93 3e 30 1e e9 be b6 9a 8b be
       -0.22956741 0.2887848 -0.45530844 -0.27266473
0000a0 7a ab 02 bf c9 81 0a be 3f bd 19 3e 19 85 c4 be
       -0.510429 -0.13526072 0.15013598 -0.38382795
0000b0 18 26 b4 3e b8 c3 38 3d 40 6a b5 3d f3 6f c3 3c
       0.35185313 0.045108527 0.08858156 0.023857092
0000c0 97 0e d6 be 60 53 1d be aa 26 ab bc e1 ec 11 be
       -0.41808006 -0.15363836 -0.02089246 -0.14250518
0000d0 33 2a 5b bd eb 6f b6 be 66 01 c4 3d 64 3d 07 be
       -0.05350704 -0.35632262 0.09570579 -0.13207012
0000e0 cb 2f a7 be 51 84 27 bc bd 51 11 be 30 bd b4 bd
       -0.3265365 -0.010224418 -0.14191337 -0.08825147
0000f0 01 b3 f1 bc 1c 89 02 3e ae 7b 7b bd 41 0a 93 3e
       -0.029504301 0.12747616 -0.061397247 0.2871876
000100 76 b6 38 3e 0e 5b 3d 3e 59 b7 2f 3d 41 09 4e be
       0.18038353 0.18491766 0.042899463 -0.20120718
000110 d6 92 06 3f bb 22 7c 3f 60 71 f9 3d 90 f7 f6 bd
       0.52567804 0.98490494 0.12179828 -0.120589375
000120 13 e7 c3 3d 1c e1 3c 3d b1 fa 69 be e4 f5 75 3e
       0.09565558 0.04611312 -0.22849537 0.24019581
000130 9e 8c 72 3d 48 e6 eb bd 27 6f a4 be 16 20 ef bd
       0.059216134 -0.11518532 -0.32116053 -0.11676042
000140 1c 43 14 3e 81 8a 8e be 80 48 c1 bd 4d ea ee 3e
       0.14478725 -0.27840045 -0.094376564 0.46663132
000150 84 59 3e be e1 e0 7f be 92 44 42 3c 3a f5 2f 3e
       -0.18588835 -0.24988128 0.011857169 0.1718339
000160 c7 75 00 be 6a 75 de 3d 3c 36 47 be 11 4f 7e be
       -0.12544928 0.10862239 -0.19454283 -0.24834849
000170 25 f2 62 bd 33 00 cc 3d fd d9 12 3d 97 67 17 be
       -0.05540671 0.099609755 0.03585242 -0.1478561
000180 39 be 72 bd 49 74 2a 3e fb 79 9b be 9d cd 1e 3e
       -0.05926344 0.16645922 -0.303665 0.15508123
000190 5d 9a de 3e be ca af bd 58 de 44 3e 57 af 0b 3e
       0.43477145 -0.08583592 0.19225442 0.13641106
0001a0 18 0e c5 ba ed 41 e9 3d 37 8a 5c be b0 a5 6c be
       -0.0015034107 0.113895275 -0.215371 -0.2311008
0001b0 48 cb ba 3e 1f 00 c6 be 0a 51 59 be 8c 38 11 3f
       0.36483216 -0.38671967 -0.2122232 0.5672691
0001c0 b0 fb 8b bc 46 79 f1 3d 79 ec 14 be bd d0 76 bd
       -0.017087787 0.11790709 -0.14543332 -0.060257662
0001d0 45 84 1e 3c 15 ec 30 be b8 dd 00 be e4 12 5f be
       0.00967509 -0.17277558 -0.12584579 -0.2178455
0001e0 8c 6d 5f be 28 35 26 be 05 6f aa 3d 77 db 2a 3d
       -0.21819133 -0.16231215 0.083219565 0.041713204
0001f0 ff 8f 99 be 1e 9b ba be b0 7b d3 bd 50 26 54 3e
       -0.29992673 -0.3644647 -0.10326326 0.2071774
000200 0e 1f df 3e b5 08 63 be ac 76 46 3e 37 70 22 be
       0.4357838 -0.2217129 0.19381207 -0.15863119
000210 be 57 94 be c3 a6 cb bd ca 4a c7 3c 91 82 b9 3e
       -0.28973192 -0.09943917 0.024327654 0.36232427
000220 a0 ee 21 bd 28 f7 00 be 16 ce 6c be 11 e0 19 3d
       -0.03953421 -0.12594283 -0.2312549 0.037567202
000230 77 68 a1 3d 5b fe 41 bd 8b 1b f6 bd 76 59 53 3d
       0.07881253 -0.047361713 -0.12016972 0.05159899
000240 0a 53 42 3e 0a 6b 47 be 7a f6 01 bd 5f 62 96 3e
       0.1897699 -0.19474426 -0.0317292 0.29371926
000250 03 21 47 bd 44 7a 2b bd 1a 90 cc bb 47 60 2b 3b
       -0.048615467 -0.04186465 -0.006242764 0.0026149915
000260 b0 a1 99 bb eb 55 05 bf cd 15 84 3e 23 1b 78 bd
       -0.004688464 -0.52084225 0.25797883 -0.060572755
000270 0c 93 83 3e c4 a2 54 3d fc 0c cb 3c 02 bc f3 bd
       0.25698125 0.051913038 0.024786465 -0.11901094
000280 7e a8 18 bf cb 91 ad be 00 a8 20 3e 71 79 a0 bc
       -0.596321 -0.33900294 0.15689087 -0.019589158
000290 7e b6 8b be f7 03 2d bf 01 49 7f be 74 83 da bd
       -0.27287668 -0.67584175 -0.24930193 -0.10669604
0002a0 87 0a 74 be 59 37 7e bd 29 16 6d be 4c 4b ef 3c
       -0.23832141 -0.062064502 -0.23152985 0.029210709
0002b0 7a 70 bf 3e c0 80 59 3e 4f f1 7f 3e 2b 5b 67 be
       0.373905 0.2124052 0.24994396 -0.22593372
0002c0 c9 46 1a 3e d1 5c 44 be cc a9 d4 3d 9c 79 4c be
       0.15066065 -0.19176032 0.10383949 -0.19968265
0002d0 29 28 d7 3e e5 8f 7c 3f ff dd ff be 01 07 aa 3d
       0.42022827 0.98657066 -0.49974057 0.08302117
0002e0 b8 fc 9b be d9 96 33 bd 9b f2 12 bf dc 5f d1 3d
       -0.30466247 -0.04384503 -0.57401437 0.10223362
0002f0 dc 66 ab be 37 6f 29 be 3e 1b 02 bf 19 35 ae bd
       -0.33476913 -0.16546331 -0.5082282 -0.08506221
000300 8a 6e 67 3e d2 e4 22 be 2d 43 5e bd 7b a8 d6 be
       0.22600761 -0.159076 -0.054263283 -0.41925415
000310 2f e9 93 bd de d6 8b bd f2 da 4b 3d 6a 0e 82 3d
       -0.072222106 -0.06828092 0.04976935 0.063504055
000320 57 e9 85 be 76 b8 60 3e dc b3 ac 3d 62 3f 00 3e
       -0.26154587 0.21945366 0.08432743 0.12524179
000330 08 c4 83 3e b4 0a 34 3e ce 6f cf 3e bc 7d c4 3e
       0.25735497 0.17582208 0.40514988 0.38377178
000340 e8 4a 81 3f f4 45 98 3f d6 fb 79 bd e0 01 2d be
       1.0100985 1.1896348 -0.061031185 -0.16895247
000350 28 7e 02 bd 6d a9 7f 3e 7a 49 b8 bd 44 cf 37 3d
       -0.031858593 0.24966975 -0.089983895 0.0448754
000360 d7 78 cb be 3b 1f 52 be 23 b8 3a be a7 d9 ea 3d
       -0.3974063 -0.20519726 -0.18234305 0.11467295
000370 c9 25 e9 3c 95 07 d4 bd 20 37 81 be 20 be 66 3e
       0.0284604 -0.10353009 -0.2523737 0.22533464
000380 56 98 67 bd c5 fc 2b be 9f a3 e2 3e 4d 8e 8f 3e
       -0.056541763 -0.16795643 0.44265458 0.28038254
000390 be 58 7e bd 31 8b e2 bd 43 df b1 be d8 66 84 be
       -0.06209635 -0.11061705 -0.34740648 -0.25859714
0003a0 63 09 2f 3e 17 bb e2 bd be 66 9c 3b 72 55 2e bd
       0.17093424 -0.11070841 0.00477299 -0.042561956
0003b0 3d 6e a8 be a7 96 06 3d b4 6b 86 be f4 78 33 3d
       -0.32896605 0.032858517 -0.26254046 0.04381652
0003c0 a6 18 d8 be d3 bf 8d bd cf 7a c0 be 3e 60 07 be
       -0.42206305 -0.06921353 -0.37593696 -0.13220307
0003d0 d6 7a 17 3e 7f e9 9d 3d 57 e9 05 be 7d 6b 8d 3d
       0.14792952 0.077105515 -0.13077293 0.069052674
0003e0 94 6e 9c 3b 87 06 84 3e 7c a8 f0 3e a0 48 01 3f
       0.004773924 0.2578623 0.47003543 0.5050144
0003f0 09 c8 97 bc b0 b7 5d 3e 67 df 55 bc 8f d7 2f bc
       -0.018528001 0.21652102 -0.013053752 -0.0107325455

layers.0.lin_l.bias f4 [128]
000000 ae b7 ca 3d 6a 6d 99 3e de 5e 33 bd 18 f1 91 3e
       0.09898315 0.2996629 -0.043791644 0.28504252
000010 ad cd fb be a5 ad a5 bd 49 ff 6e 3b 90 ff 95 3d
       -0.49180356 -0.08089761 0.003646808 0.07324135
000020 53 03 7f bc 19 89 83 3d 9f 3e 5d bd b3 ff 12 3f
       -0.015564757 0.06422634 -0.0540148 0.57421416
000030 7b 76 71 bd 66 5f 98 be ac f9 59 be d6 cd 36 3b
       -0.058950882 -0.29760283 -0.21286649 0.0027893684
000040 ee 54 82 3b 15 7e 2a be 13 bd c5 bd 60 a6 1e 3e
       0.0039774096 -0.16649659 -0.09655204 0.15493155
000050 d1 27 0d be e4 c7 b1 be 94 5a 7e 3e 2b ac 6a 3d
       -0.1378472 -0.34722817 0.2483924 0.0572931
000060 9a 3a a5 bb 2d eb 69 3e 2d 4f 84 3e a6 0b 2c 3e
       -0.0050423862 0.22843619 0.25841656 0.16801319
000070 02 c7 2f be 38 e0 32 3e 9e c6 1f bd 22 91 26 3e
       -0.17165759 0.17468345 -0.039007775 0.16266301
000080 20 11 c6 bd 17 c4 06 3b 2b 74 32 be bc bb 88 3d
       -0.09671235 0.0020563656 -0.17427127 0.066764325
000090 79 4a 56 3e 3f c9 bd 3c 91 1c 38 3e ed 5d 72 3d
       0.20926847 0.02316725 0.17979647 0.059171606
0000a0 36 6d b3 3d 6c 6a 41 bd 08 07 d2 3d cd 39 1d 3e
       0.08761065 -0.047220632 0.10255247 0.1535408
0000b0 a8 43 31 3e 78 fe 25 3a 7a 3a 8e bd 20 0c 75 3e
       0.17310965 0.0006332169 -0.06944747 0.23930407
0000c0 50 27 71 3e 11 7a 15 be 7c 88 1a be 28 87 8a 3d
       0.23550153 -0.14597346 -0.15091127 0.0676406
0000d0 44 ce 33 bc 91 ec 93 be ad f7 24 3d e3 d8 92 3c
       -0.0109744705 -0.28891423 0.040275265 0.017925685
0000e0 c9 40 84 3e c2 47 b5 bd ca 56 0d 3d 7e 1a b8 3e
       0.25830677 -0.08851577 0.034506597 0.35957712
0000f0 65 ca 87 3e 5e a8 8c 3e a0 01 16 3e c8 23 23 3e
       0.26521602 0.27472204 0.14649057 0.15931618
000100 fd 17 dc 3d 25 8b 7b 3e 42 44 98 be 81 5e 0a be
       0.10746763 0.24564798 -0.29739577 -0.13512613
000110 f2 91 0d be 2a e2 98 3e 1f 38 aa be 92 55 b1 3d
       -0.13825205 0.2986005 -0.33245942 0.08658899
000120 85 af 03 3e f8 52 c2 3b 62 7d 45 be ac 35 ba bd
       0.12859924 0.005930301 -0.19286111 -0.09092268
000130 5c 14 83 be 2c 8d d1 bd a7 c6 3d 3b e4 dc 90 3e
       -0.2560147 -0.102320045 0.0028957517 0.28293526
000140 1a 94 6a 39 07 35 3a be b2 57 0d bd 29 52 25 bc
       0.00022371151 -0.18184291 -0.03450746 -0.010090389
000150 83 0b be 3e f6 d9 ac bd 8b a8 08 3e e5 be 94 3d
       0.37118158 -0.0844001 0.13345544 0.07262973
000160 32 e0 a7 3e 92 61 50 3e ee 03 8a 3e 7f c9 29 3a
       0.32788235 0.2034972 0.26956123 0.00064768636
000170 fe d6 76 be 34 e8 0b be c9 a0 a0 be 82 79 c0 3c
       -0.2410545 -0.13662797 -0.3137267 0.02349544
000180 7e d9 a3 3e 3a 9d 29 3e c5 37 e2 3d d6 22 01 3e
       0.3200187 0.16563883 0.110457934 0.12610945
000190 f1 da 24 3e 86 1c 4e be 00 40 ac 3e 2a c2 4c 3a
       0.16099145 -0.20128068 0.33642578 0.0007810915
0001a0 20 7e b9 3c 45 01 28 be d1 3c 48 be 14 ac 5e bb
       0.022643149 -0.16406734 -0.1955445 -0.0033977078
0001b0 25 2b 7b 3c 95 bc 91 bd c2 41 37 3d 52 55 11 ba
       0.015330111 -0.07116047 0.044740446 -0.0005544025
0001c0 6f 1e a1 3e 89 49 eb be 4c 96 3d be 58 2f 03 3e
       0.3146853 -0.4595454 -0.18514365 0.12811029
0001d0 0a a3 62 bc 3f a2 97 3e ca 14 2a 3e f8 3b 44 3e
       -0.013832817 0.2961597 0.16609493 0.19163501
0001e0 0a ad 98 be f4 6e e7 3d d1 60 99 3e c6 68 3d 3e
       -0.29819518 0.113004595 0.29956678 0.18496999
0001f0 70 d4 8c bd e0 87 45 be b7 4b cc 3e 88 c4 7e bd
       -0.06876457 -0.19290113 0.39901516 -0.062199146

layers.0.lin_r.weight f4 [128, 14]
000000 17 f1 e1 3d 57 3f 0e bf 21 a2 24 bc 62 2b 8f 3e
       0.11032312 -0.555654 -0.01004842 0.27962786
000010 fe b2 04 be 0a 2f 2e 3e 02 f1 1d 3e d1 ce 86 be
       -0.12958905 0.17010131 0.15423968 -0.26329663
000020 70 4b 4a be c2 78 b2 3d a9 f5 7d bd 99 f1 7c be
       -0.1975534 0.08714439 -0.062001858 -0.24701537
000030 bb 60 e7 3e 32 00 04 3f 92 b6 fc bd 9f b3 27 3e
       0.45190987 0.515628 -0.1233951 0.16377114
000040 a8 34 e3 bb f8 1f 98 bd c1 52 aa bd b7 38 16 be
       -0.0069337673 -0.074279726 -0.08316565 -0.14670072
000050 2a dc 1a 3e 8d 90 4a 3e 40 22 55 3b a9 87 07 be
       0.15123048 0.19781704 0.0032521635 -0.13235344
000060 e2 18 80 bc 2c c3 18 bc e0 ba e9 3e 48 5f f7 3d
       -0.015636865 -0.009323876 0.45650387 0.1207872
000070 bb 41 6d be fa e3 d6 3c ac 34 a3 be c6 14 1a be
       -0.23169605 0.026231755 -0.31876123 -0.15046987
000080 cc 9d 62 3e 49 a3 f6 be 29 ac e0 be 81 a5 56 bd
       0.22130507 -0.48171452 -0.43881348 -0.05240393
000090 ec d6 5c 3d 44 55 36 3e 6e b7 e3 3d b6 07 87 3e
       0.053915903 0.17805964 0.11118971 0.2637307
0000a0 ae 15 e5 3e fb a6 8e bd 4c 6f 0c be a7 91 e6 3d
       0.44743103 -0.06965443 -0.13714331 0.1125825
0000b0 d1 0d ad be 7c 96 ae 3d 47 d9 3c bd 21 51 74 bc
       -0.33799604 0.08524796 -0.04610565 -0.014911921
0000c0 6a e8 f8 3d e9 1b 9d 3d 52 88 00 be 69 5f 5c 3d
       0.121537045 0.07671339 -0.12552002 0.053801928
0000d0 33 c1 97 3e 06 2c 38 bd b7 1a 61 3f c7 b0 86 be
       0.29639587 -0.04496386 0.8793139 -0.26306745
0000e0 e2 e8 6a 3e 74 93 70 be eb c2 8d be 08 a3 71 3d
       0.229404 -0.23493749 -0.27687773 0.05899337
0000f0 5c 68 63 bd 63 3e 84 bb 68 b0 08 3e dd 7d 3d bd
       -0.055519447 -0.0040357574 0.13348544 -0.04626261
000100 a6 57 ce bd 17 48 57 3e cc 59 b0 bd 49 64 91 3e
       -0.10075311 0.21023594 -0.086108774 0.28396824
000110 7b cf ec 3d e4 a6 0b 3e 05 4c 28 3d 2c a4 7f be
       0.11563011 0.13637882 0.041088123 -0.2496497
000120 46 9d 5e be 20 fd 43 bd 3f 42 44 bf d2 d2 8b 3e
       -0.21739683 -0.04784882 -0.76663584 0.2730928
000130 95 0d b6 3e 1d 83 28 3e 1c c8 fe be 60 5d d4 3d
       0.35557237 0.16456266 -0.49762046 0.10369372
000140 07 ea 11 be 79 d1 b1 3e db bb 5b 3f f1 b7 5a be
       -0.1424943 0.34730127 0.8583352 -0.2135923
000150 58 57 9d be e7 21 04 3e 19 8b ce 3d 9a 86 dc be
       -0.307307 0.12903558 0.100851245 -0.43071443
000160 63 29 59 3e f8 9c 58 bf 2b 42 8f b9 2f 65 9f 3e
       0.21207194 -0.84614515 -0.00027324384 0.31131884
000170 df 17 ab 3e b5 81 c8 be 2c 27 03 3e c9 dd 5e 3e
       0.3341665 -0.3916146 0.12807912 0.21764292
000180 6f 80 e7 3e 18 8d 0e bc 6d d7 03 3e 74 e9 9e be
       0.45215175 -0.008700632 0.12875147 -0.31037486
000190 41 36 1d bd 6c 4b b3 be b4 65 4c bf 22 44 6c bd
       -0.03838182 -0.3501848 -0.79842687 -0.057682164
0001a0 73 17 ff 3e 18 a4 36 3e 8d 34 90 be 02 ed 18 bf
       0.49822578 0.17836034 -0.28165093 -0.59736645
0001b0 2c e2 03 3d c1 ae f8 bd 6e 8f 5b 3f 85 9e 92 3d
       0.032198116 -0.12142707 0.8576573 0.071591415
0001c0 5d 3f 81 bc 74 9c 2e 3e 61 3e 50 bd 18 a7 86 be
       -0.015777284 0.1705187 -0.05084074 -0.26299357
0001d0 c2 99 74 bd dd 65 26 be 73 05 21 3e d1 a4 28 3e
       -0.059716947 -0.16249795 0.15724735 0.16469122
0001e0 29 f7 9c bd c2 74 2e be b7 d8 9a 3d 90 2e 68 3d
       -0.076643296 -0.17036727 0.07560866 0.05668503
0001f0 61 77 e1 be 41 70 33 3d 2f 0e e1 bc 8e 12 b7 bd
       -0.4403639 0.043808226 -0.027472584 -0.08939086
000200 01 b4 99 bd 10 7d d7 3d 8f 56 1a bf a0 62 5a 3c
       -0.07505036 0.10521901 -0.6028833 0.013329178
000210 b5 34 bd 3d f3 92 08 3f 90 30 db be 04 31 0f 3e
       0.09238569 0.53349227 -0.42810488 0.13983542
000220 ea 5f 20 be f2 fd 2e be 04 fa 06 3f 30 ca 09 3e
       -0.15661588 -0.1708906 0.52725244 0.13456035
000230 14 fd 86 be 23 1c 10 be 65 1a ab be 99 4d 1f bf
       -0.26364958 -0.14073233 -0.33418575 -0.6222778
000240 5f 41 05 3f e1 5e f2 be 4d f2 81 be 03 c9 8c 3d
       0.52052873 -0.47338012 -0.25380173 0.068742774
000250 8e 94 91 3e 3f 21 27 be 09 aa 2d bd 98 a2 0a ba
       0.2843365 -0.16321276 -0.042398486 -0.00052885106
000260 e2 4d 3c be 7e ac eb bc 64 78 01 3d 50 00 f7 3e
       -0.18389085 -0.028768774 0.031608954 0.48242426
000270 f7 eb 03 bf bf 9d 86 bd f0 4b 33 be 8e 55 52 be
       -0.5153193 -0.065730564 -0.17509437 -0.20540449
000280 2a dc 1c be 10 8a 23 be 31 7d 47 be e9 60 ce 3d
       -0.15318361 -0.15970635 -0.1948135 0.10077078
000290 e4 1e cf 3d dc 80 35 3e 06 0f 89 3f 00 91 86 bb
       0.10113314 0.17724937 1.070771 -0.004106641
0002a0 bf 3c 9c be e8 3c 96 be 65 9d 82 be 0f 96 54 ba
       -0.30515096 -0.29343343 -0.25510707 -0.00081095187
0002b0 ca 18 8d be 48 1e a6 3e 08 c1 a2 3d 47 73 6e 3d
       -0.27557975 0.32444978 0.07946974 0.058215406
0002c0 f2 d1 e6 bd 46 4f 51 3d 30 9d ef be d5 14 8e 3e
       -0.11270513 0.05110099 -0.46799612 0.2775027
0002d0 35 f0 3e 3f 76 f0 36 be 20 2d ec be c4 88 29 bf
       0.74585277 -0.17865166 -0.46128178 -0.6622431
0002e0 c9 85 cb be 57 b5 88 3e e8 2b 92 bd 66 09 c9 bd
       -0.39750507 0.2670085 -0.07137281 -0.09816246
0002f0 e1 b7 15 bd 7a 3b 04 bd 2f c5 d6 bd 17 22 c0 3d
       -0.036552314 -0.032283284 -0.104868285 0.09381502
000300 66 b1 21 be b7 c5 9a 3e 63 f9 76 be 53 2f ab be
       -0.15790328 0.3022897 -0.24118571 -0.33434543
000310 0a 9c 72 3e 5a c0 a5 be 88 69 65 bd 88 b3 ac 3d
       0.23692337 -0.32373315 -0.056008846 0.0843268
000320 b7 6a 58 bd ed 34 dc 3d da 92 6c bd 2e 8f c7 be
       -0.052836146 0.10752282 -0.057757236 -0.38976425
000330 8c 9f 4f 3e 0f 3e b9 3e e4 d7 4b 3c e3 07 45 be
       0.20275706 0.3618016 0.012441609 -0.1924129
000340 59 fc 3e 3d 50 d0 be 3e 37 22 ac bd c6 9f 10 bf
       0.046627376 0.37268305 -0.084049635 -0.56493795
000350 23 3a e9 3e 94 e4 90 3e fe b8 5c 3e dc cc 97 3e
       0.45552167 0.2829939 0.21554944 0.29648483
000360 f1 f4 c4 bd 9f 07 5c bd d8 65 17 3d 78 b6 54 3e
       -0.09617031 -0.053718206 0.03696236 0.20772731
000370 da 7f 06 bf 47 88 ef 3d 4c da 28 3f 33 34 a2 3e
       -0.52538836 0.11695915 0.65958095 0.3168045
000380 45 54 80 bd 0b 80 09 bf 95 9f 5b be 77 46 04 be
       -0.06266073 -0.53711003 -0.21447594 -0.12917505
000390 17 12 27 bf 62 8d 84 3e 03 6e 18 3f c6 da 36 3e
       -0.6526198 0.25889117 0.59542865 0.17856893
0003a0 7e cb 1c 3c 47 7f cb bd 60 8a 2a bd 4a 28 ff be
       0.009570001 -0.099363856 -0.04163587 -0.49835426
0003b0 d0 37 d2 3d 25 3e 11 3e af 02 4f be fc 5f 60 be
       0.10264552 0.14183863 -0.20215867 -0.21911615
0003c0 77 0b 27 3e 88 81 38 be bd 82 52 be 63 96 f1 3c
       0.16312967 -0.18018162 -0.20557685 0.029490655
0003d0 47 d3 d1 3d 4d b7 86 bd 4c 04 a4 3d 93 c1 45 3e
       0.10245376 -0.065779306 0.08008632 0.19312124
0003e0 2c 3f cb be 24 0e 0c 3e 23 ee e7 3d 20 1d 3d bc
       -0.39696634 0.13677269 0.11324718 -0.0115425885
0003f0 0e 3f 8e 3d e3 35 e4 3e e6 2a 07 be 88 4f 89 3e
       0.069456205 0.44572362 -0.13199958 0.2681849

layers.1.lin_l.weight f4 [1, 128]
000000 b5 1a 0b 3e 6c de 2e 3e 0a 96 a1 3e 01 19 3b 3e
       0.13584407 0.17077035 0.31559783 0.18271257
000010 25 69 b1 bd dd 46 78 3e 92 8c e7 3d 8e 48 90 3e
       -0.08662633 0.24245782 0.113061085 0.28180355
000020 e7 5d 82 bc b3 e1 49 3e 50 da 15 bd 76 94 06 3f
       -0.015913917 0.19715004 -0.036585152 0.52570283
000030 34 3e 6d 3e bd 98 fc be 44 2d 44 be a7 84 8d 3e
       0.2316826 -0.4933528 -0.19157892 0.27640268
000040 3b 5f 3b 3e 9b 4d 24 3c e9 5a 09 be d8 b7 7a bd
       0.18298046 0.010028268 -0.13413586 -0.061210483
000050 b0 d5 6b 3d 7b f5 e8 bd ed 13 41 3f 17 b2 84 3c
       0.057576835 -0.11374947 0.7542103 0.016198201
000060 ea b9 a1 3e c4 91 8b 3e 47 20 ad bd fd 0a 9b bd
       0.31587154 0.27259648 -0.08453422 -0.07570455
000070 73 db 75 be 03 cf b8 be ac f9 c2 bd 89 99 78 bb
       -0.24009494 -0.36095437 -0.095202774 -0.003793331
000080 d6 fb fb bd 84 22 54 3e 4d 9e f3 bc 2d 15 ed bc
       -0.12303893 0.20716292 -0.02973857 -0.028940761
000090 14 95 a6 bc 80 74 01 3f 44 12 c3 3e de ef 4a 3e
       -0.020334758 0.5056839 0.38099873 0.19818065
0000a0 e7 be 0e 3e ed 9d 1e 3e ba 79 33 bd 30 98 01 3e
       0.13940011 0.15489931 -0.04381726 0.12655711
0000b0 4d c4 ad bd a4 b1 17 3e c7 7d ba 3c 01 46 0b be
       -0.08484707 0.14813858 0.022765053 -0.13600923
0000c0 7c 4f 05 3f 1d dc 31 3e fb 8c 22 be bb de 81 3b
       0.5207441 0.17369123 -0.15874092 0.003963319
0000d0 4b b9 e9 bc 89 80 c6 3e ef c9 3b 3e 64 21 5f 3e
       -0.028530737 0.3876994 0.1833875 0.21790081
0000e0 38 28 24 3e 3f a3 2c 3d e0 6d 5c 3e 34 1b eb bd
       0.16030967 0.04214787 0.21526289 -0.11479798
0000f0 de ee ee 3d 6b a8 44 3c 2c 03 52 3e 65 60 a7 bd
       0.11666654 0.012003045 0.20509022 -0.08172683
000100 43 7b 1d 3d 82 39 70 3b 78 19 ea bd 93 3e a9 3d
       0.03844763 0.003665537 -0.11430639 0.08263888
000110 f5 a7 01 bf ca 5d fe 3d 8a d7 f2 bd fc f9 3e be
       -0.5064691 0.124202326 -0.11857517 -0.18650049
000120 56 fb a1 3e 21 00 5f 3e 20 cf 00 be dc c2 c6 bc
       0.31637067 0.21777393 -0.12579012 -0.024262838
000130 74 57 50 3d 42 6c 3b 3e dd 37 23 bc b8 be 55 3e
       0.05086465 0.18303016 -0.009962049 0.20873535
000140 d7 88 32 3e aa 6b 04 bf 39 c2 c0 bd bf 10 cd bd
       0.17435013 -0.5172678 -0.09412045 -0.1001296
000150 76 42 b7 bd a4 fc 4f 3d ab 75 41 bf 4c a8 e0 3e
       -0.08948223 0.050778046 -0.7557017 0.438784
000160 df d9 f2 3e ff 7e 47 3e bd 1a d2 bd af 66 c2 3e
       0.47431847 0.19482039 -0.10259006 0.37968966
000170 3a c1 f4 bd 0b 45 16 be 30 71 ed bc e0 b1 ed bd
       -0.119509175 -0.14674775 -0.028984636 -0.116061926
000180 7d 86 5a 3e 2b c0 5f 3e a2 e4 17 3e 59 ee b8 bd
       0.21340366 0.2185065 0.1483331 -0.09029836
000190 a2 81 bc bd 9c b6 01 be f6 35 6c 3e 37 3c 16 be
       -0.09204413 -0.12667316 0.2306746 -0.14671408
0001a0 01 8c 1f 3e 29 64 ea be 29 2e 09 be f4 86 51 be
       0.15580751 -0.4577954 -0.13396515 -0.20461637
0001b0 71 32 4a be 6d 45 01 be 58 6e 27 bd 1b f9 08 be
       -0.19745804 -0.1262414 -0.040876716 -0.13376276
0001c0 33 c4 87 3e e3 a9 c7 bd 1d 7e 96 3d ed 63 52 3b
       0.26516876 -0.097492 0.07348273 0.0032103017
0001d0 cd f0 56 be b3 b7 b2 3e f1 0c 58 3e 51 38 ea 3d
       -0.20990296 0.34905776 0.21098687 0.11436523
0001e0 61 35 cd bb 1e de 02 bd ea 1c f9 3e 88 0d 8c 3a
       -0.006262467 -0.03195011 0.48654872 0.0010685185
0001f0 af ba be bd 67 b9 80 bd de 2c 04 3f 04 8f cc bc
       -0.09312951 -0.06285363 0.5163096 -0.024970539

layers.1.lin_r.weight f4 [1, 128]
000000 03 41 87 be af 29 f3 bd 14 a2 30 bf 3b d2 59 be
       -0.26416788 -0.11873185 -0.6899731 -0.21271603
000010 02 19 f6 3d cb c8 39 bc 5f 22 27 bf 9a 0d 13 bf
       0.120164886 -0.011339377 -0.6528682 -0.5744263
000020 20 7a 29 bd 49 d7 cb be 36 30 b6 be 8b 2d 17 bf
       -0.041376233 -0.39812687 -0.35583657 -0.5905387
000030 63 26 3f 3e 6f d4 ad be 3e 80 6a 3e 00 f4 59 be
       0.18666987 -0.33951136 0.22900483 -0.21284485
000040 d0 04 01 bf 68 1c 4c 3e bf 04 21 bf 84 a8 cf bc
       -0.5039797 0.19932711 -0.62897867 -0.02534891
000050 6a 6d a6 bd 62 c2 dc 3e a6 ef 4e bf 0b 26 96 be
       -0.08126338 0.43117052 -0.80834424 -0.293259
000060 ba 93 0f 3e 9c 46 a3 be a7 45 12 bf 20 6a ab b8
       0.14021197 -0.31889808 -0.5713753 -8.173683e-05
000070 c5 0b c0 bd a9 e5 1c bf 17 84 ff bc 2f cb 88 be
       -0.09377245 -0.61287934 -0.031190915 -0.26717517
000080 7f ea a2 bd 58 67 cb be aa 9e fe be 88 f6 8c be
       -0.07954883 -0.39727283 -0.49730426 -0.27531838
000090 70 e6 ec be 11 17 38 bf d0 f4 19 be fd db 21 bf
       -0.4626956 -0.71910197 -0.15034795 -0.632263
0000a0 83 7e 98 be 79 c4 71 be 01 9c db be 68 28 6d be
       -0.2978402 -0.23610105 -0.4289246 -0.23159945
0000b0 08 cb 58 be a5 a1 89 be 82 cb 7a bd 92 56 ee be
       -0.211712 -0.26881137 -0.061229236 -0.46550423
0000c0 f2 9c ce be b3 e2 bd be a1 03 21 3e 5d a9 ce be
       -0.40354115 -0.3708702 0.1572404 -0.4036359
0000d0 0f bc b0 3d 7b a4 a9 3e 16 02 e8 be 5f 2e e3 bd
       0.08629619 0.331333 -0.4531409 -0.11092829
0000e0 dd e0 89 be ba 20 0d be a9 a1 81 be 87 9d 00 bf
       -0.2692937 -0.13782015 -0.2531865 -0.5024037
0000f0 fd 7e bf bd fb ed 90 be 39 fc 18 be 12 98 22 bf
       -0.09350393 -0.28306565 -0.14939965 -0.6351329
000100 dc d0 b2 be a0 23 19 bf 42 6e d7 3d e7 e0 1e 3e
       -0.34924972 -0.59819984 0.10519077 0.15515481
000110 3e 66 bd be cc f3 a2 3e c4 94 e5 3d 9e df 24 be
       -0.36992067 0.31826627 0.112100154 -0.16100928
000120 0a ef 47 3e f7 58 74 be 66 de be 3d f8 8b ad 3d
       0.1952478 -0.23862062 0.09319763 0.084739625
000130 15 b9 65 3e f9 66 ca be ca 16 8e be f3 f3 bf be
       0.22433884 -0.39531687 -0.27751762 -0.37490806
000140 d3 60 9b be 5f 79 d7 be a1 e9 58 3c 79 38 18 3e
       -0.3034731 -0.42084786 0.013239295 0.14865293
000150 b0 0f b8 be 32 7a 63 be 43 d3 5d bf 5b 7b ab bd
       -0.3594947 -0.22214583 -0.86650485 -0.083731376
000160 0e 4d d7 bd d5 ea f8 be aa a3 fe bd 8a d5 db 3b
       -0.10512744 -0.48616663 -0.1243356 0.0067088054
000170 a2 00 1f 3e 95 eb cc bd 56 7c 61 3e 46 7f ac be
       0.15527585 -0.10005871 0.22020087 -0.33690852
000180 25 62 f5 3d 1a 50 67 be d6 90 4a 3e 98 ae 67 bd
       0.1198161 -0.2258915 0.19781813 -0.05656299
000190 73 cc bd be ce 24 73 be 25 99 52 bf 79 00 4a 3e
       -0.37070045 -0.23744509 -0.8226493 0.19726743
0001a0 1d 21 c5 bd 1a 49 b1 be bc 3c 06 3e 46 2d b5 3c
       -0.096254565 -0.34626085 0.13109106 0.022116315
0001b0 18 ec 8f bd e6 46 ba be 54 64 d5 bd a8 8a 91 3d
       -0.07027453 -0.36382216 -0.10419527 0.07106525
0001c0 39 e1 fa be c1 70 e6 3d 9f e7 e2 bb 00 46 33 be
       -0.48999956 0.11251975 -0.006924584 -0.17507172
0001d0 5b 66 17 bd c8 42 50 bf 03 17 cc be b5 6f f2 be
       -0.03696285 -0.813519 -0.39861307 -0.4735085
0001e0 ca 70 5c 3d ae 72 76 3e c1 82 cb be c3 d5 44 be
       0.0538185 0.24067184 -0.39748195 -0.19222169
0001f0 30 bc 63 3c 44 d6 80 3d e4 77 d8 be 7b 39 23 bf
       0.013899848 0.06290868 -0.4227897 -0.63759583
