code/gnn/models/training/GAT/total/8/best_model.pt (torch, 266466 bytes, 10 tensors)

layers.0.att f4 [1, 8, 128]
00000000: 5a1d 85be d17c d9bd b5d3 babe 45ed 7abd
00000010: edd7 b7bc 2050 0abe d3d6 afbd 1a4a ee3c
00000020: 95f3 383e 9a37 763e 52ec 923e d097 73be
00000030: d269 873e 6194 493e 8026 483e 4d7d 583d
00000040: 8af9 d53e 57ea 523d 0b24 1bbe 8fee b4bd
00000050: e323 11bf 056e 783e 2b86 3d3e be0c 2abe
00000060: fca9 033e ee1e 433e 1e0e 5b3d 97c0 c43d
00000070: 30ca 2c3e f75f 20be a75d 093e 7d88 4abe
00000080: 55d7 213e 6f83 88be 8fdf 1d3d 6cb2 033d
00000090: d730 ab3e 46af 25be bfc8 96be 0a73 c0bd
000000a0: fdac 3a3e 4416 bdbd f4f3 53bd d9aa 7dbe
000000b0: 3e0e f63e ec2e 38be 90c8 20be cfce 37be
000000c0: 5900 1dbe 0bed ec3e 032d 463e 844f bd3d
000000d0: 3d3b 96be fb0f b13e f9bc de3e 52b9 f33d
000000e0: 21c9 1f3e a99e a2bb a615 3bbe c6c9 a83e
000000f0: e4bf c43d 9bcb 713e 3f89 40bd 9dac db3d
00000100: fed5 dd3e 1edc 9f3c 97d0 4e3e 2c4e c5bd
00000110: 91ac c9be 4240 96be 9615 0e3e e0e5 fcbd
00000120: d3cf 883e 425a ecbc 2fc9 6c3e f256 1bbe
00000130: fb7c 443e f3fe 1fbe d9c6 503e 3a66 ba3b
00000140: ea0d 523e 9039 ba3d 5b8e 8f3e 0655 443e
00000150: aa7c 99be 4565 7fbe b9a1 62bd 2d88 a43e
00000160: 1747 b03e b21e 93be 8020 a33e 72fe a7be
00000170: 7253 363c efe6 fd3d 8e2d 43bd f228 eabd
00000180: 4e3f 53be 1175 993e 5b2b 5b3e 5a29 acbd
00000190: d6a4 9f3d 8e34 38be 1a47 833e 6303 eebe
000001a0: 006e fc3d 7b95 cebd 6521 b7be 8408 cfbe
000001b0: a48f cf3e f866 b53d d333 9d3d 1c37 c6bd
000001c0: e2dc 7d3e e738 05bf f7ab b73e 9f72 8c3e
000001d0: 292a 7bbe 31e7 5bbe 32c2 233e fc5d 89be
000001e0: 3e3a 8abe 56d5 243e ebca 853b d739 04be
000001f0: cc83 ebbd 6352 523e 8bfd 913e 70c5 4ebe
00000200: 5da1 883e f991 1dbe 7231 89be 7f9b f53d
00000210: 07f5 393e ccae 64be f92b 4ebe 4ad6 0c3e
00000220: 2f43 b83e 5c9b 23be 5c46 eebe c380 74be
00000230: 92e2 063e c0fe 8f3e 718a b2bd 0d9f 9e3d
00000240: bd04 003e c6f1 3dbc be21 4dbe 1338 003e
00000250: 551f fabd 0665 933e 0810 523e cc2f b13e
00000260: 04ac a3bd 048c 863c e9ae 73bb cbff 313e
00000270: 55d6 f9be 361d 543d 50e0 14bc 9e3b 28be
00000280: 5274 aa3e 0c02 7dbd 6144 49bd ec20 9b3e
00000290: f9f1 4f3e d6f4 ecbe a07e b63e a3c3 52be
000002a0: 9c40 25bd 0263 1f3b 6d14 a03e 6143 3abe
000002b0: 3b0c 06bf 5fe9 953b 9c89 7a3e 6a63 0d3e
000002c0: 6714 20be fd63 bb3d aa80 2dbe d55f 07be
000002d0: 985b f23e 5185 15be df6a efbe 21d2 6dbe
000002e0: 4f02 b63d 88a7 933d d615 eb3b 19a7 143e
000002f0: 23e8 593e 909e 27be e7a5 4b3e 0349 a2be
00000300: f755 bbbd 2d03 ec3e 5fbb ff3d e714 66be
00000310: a7ac f8bd 99e5 50be da0b 3f3e c6ee 71be
00000320: 3620 e2be fadb 1fbe 0b55 563d f474 953e
00000330: d481 1abe ef22 6d3a c622 7bbd eea4 e03e
00000340: db75 a6bd 5171 7c3e 90cd f93d 89b8 8cbd
00000350: ddf0 9bbd cad0 80be 7f6d 5dbd f728 d5be
00000360: 0585 32be bf3d 433e f1ce ddbe fe83 863e
00000370: a05a 863e c812 68be 481f 693e 4ca4 03be
00000380: 44b7 ffbe e5e3 b33d 786a 663d dbee eebe
00000390: 78a9 3fbe d908 e7be 08c2 78be 06a8 06be
000003a0: 1f42 2e3d 740f 8e3e c026 01be 062d 8cbe
000003b0: af0b c9be 4bcb e7bd 968c 2cbe 4ddb d5be
000003c0: f825 d3be 14e9 8e3e fb23 0bbb c2a7 c3bd
000003d0: 0919 9d3e 0edf 5e3d c303 1d3f 469a 323e
000003e0: 9ab9 1e3e f0f7 863e 5cab 08be 9415 02be
000003f0: bce0 333e 4146 9b3c 409d eabd ff46 a6bd
-0.25998956 -0.1061951 -0.36489645 -0.061261434 -0.022441829 -0.13507128 -0.08585896 0.029088069
0.18061669 0.24044648 0.28695923 -0.2378838 0.26447922 0.19685508 0.19545937 0.05285387
0.41791946 0.051493015 -0.15150468 -0.08834564 -0.56695384 0.24260719 0.18508212 -0.16606423
0.12857813 0.19054767 0.05348026 0.09607046 0.16874003 -0.15661608 0.13414632 -0.19778629
0.15804799 -0.26662776 0.03854328 0.03215258 0.334357 -0.16180143 -0.29450032 -0.09396942
0.18230052 -0.092327625 -0.051746324 -0.24772204 0.4805774 -0.1798665 -0.15701509 -0.17949985
-0.15332164 0.462746 0.19353108 0.09243682 -0.2934207 0.34582505 0.4350355 0.119005814
0.15604068 -0.0049627614 -0.18269977 0.3296644 0.09606913 0.23612826 -0.047005888 0.10726283
0.43327326 0.01951414 0.20196758 -0.09634051 -0.3938947 -0.293459 0.13875422 -0.12348533
0.26721057 -0.028851632 0.2312362 -0.15169886 0.19188301 -0.15624599 0.20388354 0.005688456
0.2051312 0.090930104 0.28038296 0.19173059 -0.29977924 -0.24940975 -0.055330012 0.32135144
0.34429237 -0.28734356 0.31860733 -0.32811314 0.011128293 0.12397563 -0.047650866 -0.11433591
-0.20629618 0.29972127 0.21403258 -0.08406325 0.07795112 -0.17988798 0.25640184 -0.4648696
0.12325668 -0.10087105 -0.35767666 -0.40436184 0.40539277 0.0885753 0.076759 -0.0967848
0.24791291 -0.5203995 0.35873386 0.274312 -0.24527802 -0.21474911 0.15992048 -0.26829517
-0.2699756 0.16097006 0.0040830276 -0.12912689 -0.11499748 0.2053924 0.2851375 -0.20192504
0.2668561 -0.15387715 -0.26795536 0.11992549 0.18159877 -0.22332305 -0.20133962 0.1375362
0.35988757 -0.15977234 -0.46538055 -0.23877244 0.13172367 0.28124046 -0.08717812 0.0774518
0.12501808 -0.011593288 -0.20032403 0.1252139 -0.12213007 0.28788012 0.20513928 0.3460678
-0.07991794 0.016424187 -0.0037183112 0.17382734 -0.48796335 0.05178567 -0.009086683 -0.16428992
0.3329187 -0.06176953 -0.049137477 0.30298555 0.20307149 -0.46280545 0.35643482 -0.20582442
-0.04034482 0.0024320488 0.31265584 -0.18189766 -0.5236241 0.004574939 0.24466556 0.13807455
-0.15632783 0.091499306 -0.16943613 -0.13220151 0.47335505 -0.14601637 -0.46761224 -0.23224689
0.08887159 0.072096884 0.007174234 0.14516868 0.2127996 -0.1636908 0.19887505 -0.3169633
-0.09147256 0.46096173 0.1248691 -0.22468911 -0.12142306 -0.20400085 0.18656865 -0.23626241
-0.441652 -0.15611258 0.052327197 0.2919079 -0.15088588 0.0009046038 -0.06131246 0.4387583
-0.08127948 0.24652602 0.12197411 -0.06871135 -0.076143004 -0.25159293 -0.0540595 -0.41632816
-0.17433555 0.19066523 -0.43321946 0.26272577 0.26241016 -0.22663414 0.22765839 -0.12855643
-0.49944508 0.08783702 0.05625388 -0.46666607 -0.18716991 -0.45123938 -0.24292767 -0.13150033
0.042543527 0.27746165 -0.12612438 -0.273781 -0.39266726 -0.11318072 -0.16850504 -0.41768876
-0.41239905 0.279122 -0.0021231163 -0.09553482 0.30683163 0.05441194 0.61333865 0.17441663
0.15500489 0.26361036 -0.13346618 -0.12703544 0.17566198 0.018954398 -0.11455774 -0.0811901

layers.0.lin_l.weight f4 [1024, 14]
00000000: a3d3 0fbe 58fc 603e 3618 40be 9c0c afbe
00000010: fb8c fbbd b23b b53b 770c 833e fca3 223e
00000020: 5fce 023e c2c1 a6be 869a 893e c403 083d
00000030: 6f3b 10be 708a 103e 8793 553d bb09 55bd
00000040: c272 54bd 3796 9bbc 9ac9 433d a0a1 dc3d
00000050: 2daa d4bd 86d7 a1be c8c1 74bc d122 2c3e
00000060: ff01 1dbd fc6b 53be 0c23 613e e654 9bbd
00000070: 670b 30be d4a1 aa3d aad9 8cbe 7c34 8bbe
00000080: 7e2d 453d 31f5 6fbe 639c d9bc 29f6 b43c
00000090: 7dc0 9e3c 56dc 853d ba61 ac3d 4780 2bbe
000000a0: 8243 b3bd 9e1c 3cbd cf11 c3be ae7f 113d
000000b0: c6d1 0bbc 3c45 633d b460 883d 8fc1 c83d
000000c0: 40be 62bc 68ad 09be 3b1d e63d a83e ec3c
000000d0: 8bd9 e1bd 2761 90bd 5df8 e0bd 0178 c83d
000000e0: ce25 f4bd 0bcd d83d 35f2 49bc 6e07 2d3e
000000f0: 1ab4 e4bd 56db 873e 3cca 303e c195 46bc
00000100: bc8c 3bbd 9c04 e13c ba93 89be 2412 97bc
00000110: 5004 863d a230 6f3d 66f7 6abe 12c5 013e
00000120: f81c edbd 807f 62bc 1146 853d 8a39 b9bd
00000130: 9abd ba3b e1dc 083d 4192 98bc a535 a5bd
00000140: 85d5 80bb c352 91bd 1c86 813e 6fed 0cbe
00000150: 9d30 68be 47bc 2dbe da6e e83d 4728 efbd
00000160: 281f d53d 0f6e c7bd ee5f 8b3c 4c6e a13d
00000170: d042 553e cc2a 1dbe 1683 123e 1110 15be
00000180: c476 703e 325f 043e d688 b2be 0c6e b6be
00000190: c267 4cbd e9d6 34bd 21f8 bcbc c145 2bbe
000001a0: 7bf7 8f3d 469f 013e 103e 96bd 4e62 45be
000001b0: 86ea 2d3e 3579 363d ad98 833d 04d5 c8bd
000001c0: 2967 6bbe 6d51 95be 5624 3a3d 5ba7 18be
000001d0: 9412 f93b 8933 54bd 452a 61bd 4a0b 86bc
000001e0: d5a2 2dbe 7d49 233d 6d6e 413d e2de 043e
000001f0: df82 c1bd ff3d 17be 6d9d 8cbe 806b d3be
00000200: 8f95 00be 6b82 0fbe c71a 0bbe 4eb4 16bc
00000210: ab32 f33d 8bb0 9d3d fdee 00be 5d87 0dbe
00000220: 3bb4 293d bca0 313c 547a 2a3d 68a5 65be
00000230: 7354 783d 1baa 303d 15a1 b0be 66f3 4f3e
00000240: 19cd 413e ece2 34be 0347 4cbe be71 0c3e
00000250: 23dd f83d dc0f 04be 7189 bd3e 1616 f2bd
00000260: 0781 c4bc a8d9 253e 2dfd 20bf 81b7 0fbe
00000270: cba1 9bbd f77d c9bc 97a6 9c3d 3597 c03c
00000280: 0506 48bd aaea 33be ee3e 4f3e e3b7 0bbe
00000290: 44bc a63e 9198 06be 821a 613e ac1f d7bd
000002a0: 3217 f33d a616 193d cf7c 8abe 774a bc3d
000002b0: c776 af3d d1d1 a8bd 0d9b ccbd ec3f a03d
000002c0: a1f5 963d a819 39bd 8b11 8e3e 370b bbbd
000002d0: 7448 153d 499f 24be 7071 d5bd f0e6 96be
000002e0: 9f97 8c3b eba5 e03c fb19 823d 8778 d83d
000002f0: 3c47 a33c c153 1bbe 67e3 42bc 5d4a 36bd
00000300: da79 623c 695f 44bd 29a9 dabd 1dbd ad3b
00000310: 6b62 63be d3ce 65be 1662 a0bd f20a 9bbd
00000320: 660a 873d ce97 a03c 0685 f1bd 9485 bbbd
00000330: 02b5 dfbd af3f 493c 2b07 193c 43fc 8d3d
00000340: e9e9 03be 8461 94bd dfdc 00be f846 4cbe
00000350: d592 67bc 60aa 0fbd 6bdf debd 69ab 83bd
00000360: 7387 713d 1fcc 2f3e 0e6f 2cbe 73c3 b2bd
00000370: b9c5 6f3e 29f3 cfbd 17e8 09be 8896 46bd
00000380: 3fa9 01be aef1 fcbd 0f84 51be cd4f f8bd
00000390: 5dc9 87bd 95cb 4c3e 131d 9abc ef4e b2be
000003a0: 3689 e6bd 3883 803d f834 733d 314c 9bbd
000003b0: a433 53be 2b57 00be 4ba7 353e 8dc4 d5bd
000003c0: 3a3f 2fbc ef98 ed3d 3b22 a6bc 17f3 e33d
000003d0: 6037 9dbb 719f f03d b4a1 063c d24e 25bc
000003e0: 37e8 413e a5ea 2d3e aa44 493e 429b 20bc
000003f0: 5d94 acbd f71b a13d e30f 07bf 4d2d 1ebe
-0.14045577 0.21971262 -0.18759236 -0.34189308 -0.12282749 0.005530798 0.25595447 0.15882868
0.12774037 -0.325697 0.26875705 0.033206716 -0.14085172 0.1411531 0.052142646 -0.052011233
-0.051867254 -0.018992526 0.047799684 0.10773015 -0.10384021 -0.31609744 -0.014938779 0.16810156
-0.03833198 -0.20646662 0.21986026 -0.075845525 -0.1719185 0.083316475 -0.27509815 -0.2718848
0.048139088 -0.23433377 -0.026563829 0.022090035 0.019378895 0.06536166 0.08417077 -0.16748153
-0.087531105 -0.04592573 -0.38099524 0.035522155 -0.008533901 0.05548595 0.0665907 0.09802543
-0.013839304 -0.13445055 0.11236044 0.02883847 -0.11027821 -0.0704978 -0.109848715 0.09788514
-0.11921273 0.10585984 -0.012325813 0.16897365 -0.11167164 0.26534528 0.17264646 -0.012120665
-0.04578851 0.027468018 -0.2687052 -0.018441267 0.06543791 0.05839599 -0.22945938 0.12672833
-0.11577791 -0.013824344 0.06507505 -0.09044178 0.005698872 0.03341377 -0.018624427 -0.080668725
-0.0039317035 -0.07095864 0.2529763 -0.13762449 -0.22674794 -0.16966353 0.11349268 -0.11677604
0.10406333 -0.09737789 0.017013516 0.078823656 0.20826268 -0.15348357 0.14307818 -0.1455691
0.23482805 0.12926939 -0.34870023 -0.35630834 -0.04990364 -0.044150267 -0.023067536 -0.16725828
0.07029625 0.12658414 -0.07336056 -0.19275782 0.16983995 0.044549186 0.06425605 -0.098062545
-0.22988571 -0.29163685 0.04544481 -0.14907591 0.0076010916 -0.05180696 -0.054971952 -0.016362805
-0.16956647 0.039865006 0.04722445 0.12975648 -0.0944879 -0.14769743 -0.27463856 -0.41292953
-0.12557052 -0.14014594 -0.13584433 -0.009198261 0.118748985 0.076996885 -0.12591167 -0.13821168
0.041431647 0.010841545 0.041620567 -0.22426379 0.060627412 0.043130975 -0.34497896 0.20307693
0.18925895 -0.17664689 -0.19948964 0.13715264 0.121515535 -0.12896675 0.37018922 -0.11820619
-0.023987306 0.1619631 -0.62886316 -0.14034845 -0.07599219 -0.024596198 0.07648962 0.023509601
-0.048833866 -0.17569986 0.2023885 -0.13644366 0.3256551 -0.13144137 0.21982768 -0.10504088
0.118696585 0.037375115 -0.27048346 0.091938905 0.08567577 -0.08243144 -0.09990511 0.07824692
0.07371069 -0.045190483 0.2774776 -0.091329984 0.03644605 -0.16076387 -0.10422027 -0.29473066
0.0042905356 0.027422866 0.06352612 0.10569864 0.019931428 -0.15168668 -0.011895037 -0.044504512
0.013822997 -0.047942553 -0.10676796 0.005302085 -0.22205512 -0.22442178 -0.078312084 -0.07570447
0.0659378 0.019603636 -0.1179295 -0.091563374 -0.109231964 0.01228325 0.009340088 0.06932881
-0.12882198 -0.07245162 -0.12584256 -0.19948947 -0.014134129 -0.03507459 -0.10882457 -0.06429178
0.058967065 0.1716771 -0.16839239 -0.08728685 0.23415269 -0.10153801 -0.13467441 -0.0484834
-0.12662219 -0.12350784 -0.20460533 -0.12124596 -0.06630204 0.19999535 -0.018812692 -0.34825847
-0.1125664 0.06275028 0.059376687 -0.07582892 -0.20625168 -0.12533252 0.17739598 -0.1043788
-0.010696227 0.116014354 -0.020279994 0.1113035 -0.004797861 0.11749161 0.008217264 -0.010089593
0.18936239 0.16984041 0.196551 -0.009802641 -0.084267356 0.07866662 -0.52758616 -0.15446968

layers.0.lin_r.weight f4 [1024, 14]
00000000: 46fe ca3d b050 0dbe 24f4 c23b 6b43 91bd
00000010: 0d77 c0bd bae7 803d 4d60 af3d bdbb 163c
00000020: aa46 68be 34e8 313a afb6 923d 90da 1f3f
00000030: 8604 aa3d ea44 f13d 9b37 73bd 762e 7a3e
00000040: 821e 00be b405 8bbe f0a0 553e 3da7 4abe
00000050: 6ebd 47be 7349 cabc 1195 1b3e 795d 4bbc
00000060: f7d6 323d 8cbd 8c3d ed0e bcbe 6586 36bf
00000070: 6ea3 9f3e 62f3 a23e 0e0e dfbd 9f66 9fbe
00000080: b092 8e3e a884 8cbe ac4e 80be 7f31 153b
00000090: 0dcc 2e3e 8e14 c4bd c361 d03e 90dd 7a3e
000000a0: 6989 6e3e 1064 403f 3e45 983e 2756 c4be
000000b0: 60d7 cdbc 0a50 47bd 11d7 c53d a515 d63d
000000c0: b51c 42bd 0c0d a4be 283e 8fbd 8483 943e
000000d0: a787 55be 126e e63d a16a 2fbd 8bb2 c73c
000000e0: 2ebb 083e 0d03 9abe 84c4 f23d c3db 043e
000000f0: 989b 6ebe 7afc 983e b2ca e03d 711c 21bc
00000100: f1ed 8dbe 0307 713e 99f4 bcbe 90e7 433c
00000110: 81fb f1bd 1587 403e ec4a cd3e d85c 363e
00000120: 990f 84bd 421b 9cbe b56b 7f3e 1b7f c3bd
00000130: ba51 8bbe fb91 debd d2dd 27bd 217c 263e
00000140: aa8c 59be 720e 8cbd 4ee6 35bd fb93 fe3c
00000150: 647d 2f3e a326 5cbc 82f2 babe 9ea4 02be
00000160: aff1 19bd 634e 23bd 4a52 423e a666 91be
00000170: d8a5 2d3d ec7f e5bd e247 3dbd 734f bebd
00000180: d728 0c3e d46c cfbd 23dd 1bbe 55da 49be
00000190: fffe acbd 51df 983b 7f82 55be 12c1 9a3e
000001a0: 83b4 5c3e 1ee7 3ebe cba5 b33b 4ab1 d6bd
000001b0: b24d 17be 64a2 d83d c7f6 12be b656 db3d
000001c0: 6819 dabd f5f9 b3be 2874 6a3e a226 23bd
000001d0: f9d3 34bc 8b79 1d39 a78a 1f3e 0dbb 033e
000001e0: 1ec0 143e 1e8b 64be 0a88 fe3c 2b0b 8e3d
000001f0: ca45 bf3d fbdf 833e 0400 c1bd dafd 24be
00000200: 701d fd3d 5ede 8d3e bfee 76be 524f 033e
00000210: f20f 433e b44b 54be ecfb 1dbe 8b66 b8bc
00000220: 6414 5fbd b528 ca3e a29e 773d 44d3 a73e
00000230: 66ec 353e d5fe 82bd fa95 0bbd 7bf7 2dbd
00000240: 91a8 db3d c414 673d ff4e b1bd 7ee3 7ebc
00000250: 8f35 2cbb 4b2f 933d 6ef1 d0bd cfe8 a83c
00000260: ad45 97bd 5225 013e 9685 aabe d4aa 9a3e
00000270: e9a1 69be b02c c83d 0028 0d3e 81a2 6ebe
00000280: 7fa7 28bd 94ef 3bbd 8135 7c3e e539 04bc
00000290: 8ac0 f03d 8103 e63d 4f0b 813e f1e9 acbc
000002a0: 92a4 af3e 9f51 f4be 0e54 b6bc 7221 8cbd
000002b0: f8fd 123e 4bc8 34be aac0 8cbd ccbc c0bd
000002c0: 414c b53c 4782 d73d 7e19 a1be f1f1 6e3e
000002d0: ca05 533e b471 c43d 259a 393e 6aec f9bc
000002e0: adca 7b3d 52f6 42be 0086 443e be66 3abc
000002f0: bc52 cebc 01d6 dcbd 3f94 a93d 1e30 a93d
00000300: 3c0d 88be 3d5c 813e 2398 7f3e c7b9 2f3e
00000310: c467 1dbe 51dd 37be 3852 0f3e 9402 babe
00000320: 9084 9a3c f759 8dbe 92e7 0b3e cb22 4c3e
00000330: 5fce 723e 2f0f 81be 54b4 98bd 0bbe 7b3e
00000340: 8b41 0c3b 2188 e4bd d24d 04be 6179 19bd
00000350: 9fb3 5d3e 72ec 49be b1de 9c3d a1b0 42be
00000360: 1ba0 0b3e 0539 0e3e 719c 8a3e 7a6e 65be
00000370: 3f57 203e 09df 013e 0585 3b3e e209 9d3d
00000380: 9d61 b3be 7cbd a1be 80db 123e bb68 803e
00000390: 3c04 83be 18b8 503e 6f33 d13e 1fab 7abd
000003a0: 051d e33c 8a2f c8bd 18de 5bbd f8a5 0fbe
000003b0: 5472 233e 4476 ee3e e498 8d3d fc54 60be
000003c0: f839 563d 3bf1 3e3b 3f6d f43e c42f 783a
000003d0: b6a1 e7be d59e 5ebe d19d 703d cfd3 493e
000003e0: 4d96 463e c0ef f4bd ebb1 b8bd 8e8d d43e
000003f0: 46ac 883e edfd a43e 814b 1abd 848d 59be
0.0991178 -0.13800311 0.005949514 -0.07092937 -0.09397707 0.06294198 0.0856329 0.009200034
-0.22683206 0.0006786615 0.071637504 0.62442875 0.08301644 0.117807224 -0.0593792 0.24431786
-0.12511638 -0.2715279 0.20862174 -0.19790359 -0.19505855 -0.024693226 0.15193583 -0.012412422
0.043662038 0.06872091 -0.36730137 -0.7129882 0.31179374 0.3182631 -0.108913526 -0.3113298
0.2784629 -0.2744496 -0.25060022 0.0022765098 0.17070027 -0.09574233 0.40699586 0.24498582
0.23294605 0.75152683 0.29740328 -0.3834698 -0.025127113 -0.048660316 0.09660161 0.10453347
-0.04739066 -0.32041204 -0.06994277 0.29006588 -0.20852529 0.11251463 -0.0428263 0.024377128
0.13352653 -0.30080453 0.11853889 0.12974457 -0.23301542 0.29880124 0.10976161 -0.009833441
-0.27720597 0.23537831 -0.36905363 0.011957064 -0.11815549 0.1880153 0.40096223 0.17808855
-0.064482875 -0.30489546 0.2494343 -0.09545728 -0.2721079 -0.10867687 -0.04098303 0.16258289
-0.21245065 -0.06838693 -0.04440909 0.031076422 0.17137676 -0.013436946 -0.36513144 -0.12758109
-0.037584003 -0.039869677 0.18976703 -0.28398627 0.04239449 -0.1120604 -0.04621113 -0.092924975
0.13687454 -0.10128179 -0.15221076 -0.19712193 -0.08447074 0.0046652933 -0.20850562 0.30225426
0.21553235 -0.18642852 0.0054824105 -0.10483034 -0.14775732 0.105778486 -0.1435195 0.10709898
-0.10649377 -0.3515164 0.22895873 -0.039831765 -0.011036866 0.00015017965 0.15580235 0.12864323
0.14526412 -0.22318694 0.031070728 0.06935724 0.09339483 0.2575682 -0.09423831 -0.16112462
0.123591304 0.27708715 -0.24114512 0.12823227 0.19049051 -0.20732003 -0.15428132 -0.022509834
-0.054462805 0.39484182 0.06045402 0.3277837 0.1776596 -0.063962616 -0.034078576 -0.042472344
0.10725511 0.056416288 -0.086576454 -0.015557168 -0.002627704 0.07186755 -0.10202299 0.020618824
-0.073863365 0.12611893 -0.33305043 0.30208457 -0.2281567 0.097741485 0.1378479 -0.23304178
-0.04117536 -0.045882776 0.24629785 -0.008070444 0.11755474 0.11231137 0.2520394 -0.021107646
0.34305245 -0.47718522 -0.022256877 -0.06842317 0.14354694 -0.1765453 -0.06872685 -0.0941101
0.022131087 0.10522895 -0.31464761 0.23334481 0.20607677 0.09592 0.18125208 -0.030508239
0.061472584 -0.19039276 0.19191742 -0.011377035 -0.025185935 -0.107830055 0.08280229 0.08261131
-0.26572597 0.25265685 0.2496038 0.17160712 -0.15371615 -0.1795552 0.13996208 -0.36330092
0.018862039 -0.276077 0.13662556 0.19935147 0.23711537 -0.25206897 -0.0745627 0.24584214
0.0021401371 -0.11158777 -0.12920311 -0.03746927 0.21650551 -0.19719103 0.076596625 -0.19012691
0.13635294 0.13888939 0.2707248 -0.22405425 0.15658282 0.12682737 0.18312462 0.076679006
-0.3503541 -0.31589878 0.14341545 0.25079903 -0.25589168 0.20382726 0.40859553 -0.06119835
0.027723799 -0.09774692 -0.053678602 -0.14028156 0.15961581 0.46574605 0.06913927 -0.21907419
0.052301377 0.0029135484 0.47739598 0.0009467567 -0.45240563 -0.21740277 0.058744255 0.19709705
0.19393273 -0.11959791 -0.0901831 0.41514248 0.26693934 0.3222498 -0.037669662 -0.2124539

layers.0.lin_edge.weight f4 [1024, 4]
00000000: ab51 9b3d 9da0 0bbf c22a 603e 78ef cb3d
00000010: 7426 d73b cb1c 403e bc1e d43d ff97 43bc
00000020: 8efa 8d3d d1c5 143e d668 993e 32a8 133e
00000030: adb8 c33c 9dbd aebe 2d20 7c3e 2afc 17bd
00000040: 0d92 85bc 0053 96bd 8d9d 6939 7918 0cbe
00000050: 7bf3 fe3c 44a9 393e d6bd 1a3e bdce 8e3d
00000060: 8ff7 f33d 92bb 333e f4d4 e53d 5627 ad3c
00000070: 7bff 24be 4703 c63d 89a8 063e 637a 683e
00000080: b145 0bbe 193b 15be 2214 133e 79f7 313e
00000090: 217b 32be 3025 e53d 5ee3 9f3d d31d 723e
000000a0: 0c66 f3bd 9648 73be a8e8 2bbe 4086 083e
000000b0: e524 c7bd 933f 223e 130c 90bc 439e 47bd
000000c0: c066 01be 8547 e5bd 0fbd a7be 850a c23d
000000d0: 791e c13c 83a4 cebe f041 d43c adc5 10be
000000e0: e799 06be cb5a 66be b4d1 fdba 596d 9b3d
000000f0: 681b b4bd 678f 88be 0f1e 283d ae65 d23d
00000100: e1c5 b0bc 6d9f 683e e841 ae3d 264c d83d
00000110: 36a8 a8bc b129 81bd c37a bbbe d5e9 2c3e
00000120: 0459 063e 7dd4 69bd c45e 703e b2e0 04bd
00000130: 88eb bb3d 6e56 a0be 0a99 ec3d df31 0ebe
00000140: 5866 66bd 24f4 093f c916 07bc 9608 1b3e
00000150: fdd9 9dbc 46d0 f9be a9aa 253d 1eff 023e
00000160: 87b1 14be a53b 4bbe 09e8 12bd c885 aa3e
00000170: 2c21 913b f79d aa3c 41f6 ac3d 58bb 50be
00000180: e46c 6fbe 13ca 1eb9 82cf d33d d2c7 403e
00000190: 1c32 cbbd d7b1 c53e 783a ad3d 5e86 ba3d
000001a0: 9058 a53c 7dba 48be eef9 dd3d 79b9 823c
000001b0: 4240 01be 8675 17bd 1295 183e d536 193e
000001c0: a636 99bd 4555 3ebe f2d2 2f3e b68a 113e
000001d0: 48d4 2c3d c58f e3be 9dc2 943e c320 a4be
000001e0: c871 35bd 0f2d 59be fd18 7cbe 27c3 e13d
000001f0: 4010 e6bc f96f 14bf b2c0 15bd e4cc 80be
00000200: 78f1 503d 26b7 2ebe a70d a93c 1c2b 043e
00000210: d4d1 c2bd d249 053d c394 c53d d115 b1be
00000220: f2c2 893d 40e5 82bd 3248 01be 99e5 c93c
00000230: 0206 f63b 74ff d93d 9b6e 783e 35e6 bbbd
00000240: 3796 adbd 6955 f9be 9411 55be 7e12 893e
00000250: b012 913d 1c51 0c3d f8d9 5f3e 21aa 04be
00000260: 46f2 9e3d aece 2e3e 270e a43e 2f32 5a3c
00000270: 115f 95bc d4cc 163d dafc 9b3e 08c2 64be
00000280: abaa 1bbe f89a 993e b254 e43d 6240 f13d
00000290: b559 b13d 3565 383e eef2 313e 7f2e 883d
000002a0: 0809 073e f913 ddbd 85d6 49bd 5e73 1ebe
000002b0: 84dc c4ba 9683 2fbc 08ba 9b3e 12b6 ad3e
000002c0: 9d8a f4bc 9916 c03e fd6f a4be 3e93 673d
000002d0: e7a4 dfbd b7a0 553e ac6d 023e 1c64 c6bc
000002e0: 95ea f7bd 69e9 673e 36d3 eb3d 6f4f 20bc
000002f0: 6465 52bd a82b 263e 6c20 1f3e d276 053d
00000300: 45a5 b13d 1ebe 4abe 5513 f33d bbd2 343d
00000310: 664b 2ebe 2246 92be 4a84 3abe 7550 e53d
00000320: 45e4 5abd d07e 0dbe 12a9 95be f780 223e
00000330: 95d4 1ebe a72b 26be dacb a53d b1a8 923e
00000340: 0ad7 45bd f061 973e 6567 cb3c d077 f5be
00000350: ac7d 1cbd 7184 f73c 326b 0f3e d28e c63d
00000360: f57a 1dbe 1c4d 80be 7acc 27be 0fa3 df3d
00000370: 28c2 ddbd 14fa fcbd 6449 8abe bfdb 35bc
00000380: 8e82 10be 804a 0d3e cee0 abbe 8f4f 69bb
00000390: 3a4e 823c 2848 04be c81f be3c c725 84bd
000003a0: 1903 adbd 5453 8fbe a146 9f3b a879 0cbf
000003b0: a8b0 04be e84f 8bbe f7ba 6dbe 49df 3d3d
000003c0: 1cb8 293d 5486 a33c 3542 ee3d 70f5 403e
000003d0: a722 e6bd 93c1 72bc 487f c7be ab86 283e
000003e0: 37ef aa3d 6267 50be b7d0 2c3e 6b12 dfbd
000003f0: be24 07be bde0 333e 2589 513e 61eb c63e
0.07583936 -0.5454195 0.21891311 0.099577844 0.0065658633 0.18760984 0.103574246 -0.011938094
0.06932555 0.14528586 0.29962796 0.1441963 0.023891771 -0.34129038 0.24621649 -0.037105717
-0.016304994 -0.0734005 0.00022279304 -0.1368121 0.03112196 0.18130976 0.15111479 0.06973026
0.119124524 0.17552021 0.11222258 0.02113692 -0.16113083 0.09668594 0.13150229 0.22702937
-0.13600804 -0.14573325 0.14363149 0.1737956 -0.17429782 0.111887336 0.07807039 0.2364419
-0.11884698 -0.23758158 -0.1678797 0.13332462 -0.09723834 0.15844564 -0.017583882 -0.048734915
-0.12636852 -0.11195282 -0.32761428 0.09474663 0.0235741 -0.40359887 0.025910348 -0.14137907
-0.13144647 -0.22495572 -0.0019364865 0.07589216 -0.0879429 -0.26671907 0.04104429 0.102733
-0.021578731 0.22717066 0.08508664 0.10561399 -0.020588022 -0.0630678 -0.36617097 0.16886075
0.13119894 -0.05708741 0.2347365 -0.03244085 0.091757834 -0.3131594 0.115526274 -0.13886212
-0.056249946 0.53888154 -0.0082451785 0.15139994 -0.019268984 -0.48791713 0.040445957 0.12792632
-0.14520846 -0.19846971 -0.035865817 0.33305192 0.004429003 0.020827277 0.08445407 -0.20383966
-0.23381382 -0.00015143333 0.10342313 0.18826225 -0.09921667 0.38612244 0.08458418 0.0910766
0.020183831 -0.1960239 0.10838686 0.01595758 -0.12622169 -0.036977313 0.14900616 0.14962323
-0.074811265 -0.18587215 0.17170313 0.1421307 0.042194635 -0.44445625 0.29054728 -0.32056245
-0.044297963 -0.21208595 -0.24618907 0.110235505 -0.02808392 -0.57983357 -0.03656072 -0.2515632
0.051011533 -0.17062053 0.020636393 0.1290707 -0.09512678 0.032541104 0.09647515 -0.34586957
0.06726636 -0.06391382 -0.12625197 0.024645614 0.0075080404 0.10644427 0.24260943 -0.09174768
-0.08475917 -0.48697975 -0.20807487 0.2677192 0.070836425 0.03425704 0.21860492 -0.12955524
0.07761054 0.1707103 0.32042047 0.013317629 -0.018233808 0.036816433 0.30466348 -0.22339642
-0.15201823 0.30001044 0.11148967 0.11779858 0.086596884 0.18007357 0.17377827 0.066494934
0.13187039 -0.10794825 -0.049276847 -0.15473697 -0.0015019332 -0.010712525 0.30415368 0.3392797
-0.029851252 0.3751724 -0.3211669 0.056536905 -0.109201245 0.20862089 0.12737149 -0.024217658
-0.1210529 0.22647633 0.11514895 -0.009784563 -0.051366225 0.16227591 0.15539712 0.03258402
0.08674101 -0.19799086 0.11868922 0.04414628 -0.1702095 -0.28569132 -0.18214527 0.111969866
-0.05344035 -0.13817906 -0.29230553 0.15869509 -0.15510781 -0.1622759 0.08095522 0.28644326
-0.04830078 0.29566908 0.024829576 -0.47942972 -0.038205788 0.03021452 0.14005736 0.096952096
-0.15378936 -0.2505883 -0.16386595 0.10919773 -0.10828048 -0.12352386 -0.27009118 -0.011099755
-0.14112303 0.1379795 -0.3356995 -0.00356004 0.015906442 -0.1291815 0.023208514 -0.06452518
-0.084478565 -0.27993262 0.0048607145 -0.5487313 -0.12958014 -0.272094 -0.23215853 0.04635552
0.041435346 0.019961514 0.11633722 0.18843627 -0.11237078 -0.0148166595 -0.38964295 0.16457622
0.08346408 -0.20351937 0.16876493 -0.10892185 -0.1319761 0.175662 0.20462473 0.38851455

layers.0.res.weight f4 [1024, 14]
00000000: b1b8 8d3d 9c56 b03d 2c50 8abe 9433 1e3e
00000010: 10d8 a13d abba 8bbe 3a39 d83a 87c5 59be
00000020: 40d1 113e 70c3 a53c 3d18 1abd da4f a7bd
00000030: f512 b5be 4ca4 03be 56dc a63b 2c0b 27bd
00000040: a7f1 a6bd 4b9f babd 46f9 ca3a 24f6 ad3c
00000050: 5828 bd3d 3abd 7fbe 0ec4 3e3e 47cb b6bd
00000060: 0092 0dbe 6ade 663e e723 0ebe 4eb1 31bd
00000070: b6fb bd3d 33d4 ebbd fbd0 5cbe f2b7 983d
00000080: 34f8 29be 91ce 3bbe 752d f63d f9d5 203e
00000090: 41f7 653d 9bc4 11be fb18 993e 4c50 9fbe
000000a0: c287 97bd c11d f9bc 5222 973d 4675 173e
000000b0: 6901 65be f0f4 363e 3209 83bd c8fb 1fbe
000000c0: 541f f53c b416 a7bd b143 34bd cd89 643d
000000d0: 1b05 d6bd feb3 a0be cfcd 543e ff07 c2bd
000000e0: edde bbbd 8ccc 0a3e ed35 d13c bf52 70bd
000000f0: 8801 c7bd 6bec a2bd 354e 513e c5ae 133e
00000100: 536c fa3c d91e b1be d66b 97bc f7d7 81be
00000110: a8f0 013f e8fa abbd 416c 38bd 3de7 8cbe
00000120: 3625 d93e 31bd f33d eefc 42bb f06d 813d
00000130: 63dd 053d 90b7 d2be cfe8 a93c 4675 643c
00000140: ae94 7abe 1afc 613e 976d dd3d 19dd 133e
00000150: e3e6 f93b f4c5 433e 0bc1 6bbc 53e8 f9be
00000160: ef62 8fbc a241 e1bd 7853 ea3d e82b e53d
00000170: af4d 443d 1a0a 1cbe 050c 033e cfa0 66be
00000180: 361b 9abc 6bfa f43d ac8e 253d dbe5 02be
00000190: 5162 5b3e e6e1 bf3c 678c 423d 503e 863d
000001a0: e261 b43b afb2 17bd 40af bd3d d993 66bd
000001b0: 1835 2c3d d7e4 843b 11aa 12bb 2967 7d3f
000001c0: f653 b93d 17f6 803d 6fb0 ea3d 1c0b b6be
000001d0: de0e 853d 0d25 5f3d e013 1fbd e2bc 2ebc
000001e0: a6ee 4c3d 0e42 273e 5bd2 d2be 4148 fe3d
000001f0: b34a c2bc 5d38 17bd 6e98 2b3c 5beb 8cbe
00000200: 1696 0d3e 15cf 343e abd0 4e3e 367b 91bd
00000210: a135 28bd c767 9c3d e584 7d3e 39ab 45be
00000220: 1b5d 083e bfdd aebb 67f1 6f3d 9810 da3f
00000230: d292 94bd 6fcb 60bd ac2e ba3d 9e3f fbbe
00000240: bda8 ee3d 220c 9cbe d8af ffbd 8d23 10be
00000250: d5e4 47bc 1903 f03d bf44 15be 8005 b23d
00000260: 3e17 333e 65c8 29be 550f 873d f261 813e
00000270: e281 2bbe 58eb f13d c157 703c 93fc 043e
00000280: 54d0 363d 29ef 2bbe 5094 53bd 70ed 893d
00000290: 7868 fcbd 57c5 0bbe 01d3 edbe 24af 40bc
000002a0: d34c 34bd 64b7 1fbe f124 7f3d 21df a0be
000002b0: 5ed8 fe3d d282 4fbe 06aa 86bd c56f 20be
000002c0: d828 5dbc 1038 3f3e 2301 b1bd 2be9 7f3c
000002d0: ad20 9b3e abd1 3a3e eefe 81be e291 a8be
000002e0: bbf7 b2bc c4e0 e1be 2cef 0d3e 3f40 43bd
000002f0: 06f2 8bbd 17e1 41be ad29 003f 0957 ebbd
00000300: 11e3 023e be7e 66be a942 a3be 4a9e 9a3f
00000310: 09b6 d13d 0c27 20be 61ba 873e 26af 933d
00000320: 2a9d aa3d 1ae9 39bd 096b 7abb b7c5 0abe
00000330: 055e 30bd f56c 98bd 4fb3 1fbe 492d a83e
00000340: ca00 81be a02d 10be 6c48 e03d 8347 69bd
00000350: 33cf 693e f3b9 d3be 9a2b 363d 45b9 103e
00000360: 127f fcbd 8ab2 bfbe 4530 283d bf3d 003e
00000370: 9a68 0fbe 9f6e a2bc 84e4 2a3e 32dc 333c
00000380: fae7 373e b6b4 96bb 4952 093e 415e de3d
00000390: 70e5 68bd a87e 06bd a8c5 52be 7a98 b5be
000003a0: 7e69 74bd aca6 333d c8af ddbd 6699 313f
000003b0: 3831 bcbe 14e1 c6bd f025 a13b 6a88 4c3e
000003c0: 7840 eabd 5561 bfbd 6cdb 6a3c 1306 0abe
000003d0: 02d1 e63d 96e8 74be b876 06bb 0647 aebd
000003e0: 99db 60bd 4033 9abd b3c6 943e ad1f 293e
000003f0: 0b63 823e 83a8 423e 8738 c23d 3a79 d53d
0.06919993 0.086102694 -0.2701429 0.15449363 0.07902539 -0.27290854 0.0016496547 -0.21266757
0.14239979 0.020234793 -0.03762077 -0.08169527 -0.35366026 -0.12855643 0.005092184 -0.04078214
-0.0815156 -0.09112414 0.0015485666 0.021235533 0.092362106 -0.24974528 0.18629476 -0.08925491
-0.13825226 0.22545782 -0.13880883 -0.04338198 0.09276526 -0.11515083 -0.21564095 0.0745696
-0.16598588 -0.18340518 0.12020389 0.15706624 0.056144003 -0.14235155 0.2990187 -0.3111595
-0.073989406 -0.030409696 0.07379593 0.1479083 -0.22363819 0.17866874 -0.06398238 -0.1562339
0.029922165 -0.08158627 -0.044009868 0.05579548 -0.104501925 -0.31387323 0.20781635 -0.094741814
-0.09173379 0.13554591 0.02553841 -0.058672663 -0.09717089 -0.079552494 0.2043999 0.14422138
0.030569231 -0.34593847 -0.018484037 -0.2536008 0.5075784 -0.08397466 -0.045025114 -0.2752017
0.42411202 0.1190132 -0.0029752809 0.06319797 0.032681834 -0.41155672 0.020740895 0.013943976
-0.2447078 0.22068825 0.10811918 0.14439811 0.007626401 0.19118482 -0.014389287 -0.48810062
-0.01750323 -0.109988466 0.11441702 0.11190015 0.047925647 -0.15238228 0.12797554 -0.22522281
-0.018811803 0.11961826 0.040419266 -0.12782995 0.21424223 0.023423146 0.04749718 0.06554854
0.0055048326 -0.03703564 0.09261942 -0.056293342 0.04204282 0.0040556 -0.00223792 0.98985535
0.090492174 0.06296938 0.11459433 -0.3555535 0.06496976 0.054478694 -0.038837314 -0.01066515
0.05003228 0.16333792 -0.41176113 0.12416125 -0.02371726 -0.036918987 0.010473354 -0.27523312
0.13826784 0.1765712 0.20196788 -0.07103579 -0.04106677 0.076369815 0.24757726 -0.19303598
0.13316767 -0.005336493 0.05857983 1.7036314 -0.07254566 -0.05488151 0.09090933 -0.49071974
0.11653278 -0.30478007 -0.124847114 -0.14076062 -0.012200554 0.11719341 -0.14577006 0.08692455
0.17489335 -0.1658035 0.06594721 0.2527004 -0.16748765 0.118124664 0.01466936 0.12986974
0.04463227 -0.16790451 -0.051655114 0.06734741 -0.12324613 -0.13649498 -0.46450046 -0.011760507
-0.044018578 -0.15597302 0.06229109 -0.31420234 0.124436125 -0.20264748 -0.06575398 -0.15667637
-0.013498507 0.1867373 -0.08642795 0.015619556 0.30298367 0.18244044 -0.25389808 -0.329238
-0.021846643 -0.44116795 0.13860768 -0.04766869 -0.06833272 -0.18933521 0.5006359 -0.1149121
0.12781931 -0.22509286 -0.31886795 1.2079556 0.102397986 -0.15639895 0.26509383 0.07211141
0.08330758 -0.04538832 -0.003821077 -0.13551985 -0.043058414 -0.07442657 -0.15595745 0.3284705
-0.25195915 -0.14079905 0.109513134 -0.056952965 0.22832946 -0.41352805 0.044475175 0.14133175
-0.12328924 -0.37440902 0.04106166 0.12523554 -0.14004746 -0.019828139 0.16688734 0.010977792
0.17959586 -0.004599179 0.13410296 0.10857821 -0.056859434 -0.032835633 -0.20583212 -0.35467893
-0.059670918 0.043860123 -0.10824543 0.6937469 -0.367563 -0.09710899 0.0049178526 0.19973913
-0.11438078 -0.093447365 0.014334541 -0.1347888 0.11270334 -0.2391685 -0.002051754 -0.085096404
-0.054896925 -0.075293064 0.29057845 0.1651599 0.2546619 0.19009595 0.09483438 0.10423513

layers.1.att f4 [1, 8, 1]
00000000: a616 9abe 4e2d 8fbe d4e8 703e d103 043f
00000010: 884a d13e ebda 9dbe 833c f4be 9116 b0be
-0.30095404 -0.27964252 0.23526317 0.51568323 0.40877175 -0.30831084 -0.47702417 -0.34392217

layers.1.lin_l.weight f4 [8, 1024]
00000000: a4ed 11be 0543 f9bd 2002 1c3e ba57 573d
00000010: cf10 c33e 6c0b 573d 8ab0 d2be 07fe 1ebe
00000020: 05e7 38be bcad 4abe 0616 b0bd 4a55 0bbe
00000030: 4824 5f3d cc5f 57be 9dd7 9ebd c926 17be
00000040: 2256 a4be 99dd 7f3d c042 c5be d9cb 9a3e
00000050: f25b 01bd b6a7 27be 7df5 943e 1e1b 983d
00000060: 7f45 78bd 4950 87bd ac0c 3bbe d9a0 39be
00000070: e83f b8bd 5cba 4c3e ef9d 4d3d 2eed 8f3e
00000080: d85e 44bd b232 c73c 905a 18bd 57a9 953e
00000090: 4689 e0bd c126 01bd b7f3 9ebd df8f b33e
000000a0: 64fb 44bd 4b02 9fbe eac0 b33e 915f e73c
000000b0: c617 7b3e 9492 09be b584 c5bd 0d86 b0be
000000c0: 4a08 213e be95 18bd 364f c4bd b7a4 67be
000000d0: b98f f6b9 11ad 183d 0f9e 6d3e 61bc a5bd
000000e0: 83e1 9d3e ac71 0d3d 8411 1f3e 3c77 7d3e
000000f0: b50a 043c 77ba cb3e bcf5 6f3e 3484 83be
00000100: 7038 d03c acfb 81bd b3d4 8dbd 08b8 c0bd
00000110: 9f5d 0b3b a913 01be 2dc0 633a a0f0 40be
00000120: ba5d 2fbe 9ad8 b3bd 4d88 54be 238a ec3d
00000130: c9d7 06be 09b5 22be 1811 6dbe fafd cbbc
00000140: 16b0 bdbc b408 f2bd 4618 b13d 306a 3b3e
00000150: b673 c13c 2103 07be 6d99 acbe 8660 6cbd
00000160: 4761 82bd 5277 e43b 1abd 1ebc ab9a 073e
00000170: ab3a fdbd 7472 bebd ec42 cd3e b7de afbd
00000180: d866 493e c994 1dbc b149 393d 9702 be3d
00000190: 027a 99bd 2021 123d 8996 a93e e05b 183e
000001a0: 4bcb 013e 1a29 64bd 9b0e c03e bb51 2d3d
000001b0: 21f7 c83e fd27 5cbe 5e3e 24be 470a 9c3e
000001c0: 3f83 a93e 31e6 33bd 337b 383e aea8 2ebd
000001d0: 9214 a2be 46e8 803e ee5f 04bc b769 d0bd
000001e0: bf69 933e aeca 52be cfa0 ce3a 5c68 253d
000001f0: 5c50 99bd 9952 d8bd 68c8 203e fdb3 383d
00000200: 9810 5cbd 8d59 9bbd 3469 0d3e d7a3 0b3c
00000210: d2f8 c63d 84fb a83d 814c 2d3e 5d81 3dbe
00000220: 9a29 713d daa8 313d 8e27 af3d 509e 17be
00000230: 080f 3c3e 06cb bbbc 6201 b73c e8f6 eabd
00000240: e508 0cbe a8c3 07be b2b5 003e 585a 383c
00000250: ca7c 1e3e d4f5 6f3d c2c7 b9ba 625a 25bd
00000260: 2996 e83e 3a76 2ebe d662 ecbd 6948 e63d
00000270: 108b 873e ecaf 993e 618b 57be 6744 c83e
00000280: 769c b7be 251a 4d3e f444 98bd de3a 2ebe
00000290: b613 1cbe d3be 76bd d452 3c3d a2f2 293d
000002a0: d686 963e 7c84 383d 13a2 1fbe eeff 8f3e
000002b0: 4922 7f3d 621f 883e 6b16 40bc ca84 afbd
000002c0: 2c1d 973e 0159 063f da63 5f3e 1afe 3e3e
000002d0: 14c3 04be 8d95 a73e ed6f 6b3e c2ea 6e3d
000002e0: aef6 dbbd a52c 763d 3384 a5bc e17e fdbc
000002f0: 05b7 893d bfc7 12be 2a08 34bc 94f7 4f3e
00000300: 8443 68bd 5417 9bbd 74ec 5fbc a3e3 ed3d
00000310: 8e09 b13e 0524 2ebe 728f 803d 0303 7a3e
00000320: 8b15 9cbc 3f93 a63e c715 e23d 4ad4 593e
00000330: 36f8 523e 00e9 033e 06a1 1a3e 7c01 1dbe
00000340: 7965 b23e c4cf 29be f1b3 acbd 0ce7 693e
00000350: 2a42 9fbc b76b 22be e7b7 f03d e792 15be
00000360: a1c7 843d 5f13 eabd ef08 65be 0a86 43bd
00000370: 39a1 b13d 2c5c 43be 07e4 823d 5d7b c43d
00000380: 63ba 04be beb1 e7bc 7790 163d 5404 5b3e
00000390: 4c5f 303d 9dab 24be bafd 86be 25ad 8f3d
000003a0: d172 32be 44d6 febd 66ad 93be d7de 973d
000003b0: 7395 c53d bd6b 8c3e d3c3 303e 868f d63d
000003c0: b9fe c03d 1f9f bdbe d7cd 0dbd 1ef8 ac3d
000003d0: e1c9 b93d 31e1 423e 006e 11be 86da 35be
000003e0: 361a 4dbd e30b bfbd 3249 433c 6966 b73e
000003f0: 2e5d 953c 3d4e 75be 4e4c 6e3c 436c 803e
-0.14250809 -0.12170986 0.15235186 0.052573897 0.3809876 0.052501127 -0.41150314 -0.15526591
-0.18056877 -0.19792837 -0.08597951 -0.13606754 0.05447796 -0.21032637 -0.07755969 -0.14760889
-0.32096964 0.06246719 -0.3852749 0.30233648 -0.031581827 -0.1637257 0.29093543 0.07427047
-0.06061315 -0.0660711 -0.18266553 -0.18127765 -0.08996564 0.19992965 0.050199445 0.2811064
-0.047942013 0.024316166 -0.037195742 0.2923076 -0.10963683 -0.0315311 -0.07761329 0.35070702
-0.048091307 -0.31056437 0.3510812 0.028243812 0.24520788 -0.13434821 -0.096444525 -0.34477273
0.15725818 -0.03725218 -0.09585421 -0.22621427 -0.00047027858 0.037274424 0.23204826 -0.08092571
0.30836114 0.034532234 0.15534025 0.24752516 0.008059193 0.397907 0.23433584 -0.256868
0.025417536 -0.06346831 -0.06925335 -0.09410101 0.002126552 -0.12605156 0.0008687999 -0.18841791
-0.17125598 -0.08781548 -0.2075512 0.11549785 -0.13168253 -0.15889372 -0.23151052 -0.024901379
-0.023155253 -0.11818066 0.08647208 0.18302226 0.023614746 -0.13184787 -0.33710805 -0.05770924
-0.063662104 0.006972232 -0.00968864 0.13242595 -0.12364706 -0.09299174 0.4009012 -0.08587401
0.19668138 -0.009617993 0.045236293 0.09277838 -0.07493974 0.03567612 0.33122662 0.14878798
0.12675206 -0.05570326 0.37511143 0.042314272 0.39251044 -0.2149963 -0.16039416 0.3047659
0.33107945 -0.0439207 0.18015747 -0.042641334 -0.3165632 0.2517721 -0.008079512 -0.101764135
0.28791615 -0.20585129 0.0015764477 0.040382728 -0.074860305 -0.10562629 0.15701449 0.045093525
-0.053726763 -0.0758544 0.13809663 0.008522949 0.097154275 0.08251098 0.16923715 -0.1850638
0.058877565 0.04337392 0.08552466 -0.14806485 0.18365109 -0.022923958 0.022339527 -0.11472875
-0.13675268 -0.1325823 0.12569311 0.011252008 0.15477291 0.05858405 -0.0014173912 -0.0403694
0.45427063 -0.17037287 -0.11542289 0.1124428 0.26473284 0.3001703 -0.21049263 0.39114687
-0.35861558 0.20029505 -0.07435027 -0.17014644 -0.15241894 -0.060240578 0.04597743 0.04149116
0.29399747 0.045048222 -0.1558917 0.28124946 0.062288556 0.26586443 -0.011724095 -0.085702494
0.29514444 0.5247956 0.21815434 0.1865162 -0.12965041 0.32731286 0.22991915 0.05832935
-0.1074041 0.06010117 -0.020204639 -0.03094429 0.06724361 -0.1433401 -0.010988275 0.20309287
-0.056705013 -0.07572809 -0.013667215 0.11615684 0.34577602 -0.17005928 0.0627736 0.24415211
-0.019053241 0.32534215 0.1103931 0.21272388 0.20602497 0.12881851 0.15100488 -0.15332597
0.34843042 -0.16583163 -0.084327586 0.22842044 -0.01944073 -0.15861402 0.117538266 -0.1460682
0.06483389 -0.11429476 -0.22366689 -0.04773525 0.08673329 -0.1907813 0.06391149 0.09593842
-0.12961726 -0.028282996 0.036758866 0.2138837 0.043059632 -0.1608109 -0.26365453 0.070154466
-0.17426611 -0.12443212 -0.2884323 0.0741555 0.09647646 0.27425948 0.17262201 0.10476594
0.094235845 -0.37035462 -0.034620132 0.08445762 0.090717085 0.19031216 -0.14202118 -0.17759141
-0.050073825 -0.09328439 0.011919307 0.3582032 0.018232908 -0.23955627 0.01454456 0.25082597

layers.1.lin_r.weight f4 [8, 1024]
00000000: 7e41 3d3d e07f 073b 4a00 ae3d c49e b93d
00000010: a784 9e3d 9959 333e 9490 3a3d df2e 533d
00000020: 3d1c 703d 9568 dd3d d74d c93d 0368 14bd
00000030: 6d1f 273e 19bf 12bd 8695 8d3d 5761 123e
00000040: b9de f33c f3ae 133d 5408 a13d 4c5f bf3d
00000050: 9f48 1d3e 0542 4f3d 1a1d 0e3e 24ba c23d
00000060: 3f7d f63d 035d 4b3d 8356 dc3d 5916 a93d
00000070: a30c 923d b8d3 c93c 14ea c33d 88c7 083e
00000080: c1db d53d f47f ddbc a05e 393e 26cc 933d
00000090: 498a 133d 9cf8 013e 2ece 103e dc7f d53d
000000a0: e52b bd3b 3c86 8f3d d6b9 a73d 34ca d53c
000000b0: 9773 803c 6e51 3d3d 542a 203d 154c d33d
000000c0: de87 303d 5268 ffba 07ea 013e 0cd6 693c
000000d0: 3896 653d ad44 ea3d 0eb5 123d 6c50 b83d
000000e0: 5231 0d3d d53b 493c 56c4 9d3d fdc6 91bb
000000f0: 1327 713d fd19 5c3c 1e7d 0c3d d77b 183d
00000100: de01 633d f400 413e 14e6 be3d 94d2 623d
00000110: 85f1 2a3e 1c3d b03d cdd7 033e 05f1 b43d
00000120: 37e3 603d 096e d53d 0d3f 263d c9ca 1f3d
00000130: 4ccf bb3d dd96 393d 08d8 023e 6af9 d3bc
00000140: 1d8f 323d 1f04 133e e440 db3d 3d7c 803d
00000150: a828 e33d 615a 4d3d 4016 113d 76a2 153e
00000160: ff1c 163e 0527 093e e96d 2c3d 3b60 71bc
00000170: c94d a73d d95c e23d fa23 cc3b 58b3 d43d
00000180: f8a0 803d 3997 d73d 2262 bb3d a54c 9f3d
00000190: 53cd 433d 07e5 123e 92f5 9f3d 12fe ad3d
000001a0: ce2a fd3d ff83 89bc 1a00 d63d 529c 083d
000001b0: e72b 8a3d ac6e 0f3e a7d8 c33d e0f8 ae3d
000001c0: a6b3 7c3c 2ea8 3a3b 7167 bd3d e13a d73c
000001d0: 8798 723d e4bd 193d 5cba 3b3d ca61 b83d
000001e0: 2ed3 833d bd03 903d 0708 363d 9be7 0e3d
000001f0: 028e 283e 15cf 4c3e 6bc9 893d dd03 8c3c
00000200: 43f4 3c3e bd02 123d 3353 bc3c 0a96 283d
00000210: 218b b73d 8274 0fbd 762b e03d bf91 473d
00000220: 9c3f 323e 5c80 443c 55fe 943d 3bb4 193e
00000230: 28ab 8f3d 59f0 b83d aaeb 8cbc 5161 273d
00000240: 5191 383d 60de cc3d 6f44 183d dcc4 993c
00000250: 8271 bf3d aa1a 9c3d 79a0 773d 1b31 2d3e
00000260: 18c4 c43c c530 5a3e 18b0 24ba b87a fe3d
00000270: 5ab2 703d 7668 d43c b035 5e3e 6297 19bc
00000280: c59e 0c3e 1544 fc3d eb22 e0bc 0026 fc3d
00000290: 1795 123e b288 013e 4ff1 413e cd75 a03d
000002a0: ebe5 1b3e 7159 fd3b 21e5 ea3d d390 5b3d
000002b0: 878b f03d 65fd 083e 748d 0c3d 9bd7 1f3d
000002c0: cba4 4abd 04cd 923d 10f2 8b3d e5f0 e33d
000002d0: 3627 3c3e 863c 243d 215a f33d 9ac7 2abd
000002e0: 1267 483d 2790 703d 6575 143e b980 263d
000002f0: b585 883e 2e2b e3bb 08dd cdbb 2ec7 263e
00000300: ec19 be3d ff79 bf3d 4815 053e 9f49 31bd
00000310: f4a0 db3d 38f6 083d 3bc4 8b3d 3235 c8bc
00000320: d2b5 5d3e 9353 d23c f7ba e83c 9647 a73d
00000330: 8596 363c d46b c13c c120 023e 6ba4 423e
00000340: 2b93 203c 4b47 ee3c 963e ed3d 161d 913c
00000350: 95ba 273c 5e6c bf3c 5f64 babc 53cb 44bc
00000360: a583 253c 4c98 213e 9ffc 113e d317 713c
00000370: d3bb 5f3e 8f45 773d a22f 053e a313 083d
00000380: 16b2 383e 30da 3e3e bd6a 433e 7c22 15bc
00000390: e118 8dbb d01f 153d d3c6 703c da0a 07bd
000003a0: 7448 e43d cb66 0d3e f77f b53d e455 6e3d
000003b0: 2e8e 6b3e d61b 023d b9e4 703d adc7 b43c
000003c0: 934d d73d c547 32bc c033 8cbc ec68 333d
000003d0: 9de6 413e de7c 973d 1428 263d ac1f d63d
000003e0: baa3 9d3d 9ce2 79b9 1b34 1d3e 0282 8abc
000003f0: 2559 453e 45d0 833d 3c2f 813d 32b9 2f3a
0.046205036 0.0020675585 0.08496149 0.09063485 0.07740145 0.17514648 0.045548037 0.05155837
0.05862068 0.10810963 0.098293 -0.036232006 0.16320582 -0.035826776 0.06913285 0.14294945
0.029769288 0.036055516 0.078629166 0.09344348 0.15359734 0.05060007 0.13878289 0.0950816
0.120356075 0.04964925 0.10758688 0.082562156 0.071313165 0.024637088 0.09566131 0.13357365
0.10442305 -0.027038552 0.18102503 0.072166726 0.03602055 0.12692493 0.14141151 0.10424778
0.005773055 0.07008025 0.08189742 0.026097395 0.015680118 0.046220236 0.039102867 0.10317246
0.043098323 -0.0019486046 0.1268693 0.014272224 0.056051463 0.1143888 0.0358172 0.08999714
0.034470864 0.0122823315 0.07703464 -0.00444877 0.058875155 0.01343393 0.03429901 0.037227478
0.055421703 0.1884802 0.09321228 0.055376604 0.16693695 0.08605406 0.1287529 0.08835033
0.05490419 0.10421378 0.040587474 0.03901175 0.09170398 0.04530989 0.12777722 -0.025875766
0.043593515 0.14357041 0.10705736 0.062736966 0.11091739 0.05013502 0.03542161 0.14612755
0.14659499 0.13393791 0.042097006 -0.014732416 0.08169133 0.110528655 0.0062298747 0.103857696
0.06280702 0.1052689 0.09149577 0.07778291 0.047803234 0.1434518 0.07810511 0.08495726
0.1236168 -0.016786573 0.10449238 0.033352204 0.06746655 0.14007062 0.095628075 0.08543563
0.015423691 0.002848159 0.092482455 0.026273193 0.059227493 0.03753461 0.045832023 0.09003027
0.06436764 0.07031963 0.04444125 0.034888845 0.16460422 0.2000087 0.067278706 0.017091686
0.18452553 0.035647143 0.022988891 0.041158713 0.089620836 -0.03502322 0.109457895 0.04872298
0.17407078 0.011993494 0.072750725 0.15010159 0.07015067 0.09030218 -0.017202217 0.040864293
0.04506046 0.10003352 0.03717464 0.018770628 0.09347822 0.07622273 0.060455773 0.16913263
0.024019286 0.21307667 -0.00062823435 0.124257505 0.05876384 0.025928717 0.21700168 -0.009374471
0.13732441 0.12317673 -0.0273604 0.123119354 0.14314686 0.12649801 0.18939708 0.07834969
0.15224425 0.0077316095 0.11469484 0.053604912 0.11745363 0.13377912 0.034314588 0.039023977
-0.049473565 0.0716801 0.06833279 0.11129931 0.18374333 0.040096782 0.11882425 -0.04169426
0.04892642 0.058731224 0.14497907 0.040650103 0.2666451 -0.0069326377 -0.0062824525 0.16286919
0.09282288 0.09349441 0.129964 -0.0432831 0.10724059 0.033437937 0.06824537 -0.024439428
0.2165139 0.025674617 0.028409464 0.08167951 0.011144285 0.023610987 0.12707807 0.19008033
0.009800713 0.02908673 0.11584203 0.017714065 0.010237356 0.023367103 -0.022752939 -0.012011367
0.010102187 0.15780753 0.14256524 0.014715153 0.21848993 0.06036907 0.13006452 0.033221852
0.18036684 0.1863792 0.19083686 -0.00910246 -0.0043059443 0.036407292 0.014695841 -0.032969333
0.11146632 0.13808744 0.08862298 0.05818738 0.23003456 0.031764828 0.058811877 0.02206787
0.10512843 -0.010881369 -0.01711452 0.043801233 0.18935628 0.073968634 0.040565565 0.1045526
0.07697244 -0.00023830909 0.15351908 -0.016907696 0.19272287 0.06436209 0.06307837 0.00067033165

layers.1.lin_edge.weight f4 [8, 4]
00000000: ee4b 173f 1730 53be 1f88 123f c0a9 b4bd
00000010: 98de 123f f967 4bbd 4977 c1be 6f1d 13be
00000020: 5eb4 a9be ad47 383f 008b a1bd 7335 2abf
00000030: cb92 93bd d55c c73e e5c4 21be c60d b4be
00000040: 881f f9bc 0f97 653f b510 7dbe e8bf 44be
00000050: 26df c33e 1739 0cbe 7a35 b63e 1fec 023c
00000060: 98db 56be 53f4 4cbe f4d8 a33e c78e 963e
00000070: 93a9 b8be 5c7c f4be 3ff9 1b3e 2f83 1d3f
0.59100235 -0.20623814 0.57238954 -0.0882144 0.573709 -0.049659703 -0.3778632 -0.14366697
-0.33145422 0.7198437 -0.0788784 -0.6648781 -0.07205733 0.38938013 -0.15797766 -0.35166758
-0.030410543 0.8968362 -0.24713404 -0.19213831 0.38256186 -0.13693653 0.35587674 0.007990866
-0.20982206 -0.20015077 0.3200146 0.29405805 -0.36066875 -0.4775113 0.15231799 0.61528295
