code/gnn/models/training/GAT/multi-graph-total/8/best_model.pt (torch, 872546 bytes, 15 tensors)

layers.0.att f4 [1, 8, 32]
00000000: 17ef c7be e458 c93d 2b8e 84bd 0915 b5bd
00000010: 3dfb 85be f50f 1cbd 2a95 9dbe 158c 733e
00000020: 07a7 813d 5262 c13e 2388 95be 4deb 5c3e
00000030: 17c1 07bd ae96 343e 71db a53e 16e3 54be
00000040: aae8 8a3d 566f a23e acd1 283e fef1 923e
00000050: 6859 883e 902e b9be 0b08 afbe 56e6 72be
00000060: 32c3 423e b9e9 a7bd 40a0 51bd 1f22 b33d
00000070: 8f8d 8a3d 7014 b33d 4b38 c3be ea50 a33d
00000080: 07b6 f9bd 6d87 37be 7643 b33d 7564 89be
00000090: 6b6a cc3e 50f7 8c3e 0188 563e 1330 bdbe
000000a0: 8ac1 13be 6644 91be 9d47 42be 393f 283e
000000b0: 012a 4e3e 6853 a73e 2253 6cbe c854 37bb
000000c0: f43e 31be cb29 2ebd f542 aebe b033 e6bc
000000d0: c811 f33c 8072 c03d 48f2 bd3e 1391 b2be
000000e0: ba27 833e 3461 483e bfc3 653e 1136 813e
000000f0: 0428 0a3e c1ca 36bd a679 c4be 74da 5d3d
00000100: e21d 93bd a242 23bd 6579 423e 3641 29bd
00000110: 157a c4bd ea67 823e c17a 0a3e c1a7 08be
00000120: 4beb 0f3e dd11 8fbd af15 c2be f66b 07bd
00000130: 2af9 37bc e1cd babd bfa8 123d 38ce 33be
00000140: 9d50 8a3e ded3 d93b 6648 663d 2a66 38be
00000150: ef27 81bd 32e2 a63d 4768 32bd 98c1 46bd
00000160: 3871 97be dbac 08be 2730 093c 9f30 a8be
00000170: 18d7 8f3e 3601 ea3d b081 30be f02a 01be
00000180: 4dd8 6dbe 50ac ffbd fc18 51be e19f 713d
00000190: 0f7b 93bd 6a01 5a3e 4f07 853e ee6c 7c3e
000001a0: 5e06 08bb f32f 64be 3bfc 66bd 54eb ab3e
000001b0: 042c 8cbe 78d2 bebe ab1d 1cbd 054a 93bb
000001c0: d5e1 babe 5c05 923e 58e7 71bd a35a 903d
000001d0: aa41 a43e 9403 88bd ff13 b1be a116 b6be
000001e0: b77c 6d3d 1887 b93d c7e9 503e 98e8 68bd
000001f0: ca51 8a3b 9cc5 82bd 6eb4 563e 08fe 433b
00000200: d258 553b 3cd1 b13e aefc 45be fca3 52bd
00000210: b6b8 053e 2eb3 b6bc 4fde 773e 1c9c 8f3d
00000220: 2541 a4bd 196d 34be 6ed9 90be b5c9 913e
00000230: 1c91 55be 494f 8bbe fa48 27be 404c 92bd
00000240: 98e4 ac3e 23a2 5a3c c6ee 9b3e a2fa bdbe
00000250: beae 0e3d ac86 973e 4a1e b53e 631a 513d
00000260: 8eda 85be e65a ba3e 031f 943e e255 c23e
00000270: a635 88bd 6c60 823e 9dd1 933e 18a9 bebe
00000280: 2399 acbe cca5 36be aed2 54bc 93d8 c1be
00000290: 4f4a 57be 459d 423e 4285 913e 87aa b4be
000002a0: 5462 a23d e1fe b5be 8eb3 d1bd 6890 573e
000002b0: efb0 40be 5041 e63d 370a b2be c254 833c
000002c0: a149 b73e 711c 7e3d 057e 7e3d 210f 033e
000002d0: b3f0 c23e 7173 173e 4805 983e c4f2 00be
000002e0: 59d5 07be cf7d c53e c906 8c3c 4d58 3abe
000002f0: 2f9c af3d ce3a 3c3e 4394 ad3d d93f 483e
00000300: 05ef 583e 4454 c33e 19bb 873e ab9f b7be
00000310: f210 18be ba06 67be 0da6 963e cf92 9fbd
00000320: 869e 7b3e a8ff 613d 1f7a a53e 410d 86bd
00000330: 6aa5 433e a1f7 3e3e 49c6 913e b10a 2c3e
00000340: 97e3 62be 9add 89be 60f5 83be 1527 473e
00000350: af4c 19be 712f 673e edc7 63be 98f1 18be
00000360: e0ff a8bd 4b38 dabd 207d 593e 294f 343e
00000370: 79cd 893c d815 c73d b307 943d 0f6e a8bd
00000380: 2d5f ad3e 2632 94be 9b73 3e3a 119d 91be
00000390: a4dc 4dbd f30c 753e 4247 8d3e 56ce 6cbe
000003a0: 9c78 b23e e7ce 33be fbc2 a8be 1065 8d3c
000003b0: 47b3 083d 7115 47be 5ce3 a8be a2cd a8be
000003c0: 0a76 333d 5aea b73e a664 a3be cdef 5fbe
000003d0: 8e0e 0b3e b116 c83d 4709 cc3e b2d0 aa3e
000003e0: bf43 263e c23e 8cbe 0f4c b73d 1d1c 563e
000003f0: cb2a 283e ac66 4c3e 03a3 02be a9c9 36be
-0.390496 0.09831408 -0.06472429 -0.08841903 -0.26168242 -0.038101155 -0.30777866 0.23783906
0.06330686 0.37770325 -0.29205427 0.21574135 -0.03314313 0.17635605 0.32393983 -0.20789751
0.067826584 0.31725568 0.16486233 0.2870025 0.26630712 -0.36168337 -0.34185824 -0.23720679
0.19019774 -0.08198876 -0.051178217 0.087467425 0.067652814 0.087441325 -0.38128886 0.079744175
-0.12192922 -0.17922755 0.087531015 -0.26834455 0.3992494 0.27532434 0.20950319 -0.3695074
-0.14429298 -0.28372496 -0.18972631 0.16430368 0.2013321 0.3268082 -0.23078588 -0.0027974118
-0.17309171 -0.042520326 -0.3403546 -0.028100818 0.029671565 0.09396839 0.37098908 -0.34876308
0.25616246 0.1956833 0.22437952 0.25236562 0.13491827 -0.044626955 -0.3837406 0.05416341
-0.07183434 -0.039858468 0.18991621 -0.041321956 -0.09593598 0.25469905 0.1352339 -0.13345243
0.14054601 -0.06985829 -0.37907168 -0.033061944 -0.011228839 -0.091212995 0.03580546 -0.17559135
0.27014628 0.006647571 0.05622139 -0.18007722 -0.06306445 0.08148612 -0.043556478 -0.04852447
-0.29578567 -0.13347189 0.008373297 -0.32849595 0.2809379 0.11426012 -0.17236972 -0.12614036
-0.23227043 -0.12484038 -0.20419687 0.058990363 -0.07201206 0.21289602 0.2598214 0.24650928
-0.0020755748 -0.22283916 -0.05639289 0.3357798 -0.2737733 -0.3726995 -0.03811423 -0.004494908
-0.3650042 0.28519714 -0.059058517 0.070485376 0.32081348 -0.066413075 -0.34585568 -0.3556414
0.057980265 0.0905897 0.20401679 -0.056862444 0.004221176 -0.06385347 0.20967266 0.0029906053
0.0032554162 0.34729946 -0.19334671 -0.05142592 0.13058743 -0.022302236 0.24205898 0.070121974
-0.08020238 -0.17619742 -0.28290886 0.28474203 -0.20856136 -0.27208927 -0.16336432 -0.0714345
0.33768153 0.0133443205 0.30455607 -0.3710528 0.034834616 0.29594934 0.3537467 0.051050555
-0.26143306 0.36397475 0.2892991 0.37956148 -0.066508576 0.2546419 0.2887086 -0.37238383
-0.33710584 -0.17836684 -0.012989683 -0.37860546 -0.2102444 0.19005306 0.2842198 -0.35286352
0.07928911 -0.3554602 -0.102393255 0.2105118 -0.18817495 0.11242926 -0.34773418 0.016031627
0.35798362 0.062038843 0.0621319 0.1279874 0.38074264 0.14790131 0.2969153 -0.12592608
-0.1326498 0.38572547 0.01709308 -0.18197747 0.085747115 0.18381807 0.08475544 0.19555606
0.21184929 0.38150227 0.26509932 -0.35864004 -0.14850214 -0.2256116 0.29423562 -0.077916734
0.2457219 0.055175453 0.32319734 -0.06545497 0.19106069 0.1864915 0.28471592 0.16800953
-0.22157131 -0.2692688 -0.25773144 0.19448502 -0.14970659 0.22576691 -0.22244234 -0.1493591
-0.08251929 -0.10655268 0.21239138 0.17608322 0.01682161 0.09720963 0.07228031 -0.08224117
0.33861676 -0.2894451 0.00072651514 -0.28440145 -0.050259247 0.23930721 0.27593428 -0.23125586
0.34857643 -0.17559396 -0.32961258 0.017260104 0.033374097 -0.19441773 -0.3298596 -0.32969385
0.043813743 0.35920984 -0.31912726 -0.2186882 0.13579771 0.09769953 0.39850828 0.33362347
0.1623678 -0.2739163 0.08950054 0.20909162 0.16422574 0.19961041 -0.12757497 -0.17850365

layers.0.lin_l.weight f4 [256, 11]
00000000: c4ce 65bd c8a9 ee3c e297 bf3c db7b 623d
00000010: d994 09bd 5c84 073e 0be6 83bd f537 8c3d
00000020: d75e d63d 2d30 013e 59aa 1ebe 7c3c 1d3e
00000030: 5a12 773c 7118 223d f19d d43b 3fd8 e43d
00000040: 4f2e 91bd b139 063e 37cd a3bd 17b4 27bd
00000050: 03d9 df3d 8ea9 123d 57e3 8b3d b09a 82bd
00000060: 946b aabd aeb7 12bc b018 013e 60b8 e6bb
00000070: 3d34 3e3d aaea dfbd 3e27 cebd b54f 143e
00000080: 7806 c43c 89e4 733d f8e7 7e3d c1c2 cebd
00000090: 8708 b33d 966c 39bd f80c 9e3b ca6a b5bd
000000a0: 1781 12bd 4c0f 8ebc e2e7 f33d ef53 2abd
000000b0: 5cef dbbd 6a55 bf3a a2d7 213d 861c 92bd
000000c0: 4abe de3b 92aa acbd 33c2 d1bc 4a20 39bd
000000d0: 47e8 a5bd f845 74bd 6ade 01be a5b7 d83d
000000e0: d9b3 b6bc 41a3 1cbe 0882 0c3d 8cf1 58bc
000000f0: 5bcc 9a3d fa8d 1dbe 9fdf 34bd fa91 d33c
00000100: 7019 08be ee0a ae3d 6417 0abe 70b2 dc3d
00000110: 0611 023e 37b8 8ebd dfe3 febd 66e0 a5bb
00000120: a35a 8ebd dafb 9fbd f405 10be a960 ad3c
00000130: a18e ee3d 7c08 17be 4919 9d3c 4316 0a3d
00000140: 72bb 883d 0e41 e33d 06e3 00be 2eed b93d
00000150: ce0d d23c 5911 fdba 2c0f cabd 3385 1fbe
00000160: adb7 de3d 02b3 01be d266 43ba a8a3 11be
00000170: 7e0f b63d e1bf fc3d de65 343d b116 22bd
00000180: 927c a63d 2255 1cbd f47f e6bd 253d cbbc
00000190: 55ed c43d ef48 333d 25cd 8aba b7e5 bcbc
000001a0: fca4 9bbc a5fd 013d a4ec 00be 804c 613d
000001b0: 917e 3d3d ce1c a23d dfc8 92bd 8531 03be
000001c0: af25 e9bc b170 d4bd b6a7 75bc 1397 b9bd
000001d0: 9feb 023e 118a ebbd 6b06 06be dcaa 1f3e
000001e0: f9b7 28bc d523 d9bd 6b7b d33d cf2f fabd
000001f0: e5d3 b73d 32a1 8a3d a4d3 c6bd 2ccf bd3d
00000200: 40aa 6e3d f241 0c3e 5dd2 e0bd df5a f7bd
00000210: 595d 8b3d 7e1c dfbc 0540 67bd a7a8 5e3c
00000220: 7ae9 233e 02da afbd 6418 203e 01fa 303d
00000230: 5060 413c 8f9f 913d c1d5 9abc 7ba8 8a3d
00000240: 5910 02be 7340 d9bd d04e d83b 7970 e2bd
00000250: 4708 133e 9aac 043a ae9e 1e3e 9c82 febd
00000260: ecdf 663d 84af 973d d9e3 acbd 1d93 8e3d
00000270: b0fe 0f3e 716a 873d c272 b83c a1bd 99bc
00000280: 2365 e1bc 65be c63d 8d5c 083e 3add 1dbe
00000290: f249 03be f4fe ffbb e865 38bd c7c2 cebb
000002a0: 3905 3e3d 3528 11be e6d2 08be dba3 81bd
000002b0: dfd6 733d 7abd 133e 4511 9bbd 7acb 033e
000002c0: bf48 dcbd 8015 a23d f4b8 debd 10aa aebc
000002d0: 5755 a83d 6740 003c 2386 f43d bcdb d03d
000002e0: c62e bfbb 5d7f cabd aab6 8a3d de72 a43d
000002f0: 9a9f ae3d e275 a4bd dc9d 57bd 8781 26be
00000300: 87c8 e73c 7c9b ba3d 2b58 2fbd bf81 3b3c
00000310: c2de 02be 20c6 a33d b757 e13b 78b0 b83c
00000320: e4a1 323d 2617 9b3d 3674 b9bd 45fe c43d
00000330: 4d1f 20bd d246 bebd 796d f2bd 51e4 863d
00000340: 0a77 17be db54 013e 0c2c 8dbd 0d59 5ebd
00000350: 0401 a1bd 74bb ec3d cde4 403d fa35 23be
00000360: 76a5 80bd 39d4 263e dfbe ee3c f814 1cbc
00000370: 5f4f 8ebd a639 e5bd 2f42 0b3e 2de7 dc3d
00000380: fbb7 843d 4bac 723d a8c1 d13d b617 38bd
00000390: 48fa 4ebd cfb6 85bd fc57 8abd 5538 05ba
000003a0: 7fa6 84bc 3bd8 693d 25f2 04be 156b 19be
000003b0: 70b4 ca3d f1d8 03be def7 f53c de62 39bd
000003c0: f50a e0bd 64c1 f2bd 9103 2bbd 0b2b 873d
000003d0: edb8 eb3d 3ff0 11be 3fc0 38bc 1348 97bd
000003e0: 41db b13d 67b7 0e3e a9b0 b538 8b7a ac3c
000003f0: ecf8 7bbd fec4 b8bd a8e6 f53a a4f4 1abe
-0.05610539 0.029133692 0.023387853 0.0552939 -0.033589218 0.13234085 -0.064403616 0.068466105
0.10467308 0.12616034 -0.1549467 0.15355104 0.015080059 0.03957409 0.0064885546 0.11174058
-0.07088911 0.13107945 -0.07998126 -0.04094323 0.109300636 0.03580623 0.06830471 -0.063771605
-0.083213 -0.008954925 0.12607074 -0.007041022 0.046436537 -0.109334305 -0.100660786 0.14483531
0.023928866 0.05954412 0.06223294 -0.1009574 0.08741861 -0.04526957 0.0048233233 -0.08858259
-0.03576764 -0.017341278 0.119094625 -0.04158395 -0.107390136 0.0014597599 0.039512284 -0.07134347
0.0067975866 -0.08430971 -0.025605297 -0.04519681 -0.08100944 -0.05963704 -0.126825 0.105819024
-0.022302555 -0.15296651 0.034303695 -0.013241183 0.07558509 -0.15386191 -0.044158574 0.025826443
-0.13290954 0.084981784 -0.13485485 0.10776222 0.12701806 -0.0696873 -0.12445807 -0.005062151
-0.06950881 -0.07811709 -0.14064771 0.021164255 0.11648298 -0.1474933 0.019177096 0.033712637
0.06676377 0.110963926 -0.12586603 0.090784416 0.025641348 -0.0019307538 -0.09866175 -0.15578155
0.10874877 -0.12665942 -0.0007453981 -0.14222586 0.08889674 0.123412855 0.04404246 -0.03957242
0.08129229 -0.038167126 -0.11254874 -0.02480943 0.0961558 0.043770727 -0.0010589702 -0.023058755
-0.01899957 0.031736035 -0.12590271 0.055004597 0.04626328 0.0791565 -0.07167219 -0.12811859
-0.028460352 -0.10373057 -0.014993599 -0.09062018 0.12785195 -0.115009435 -0.13088386 0.15592521
-0.010297769 -0.106025375 0.103262745 -0.1221615 0.089759625 0.06769027 -0.09708336 0.092680305
0.05826783 0.13697031 -0.109776236 -0.12077879 0.06804914 -0.027235266 -0.05645754 0.013590015
0.16007033 -0.085865036 0.15634304 0.043207172 0.011802748 0.071105115 -0.018900754 0.06770416
-0.12701549 -0.10607996 0.006601192 -0.11056609 0.14358626 0.000506112 0.15490219 -0.124272555
0.056365892 0.07406524 -0.08441896 0.069616534 0.14062 0.06612099 0.022515658 -0.01876718
-0.027514046 0.097042836 0.13316555 -0.15416422 -0.12821177 -0.007812375 -0.04501906 -0.0063098404
0.0463917 -0.14175494 -0.13361701 -0.06330081 0.05953109 0.14427748 -0.07571653 0.12870589
-0.10756063 0.07914257 -0.10875121 -0.021321326 0.08219402 0.007827855 0.11939647 0.10198161
-0.0058344333 -0.09887574 0.06773122 0.08029722 0.08526535 -0.08030297 -0.05264078 -0.16260348
0.028293861 0.091116875 -0.042808693 0.011444508 -0.12780288 0.07996774 0.0068769115 0.022545084
0.043611422 0.075727746 -0.090553686 0.096188106 -0.03909235 -0.09290852 -0.118372865 0.06586517
-0.14791504 0.12630026 -0.06893167 -0.054284144 -0.07861522 0.11559191 0.0470932 -0.15938559
-0.06281559 0.16291894 0.029143749 -0.009526484 -0.069487326 -0.11192636 0.13599466 0.10786281
0.06480404 0.059246343 0.10242015 -0.044944488 -0.050531656 -0.065290086 -0.06755063 -0.00050819415
-0.016192673 0.05709098 -0.12982996 -0.14982255 0.09897697 -0.12875725 0.030025419 -0.045260303
-0.1093959 -0.118532926 -0.041751448 0.06600007 0.11509881 -0.14251803 -0.011276304 -0.07386794
0.086843975 0.1393715 8.663658e-05 0.021054527 -0.061516687 -0.09021948 0.0018760758 -0.15132385

layers.0.lin_r.weight f4 [256, 11]
00000000: 4a31 c2bd 15c0 99bd 8a69 aabd b577 633d
00000010: 9044 9b3c 4b91 28bd aead acbc 7814 c73d
00000020: a40f 273d 000e 8a3d 1174 ec3c bfff 0c3c
00000030: 102c 10be a8d8 183e 0cb0 f53c 25d1 b4bd
00000040: f0ca f7bd 4bfc e9bd 84a5 e3bd 00b7 a4bd
00000050: 230f af3d e91b 7b3b 302b 3e3d 76e0 04be
00000060: 5358 2cbc 16a0 1cbe 90ce 71bd 88a0 c0bd
00000070: 8fde f93c efeb 103c b29d c23c dd24 eebd
00000080: 56a7 cc3c 801f 573c 28f4 08bd 308c 133d
00000090: e367 9bbd b355 fa3d 5326 fbbd c5b3 f5bd
000000a0: a368 bf3c cdd5 ffbc 0c17 ffbd 3326 dbbb
000000b0: 7fd7 103e c951 c5bb a7db 513d cf48 36bb
000000c0: d947 10be 63ed aebd 8eaf d1bd a054 aa3d
000000d0: 9053 2e3d d763 433d 587c 0abe 39a7 ca3c
000000e0: 9cfa 11bd 86bd 10be 0ed8 cfbc 6d99 163d
000000f0: bc03 04be 3d64 d33d 6e57 1a3e 20c8 8fbd
00000100: f3ac 7cbd 086c 97bd 723e debd ef46 15be
00000110: 5829 babd 5668 29bd 3af2 aabd 3252 613d
00000120: 081b 4a3d 0944 843d 6e09 0b3d fa4d c53d
00000130: 7bf7 523c 173f 943d 7a15 863d 3390 12be
00000140: 5e3a 0b3d 5061 8cbc 0b48 7dbd b95d 28bd
00000150: e849 83bd 52d0 34bd 1396 41bd 7d6a 003e
00000160: 3560 cfbd fb4a 793d e7a7 e93d f208 d8bd
00000170: e036 62bd c7a3 193e 304c 623d 0272 173e
00000180: d37f 223d e20a 233c cd56 25bd 9cf9 e43d
00000190: 4025 0d3d 8daf b2bd 5f4d 823d f72e 59bd
000001a0: ea5a 71bd 4989 eb3c 4f47 163e 3acd e43d
000001b0: 7e62 933d a189 df3d 5ce6 adbd 7517 fb3c
000001c0: 73f6 37bd 5fe3 50bd c113 0d3e d801 ccbc
000001d0: dc31 38bd e3cd 0abc 54c4 b23c 213f 103e
000001e0: 7a15 0a3e b0a0 103d 2158 be3c b27f 383d
000001f0: 845e ce3d 6e3b ff3b dbda a7bd 9c23 553c
00000200: e853 873d 87b6 14be c3f6 b53d ed24 393d
00000210: 44c1 f1bc 4146 69bd ace1 85bd 0eb8 3fbd
00000220: 9ad0 a9bd 495d 3e3c 0783 023e 1437 b43d
00000230: e8b1 abbd 411e 943d 13a2 163b 2826 a33c
00000240: 462d 15bc 9194 973d a2b6 d23c 7fb2 953d
00000250: fa8b d9bd 6c38 9c3c def8 903d 5390 fd3d
00000260: 5857 933d 8704 aebd 62ce 80bd 2b8b 3cbb
00000270: 02d6 073e 59ae ecbd f510 643d 1a46 e0bc
00000280: 62b9 82bd 7d3d 0f3e 1a8f 21bc 0460 8f3d
00000290: 4295 c1bc 5869 01be 4cbd b83d 75d6 8abd
000002a0: feef b0bd 9e53 31bc f7b0 133d c4ca ce3d
000002b0: c595 693d db3e c03d bcc7 c9bd ae5b 89bd
000002c0: 826a 173b 9fb7 23bc 2939 fe3d dd92 35bd
000002d0: 2b8b 123e 753b a8bd daac 0d3e 601e 11bd
000002e0: 46d9 77bd 37b5 db3d 8a03 e5bd f8b3 5f3b
000002f0: 3c82 d9bd fe03 103e ae47 ca3d beb7 a8bb
00000300: 4e79 ac3d 04e5 e63d efb4 2abc 14de c4bc
00000310: 3f0f aebd c57c 0b3e 5379 3abd 7b20 b2bd
00000320: 9691 e1bd de81 a7bc 0da3 923c 830d 7dbd
00000330: e5bf 05be 4a89 613d d6e7 d2bd dd72 1d3e
00000340: e5bf 83bd 889a 89bb 93e8 c0bd 371d 9bbd
00000350: e6fb 7a3d 68a9 92bd 3d87 643d 0278 133e
00000360: 099d 1cbe e456 cc3d 5ad1 abbd c385 14be
00000370: decf a5bc ae9d b6bd 26d2 8ebc 16d3 003e
00000380: 9759 a0bd 6d84 a83d 7937 f43d 2806 033e
00000390: 9f24 053e 7340 683c c642 603d b20c f7bd
000003a0: 5aba fd3d 0d2a 3f3d c3fd fb3c 3781 9bbd
000003b0: a4cd f93d 15c3 933d 9bf2 e8bd 739d 18be
000003c0: f9f5 20bd 7645 f33d b632 053e e00e 903d
000003d0: 9587 b63c 3936 f43d cbe7 ba3a 99f7 e0bd
000003e0: 6433 a53d 8a42 a5bd 97df e5bd 6b78 c5bd
000003f0: 7739 09be 3320 0a3d 92d3 d2bc 1b5a 0ebe
-0.094820574 -0.0750734 -0.08320911 0.055534083 0.018953592 -0.041154187 -0.02107891 0.09720701
0.0407864 0.067409515 0.028863939 0.0086058965 -0.14079309 0.14926398 0.029991172 -0.08828954
-0.12099254 -0.11425074 -0.11115554 -0.08042717 0.08547809 0.0038316196 0.046427906 -0.1297625
-0.010519105 -0.15295443 -0.059034884 -0.09405619 0.030501632 0.008845313 0.023756836 -0.11628125
0.024982136 0.013130069 -0.03343597 0.036022365 -0.07588174 0.12223377 -0.12263169 -0.11997179
0.023365324 -0.031229878 -0.12455568 -0.0066879033 0.14144705 -0.0060217124 0.051234867 -0.0027814393
-0.14089908 -0.08541372 -0.102385625 0.08316922 0.04256016 0.047702637 -0.13523996 0.024737941
-0.03563939 -0.14134797 -0.025371578 0.036767412 -0.1289205 0.10321853 0.15072414 -0.07020593
-0.061688375 -0.07393652 -0.10851754 -0.1457784 -0.09089917 -0.041359268 -0.08346982 0.05501003
0.049342185 0.06458289 0.03394454 0.096340135 0.012876387 0.07238596 0.06547065 -0.1431282
0.03399121 -0.017136246 -0.061836284 -0.041105006 -0.06410581 -0.044143982 -0.047262263 0.12540622
-0.10125772 0.060862523 0.11408978 -0.10548581 -0.055228114 0.15003882 0.05524844 0.14789584
0.039672684 0.009951325 -0.040365983 0.11180422 0.034459352 -0.0872489 0.063624136 -0.053023305
-0.058924593 0.028751986 0.1467564 0.11171956 0.0719652 0.109149225 -0.08491203 0.030650834
-0.044912767 -0.050998088 0.13777067 -0.024903223 -0.044969425 -0.008471939 0.021822132 0.14086582
0.13484755 0.035309494 0.023235383 0.045043655 0.10076621 0.007789067 -0.0819604 0.013008978
0.06607801 -0.14522754 0.08884957 0.04520123 -0.029511102 -0.056951765 -0.06537184 -0.046806388
-0.08291741 0.011618921 0.12745295 0.08799568 -0.08383542 0.07232333 0.0022984787 0.019915655
-0.009105032 0.07401384 0.025721852 0.07309436 -0.106224015 0.019069873 0.07078718 0.12381043
0.07194394 -0.08496957 -0.062893644 -0.0028769474 0.13265231 -0.11556692 0.055680234 -0.027377177
-0.06383015 0.139883 -0.009860778 0.070007354 -0.023630742 -0.12637842 0.090204805 -0.06779186
-0.08639525 -0.010823159 0.03605744 0.10097268 0.057027597 0.09386989 -0.098525494 -0.0670694
0.0023104255 -0.009992509 0.12413246 -0.044329513 0.14310901 -0.082144655 0.13835469 -0.03542936
-0.060509942 0.10727923 -0.11182316 0.003413437 -0.10620543 0.14064023 0.09876953 -0.005148857
0.084215745 0.1127415 -0.0104191145 -0.024031676 -0.08499002 0.13621815 -0.04552586 -0.086976014
-0.110140964 -0.020447668 0.017900014 -0.061780464 -0.13061483 0.05506257 -0.102981254 0.15375848
-0.06433085 -0.0041993298 -0.0941936 -0.07573932 0.061275385 -0.07161218 0.055793036 0.14401248
-0.15294279 0.099775106 -0.0838954 -0.14504151 -0.02024072 -0.08916794 -0.017434191 0.12580523
-0.07829588 0.08228383 0.11924643 0.12795317 0.13002251 0.014175522 0.05475118 -0.12062968
0.12389059 0.046670962 0.030760651 -0.07593005 0.12197426 0.07214943 -0.11374398 -0.14903812
-0.039297078 0.11878483 0.13007626 0.07034087 0.022281447 0.11924405 0.0014259754 -0.109847255
0.080664426 -0.08069332 -0.11224287 -0.096421085 -0.13400827 0.033722114 -0.02573565 -0.1390156

layers.0.lin_edge.weight f4 [256, 13]
00000000: 92e8 cb3d f610 54bd a569 c9bd 7a35 183e
00000010: d794 ecbc 5fed 62bc 6451 6dbd 8d7c d93c
00000020: 1bfc e7bb 0138 44bd a4c2 c2bd 6294 64bc
00000030: ca91 20be 63f1 183d 1cc1 0f3e 1e58 96bd
00000040: 35c7 c03d d938 20be d768 bbbd aa22 543d
00000050: c9cf 9dbc a05e dc3c 8a27 be3d 085d 97bd
00000060: 9c9c 723d d606 d33d 33b2 353d 8114 fe3d
00000070: 0954 223d 6b94 e0bb bd97 27bc f233 45ba
00000080: 340a 18be eaa9 48bd d718 d6bd 6737 f9bd
00000090: 40e3 bc3c e54c a3bc 85bb cf3d 33b9 e23b
000000a0: cee8 0a3e 6885 fdbd 9b46 473b 89b4 02be
000000b0: 94bd 913d 8060 fcbd 246c a03d 919b ccbb
000000c0: 0816 57bd f6b4 eabd aade 58bd 1405 37bd
000000d0: 6d44 193c 2461 fd3c 6a2d f2bd 7914 c2bc
000000e0: 5154 143e 3695 d0bb 09d3 0f3e d2fc e53d
000000f0: 6c49 143e 9f7e 2e3d 8bb2 f83c 9f79 37bd
00000100: eef0 a4bd 3299 04bd ef1b 733d 288b d0bc
00000110: b68d 0b3e ba17 933d de17 8fbd d0ac 87bd
00000120: 8dde b93d b30f 83bd 349b 0e3e d6b6 1b3e
00000130: 32b5 303d cb25 b8bd 34d0 b63d d4e3 8b3d
00000140: 0629 8fbd 75bd efbc 5028 023c e1eb b2bd
00000150: b0f2 213b e3f7 5cbd 58f9 cd3c a2c2 d8bd
00000160: 9092 b33d e1be 3dbd 0404 c63d 4c6c da3d
00000170: 219f b53d 173b ae3c 0f25 253d 8c9c 8a3b
00000180: 8e3d a8bd 2e20 023e a591 f13d dec2 d9bc
00000190: a4cb 4bbc febb c83c 7fd5 023e 7544 5dbd
000001a0: 2eb3 e83d e4c1 f63d 784b 1ebe a209 623d
000001b0: c068 2b3d 7158 a9bc e92f aabd 8932 f43d
000001c0: 7a0a 07be 17ba fabd c717 e83d 3559 0c3d
000001d0: 5cc8 0dbe cef5 4dbc 6305 9ebd bb60 d9bd
000001e0: 6246 7dbb e176 89bb 4b22 2fbc ed4e 223e
000001f0: ff38 933d af4e 3dbd 6aa0 453d 36b4 99bd
00000200: 7122 9fbd d7c0 0bbd 6d27 08bd c159 08be
00000210: f9ea e7bd 053e 0bbe a861 a43d 8462 8b3c
00000220: bc11 be3c d574 833c c856 f2bb 94d6 f2bd
00000230: 5fd4 0a3c 6c82 043d 66f4 6dbd 49ff dabd
00000240: 49c4 bbbd 8d76 b6bd d0fa e63d 7098 23bc
00000250: b547 c3bc 626e a53d 95c4 65bc 1ca6 063a
00000260: 04f6 813d 5f46 b43d 7416 a7bc ba65 39bd
00000270: b573 ce3d cf26 00be 9464 1e3e d91d f8bc
00000280: fdeb 453c 6437 363d f309 8cbd a79c febc
00000290: 6c8a 40bc 6aaf bfbd fe8e 8bbd e3a0 093e
000002a0: ef4e 0d3d a307 753d b713 d63d 9c12 0e3e
000002b0: f611 8f3d 14dc b33b 0835 cdbd 95ed ed3c
000002c0: 0b9b d53d 68e5 02be db3b 82bd f61d 80bd
000002d0: d0a7 193e 3976 aa3d 73b8 3d3d b60d babc
000002e0: 654e 84bd f3cb 17be 25cd a93d 16b4 b2bd
000002f0: 8dda 783d 66b9 16bd 4050 c7bd e49e 183e
00000300: db33 bbbd 6b63 033e 3912 a0bd 18fc b03d
00000310: 3ee7 923d 3b56 863d f857 1a3e 73f7 d23d
00000320: 2588 8dbd 39b1 863d 40ac e2bd e1b2 76bd
00000330: 25e0 e8bd 6806 3c3c 482f 3d3b 65ad 00be
00000340: a06a 09be f39c 003e 1e10 013d e159 a63d
00000350: b066 633c 9adc 553d 31b9 20bd 46b3 cd3d
00000360: 5bf1 87ba ac4e dbbd 60ac c13d a8aa 89bc
00000370: 0a42 b0bd 0e02 22be 6053 0a3e 3f50 d03b
00000380: 5cda bd3c 2724 0a3d 17fd f0bd 668d 03bd
00000390: cd45 bebd 26ac 75bd b60f afbd bf61 d2b9
000003a0: aaa7 b3bd e319 28bd 7d45 edbd dec6 cc3c
000003b0: d68d 0bbe 0d06 b0bd e647 5fbd 8d2b a63d
000003c0: 67f8 7bbc 10e8 ebbc 5c31 063d 65a4 cc3d
000003d0: 5aed fa3d 7c5c 143e 7c85 b1bb f784 d83c
000003e0: 4bb8 003e e76b 2c3b 22f9 12bc 2815 dcbd
000003f0: b4e8 863c 28a7 d8bb c909 03be c71b 1fbe
0.09956469 -0.051773988 -0.09834603 0.1486415 -0.028879566 -0.013850539 -0.05793895 0.026548648
-0.007079614 -0.047904972 -0.09509781 -0.013951393 -0.15680614 0.03733958 0.14038509 -0.07341026
0.09412996 -0.15646686 -0.09150856 0.05179087 -0.019264119 0.02690059 0.09284885 -0.07390791
0.059231386 0.10304038 0.044359397 0.124062546 0.039630923 -0.0068536303 -0.010229048 -0.0007522694
-0.14847642 -0.048990168 -0.104539566 -0.1216877 0.02305758 -0.019934127 0.101431884 0.00691905
0.1356537 -0.12378961 0.0030407074 -0.12764181 0.07116237 -0.123230934 0.07833126 -0.006244131
-0.052511245 -0.11460297 -0.052946724 -0.044682577 0.009354693 0.03093011 -0.11825068 -0.023691403
0.14485289 -0.0063654436 0.14045347 0.11229862 0.14481133 0.042601224 0.030358573 -0.04479372
-0.08053766 -0.03237266 0.05935281 -0.02545698 0.13628277 0.0718226 -0.06986974 -0.06624758
0.09075651 -0.06399479 0.13926393 0.15206465 0.04314155 -0.089915834 0.0892643 0.06830564
-0.069902465 -0.029265145 0.007944182 -0.087363966 0.0024711303 -0.05394734 0.02514331 -0.10583998
0.08768189 -0.046324614 0.09668735 0.10665187 0.08868242 0.02126841 0.040318545 0.0042300876
-0.082148656 0.12707588 0.117953576 -0.026582178 -0.012438688 0.024503704 0.12776755 -0.054020364
0.11362301 0.120487005 -0.15458477 0.055184968 0.041847944 -0.020672055 -0.083099194 0.11923701
-0.1318759 -0.12242525 0.1133266 0.034264762 -0.13845962 -0.012570811 -0.07715871 -0.10614153
-0.0038646688 -0.0041950797 -0.010689328 0.1585042 0.071886055 -0.046217617 0.048248686 -0.07505076
-0.07770241 -0.034119453 -0.033240724 -0.13315488 -0.11324114 -0.13597877 0.08026439 0.01701475
0.023201816 0.01604692 -0.007395599 -0.11857334 0.008473485 0.032350942 -0.058094405 -0.10693223
-0.09168298 -0.089093305 0.112783074 -0.009985074 -0.023837904 0.080776945 -0.01402392 0.00051364466
0.06345752 0.08802485 -0.020396449 -0.04526303 0.10080663 -0.12514804 0.15468055 -0.03028767
0.01208019 0.04448642 -0.06837835 -0.031080557 -0.011751752 -0.093596295 -0.06814383 0.1344028
0.034499105 0.059821736 0.10452979 0.13874286 0.06985848 0.005488882 -0.100198805 0.029043952
0.10429963 -0.12782824 -0.06359073 -0.062557146 0.15005422 0.083233304 0.046318483 -0.022711616
-0.06460265 -0.14823894 0.08291081 -0.08725755 0.0607553 -0.036797903 -0.09732103 0.14904362
-0.0914075 0.12830894 -0.07815976 0.08641833 0.07173012 0.06559416 0.1507262 0.103011034
-0.06910733 0.06576771 -0.1106801 -0.060229186 -0.11370877 0.011476137 0.0028867293 -0.12566145
-0.1341958 0.12559871 0.03150951 0.08122612 0.013879463 0.052212335 -0.039239112 0.10043959
-0.0010371612 -0.10708365 0.09456706 -0.016805008 -0.08606346 -0.15821096 0.13508368 0.0063572223
0.02317541 0.033725884 -0.11767023 -0.03211727 -0.09290657 -0.059978627 -0.085479185 -0.00040127148
-0.08772214 -0.041040312 -0.115855195 0.024997171 -0.13628325 -0.08594904 -0.054511927 0.081137754
-0.015379048 -0.02879718 0.032761917 0.09992293 0.122523025 0.14488405 -0.005417524 0.02643059
0.12570302 0.0026309432 -0.008970531 -0.10746223 0.016468383 -0.0066117235 -0.12796701 -0.1553794

layers.0.res.weight f4 [256, 11]
00000000: 62a7 babd 5109 063d f2d6 343d f74c bf3c
00000010: 8df4 c1bd 8c45 8ebc 813c 663d d1ad 87bd
00000020: 7702 64bd bfeb b3bd 06d3 b9bc 9336 6cbd
00000030: 8b83 3ebc 25f1 a73d 6224 a33d b3b6 c7bd
00000040: f025 0fbe a383 0a3d 7871 f93c 7579 5dbc
00000050: e635 f3bd 15f2 d23d bf5d 74bd 8b92 2fbd
00000060: ab90 cd3d e045 c23d f152 943d 54cb e1bb
00000070: 6c25 233d 070c a53d 4cd1 93bc acd2 ed3d
00000080: 1054 97bc fc75 333d 9744 32bd 1da1 cdbd
00000090: 7ae1 f33d 37a7 163d 2376 ecbd 401c c33c
000000a0: 91f0 f4bd e1ff 603d 490d 903d 5b90 90bd
000000b0: 7661 943c a461 a63d 525a 01be b7eb df3d
000000c0: 41e6 27bd c8cf 153e 0df0 15be 921d 9abc
000000d0: 14a8 383d c201 bc3d bd3e 93bd 48a4 aabd
000000e0: af07 bf3d 8d4d 27be 53fb 38bc 51e4 2dbd
000000f0: 9617 823d 8150 a93b 670b 853d dd17 bebd
00000100: 5af6 f03c cdeb ecbd 0287 82bc 2553 1fbc
00000110: 271e 813d 215e 4b3d 1217 fabd cc57 90bc
00000120: 49e2 f43d aee5 08be 5ed6 b0bd fb0b 7fbd
00000130: fde9 37bd 7fa9 c23d f460 a33d de72 b43b
00000140: 6ca7 a6bd 744f d33d 30f8 fc3d d9e2 063e
00000150: 8a19 a23d 8224 b33c 40ef 9e3d 5278 01bd
00000160: 8af5 153d c8d3 8b3c 0678 053d b74a 603d
00000170: 7785 05bd 14ed fdbd e39e 2e3d b653 923d
00000180: 02ef 183b 0871 1c3d 360f 0cbe befd 453d
00000190: 5a75 4a3d 3f15 363d a73f f03d c076 023e
000001a0: 8969 ae3d fe65 79bb f9dd 943d 9b8c 943d
000001b0: 01e8 5bbd 902e b63d 19eb 543d 7207 3e3c
000001c0: d356 35bd e06f 8c3c c359 fe3d 7da9 0cbe
000001d0: 9e3f 96bd 0fa2 23be 3c11 16be 1a66 4b3d
000001e0: 36f8 bd3c a46e 29bd 2e3e 8bbd 31c2 f83b
000001f0: 226d eabd fde3 ae3d 97e1 043d 83d7 3cbd
00000200: 2ca4 febb b21a b13d f031 143c 7d16 08be
00000210: 771f 04be 9e59 c13d 1b5d 953d 18aa b43d
00000220: 80d2 9bbd bfb9 1abe 7646 c5bd 591c d9bc
00000230: 1cf9 08be c30e 003e e207 f13d 4726 d5bd
00000240: 42a3 c4bd add4 13be 954e debd 9975 50bd
00000250: c164 833b 405d 18bd 7224 07be 6beb fa3d
00000260: 2bc2 c7bc ba74 2b3b 3790 3a3d 544d 68bd
00000270: bdaf 053d 1eee c13d 510f c13d cbc0 5f3d
00000280: 15eb 243d db19 05be bbec 413d 4676 a6bd
00000290: 37f1 18bd c5bf ec3c 5b24 0f3d 921a 7abc
000002a0: a63c e83c 6a5f 033d c825 1dbd 7286 b4bc
000002b0: 113f 94bd c16b 0a3d 4c7a 2c3d 969b a13c
000002c0: f3fb bbbc d5b9 b23d fafd 46bc 0d51 e53c
000002d0: 1db7 0dbd 59e1 75bd e4b3 11bd 954a 81bd
000002e0: a7bc 06be 3e47 0d3e 9ad2 1a3d ced7 87bd
000002f0: 334d 19be 1d23 f23d be43 e8bd 2e97 50bd
00000300: 42a1 8d3c a715 d0bd b80e 043d ce36 313d
00000310: ccb9 083e bfb3 063e 256a bcbd a784 c03d
00000320: 58b1 bcbd be21 0d3c 3adc 783d 241a 013e
00000330: 696b 523c 5d39 bebd 3499 0bbd c895 14bd
00000340: 1960 1cbd b0ef a0bd 4507 25be 5caa ef3d
00000350: f6b7 d0bd beb9 933d 3e92 f43b aa50 09be
00000360: 33b9 423d bb0b ccbd 3a21 093e 66e7 2cbd
00000370: 8a33 11be d590 263d 5bdb c03c c4b2 a9bd
00000380: 91c8 a0bd 18aa 923c 8536 cd3d 4c5f fc3d
00000390: 34e0 243e 745c ee3d 8211 c63d 60e2 6ebc
000003a0: 6bf8 8e3c 0141 a2bc 0ae5 11bc 0565 bbb9
000003b0: ee6a f23d bfe5 b4bd 0594 0abe 5ce1 b63c
000003c0: ac2b 1dbe 568c 8cbb 5dc4 cc3b 099d 18be
000003d0: 0e74 1c3e 0e9e fd3d a557 063e cd84 f5bc
000003e0: 0116 29bd 9f94 8b3d 200e 9dbd 8cc5 8ebd
000003f0: 90d4 dabc 66ed b6bd 7604 213e f8e2 0cbe
-0.09113957 0.03272373 0.0441503 0.02335213 -0.094704725 -0.017367147 0.056210045 -0.0662495
-0.055666413 -0.087851994 -0.022683632 -0.057669234 -0.011628042 0.082002915 0.07965924 -0.09751644
-0.13979316 0.033816945 0.030449614 -0.013517727 -0.11875515 0.1030008 -0.059659716 -0.042864364
0.10037359 0.09485984 0.07242382 -0.0068906937 0.03983061 0.08058935 -0.018044136 0.11612448
-0.018472701 0.04381369 -0.043522444 -0.100404955 0.119082406 0.036780562 -0.1154597 0.023817182
-0.11959947 0.054931525 0.07033784 -0.070587836 0.01811288 0.08124092 -0.1263211 0.10933631
-0.04099107 0.14630044 -0.14642353 -0.018812928 0.045082167 0.09180023 -0.07189701 -0.083321154
0.093276374 -0.16338177 -0.011290389 -0.042454068 0.06352155 0.0051670675 0.064963154 -0.09281895
0.029414345 -0.11568413 -0.015933517 -0.009724413 0.06304579 0.049650315 -0.122114316 -0.01761999
0.11957223 -0.13368866 -0.08634637 -0.062267285 -0.044900883 0.09504985 0.07977477 0.0055068573
-0.08137402 0.10317889 0.123520255 0.13172473 0.079150274 0.021867994 0.07760477 -0.031608887
0.036611117 0.017068759 0.032585166 0.054758754 -0.032597985 -0.12398735 0.042631995 0.07144873
0.002333582 0.038193733 -0.13677678 0.04833769 0.04942832 0.044453856 0.11730891 0.12740612
0.08516223 -0.0038055177 0.072689004 0.07253381 -0.053688053 0.088956 0.05198202 0.011598455
-0.044272255 0.01714319 0.124194644 -0.1373653 -0.07336353 -0.15979789 -0.14655012 0.04965792
0.023189645 -0.04136528 -0.06798969 0.007591509 -0.11446597 0.08539579 0.0324417 -0.046103965
-0.0077710357 0.0864767 0.009045109 -0.13289829 -0.12902628 0.09440921 0.07293149 0.08821505
-0.07608509 -0.15109919 -0.0963258 -0.026502775 -0.13376278 0.12505631 0.11769082 -0.104076914
-0.096014515 -0.14436598 -0.10854832 -0.0508934 0.0040098135 -0.037198305 -0.13197497 0.12251934
-0.024384579 0.0026162104 0.04554769 -0.05671437 0.0326383 0.094692454 0.094267495 0.05462722
0.040263254 -0.12998144 0.047344904 -0.081280276 -0.037339415 0.028900037 0.03494678 -0.015265124
0.028349232 0.032073416 -0.03836611 -0.022036765 -0.072385915 0.03379417 0.04210882 0.01972751
-0.022947287 0.08726851 -0.012145514 0.02799275 -0.03459846 -0.06002936 -0.035571948 -0.063130535
-0.13157903 0.13796708 0.0377985 -0.06632958 -0.14970855 0.118231036 -0.11341046 -0.050925426
0.017288808 -0.1016038 0.0322406 0.043265156 0.13352126 0.13154505 -0.09199933 0.094003014
-0.09213513 0.008614002 0.0607569 0.12607628 0.012842991 -0.09288285 -0.034081653 -0.036275655
-0.038177583 -0.07858217 -0.16116054 0.11702415 -0.10191338 0.07213162 0.0074637225 -0.13409677
0.0475399 -0.09963175 0.13391581 -0.042212866 -0.14179817 0.040665466 0.023542097 -0.0828605
-0.07850755 0.017903373 0.100201644 0.12322864 0.16101152 0.11638728 0.09671308 -0.014580339
0.01745244 -0.019806387 -0.008904705 -0.00035742685 0.118368015 -0.08832883 -0.13533027 0.022324257
-0.15348691 -0.0042891903 0.0062489943 -0.14903654 0.15278646 0.12383662 0.13119371 -0.02997055
-0.04128075 0.068154566 -0.0766871 -0.06971273 -0.026712686 -0.08931999 0.15724358 -0.13758457

layers.1.att f4 [1, 8, 32]
00000000: ee58 27be 9431 38be c212 a43e 5d50 ad3d
00000010: c7a3 9a3e d168 b33d 4751 cdbd 32ec 38bd
00000020: 12b4 493e d0fe 653c 7da9 abbe 8cab 8e3e
00000030: 32f9 a1bd 56d8 113d 1fbb 613c 6eb7 a93e
00000040: 7a94 943e ba23 19ba ce1d 8d3e 1f91 193c
00000050: de59 a2be 313c 44be d740 063e 9142 a1be
00000060: e9af b3be 97b0 f43d 8770 c43d c7bc 5dbe
00000070: 7d8f 7a3e f46b 50be 6d77 8cbd 9782 b2be
00000080: fa50 e83d 5687 8c3e 7dd3 5f3e 7605 9abc
00000090: 1548 073d 9820 663c e62a d0bd 2a2b 8b3e
000000a0: 95b3 aa3e 0046 c8be ae58 513d 9da0 ffbd
000000b0: f32a d0bc b269 87bd 5863 a0be b2dc 803e
000000c0: 15be 8c3e 3fbe c13e 90aa ecbd 7a9e 2abd
000000d0: 627d b93e 1828 82bd ac69 9ebe a54a af3e
000000e0: 06fe 73be b354 b83e 3222 903d eec2 33be
000000f0: 6722 ad3e 2db3 a7be 7ade 1a3e a016 823e
00000100: f6ee 5fbe 79d4 8b3e f5e1 a4be 4e8a c4be
00000110: 06f9 8b3d 45aa 2abe 84e3 c1be 7289 ff3d
00000120: 1411 bb3e 7437 c23e 2197 613e e088 4dbd
00000130: 3a81 b2be e68a 883e 2ee4 9cbd ffa1 123e
00000140: 994c c43e 58b5 6ebe 23cc f8bb a37f c33e
00000150: 8831 bbbd 74ef 84bd e8ea b6be bb7d ee3d
00000160: f095 c63d 5df2 b4be 9e6c 83be f84d 8e3c
00000170: 5e55 61be af25 193e bbdb b2bd 0978 d9bd
00000180: 79c9 2abe 20e9 5cbc 5514 c43e c09a b0be
00000190: a75a 193d 1c0e bebd 8667 93be fed1 2cbc
000001a0: 792d 7c3d c347 333e ddc9 b1be 7fd2 9f3e
000001b0: c001 363e 6ebf bdbd 15b0 96bc 63d7 43be
000001c0: 5160 4d3e 993e 35bd 8f91 383e 9d0c 39be
000001d0: 6b22 10be c06d 1c3e df09 e0bc bb31 563e
000001e0: f9e0 b03e d704 b8be 331d cabe 95d1 b23d
000001f0: 2011 7cbc 9cca 9ebd 0f8c 963d 414f c83e
00000200: 70a2 afbe 8c3a bebd 0612 ccbe 4b3c 823e
00000210: 9124 9e3e 2193 dcbd 8a5b 1dbe 692c d1bd
00000220: 5173 e7bc 3d17 983e 4087 a13e 6069 603e
00000230: f0b7 2ebd 10bd 4f3d e1e0 d1bd aaee 2b3e
00000240: 75ae 0f3e ca2d 97be ea74 6bbe 3dbe a0be
00000250: c9f5 1cbe 2fab 053e a981 f1bd 13da 83be
00000260: 36df d7bd 082d c33e 741e 9fbe 2dbc 1a3e
00000270: a36d 2ebc 4e30 a03d 5bce b1be d617 a7be
00000280: 71a4 b03d 0c38 cb3d a28d 763e 33ba 22be
00000290: 9ebf 593d 9922 b0be 02c4 3ebe 86df 9fbe
000002a0: a8dc 7a3e 7f39 b3be 825e 8e3d ff8f 0d3e
000002b0: 056b 7cbd ed11 a53e 24b2 323e 79d3 6cbd
000002c0: 563d 213e d84d 1f3e 3846 a33e 6be1 c4be
000002d0: b021 ad3e 78b2 38bd 6645 a93d 8ebd b53e
000002e0: 43b2 4fbd 8c34 713d 0a0f a8be a24d a1be
000002f0: 2273 bbbe 481f 893e 7401 d4bd 0839 d63d
00000300: 7e48 57be 5dfe 2ebe c6e6 a3be 256f babe
00000310: eccc be3e b5b3 7f3e c962 6b3e 6a98 85be
00000320: 76aa 343e 57ba 4e3e b1ac ac3e 0d6e 463e
00000330: 5956 a9be b06f 1f3e d883 e33d b9f1 983d
00000340: c298 84be c648 95bd 1a92 a43e 54a9 933e
00000350: 1996 a2be 781a c3be 78ae b33e 82fb a73e
00000360: 265c fcbc b406 b4be ad94 a73e 8a2f 3bbd
00000370: c787 8b3e ddcc bbbe 24e9 eebd 8d58 29be
00000380: eb5b 333e 271b a6be adbe a1bd 615b 92bd
00000390: 6fd2 8bbe 9857 07be eff3 f43d b378 ccbd
000003a0: 9cca 99bd f080 98be 28f5 3b3d 55fe 043e
000003b0: 5265 76be a5ec 0abe 29c1 8d3e b427 983e
000003c0: 725b a8be bac1 1dbd cc79 8dbe cae1 793d
000003d0: d79f b33e a207 a0be a5f3 dabd deda 0ebe
000003e0: 31ed a7be 95d8 8ebe 0355 00be 1c30 b83e
000003f0: b951 603e 3e32 593e c2e7 2abe d563 7f3c
-0.16342518 -0.17987663 0.3204556 0.08462594 0.30203077 0.087602265 -0.10025268 -0.04514713
0.19697598 0.014037803 -0.33527747 0.27865255 -0.07908858 0.035606705 0.013777523 0.33147758
0.2901953 -0.00058418105 0.27561802 0.0093729785 -0.31709188 -0.19163586 0.13110672 -0.314961
-0.35095146 0.11947744 0.095917754 -0.21654044 0.24468799 -0.20353681 -0.06858716 -0.34865257
0.1134357 0.27447003 0.2185802 -0.018801432 0.033027727 0.014045857 -0.10164432 0.2718137
0.33340135 -0.39115906 0.051109962 -0.124818064 -0.025411105 -0.06611957 -0.31325793 0.25168377
0.2748877 0.3784046 -0.1155597 -0.04165504 0.36228472 -0.063553035 -0.30939996 0.34236637
-0.23827371 0.3600212 0.07037772 -0.17554829 0.3381531 -0.32753888 0.1512393 0.25407887
-0.218685 0.2731054 -0.32203642 -0.38386768 0.06834607 -0.16666515 -0.37868893 0.124773875
0.36536467 0.37932932 0.22030307 -0.050179362 -0.34864217 0.2666847 -0.07660709 0.14319609
0.3833969 -0.23311365 -0.0075926944 0.38183317 -0.09140307 -0.064909846 -0.35726094 0.11645075
0.09696567 -0.35341159 -0.25668806 0.017371163 -0.22005221 0.14955781 -0.087333165 -0.10618598
-0.16678418 -0.013483316 0.38296762 -0.34493065 0.03743997 -0.09280035 -0.2878992 -0.010548113
0.061566804 0.17507844 -0.34724322 0.31215283 0.17774105 -0.09265028 -0.01839451 -0.19125132
0.20056273 -0.04424915 0.18024276 -0.18071218 -0.1407563 0.15276241 -0.027348457 0.20917408
0.3454664 -0.35941193 -0.39475402 0.08731381 -0.015384942 -0.077534884 0.07350933 0.39122966
-0.34303617 -0.09288511 -0.398575 0.25436625 0.30887273 -0.1077025 -0.1536695 -0.10213549
-0.02825323 0.2970523 0.315485 0.21915197 -0.042655885 0.050717413 -0.1024797 0.16790262
0.14031394 -0.29527122 -0.22993818 -0.3139514 -0.15328135 0.13053583 -0.11792309 -0.25752315
-0.10540621 0.38120294 -0.3107792 0.15110846 -0.010646257 0.078217134 -0.3472775 -0.32635373
0.08625115 0.099227995 0.24077466 -0.15891342 0.053161256 -0.34401396 -0.18629459 -0.31225222
0.24498236 -0.35004804 0.0695162 0.13824461 -0.0616255 0.3224024 0.17450768 -0.057818864
0.15746054 0.15557039 0.3188951 -0.3845323 0.33814764 -0.045092076 0.0826519 0.3549618
-0.050707113 0.058888003 -0.32823974 -0.31504542 -0.36611277 0.26781678 -0.1035184 0.104600966
-0.21023747 -0.1708922 -0.32012004 -0.36412922 0.37265718 0.24970897 0.22986902 -0.26092845
0.1764315 0.2018827 0.33725503 0.19377919 -0.3307369 0.15569949 0.111091316 0.0746798
-0.25897795 -0.07289271 0.32142717 0.28840125 -0.3175514 -0.38106132 0.35094047 0.32809073
-0.030805659 -0.35161364 0.32730618 -0.045699634 0.27252027 -0.36679736 -0.11665562 -0.16537686
0.17515533 -0.3244259 -0.07897697 -0.071463354 -0.27308986 -0.13217008 0.11960589 -0.09983959
-0.07509348 -0.29785872 0.045888096 0.12987645 -0.24062088 -0.13566835 0.27686432 0.2971779
-0.32882267 -0.03851483 -0.27631986 0.061006345 0.35082886 -0.31255823 -0.10691003 -0.13950679
-0.3279815 -0.27899614 -0.1253243 0.35974205 0.21906175 0.21210572 -0.16689971 0.015587767

layers.1.lin_l.weight f4 [256, 256]
00000000: 9fa1 d7bc e530 d43c 241d c93d fd71 27bd
00000010: f659 43bd ff6c c03c bcd7 a13d b242 7dbd
00000020: 705c c43d f36c c5bd e4c7 aebd 7055 89bd
00000030: e441 d7bc 8aa9 253d b6d9 d7bd 5bb6 ff3c
00000040: f107 1ebd 5c10 23bc 7cbe d6bd a83e a8bd
00000050: 8503 b63c 50b7 423d f389 6cbc 006e a7bd
00000060: d6b6 6d3d e312 c7bd f850 24bd b310 62bd
00000070: 6a76 4abd 2edd 26bb 8d07 943d 548a a9bd
00000080: f998 d8bd 3c8d 9d3d f5c7 4bbc 519e 983d
00000090: 31b7 a83d b395 01bd 454d 27bc 7453 383d
000000a0: 65fa 8e3d 33e4 debd 4aa1 a53c ef4e ddbd
000000b0: e7a0 afbd e2c0 133d 70ce a93d 0827 debd
000000c0: 0723 eabd a9dd 713d 50a2 66b8 4cf9 ac3c
000000d0: 40eb 6dbc f329 54bb 5436 273d 148a cabd
000000e0: b131 0bbd 0381 c0bd dcc5 413b c4ff b9bd
000000f0: 1bd5 813d e561 513c 6ef2 b0bc e3c6 883d
00000100: eefe 2e3d 923c 193d 6767 ae3c 64af 53bd
00000110: e08e a0bd 50da 133d d5b0 b63c 6c11 6a3d
00000120: 6905 c9bb cc70 95bd c031 d7bc 53f2 babd
00000130: 50a5 efbc c079 8fbd 4985 c53b 69d5 f0bc
00000140: d7be 563d 79f9 a23d cf40 abbc 6c5e 3bbd
00000150: f472 d6bd 3d7c aabd db49 3abb 9b50 843d
00000160: 0160 c4bd c33a e93c 2015 d1bd 2171 0dbc
00000170: dd95 bcbd 5ef2 6dbd 25e6 053a 0139 dabd
00000180: 180f a7bd 6174 853b b0e8 dabd bc16 b7bd
00000190: bcfe 98bd a58d bb3d 8e7d c93d 09db 6c3d
000001a0: aa7b 89bd 124d 22bd b01e 9f3d 7187 a4bd
000001b0: 5a6a a6bd 5656 5fbd d652 2bbd b271 78bd
000001c0: fbd6 983c ea01 cfbd 2521 aabc 564b 92bd
000001d0: 7089 dcbd f975 56bc 6051 80bb d16e b1bd
000001e0: 8035 53bd efd6 f5bc 81d5 af3d 0dd1 823d
000001f0: 1dc3 2fbd ed63 ae3d 3114 073d 0bf5 573d
00000200: 2e75 4b3d 55cf 82bd a23d ecbc e061 07bd
00000210: 6262 7dbd 5d17 023b a3dd 093d 2f6c a63d
00000220: bd25 453d 73ed c13c c917 ed3c bafa 003d
00000230: 9b6c 663b 8edb 1ebc 89a1 8abd ab4f a23c
00000240: 3021 cabd 4781 573d f2db 173d ebf9 cfbc
00000250: 3167 a9bd 75f8 75bd d922 c33d fb83 7b3d
00000260: 1494 553d d8c8 cbbd 1349 583d 4c65 b6bb
00000270: 7670 af39 da4f 813d 4067 c2bd 77c7 6b3b
00000280: aab1 d5bd 1b87 a0bd 3405 5d3c 4c3a 2dbd
00000290: 748b 323d 1799 4dbc e9e3 453d 0683 f3bc
000002a0: be8d 8f3c e54b b93d c453 e9bd 9c5e 2d3d
000002b0: 6da8 b6ba cf22 4bbd 2b15 4dbd df2b 9b3d
000002c0: ec3a cd3c d800 823d d771 56bc de7a 713d
000002d0: 1ca4 853d de34 b1bd 5414 9439 3887 be3d
000002e0: 9e98 b8bc 3daa 463c b601 98bd 9055 30bd
000002f0: 78f5 2bbd 1272 c6bd 93db 8c3d 0a96 e43c
00000300: 9a7d dabd 27dc a73d f034 cbbd 6451 9ebd
00000310: feb3 2e3d d93b 27bd e15c 773d b564 57bd
00000320: c4ff ca3d 37a2 96bd 28b3 56bc a4ad 91bd
00000330: d76d 923b 8fc4 10bd e3c7 ce3c 4d8b 793d
00000340: 6a12 8c3d 561f c2bc 4762 32bb e277 8fbd
00000350: 153c d0bd 8cdb c63d 51e5 6abd b4c4 243d
00000360: 4169 b0bc 7ba4 a63d dacc ac3c 15ed b33c
00000370: 710a ca3d 8b3c b2bd 3039 2abd bb26 94bd
00000380: 94f0 79bd 3285 c23d e619 5b3d ecc3 b9bd
00000390: 5bae 2d3d e9dc ae3c 61f9 a8bd 802b 7b3c
000003a0: 7ef7 51bd f10f b0bd 188c 81bd 42fd 90bd
000003b0: be47 78bd 04e8 443c d9e4 843c 755c c33d
000003c0: 89c9 87bc a0eb b33d 49fb 84bc 1d8c e9bd
000003d0: c8d9 1a3d 57e1 88bd 614b 903d eab9 bc3d
000003e0: 96ab eb3c 5e21 e3bd 703c 96bd ba33 3f3d
000003f0: ef43 84bd 79b4 e0bd 87e6 a1bd ce5e 79bd
-0.026322184 0.025902221 0.09820011 -0.040880192 -0.047693215 0.023489473 0.07902476 -0.061831184
0.095879436 -0.09639921 -0.0853422 -0.06705749 -0.026276536 0.04044489 -0.10539572 0.031214884
-0.038581792 -0.009952631 -0.10485551 -0.08215076 0.022218475 0.0475381 -0.0144371865 -0.08175278
0.058035694 -0.09720399 -0.04011628 -0.055191707 -0.049429335 -0.0025461423 0.07228003 -0.08278337
-0.10576052 0.07692954 -0.01243781 0.074520715 0.08238066 -0.031636905 -0.010211294 0.045001462
0.06981353 -0.10883369 0.02021851 -0.10806071 -0.085756116 0.03607262 0.08291328 -0.10847288
-0.11432462 0.059049282 -5.498744e-05 0.021114968 -0.01452142 -0.0032373636 0.040823296 -0.098896176
-0.033982936 -0.09399607 0.0029567396 -0.090819865 0.06339475 0.0127796875 -0.021599974 0.0667856
0.04272359 0.03741128 0.02128954 -0.051680937 -0.07839751 0.03609687 0.022301117 0.05714552
-0.006134678 -0.07296905 -0.02626884 -0.09128251 -0.029253632 -0.07005644 0.0060278517 -0.029398637
0.052428093 0.079577394 -0.020904927 -0.045744345 -0.10471144 -0.08324478 -0.002842537 0.06460687
-0.09588624 0.028470403 -0.102091074 -0.008632929 -0.09208272 -0.058092467 0.00051078416 -0.10655404
-0.08157176 0.0040727113 -0.10688913 -0.08939883 -0.07470462 0.09157876 0.09838401 0.057826076
-0.0671304 -0.03962428 0.07769525 -0.08033646 -0.08125754 -0.054525696 -0.041827045 -0.060655303
0.018657198 -0.10107787 -0.020767758 -0.071432754 -0.107684016 -0.01308965 -0.0039159507 -0.08663715
-0.051564693 -0.030009715 0.085856445 0.063875295 -0.042910684 0.08515153 0.03297824 0.052723926
0.049672298 -0.06387202 -0.028837983 -0.033052325 -0.061861403 0.0019850351 0.033658635 0.08126103
0.048131693 0.023672795 0.028942006 0.03148911 0.0035159949 -0.009695901 -0.06769092 0.01981338
-0.09869611 0.052613523 0.03707499 -0.025387725 -0.08271635 -0.0600514 0.09528131 0.061405163
0.05214317 -0.09950417 0.052804064 -0.0055662747 0.0003346239 0.063140586 -0.094923496 0.0035977045
-0.10434277 -0.07838269 0.01349001 -0.042291924 0.043590024 -0.0125487065 0.048313055 -0.029725563
0.017523643 0.09047679 -0.1139293 0.042326555 -0.0013935693 -0.049593743 -0.050069015 0.07576727
0.02505251 0.06347817 -0.013088665 0.058955066 0.06525442 -0.08652662 0.00028243905 0.09303135
-0.022533711 0.012125549 -0.07422201 -0.04305035 -0.041982144 -0.09689726 0.06877818 0.027903575
-0.10668488 0.081962876 -0.099222064 -0.07730368 0.042652123 -0.04082856 0.06039131 -0.052586276
0.09912065 -0.07355159 -0.013104238 -0.071131974 0.0044686603 -0.035343703 0.025241798 0.060923863
0.0683945 -0.023696583 -0.0027219222 -0.07005288 -0.1016771 0.09709844 -0.0573476 0.040226653
-0.021534564 0.08136841 0.021093775 0.021963635 0.09865273 -0.08702954 -0.041558444 -0.0723395
-0.06102045 0.09498061 0.053491496 -0.09070572 0.042402606 0.021345573 -0.0825069 0.015330195
-0.051261418 -0.085967906 -0.06325549 -0.07079555 -0.060615294 0.012018207 0.016222404 0.09539119
-0.016575592 0.08785176 -0.016233103 -0.114036776 0.03780535 -0.06683605 0.070456274 0.09215148
0.028768342 -0.11090349 -0.07335746 0.04668019 -0.0645827 -0.109719224 -0.07905298 -0.06088143

layers.1.lin_r.weight f4 [256, 256]
00000000: 63b5 93bd 58fd ff3b 34dc 99bd 7024 c43c
00000010: d0ab 4e3d 52bd d8bd 262b 98bd 9b51 7abd
00000020: 7da3 e43d 6f84 48bd 86eb 58bd 13a9 a3bc
00000030: 8e65 e23d 88e9 94bb 2e65 a13d 17a8 713d
00000040: 7c18 203c c1e3 4fbd a0d3 eabd e483 5c3d
00000050: b3a9 c8bd a202 2fbb fd4f 873d c09a 933d
00000060: 5e78 5fbb ee05 e53d da29 5fbd e419 1cbd
00000070: 0e3f 24bd e036 99bd e41d 78bd c1af a13d
00000080: 2884 c3bd 8984 04bd 0540 dcbd a1ce a23d
00000090: d174 973d 1857 0abd d232 703d d69c a23d
000000a0: 3dd4 d0bc 0b12 b9bd 6e13 adbd 073f 21bd
000000b0: 2fbe 123d 9f36 133d 4719 c93d 57ec 83bd
000000c0: 8702 c2bd 14fc 27bd d2f5 09bc 5179 3bbd
000000d0: 8e68 473d d286 a4bc 28a2 b63c ba3b 93bd
000000e0: 5bcf 7b3d dc14 ce3d 9c7b 66bd 372d 6d3b
000000f0: 9154 b63d 3672 8c3d 8537 90bd ce74 c53d
00000100: e0e9 19bd ea78 6fbd df53 7a3c 5c61 86bc
00000110: 23fd 62bd 4e33 3d3d c6b2 173c e252 de3d
00000120: a484 5abd dc55 6f3d 4f98 323c bbd2 24bd
00000130: 478c 553d 7681 253d da77 a4bd 4071 843c
00000140: 2b19 a03d 7134 c23d 6c3d a1bb d690 c1bd
00000150: 789c ecbc b7fd e4bb cdf4 94bc db63 d83d
00000160: a9ad ecbb 517d 4b3d 09b3 ec3d aeb0 9f3c
00000170: e422 753d e5fa b7bd 6128 a5bd dd94 e9bd
00000180: 7191 143c 0ecb 8f3c 268f 033d d63f 3d3d
00000190: dbe2 b13b 3373 ae3d 8689 9dbd 7fa8 2b3c
000001a0: b01a 13bd 06b2 a4bd e8e3 86bd 8f66 adbc
000001b0: 028e c23d 20b3 813d 7e85 21bd 5026 19bd
000001c0: b308 543d aaac a5bd 5a3d e13d d04a c13d
000001d0: d072 793d 059a e6bd ef72 c63d ddec 203d
000001e0: d6f3 11bd ba1f ed3d fe41 32bd 9b07 8f3d
000001f0: c6ca 2cbd 5560 2cbd 4dac c23d 652b 963d
00000200: 8624 6abd d1a3 703d a504 bd3d 46e1 c03d
00000210: d18c 3bbd 7369 24bc ee8a 54bd c469 143d
00000220: e05b 09bb 5d9d 19bd 317b 963d de33 69bc
00000230: 7e94 04bd bd08 97bc bfe3 ebbc 141b adbc
00000240: 22ab c7bd fa40 a5bd 2cfd 80bd 449c 34bd
00000250: f46b cebd 65f0 bd3d 0bdc 573d 9ba5 ac3d
00000260: aad5 803d 503b 423d 4dbf b4bc 12ae 063d
00000270: f53b bf3d bf72 c9bd 51d6 6e3d 72dc f93c
00000280: 12b0 c3bd 3c70 2cbd 0467 713d 5f25 543b
00000290: bc33 d3bc 4ca2 22bc ecb4 1e3d acbb 143d
000002a0: 4594 763d b9c6 e23d 55f9 303d 7b8c 2fbd
000002b0: 396c 1cbd 569d 07bd 9b53 c2bd 73be 93bd
000002c0: d681 883d bb5d 573b 0a99 e1bc e941 aa3d
000002d0: 8982 b9bd 9a62 98bc 10b3 5b3d c4e8 a5bd
000002e0: 141a 0f3c ad9e debd e414 553d 1d04 87bd
000002f0: 6c07 e73d 8b05 c53d b4ee 893d 451a ba3d
00000300: 7d39 c8bc bd29 17bc e675 5dbc 59fe ac3d
00000310: cd48 843d 4fcd 793d 4fb6 bfbd 0d13 cabd
00000320: 179d 85bd 0184 c53d 60ba 9dba cc02 24bd
00000330: 6399 923d 561e 5f3d c645 bbbc 51eb 063b
00000340: e4fd b13d 3619 f0bb 5d09 7d3d 3b8f 5d3c
00000350: d703 cdbd 1e15 b43d 16fe 303d d506 48bc
00000360: f266 6f3d cbdc c73c 0d58 423d 89c9 f2bb
00000370: a265 67bd ffb4 343d 85bb 203d fafe e8bb
00000380: c4a8 babd c1d5 ecbc 2652 9d3d 469e babd
00000390: b622 a93d d889 173d 49ae 963d 2111 ae3d
000003a0: cf09 c2bd 9146 913d 2882 0abd eabb d23d
000003b0: 98a6 bbba c658 a83d 4a77 19bd 3397 9abb
000003c0: 2134 92bd c2bf 9b3c ca65 dbbd 85e1 11bd
000003d0: bb92 74bd e0da 833d 3118 84bd a638 9bbd
000003e0: b1d7 bcbd f2f9 9f3d db65 403d ce23 913d
000003f0: 9bad e83d b952 e8bd 1a13 9f3d a606 90bd
-0.07212331 0.0078121834 -0.075127035 0.023943156 0.050456822 -0.10582985 -0.07430105 -0.06111298
0.111639954 -0.048954424 -0.052958988 -0.019978082 0.11054526 -0.0045444407 0.078806266 0.058998194
0.0097714625 -0.050754312 -0.114661455 0.05383672 -0.097979926 -0.002670445 0.066070534 0.072072506
-0.0034098844 0.111827716 -0.054483272 -0.03811063 -0.040099196 -0.0748117 -0.06057538 0.078948505
-0.09546691 -0.032352958 -0.10754398 0.079495676 0.07395328 -0.033774465 0.058642216 0.0794007
-0.025491828 -0.090366445 -0.084509715 -0.03936675 0.035825904 0.035940763 0.098192744 -0.064415626
-0.09473138 -0.041011885 -0.008420425 -0.045769993 0.048683695 -0.020083819 0.022294119 -0.07189126
0.061477046 0.10062572 -0.056270227 0.003619028 0.089028485 0.068577215 -0.070418395 0.09641419
-0.037576556 -0.058464922 0.0152787855 -0.016403846 -0.05541719 0.046191506 0.0092589315 0.108556524
-0.053349152 0.05843149 0.010900571 -0.04024003 0.052135732 0.040406667 -0.08030672 0.016167283
0.078173004 0.09482659 -0.004920652 -0.094514534 -0.028883204 -0.006988253 -0.018183136 0.10565921
-0.0072228503 0.049680058 0.11557586 0.019493427 0.059847727 -0.08983401 -0.08064342 -0.114053465
0.009067879 0.017552879 0.03211894 0.046203457 0.0054286546 0.08518066 -0.07692246 0.010477184
-0.035914123 -0.08041768 -0.065864384 -0.021167068 0.09499742 0.063329935 -0.03943395 -0.037390053
0.05176611 -0.08089574 0.1099803 0.094380975 0.06090051 -0.11259846 0.096898906 0.03928839
-0.03563293 0.11578317 -0.043519966 0.069838725 -0.042185567 -0.042084057 0.0950552 0.073324956
-0.057163738 0.058749977 0.092294015 0.094179675 -0.04578859 -0.010034907 -0.051890306 0.03623368
-0.0020959303 -0.03750359 0.07347716 -0.0142335575 -0.032368176 -0.018436784 -0.028795121 -0.021131076
-0.09749438 -0.08069034 -0.06298289 -0.04409434 -0.10079184 0.09274367 0.052700084 0.08430024
0.06290753 0.047419846 -0.022063876 0.03288085 0.09337608 -0.09836339 0.058309857 0.030500624
-0.09555067 -0.042099223 0.058936134 0.0032370908 -0.025781505 -0.00992639 0.03874676 0.03631179
0.060199995 0.110730596 0.04320653 -0.042858582 -0.038189147 -0.03310903 -0.09488603 -0.0721406
0.06665389 0.0032862264 -0.027538795 0.083133526 -0.09058101 -0.018601704 0.053637564 -0.08101037
0.008734245 -0.10870109 0.052021876 -0.065925814 0.112807125 0.09620198 0.06734982 0.09087042
-0.024441475 -0.00922626 -0.013516879 0.084469505 0.06459198 0.060986813 -0.093609445 -0.09866915
-0.06524103 0.09644318 -0.0012033693 -0.04004173 0.071581624 0.05447229 -0.022860419 0.0020587037
0.08691004 -0.007327224 0.061776508 0.013522918 -0.10010498 0.0879309 0.043211065 -0.01220866
0.058447786 0.024397274 0.047447253 -0.007409279 -0.05649341 0.044117924 0.039241333 -0.0071104737
-0.09114221 -0.02891052 0.07681684 -0.091122195 0.08258574 0.036996692 0.07357461 0.08499361
-0.09474527 0.070935376 -0.033815533 0.10289748 -0.0014316617 0.08220057 -0.03746728 -0.0047177314
-0.07138849 0.019012336 -0.10712774 -0.035615463 -0.059710246 0.064382315 -0.06449927 -0.07579164
-0.09220827 0.07811345 0.046972137 0.07086907 0.113612376 -0.11343903 0.07767315 -0.07032518
