code/gnn/models/training/SAGE/total/1/best_model.pt (torch, 285986 bytes, 14 tensors)

layers.0.lin.weight f4 [14, 14]
0.14924511 -0.0102019245 -0.28129038 -0.28082192 0.09132289 -0.022608222 -0.13964276 0.26859546
0.21235473 0.11068042 -0.06703992 -0.073972136 0.13548113 -0.024172327 0.10145806 -0.005784163
-0.0760433 -0.04060905 -0.09505526 -0.10582917 -0.029274322 -0.11047461 -0.0813468 -0.109544836
0.15798125 -0.11879375 0.26100388 0.0049533295 -0.061463334 0.22344217 -0.14771411 -0.3104548
0.300375 -0.13019778 0.23252627 0.2653711 -0.10700886 -0.09975471 0.1719692 0.17784621
0.25301594 0.098568715 -0.01791265 0.17510174 0.011140304 -0.21350493 0.037340228 -0.082142055
0.040241014 -0.30647415 -0.17673747 -0.21327558 0.030657161 0.2135246 -0.19910696 0.084045164
0.09598786 0.2546474 -0.32557166 -0.10147704 0.09741709 -0.22925436 0.13043196 -0.14549468
0.008847906 -0.09448516 0.14917418 0.1316966 0.014896782 -0.15497638 -0.29734874 0.040184584
-0.28128928 0.0891119 0.24360862 0.011232557 -0.0519599 -0.00864796 0.17490137 -0.34213087
-0.1502359 -0.039314926 0.2177877 -0.12145904 -0.14263122 -0.13640928 0.023741065 -0.26694444
0.0014813071 0.15853572 -0.12606843 0.22770572 -0.16812451 0.00784881 -0.07214062 -0.13374054
-0.23390916 -0.20257664 -0.27688992 0.23371252 -0.0171841 -0.16679907 0.10588429 0.024401056
-0.15738215 0.14683923 -0.13297641 -0.24309623 0.2220669 0.16135031 -0.12296125 0.14895223
-0.19552608 -0.2760457 -0.15501986 0.14948921 0.15815666 -0.08996817 -0.05858887 0.03039023
0.2559522 -0.15736273 0.23309761 -0.02660473 0.1449551 -0.14118467 -0.04505044 0.24093302
-0.25732842 0.20364386 0.2315474 0.24154365 -0.15933461 0.0790597 0.031727254 0.0029959623
0.23574474 -0.2995647 0.15563452 0.17724009 0.19344757 0.07108374 -0.22083771 0.10484705
-0.08766861 -0.13527836 -0.15181921 -0.28002203 0.013573395 0.26606372 0.17445318 -0.26662534
0.0038886494 0.108611114 0.048638366 0.047817305 -0.2398751 -0.25758013 0.06415753 0.23219344
-0.18666627 0.21129036 0.21533829 0.11192674 0.09501683 0.13152574 0.04699003 -0.134215
-0.17582184 -0.24971421 -0.08958796 0.028136263 -0.031063544 -0.09351162 0.28466895 -0.07802443
-0.27250388 0.2202983 0.053536367 0.22529058 -0.095383026 0.24099043 0.011964288 -0.15142052
0.051572245 -0.009790179 -0.1529152 -0.113098115 0.16286255 0.18429329 -0.16098614 -0.22592846
0.0694719 0.29267716 -0.09606656 -0.09979284
00000000: b6d3 183e f925 27bc 4b05 90be e4c7 8fbe
00000010: 7f07 bb3d e134 b9bc 83fe 0ebe 5885 893e
00000020: 8573 593e 6bac e23d 3a4c 89bd b47e 97bd
00000030: 91bb 0a3e 0b05 c6bc 3ec9 cf3d 1389 bdbb
00000040: 97bc 9bbd ad55 26bd 55ac c2bd f7bc d8bd
00000050: b4d0 efbc 8340 e2bd 2799 a6bd 0b59 e0bd
00000060: d6c5 213e 234a f3bd 4da2 853e 8a4f a23b
00000070: fac0 7bbd 06ce 643e 5e42 17be eef3 9ebe
00000080: c1ca 993e 9152 05be 5e1b 6e3e b9de 873e
00000090: 7627 dbbd 334c ccbd b218 303e 511d 363e
000000a0: 4e8b 813e 65de c93d 8dbd 92bc df4d 333e
000000b0: d285 363c 09a1 5abe 11f2 183d 183a a8bd
000000c0: c3d3 243d 2eea 9cbe abfa 34be ea64 5abe
000000d0: ba24 fb3c 31a6 5a3e b2e2 4bbe df1f ac3d
000000e0: 4895 c43d 2561 823e 54b1 a6be 32d3 cfbd
000000f0: 9c82 c73d a8c1 6abe f58f 053e 8ffc 14be
00000100: cff6 103c 7081 c1bd 1ec1 183e 79db 063e
00000110: a211 743c 21b2 1ebe 183e 98be 9798 243d
00000120: 2605 90be 4d80 b63d 8a74 793e c208 383c
00000130: e7d3 54bd 2cb0 0dbc 5819 333e c72b afbe
00000140: 71d7 19be b008 21bd bd03 5f3e 84bf f8bd
00000150: eb0d 12be e0ae 0bbe 9f7c c23c f1ac 88be
00000160: 6b28 c23a 3057 223e 1518 01be b02b 693e
00000170: d528 2cbe 4c98 003c 76be 93bd 48f3 08be
00000180: e285 6fbe 4070 4fbe 84c4 8dbe 5652 6f3e
00000190: abc5 8cbc 60cd 2abe ddd9 d83d b9e4 c73c
000001a0: c928 21be 065d 163e f82a 08be 38ee 78be
000001b0: 8165 633e 0439 253e 1cd3 fbbd ef86 183e
000001c0: fd37 48be dd55 8dbe 87bd 1ebe b313 193e
000001d0: d2f3 213e 3b41 b8bd e2fa 6fbd eef4 f83c
000001e0: 2b0c 833e b223 21be 24b1 6e3e 2af2 d9bc
000001f0: 1c6f 143e b792 10be cf86 38bd 25b7 763e
00000200: 8dc0 83be 0488 503e c31a 6d3e 3857 773e
00000210: 9d28 23be 0dea a13d 70f4 013d e857 443b
00000220: 1267 713e 8b60 99be a85e 1f3e 6d7e 353e
00000230: 1f17 463e 5a94 913d 4823 62be 0dba d63d
00000240: 9a8b b3bd 6986 0abe 7f76 1bbe 0c5f 8fbe
00000250: f262 5e3c 8139 883e dba3 323e 1e83 88be
00000260: b6d8 7e3b 816f de3d 0639 473d 14dc 433d
00000270: d1a1 75be 8be1 83be 0665 833d 1ec4 6d3e
00000280: 7125 3fbe 805c 583e a481 5c3e d939 e53d
00000290: 2f98 c23d afae 063e 9e78 403d a86f 09be
000002a0: a40a 34be 15b5 7fbe e479 b7bd 057e e63c
000002b0: f978 febc 0583 bfbd 21c0 913e 46cb 9fbd
000002c0: a185 8bbe e195 613e f348 5b3d 93b2 663e
000002d0: 2d58 c3bd 32c6 763e dc05 443c fb0d 1bbe
000002e0: 6b3d 533d fd66 20bc cd95 1cbe fc9f e7bd
000002f0: 71c5 263e 61b7 3c3e 8dd9 24be ca59 67be
00000300: 4947 8e3d c8d9 953e 8bbe c4bd 3060 ccbd

layers.0.lin.bias f4 [14]
0.022453776 0.20524925 -0.1683811 0.015918225 0.13673238 0.058287926 0.20436607 -0.3002365
0.07226758 -0.0074357586 -0.11881661 -0.03389565 -0.122176096 0.18821067
00000000: fbf0 b73c dc2c 523e 186c 2cbe f066 823c
00000010: 9303 0c3e 52bf 6e3d 5745 513e 99b8 99be
00000020: 0601 943d aaa7 f3bb 1f56 f3bd 2ad6 0abd
00000030: 7637 fabd 4cba 403e

layers.0.lin_l.weight f4 [128, 14]
-0.1830502 0.07749883 -0.060336113 0.1514995 0.23651664 0.1834568 0.17279169 -0.3014611
0.08023363 -0.1312137 0.09330988 0.085169375 -0.22152172 -0.18855152 -0.08112072 -0.16367342
-0.032076865 -0.060480297 0.20298223 0.16432479 -0.078104325 -0.071596 0.12413867 -0.031968325
0.10314912 0.043485135 -0.1409394 0.26092795 -0.18189378 -0.14011006 0.039471146 0.08292843
0.07082647 0.07390223 -0.25353947 -0.18266156 0.21696062 -0.22051635 -0.086424164 0.15029727
0.23692279 0.21068898 -0.11965877 0.082029454 0.12770759 -0.22388516 -0.16126469 0.031190794
0.24251838 -0.1298674 0.09572999 0.14742288 0.10361457 0.093654424 -0.093489185 0.12486183
-0.2025195 0.00902888 0.081556745 -0.0004918902 0.25700817 -0.14797789 -0.1256671 0.35986054
-0.040278357 0.08650626 0.04916129 0.26959834 0.03954421 -0.011949337 -0.12177979 -0.08537596
-0.20454124 0.07290862 -0.032855026 -0.20700611 -0.05005824 -0.11242127 0.062101908 -0.15942459
0.27086273 -0.25525507 0.27183688 -0.005149526 0.07509267 0.091479935 -0.27571842 -0.20380053
0.021834662 -0.22470012 -0.037278835 -0.21688136 -0.21573566 0.08255443 -0.20697844 -0.15228751
0.19583617 0.15962434 -0.14853379 -0.2656473 0.1408596 0.23980063 -0.1437145 0.19630592
-0.13257128 0.2039828 0.110417545 -0.22236015 0.04816292 -0.16143146 -0.1368765 0.03783895
-0.22317265 0.07988531 0.1393602 -0.0015276708 0.10535361 -0.20962495 -0.019813647 -0.07377645
0.009113167 -0.0655372 -0.15413561 -0.088100746 -0.34394294 -0.11246884 -0.16957729 0.22845174
-0.21551897 -0.053435724 -0.10948359 -0.29837796 0.11891738 -0.34481126 0.08545781 -0.14262287
0.09371601 0.13891868 0.21305627 0.20797455 -0.061462607 -0.21724781 -0.10379076 -0.2020231
0.07969024 -0.28274855 0.03265416 0.20128891 -0.022013556 0.051166378 0.31545085 -0.122889556
-0.18195748 0.16009091 0.18782441 0.010576789 -0.21712627 0.10151628 0.043318223 -0.21246406
-0.18099807 0.047467556 0.12334322 0.0099349925 0.2756786 0.21466255 0.09940868 -0.10443905
-0.093620926 -0.056060314 0.030889664 -0.11375222 -0.23066509 -0.056378122 -0.18185377 0.1463599
-0.118294716 -0.044511266 0.13436972 0.08443477 -0.07867917 0.1646789 -0.13360424 0.13611066
0.09400397 -0.2299796 0.17753585 -0.12735465 0.021111485 -0.13763659 -0.18911451 0.20762362
0.17678116 0.07993484 -0.1297657 0.26394254 -0.08851623 -0.124824256 -0.08720507 0.058548138
-0.076032266 -0.013455687 -0.28442043 -0.025966411 -0.24418329 -0.17695816 -0.21901731 -0.20090577
0.12539859 -0.030659636 -0.15260029 0.27016896 0.066155225 -0.19978675 -0.18560633 0.052661195
-0.19840631 0.11311189 -0.20568456 -0.20779406 0.18725024 0.018109787 0.10009818 -0.08488577
-0.16225566 0.2216865 -0.035587557 0.19051406 0.007980992 -0.06708451 0.063910134 -0.22569723
0.05969598 0.10022434 -0.047663733 -0.11687138 0.22002877 -0.008980591 0.059082028 -0.17895958
0.12061195 0.2044214 0.042044703 0.21437202 0.07930708 0.23278452 -0.19177887 -0.10043248
-0.023987573 -0.14013721 0.122812025 -0.16419312 0.038899545 0.13041702 -0.1818104 0.22712384
00000000: 8371 3bbe b5b7 9e3d 0023 77bd af22 1b3e
00000010: 6b31 723e 19dc 3b3e 4ef0 303e 1c59 9abe
00000020: 8851 a43d e25c 06be 4019 bf3d 486d ae3d
00000030: 97d6 62be a613 41be 9f22 a6bd 019a 27be
00000040: 0863 03bd 30ba 77bd 93da 4f3e c244 283e
00000050: 29f5 9fbd eca0 92bd 6a3c fe3d 38f1 02bd
00000060: d93f d33d 781d 323d 6b52 10be 5998 853e
00000070: 5d42 3abe 0379 0fbe 7fac 213d 61d6 a93d
00000080: 780d 913d 0d5a 973d edcf 81be a20b 3bbe
00000090: ed2a 5e3e 0acf 61be 27ff b0bd 87e7 193e
000000a0: e39b 723e dabe 573e a80f f5bd 0fff a73d
000000b0: c7c5 023e 2742 65be 9222 25be d683 ff3c
000000c0: bd56 783e f6fb 04be 160e c43d 06f6 163e
000000d0: e033 d43d e4cd bf3d 4277 bfbd 8fb7 ff3d
000000e0: 4661 4fbe deed 133c 3907 a73d 31f2 00ba
000000f0: 9396 833e 8487 17be e0ae 00be a43f b83e
00000100: ebfa 24bd 322a b13d 595d 493d cb08 8a3e
00000110: 1cf9 213d 27c7 43bc af67 f9bd 97d9 aebd
00000120: 4273 51be 1d51 953d fe92 06bd 69f9 53be
00000130: de09 4dbd 1f3d e6bd 925e 7e3d 3340 23be
00000140: 85ae 8a3e cbb0 82be 342e 8b3e 5bbd a8bb
00000150: 30ca 993d d559 bb3d f72a 8dbe 16b1 50be
00000160: 9bde b23c ca17 66be b1b1 18bd 2616 5ebe
00000170: cfe9 5cbe 4c12 a93d 28f2 53be 42f1 1bbe
00000180: 4789 483e 9074 233e 3e19 18be ec02 88be
00000190: 803d 103e 4c8e 753e e529 13be 6b04 493e
000001a0: c4c0 07be dee0 503e 9822 e23d 61b2 63be
000001b0: 7b46 453d 4a4e 25be 5a29 0cbe 04fd 1a3d
000001c0: 5f87 64be e99a a33d 71b4 0e3e 203c c8ba
000001d0: a2c3 d73d eca7 56be 3b50 a2bc 1b18 97bd
000001e0: 654f 153c 5e38 86bd bad5 1dbe 2a6e b4bd
000001f0: 4a19 b0be 1056 e6bd aba5 2dbe 41ef 693e
00000200: 01b1 5cbe 6bdf 5abd ef38 e0bd ffc4 98be
00000210: f58a f33d 1a8b b0be 8104 af3d bb0b 12be
00000220: 2eee bf3d b340 0e3e 6c2b 5a3e 48f7 543e
00000230: 37c0 7bbd 3676 5ebe 4090 d4bd 25df 4ebe
00000240: a334 a33d 6bc4 90be 5ec0 053d ae1e 4e3e
00000250: c655 b4bc d693 513d c682 a13e 85ad fbbd
00000260: 1053 3abe dfee 233e 0b55 403e 454a 2d3c
00000270: 5956 5ebe c4e7 cf3d 736e 313d 2e90 59be
00000280: 8f57 39be 576d 423d 5f9b fc3d 61c6 223c
00000290: bf25 8d3e 80d0 5b3e c796 cb3d 24e4 d5bd
000002a0: 54bc bfbd 809f 65bd 520c fd3c edf6 e8bd
000002b0: 7833 6cbe bfec 66bd e037 3abe 5fdf 153e
000002c0: 8044 f2bd 7251 36bd 3798 093e 23ec ac3d
000002d0: 8b22 a1bd 96a1 283e 8dcf 08be 9860 0b3e
000002e0: 2785 c03d c67f 6bbe f5cb 353e 4269 02be
000002f0: fef1 ac3c 9bf0 0cbe 3ca7 41be 499b 543e
00000300: 1f06 353e e1b4 a33d 4de1 04be 7a23 873e
00000310: ff47 b5bd dca3 ffbd 9298 b2bd 2cd0 6f3d
00000320: ceb6 9bbd 3e75 5cbc 8e9f 91be 83b7 d4bc
00000330: 2f0b 7abe 8534 35be 1346 60be 3eba 4dbe
00000340: 7d68 003e eb29 fbbc 4043 1cbe 9653 8a3e
00000350: 647c 873d e694 4cbe 960f 3ebe 44b3 573d
00000360: 062b 4bbe 35a7 e73d f99e 52be f7c7 54be
00000370: 87be 3f3e fa5a 943c 4600 cd3d 97d8 adbd
00000380: 5926 26be c901 633e 42c4 11bd 1e16 433e
00000390: b5c2 023c 9b63 89bd 51e3 823d 2d1d 67be
000003a0: c683 743d 6b42 cd3d 0c3b 43bd 435a efbd
000003b0: 394f 613e 5423 13bc ffff 713d 2e41 37be
000003c0: 6603 f73d d853 513e 1137 2c3d 5784 5b3e
000003d0: c06b a23d 115f 6e3e ae61 44be 8baf cdbd
000003e0: 9681 c4bc 2180 0fbe df84 fb3d 3e22 28be
000003f0: 2155 1f3d 0a8c 053e 812c 3abe 2793 683e

layers.0.lin_l.bias f4 [128]
0.10575058 0.069091775 -0.03333418 -0.14086568 0.1288476 0.24238214 0.18387333 -0.21540698
-0.23524214 -0.16043909 0.07011047 0.023494197 0.03920769 0.17514998 0.2017022 0.12512192
0.1660391 -0.08677068 -0.015309262 -0.011147006 -0.15342744 -0.06498745 -0.23377039 0.21256828
0.20494911 0.06506841 -0.15971857 -0.028536621 0.047841866 0.24664696 0.15496987 0.094472796
0.08931508 -0.05452835 -0.19419529 -0.22034985 -0.089463405 0.008324933 -0.04016981 0.24164256
0.27537856 -0.16749562 0.18387738 -0.09147065 0.14651696 -0.27792132 -0.08425638 0.11670197
-0.04497641 -0.13076894 0.16323371 -0.18350337 -0.14281222 -0.03933409 0.110892415 -0.12458029
0.13908525 -0.23930833 0.25541922 -0.16665451 0.040389825 -0.21164599 -0.180758 0.1982649
0.0583384 -0.16116887 -0.19131716 -0.012681298 0.12041763 0.17588727 0.027647283 0.042061303
-0.13077007 0.18366528 -0.01057523 -0.21493492 -0.15799093 -0.040945522 -0.13579227 -0.05360183
0.23891874 0.07669224 -0.14363022 0.10858476 0.23269536 0.024807284 -0.026310362 0.09755538
-0.058215585 0.028078893 0.059694678 0.15607639 0.11139745 -0.010877015 -0.0035339666 0.1891359
0.17939048 0.035429712 0.22761357 0.09634535 -0.020066956 0.15069418 -0.16709481 0.21865797
-0.07371593 0.07156104 0.076783985 -0.23577215 -0.1394256 0.12861668 -0.29121843 -0.11096277
0.15941328 0.07716078 0.20068245 -0.27516946 0.09503596 -0.05653503 0.08317503 0.09414041
0.12112195 -0.25027823 -0.08305446 0.22220336 0.09082592 -0.16942587 0.17857306 0.2063575
00000000: c393 d83d fd7f 8d3d 6c89 08bd 183f 10be
00000010: a0f0 033e 0633 783e 4a49 3c3e a693 5cbe
00000020: 51e3 70be 254a 24be 1496 8f3d e776 c03c
00000030: 3e98 203d 845a 333e 068b 4e3e f61f 003e
00000040: 2706 2a3e d4b4 b1bd b3d3 7abc efa1 36bc
00000050: 151c 1dbe 2418 85bd 8161 6fbe 80ab 593e
00000060: 2ede 513e 9642 853d 448d 23be a2c5 e9bc
00000070: d5f5 433d 0591 7c3e 6cb0 1e3e f47a c13d
00000080: d3ea b63d 1e59 5fbd 21db 46be 64a3 61be
00000090: 9738 b7bd 4d65 083c 1989 24bd 2671 773e
000000a0: 6bfe 8c3e f983 2bbe 5a4a 3c3e f754 bbbd
000000b0: 8b08 163e b44b 8ebe 9c8e acbd 7101 ef3d
000000c0: 2f39 38bd 4be8 05be bd26 273e 4fe8 3bbe
000000d0: 5e3d 12be c81c 21bd 901b e33d f323 ffbd
000000e0: 5d6c 0e3e 3e0d 75be 4fc6 823e 7ba7 2abe
000000f0: cd6f 253d bab9 58be a018 39be f405 4b3e
00000100: 3ff4 6e3d 7409 25be a5e8 43be 38c5 4fbc
00000110: 859d f63d cb1b 343e 8e7c e23c 7948 2c3d
00000120: 97e8 05be c012 3c3e bb43 2dbc e617 5cbe
00000130: 60c8 21be 7eb6 27bd 210d 0bbe 988d 5bbd
00000140: 1da7 743e d210 9d3d cd13 13be b061 de3d
00000150: b147 6e3e a538 cb3c d488 d7bc 1dcb c73d
00000160: 7773 6ebd b505 e63c 6882 743d 7dd2 1f3e
00000170: 5924 e43d 8235 32bc 1f9a 67bb d7ac 413e
00000180: 23b2 373e bf1e 113d 8813 693e b650 c53d
00000190: 7563 a4bc 934f 1a3e e71a 2bbe e0e7 5f3e
000001a0: 61f8 96bd 988e 923d ec40 9d3d 416e 71be
000001b0: 96c5 0ebe 17b4 033e 951a 95be 7340 e3bd
000001c0: 3c3d 233e 7906 9e3d b37f 4d3e 03e3 8cbe
000001d0: 37a2 c23d 4791 67bd ac57 aa3d b0cc c03d
000001e0: c90e f83d 7824 80be 7518 aabd 4789 633e
000001f0: f102 ba3d fa7d 2dbe dbdb 363e 614f 533e

layers.0.lin_r.weight f4 [128, 14]
-0.11138563 0.028587146 -0.2521192 -0.11294265 -0.0886806 -0.033250723 -0.049401652 0.18705638
0.22719379 0.02913964 0.23538856 0.040298518 0.024491249 -0.092663065 0.09056037 0.22305246
-0.24445228 -0.022471696 -0.13044338 0.103345126 -0.13033065 0.20886418 -0.03638356 -0.04330888
0.13614462 0.061707787 0.02649753 0.06790404 -0.09873764 -0.13475744 0.14404155 -0.022254128
0.1314811 0.15433428 -0.1719344 0.06740654 -0.10818403 0.0803975 0.14602591 0.14194728
-0.12163113 -0.028447472 -0.10641082 0.31368533 0.04154485 0.0043623853 -0.2450079 0.059369706
0.27024955 0.02443993 0.082696125 -0.19580908 0.07574969 0.09910627 -0.1126693 -0.058592286
0.020217614 -0.29812846 0.036915768 0.0032466496 0.28819132 -0.074196346 0.2130114 -0.08921582
-0.10765899 0.07162814 0.12754706 -0.21059495 -0.10825852 -0.016686369 0.28918156 0.18558083
-0.16797048 -0.081118606 0.28679714 -0.071370944 0.041662958 -0.2961337 0.022437755 0.08451096
0.21825989 -0.30270678 -0.14753318 -0.19929825 0.1089837 -0.08382401 -0.3462864 0.05066846
0.16029912 -0.25795257 0.18624733 0.29949403 0.16768195 0.12606809 -0.064109325 0.2540867
-0.1412495 0.2092547 0.013160715 0.09042596 0.15471248 0.17729977 0.16370653 -0.22813216
0.0746286 -0.23384385 0.08908422 -0.14165454 -0.11476086 0.017851276 0.11395411 -0.19746429
-0.2806395 0.19512248 0.08507582 0.21899901 0.13156073 0.11491381 -0.2695583 -0.013501137
0.29549283 -0.016265826 -0.07262785 0.093947634 -0.17545862 -0.18632731 -0.10465593 0.15281995
-0.2871885 0.12596293 -0.09948352 -0.1829204 -0.20740579 0.006213997 0.1853103 -0.048396632
-0.1885665 -0.14827463 0.30071038 -0.12247182 0.032293588 0.028022548 -0.20234002 -0.1116131
0.1506904 -0.15056126 0.035787344 0.34656996 0.09222993 0.15168145 0.1937893 -0.07465649
0.14078248 0.16509049 -0.17677532 0.07594127 -0.11209104 -0.5007318 -0.16536471 0.017512184
-0.22307076 0.11606989 -0.041739658 0.067287385 -0.26574564 0.11483986 -0.001281105 0.1580206
0.000835916 -0.13608977 0.34739062 0.22656773 -0.24704026 -0.14003912 -0.053217378 -0.12600473
0.04231816 -0.27719954 0.2660641 -0.18474407 -0.21226215 -0.012476181 -0.029030774 0.19776987
-0.28731582 0.150525 -0.29556233 0.2327773 0.32980508 0.1731187 0.033984903 -0.19510654
0.1840958 0.07176131 -0.23520082 0.1880312 -0.17082961 0.12685587 0.091681115 -0.22465532
-0.18027613 -0.08821042 0.13482541 -0.067778856 -0.31546217 -0.24281187 0.34311107 -0.28281116
-0.052188776 0.069157526 0.14517763 0.22748843 0.19500087 0.27080202 -0.19556615 0.073090985
0.0956121 -0.20670967 0.16917823 0.07023454 0.105998345 0.25611955 -0.033259854 -0.1313491
0.11677514 0.16079308 -0.24664047 0.15058948 -0.07440351 0.09419725 0.23948453 0.32472032
-0.031016717 -0.040079698 0.1102644 -0.021843089 0.14088032 0.06919503 -0.15008996 -0.13379873
-0.18101123 0.14380985 0.17973097 -0.15157634 0.17781392 0.32683283 0.1682455 0.011821969
-0.08920335 0.4211805 0.15104024 -0.14029787 0.09207406 -0.18377785 -0.20379755 0.18458928
00000000: 261e e4bd 972f ea3c c515 81be 7a4e e7bd
00000010: 2d9e b5bd e931 08bd 6359 4abd b58b 3f3e
00000020: 7da5 683e 41b6 ee3c b309 713e 0f10 253d
00000030: dfa1 c83c 22c6 bdbd b777 b93d dd67 643e
00000040: b351 7abe 9016 b8bc f392 05be 9ca6 d33d
00000050: 6675 05be 7ee0 553e ee06 15bd a764 31bd
00000060: 7f69 0b3e 4ec1 7c3d 5911 d93c 4611 8b3d
00000070: f636 cabd dbfd 09be a17f 133e 4a4e b6bc
00000080: fba2 063e ce09 1e3e 920f 30be 710c 8a3d
00000090: 978f ddbd 72a7 a43d d187 153e a15a 113e
000000a0: be19 f9bd ac0a e9bc eaed d9bd 5d9b a03e
000000b0: ef2a 2a3d 57f2 8e3b 5ae3 7abe a62d 733d
000000c0: 265e 8a3e 4036 c83c 965c a93d 2d82 48be
000000d0: a722 9b3d 3af8 ca3d 29bf e6bd 77fe 6fbd
000000e0: 699f a53c 4ba4 98be fd34 173d bec5 543b
000000f0: d08d 933e 41f4 97bd a91f 5a3e c9b6 b6bd
00000100: 517c dcbd c6b1 923d b29b 023e 34a6 57be
00000110: a5b6 ddbd dab1 88bc 9b0f 943e e708 3e3e
00000120: 7400 2cbe 8321 a6bd 13d7 923e ee2a 92bd
00000130: c7a6 2a3d d69e 97be 62cf b73c 1514 ad3d
00000140: 857f 5f3e 62fc 9abe f012 17be d714 4cbe
00000150: d932 df3d ecab abbd 734c b1be bb89 4f3d
00000160: 7425 243e 5c12 84be 9fb7 3e3e 4857 993e
00000170: d1b4 2b3e fe17 013e c04b 83bd a717 823e
00000180: b5a3 10be dd46 563e 0aa0 573c 3f31 b93d
00000190: f36c 1e3e 128e 353e afa2 273e 7a9b 69be
000001a0: e1d6 983d c374 6fbe ca71 b63d e30d 11be
000001b0: be07 ebbd d73c 923c c660 e93d 1434 4abe
000001c0: fbaf 8fbe 30ce 473e 3b3c ae3d 4741 603e
000001d0: dbb7 063e ee57 eb3d 8c03 8abe df33 5dbc
000001e0: d64a 973e e93f 85bc e9bd 94bd 9e67 c03d
000001f0: 6dab 33be 96cc 3ebe d955 d6bd d57c 1c3e
00000200: 5f0a 93be 6dfc 003e 04be cbbd 7c4f 3bbe
00000210: 2f62 54be c99e cb3b fcc1 3d3e 8c3b 46bd
00000220: 9417 41be 4ed5 17be b6f6 993e 81d2 fabd
00000230: 4846 043d 8b8f e53c 3932 4fbe 6995 e4bd
00000240: 964e 1a3e bb2c 1abe c095 123d 9e71 b13e
00000250: 0ce3 bc3d 6252 1b3e b470 463e 80e5 98bd
00000260: 4829 103e 7b0d 293e 9704 35be 1987 9b3d
00000270: fd8f e5bd f62f 00bf 5e55 29be b675 8f3c
00000280: a96c 64be 0db6 ed3d 34f7 2abd f8cd 893d
00000290: d00f 88be 2931 eb3d c0ea a7ba 27d0 213e
000002a0: 6021 5b3a 1e5b 0bbe 2fdd b13e 5f01 683e
000002b0: 1ff8 7cbe 6a66 0fbe 77fa 59bd 6207 01be
000002c0: cf55 2d3d 19ed 8dbe 8e39 883e 8d2d 3dbe
000002d0: 405b 59be e568 4cbc f2d1 edbc 2f84 4a3e
000002e0: 0f1b 93be 3a23 1a3e f253 97be 2c5d 6e3e
000002f0: 36dc a83e 0746 313e c133 0b3d 02ca 47be
00000300: 9c83 3c3e 98f7 923d 7cd8 70be 408b 403e
00000310: f5ed 2ebe 81e6 013e 4fc3 bb3d 0b0c 66be
00000320: 4e9a 38be aaa7 b4bd ac0f 0a3e a4cf 8abd
00000330: 4284 a1be ada3 78be 41ac af3e a0cc 90be
00000340: e6c3 55bd 76a2 8d3d 72a9 143e baf2 683e
00000350: 4fae 473e 90a6 8a3e 7e42 48be bab0 953d
00000360: 47d0 c33d b3ab 53be 0f3d 2d3e 20d7 8f3d
00000370: a915 d93d 1a22 833e 7c3b 08bd 6180 06be
00000380: ce27 ef3d f1a6 243e 528f 7cbe 2134 1a3e
00000390: de60 98bd 7dea c03d 6f3b 753e be41 a63e
000003a0: c516 febc 9c2a 24bd 4dd2 e13d 47f0 b2bc
000003b0: ee42 103e 20b6 8d3d 2fb1 19be 8902 09be
000003c0: 025b 39be e442 133e 650b 383e d436 1bbe
000003d0: da14 363e a256 a73e 8c48 2c3e efb0 413c
000003e0: 3fb0 b6bd f8a4 d73e 4baa 1a3e 3faa 0fbe
000003f0: 5391 bc3d 4330 3cbe 4eb0 50be f904 3d3e

layers.1.lin.weight f4 [128, 128]
-0.03297144 0.024120891 -0.066191964 0.124449156 0.07495331 -0.12227108 0.11616363 0.00019358467
0.10418732 -0.12910524 0.040692247 -0.0656768 0.07342685 0.09219102 0.05154366 0.045661006
0.0058321236 0.10794607 -0.06658485 -0.033557136 0.098429576 -0.010372538 0.06683222 -0.03430309
-0.05739974 -0.0006708391 0.041322067 0.08068354 -0.091027156 0.09464599 0.05547807 -0.046156466
-0.07546406 0.100604765 0.07445192 -0.1064383 -0.02815921 -0.1445434 0.075082794 0.031707756
0.0007132843 -0.0677817 0.014811508 0.084709704 0.06688846 0.035030544 0.07126937 -0.09353032
-0.029948425 -0.14362933 -0.00084499293 0.04768234 -0.025854554 -0.07483112 -0.023930687 -0.02792825
-0.0014157247 -0.13236614 0.042138353 -0.048888173 0.013527126 -0.042760387 -0.014563852 -0.1267568
0.012563325 -0.11581121 0.08183143 -0.034690946 -0.039578464 -0.034085214 -0.12928814 -0.106030256
0.0027730833 0.051664714 0.04797238 0.070447475 0.031091241 0.053962853 -0.03942079 -0.13249485
-0.054292306 -0.072354026 0.0077685113 0.119212076 -0.07733176 -0.081762895 -0.09484869 0.06149933
0.052518114 0.05671353 -0.051619295 -0.07521324 0.012783129 0.036662072 0.024027338 -0.024691267
-0.008113605 -0.1637857 -0.08580122 0.011300021 -0.040646743 -0.11598585 0.061563004 0.012800243
-0.07559875 0.042827286 -0.13135381 -0.052134447 0.069996215 -0.12147929 0.0020848322 -0.0072395215
-0.056309525 0.047619335 0.0062653427 0.017148428 -0.07495447 0.017601212 -0.0606885 -0.024111927
0.110779576 0.046685517 -0.1876948 -0.007842714 0.091352634 -0.057501704 -0.08876083 0.052594632
-0.05311181 -0.08985634 -0.06583217 0.0064375466 -0.115061164 0.11845885 -0.034361605 -0.12784664
-0.10284428 -0.11957943 -0.10862387 0.011366092 -0.10135516 0.02251574 0.10366151 0.042397942
-0.082151555 -0.01933518 -0.03356337 -0.10600739 -0.05554661 -0.060482368 -0.063675046 -0.079580374
-0.018594947 0.008254256 0.055596206 -0.016366888 -0.06276889 -0.031872418 -0.027894976 0.079487085
-0.002984427 -0.014008024 0.053833634 -0.106513634 -0.06924247 -0.112892754 0.115791455 -0.08545624
-0.0931758 -0.0529126 -0.008313053 -0.03572164 0.05236789 0.015667355 -0.09493223 -0.12727514
0.04589553 0.01940137 0.028613025 0.018792277 0.057028983 0.024403974 -0.06691741 -0.02928216
-0.06149867 -0.012730128 0.048852112 0.034148607 -0.015814384 -0.036903698 -0.097321 0.0034308527
0.04184977 -0.033128653 -0.010375724 -0.028854141 0.022906864 0.015018989 -0.039163273 -0.014409578
0.006111336 0.015173898 -0.10741272 -0.0775834 -0.030909527 0.021246426 -0.14488906 -0.026984615
0.024186477 0.06567606 0.08194686 0.027921427 -0.045480497 -0.06308453 -0.11199033 0.056816075
-0.030401193 0.052619506 -0.054636985 0.03598428 0.04867309 0.05785912 -0.08410006 0.05042923
-0.0233951 0.06537616 -0.04504935 0.06664896 -0.044923905 -0.0834658 0.02103231 -0.10761745
0.02651698 0.042660136 -0.031304818 -0.07135856 0.022560852 -0.021012058 -0.025253857 0.038707063
-0.0071879495 0.0019996003 -0.016193567 -0.016473105 0.08331362 0.0074844193 0.058176942 0.027300265
0.03424687 0.013958234 -0.08433347 -0.12213089 -0.0936757 0.0115562165 -0.08052651 0.05685011
00000000: 100d 07bd 2d99 c53c a78f 87bd 33df fe3d
00000010: 1f81 993d 4369 fabd 32e7 ed3d fdfc 4a39
00000020: 2960 d53d 2a34 04be eaac 263d 8f81 86bd
00000030: d160 963d a5ce bc3d 721f 533d 0907 3b3d
00000040: 661b bf3b d412 dd3d a35d 88bd 3573 09bd
00000050: 7295 c93d 94f1 29bc 55df 883d 6681 0cbd
00000060: fd1b 6bbd 40db 2fba 5441 293d 693d a53d
00000070: 726c babd c2d5 c13d f93c 633d 900e 3dbd
00000080: e78c 9abd df09 ce3d 407a 983d 53fc d9bd
00000090: 25ae e6bc 2f03 14be 02c5 993d fedf 013d
000000a0: b3fb 3a3a 22d1 8abd f8ab 723c 487c ad3d
000000b0: d1fc 883d 307c 0f3d adf5 913d d38c bfbd
000000c0: 6656 f5bc 9113 13be 8482 5dba 8f4e 433d
000000d0: eecc d3bc 0f41 99bd 4a0a c4bc c9c9 e4bc
000000e0: d78f b9ba fd8a 07be 4499 2c3d f73e 48bd
000000f0: e1a0 5d3c 8425 2fbd 399d 6ebc 89cc 01be
00000100: 68d6 4d3c 6d2e edbd 3d97 a73d 1818 0ebd
00000110: 071d 22bd f09c 0bbd 1c64 04be 6426 d9bd
00000120: 9ebc 353b 619e 533d b07e 443d c446 903d
00000130: 0fb3 fe3c 2708 5d3d b277 21bd bbac 07be
00000140: 9c61 5ebd 592e 94bd ff8e fe3b 7625 f43d
00000150: 1d60 9ebd 4e73 a7bd 0840 c2bd b9e6 7b3d
00000160: 3c1d 573d 724c 683d c16e 53bd 6609 9abd
00000170: 5470 513c f82a 163d fbd4 c43c 5745 cabc
00000180: edee 04bc 70b7 27be 8db8 afbd b923 393c
00000190: 337d 26bd fd89 edbd 7d29 7c3d 1cb8 513c
000001a0: 84d3 9abd aa6b 2f3d 9d81 06be ee8a 55bd
000001b0: 2d5a 8f3d 22ca f8bd aea1 083b 8239 edbb
000001c0: d1a4 66bd 7e0c 433d 814d cd3b dc7a 8c3c
000001d0: bb81 99bd 6b30 903c 8194 78bd 6086 c5bc
000001e0: 67e0 e23d 5039 3f3d 1133 40be ba7e 00bc
000001f0: 1717 bb3d e886 6bbd 3dc8 b5bd 786d 573d
00000200: c58b 59bd 9a06 b8bd 04d3 86bd 0ef2 d23b
00000210: 30a5 ebbd 8e9a f23d c1be 0cbd 3bea 02be
00000220: 06a0 d2bd 0fe6 f4bd 3176 debd d838 3a3c
00000230: 4b93 cfbd ee72 b83c 7c4c d43d 77a9 2d3d
00000240: 133f a8bd d064 9ebc bf79 09bd 671a d9bd
00000250: d884 63bd 5cbc 77bd 1068 82bd 09fb a2bd
00000260: 6e54 98bc dc3c 073c d9b8 633d da13 86bc
00000270: fa8c 80bd a78c 02bd 0184 e4bc 20ca a23d
00000280: 6096 43bb e981 65bc a880 5c3d d223 dabd
00000290: ffce 8dbd 5134 e7bd 1224 ed3d ae03 afbd
000002a0: f4d2 bebd e2ba 58bd 7933 08bc db50 12bd
000002b0: b67f 563d d358 803c d46b c2bd 6a54 02be
000002c0: f4fc 3b3d 9fef 9e3c dd65 ea3c 43f2 993c
000002d0: 3997 693d d8ea c73c ff0b 89bd 24e1 efbc
000002e0: 08e6 7bbd 0792 50bc 2719 483d 69df 0b3d
000002f0: 2b8d 81bc 5528 17bd 3c50 c7bd 28d8 603b
00000300: aa6a 2b3d e9b1 07bd f1fe 29bc 855f ecbc
00000310: 2da7 bb3c 3512 763c ab69 20bd 2716 6cbc
00000320: 9a41 c83b f19b 783c 33fb dbbd 0ce4 9ebd
00000330: fa35 fdbc fc0c ae3c cc5d 14be d70e ddbc
00000340: b822 c63c 2c81 863d c1d3 a73d 7abb e43c
00000350: c249 3abd 7632 81bd 305b e5bd f9b7 683d
00000360: ec0b f9bc 8d87 573d 08cb 5fbd 4164 133d
00000370: 6f5d 473d affd 6c3d a73c acbd e18e 4e3d
00000380: 15a7 bfbc f0e3 853d ab85 38bd 407f 883d
00000390: 2102 38bd 1ef0 aabd f34b ac3c 8a66 dcbd
000003a0: 233a d93c 65bc 2e3d 7b39 00bd 7024 92bd
000003b0: 89d1 b83c 7b21 acbc 2de1 cebc 4c8b 1e3d
000003c0: e488 ebbb ba0b 033b 5fa8 84bc 9bf2 86bc
000003d0: 55a0 aa3d dc3f f53b f24a 6e3d cea4 df3c
000003e0: 7246 0c3d 14b1 643c 07b7 acbd c31f fabd
000003f0: 0cd9 bfbd 4956 3d3c 15eb a4bd a9db 683d

layers.1.lin.bias f4 [128]
0.01578443 -0.052307293 0.044300422 0.052901827 0.06110792 0.03577168 0.004547278 0.03999355
-0.10424513 -0.094528265 -0.028676618 0.062340215 0.004950803 0.039628226 0.06549747 0.05854352
0.017652469 -0.09399262 0.112841554 -0.0389239 0.03187345 -0.03527424 0.0007169681 0.11661455
0.061542153 -0.0120807905 -0.10854453 0.027906325 0.06776054 -0.05540249 -0.06282338 0.009330322
0.023978604 -0.1070549 -0.073817514 0.05197753 -0.047700487 0.10940194 0.07210149 0.027246255
0.017399121 -0.06176129 0.053918183 0.05926799 -0.048484255 0.025231885 -0.047327954 0.054361735
0.047362573 -0.0025337408 0.09826534 -0.049289934 0.012649111 0.09083897 0.082029134 -0.039494317
-0.07614422 0.056960218 0.09052676 0.016950931 0.028493406 -0.046416163 0.03629957 0.071155384
0.0722877 0.08869179 -0.03396975 -0.057196185 0.080021255 0.0698962 0.02195005 0.028903324
0.013665652 -0.09369519 -0.089862615 0.09567205 -0.08295515 -0.05414552 -0.08078847 -0.09044603
-0.028284987 0.04698264 -0.0022262563 -0.0058425055 -0.0035254082 -0.0014222737 -0.04307466 -0.070852585
0.078706965 -0.05210129 0.08255155 -0.041458573 0.038407233 -0.053803876 0.03340794 -0.053123746
-0.013883174 0.08813704 -0.06356253 -0.048517518 0.037442368 0.044798862 -0.023128876 -0.026323577
0.0518371 0.08294399 0.009087832 -0.08999572 0.0036872525 -0.06350148 0.111452 0.012528013
0.028991556 -0.03813704 -0.016902745 -0.07022448 0.0074050203 0.08249079 -0.058315985 -0.09298176
0.046150267 -0.115701 0.0044307048 -0.022485135 -0.027827386 0.0034886324 -2.5099593e-05 -0.023118593
00000000: 594e 813c 2c40 56bd 5c74 353d 96af 583d
00000010: 4c4c 7a3d 5385 123d 5501 953b 47d0 233d
00000020: 797e d5bd 0998 c1bd 3aeb eabc 7458 7f3d
00000030: 583a a23b 3551 223d 8a23 863d 54cb 6f3d
00000040: e99b 903c 347f c0bd 7919 e73d ab6e 1fbd
00000050: bc8d 023d b97b 10bd eaf2 3b3a 9cd3 ee3d
00000060: a013 7c3d 82ee 45bc 984c debd ce9b e43c
00000070: 0ac6 8a3d b9ed 62bd 8ba9 80bd 35de 183c
00000080: c76e c43c 993f dbbd a32d 97bd 64e6 543d
00000090: 9661 43bd 200e e03d f2a9 933d 8a33 df3c
000000a0: 9a88 8e3c 68f9 7cbd 50d9 5c3d fec2 723d
000000b0: 6d97 46bd 19b3 ce3c f5da 41bd 69aa 5e3d
000000c0: 42ff 413d 1e0d 26bb 573f c93d 3ee4 49bd
000000d0: 383e 4f3c c809 ba3d e4fe a73d cbc4 21bd
000000e0: 80f1 9bbd 1e4f 693d 1866 b93d aedc 8a3c
000000f0: 016b e93c e01e 3ebd dcae 143d eab9 913d
00000100: 930b 943d 0ba4 b53d dd23 0bbd 8c46 6abd
00000110: 2fe2 a33d bd25 8f3d 97d0 b33c aac6 ec3c
00000120: e6e5 5f3c 44e3 bfbd e409 b8bd b5ef c33d
00000130: 64e4 a9bd b1c7 5dbd 6d74 a5bd c53b b9bd
00000140: ebb5 e7bc de70 403d 62e6 11bb 7d72 bfbb
00000150: 890a 67bb 966b baba 0e6f 30bd 291b 91bd
00000160: 1e31 a13d 2a68 55bd c910 a93d 77d0 29bd
00000170: e750 1d3d 7461 5cbd c4d6 083d 4998 59bd
00000180: 4176 63bc 3181 b43d 122d 82bd 4eba 46bd
00000190: 2b5d 193d 037f 373d c578 bdbc 8ba4 d7bc
000001a0: 2453 543d 8ade a93d 21e5 143c ad4f b8bd
000001b0: d5a5 713b 100d 82bd f240 e43d 4c42 4d3c
000001c0: b37f ed3c 9635 1cbd a077 8abc dad1 8fbd
000001d0: d0a5 f23b eef0 a83d bedc 6ebd 396d bebd
000001e0: 1008 3d3d a5f4 ecbd 722f 913b bf32 b8bc
000001f0: 42f6 e3bc 8aa1 643b f78c d2b7 3463 bdbc

layers.1.lin_l.weight f4 [128, 128]
0.08067432 -0.108783066 0.0605369 0.04433462 0.082557775 -0.0012372374 -0.027038224 0.06669868
-0.042960417 0.07425128 0.06824665 0.10550729 -0.021628773 -0.07812263 0.10355724 -0.023455499
-0.002154281 -0.06959116 0.19420896 0.14367267 0.014385362 0.04038742 0.009956624 0.06256916
-0.0070045413 0.03481832 -0.01601185 0.029955216 -0.053263143 0.06963522 0.0024127122 -0.01833388
-0.0045070727 -0.029252553 0.04727538 -0.006188388 0.052310754 0.024831071 0.031989764 -0.07595451
0.06973782 0.013768794 0.11714526 0.14549594 0.08099126 0.0217059 0.028382428 -0.08188251
0.04154771 0.0992705 0.014298924 -0.04685029 0.06143433 -0.019328965 -0.036515035 -0.038211223
0.09222488 -0.01870264 0.052697435 -0.028487382 0.033624124 0.014382121 0.034950543 0.01831736
0.08823148 0.061416328 0.00981393 0.052015655 -0.0344484 0.003229668 0.03884449 -0.010241282
0.048971422 -0.08029702 0.01966326 0.12833983 0.07569971 0.008685063 0.11123326 0.006737007
-0.104702696 -0.06569959 -0.005206752 0.021250337 -0.11445466 0.12286637 -0.01924927 0.05629053
0.13692725 -0.046197686 0.038353086 0.13007617 -0.026778297 0.1439987 -0.104411244 -0.014710327
0.030455755 0.088863224 -0.0048351525 0.082233004 -0.08517138 0.006433215 0.101939775 0.0592519
-0.017359508 0.004124427 0.03902103 0.051334105 0.024452837 0.13330603 0.1361952 0.1870077
0.018413851 0.003631841 0.027893612 -0.03321783 -0.09120248 0.12746617 -0.06431083 0.09276695
0.07499233 0.060996667 0.14216885 0.16793774 0.21812697 -0.095231876 0.08529311 0.073097005
0.059111975 -0.033043332 0.06755472 -0.0071697114 0.059740238 0.03718123 0.0029241045 0.053892277
0.06098798 0.11086105 -0.02284961 -0.01847685 -0.004650605 -0.051745094 0.072308145 -0.05408371
0.07711842 0.020938555 0.098212555 0.18231606 -0.013031113 0.08834483 -0.002004856 0.10190097
-0.012065877 -0.055073734 -0.016556453 0.069418915 0.0020769201 0.019305522 0.021969607 0.025265979
-0.02102843 -0.002758963 0.06941627 -0.08536269 0.061757885 0.021673726 -0.013545863 0.07692235
-0.04327042 -0.0019327473 0.05639283 -0.013680932 -0.028876262 0.042332504 -0.08703077 0.009779036
0.025626285 0.062283605 0.061255664 -0.07108174 -0.095058575 0.11005234 0.06662784 -0.014850626
-0.033815615 -0.061939195 -0.05369545 -0.068602115 0.028270816 0.0207471 -0.055721935 0.15304567
-0.011905736 -0.012741019 -0.020908842 0.016698997 0.04669917 -0.01871066 0.017952468 0.06381427
-0.014124377 0.045114066 -0.06503704 0.14164339 0.0067025097 -0.09115931 0.15002516 -0.0430434
-0.08661951 0.048170112 0.0056691966 0.022107253 0.034937333 0.099379204 0.067701675 -0.014150146
0.026805604 -0.059655644 0.09429553 -0.005925847 0.007809858 -0.005955582 -0.04907256 0.013354433
-0.079225406 0.043580033 0.053894967 0.052798647 -0.03729767 -0.00023084326 -0.0025444166 0.068161696
0.03790071 -0.054455638 0.08620599 -0.08583398 0.03056628 0.09675494 0.12081192 -0.013254212
0.04232777 0.07824557 0.022991022 -0.0027217926 -0.08178347 0.08991456 -0.021948641 0.013144556
0.086355686 0.08074104 0.10459477 -0.03086132 0.06652822 -0.07165434 0.098348714 0.08864146
00000000: 9438 a53d a8c9 debd 8af5 773d 3898 353d
00000010: 0d14 a93d cc2a a2ba 447f ddbc 5199 883d
00000020: 43f7 2fbd 0e11 983d e6c4 8b3d 3514 d83d
00000030: d32e b1bc c2fe 9fbd d115 d43d bf25 c0bc
00000040: d62e 0dbb cf85 8ebd b7de 463e ee1e 133e
00000050: 95b0 6b3c 486d 253d 1c21 233c 4224 803d
00000060: 5a86 e5bb a89d 0e3d 492b 83bc a464 f53c
00000070: 742a 5abd e99c 8e3d 981e 1e3b ef30 96bc
00000080: 11b0 93bb 0da3 efbc d4a3 413d f6c7 cabb
00000090: cd43 563d 886a cb3c b307 033d 0a8e 9bbd
000000a0: b4d2 8e3d 8296 613c dbe9 ef3d e3fc 143e
000000b0: bfde a53d 92d0 b13c 4482 e83c 04b2 a7bd
000000c0: ee2d 2a3d 554e cb3d 0946 6a3c 17e6 3fbd
000000d0: 90a2 7b3d c757 9ebc ca90 15bd 5f83 1cbd
000000e0: 66e0 bc3d 4736 99bc 44d9 573d 5f5e e9bc
000000f0: 73b9 093d fda2 6b3c 4d28 0f3d 4a0e 963c
00000100: b5b2 b43d b08f 7b3d 9bca 203c 5e0e 553d
00000110: c419 0dbd d6a8 533b 661b 1f3d 0dcb 27bc
00000120: 4296 483d c472 a4bd d814 a13c 846b 033e
00000130: 7308 9b3d cb4b 0e3c 43ce e33d 1cc2 dc3b
00000140: 5e6e d6bd 828d 86bd 679d aabb 3015 ae3c
00000150: 3467 eabd 5da1 fb3d a5b0 9dbc e690 663d
00000160: a836 0c3e c939 3dbd 2018 1d3d b032 053e
00000170: 295e dbbc 6574 133e 90d5 d5bd 9503 71bc
00000180: 597e f93c ecfd b53d 3370 9ebb c769 a83d
00000190: 556e aebd b8cd d23b cdc5 d03d 1fb2 723d
000001a0: 8735 8ebc 3426 873b 84d4 1f3d b643 523d
000001b0: 5151 c83c 6081 083e c176 0b3e f27e 3f3e
000001c0: a5d8 963c 2e04 6e3b 2581 e43c 6b0f 08bd
000001d0: 5ec8 babd 7e86 023e 65b5 83bd 99fc bd3d
000001e0: 9495 993d a4d7 793d b694 113e dff7 2b3e
000001f0: ad5c 5f3e ee08 c3bd 27ae ae3d e2b3 953d
00000200: 661f 723d 7258 07bd 215a 8a3d e6ef eabb
00000210: 2eb2 743d 584b 183d 55a2 3f3b 26be 5c3d
00000220: 88ce 793d 1e0b e33d 1b2f bbbc c35c 97bc
00000230: 1a64 98bb aaf2 53bd 4b16 943d e186 5dbd
00000240: 43f0 9d3d 5587 ab3c aa23 c93d 10b1 3a3e
00000250: 7380 55bc 22ee b43d e763 03bb 75b1 d03d
00000260: f5af 45bc ff94 61bd 66a1 87bc 812b 8e3d
00000270: f01c 083b 9d26 9e3c 9bf9 b33c 99fa ce3c
00000280: d043 acbc b8cf 34bb 1e2a 8e3d a2d2 aebd
00000290: d6f5 7c3d 198d b13c 78ef 5dbc 7789 9d3d
000002a0: 533c 31bd 3d54 fdba 2bfc 663d fd25 60bc
000002b0: e98d ecbc d964 2d3d 303d b2bd 4038 203c
000002c0: 37ee d13c 181d 7f3d 38e7 7a3d 4e93 91bd
000002d0: 12ae c2bd 1f63 e13d 2d74 883d 0a50 73bc
000002e0: 3e82 0abd f4b3 7dbd c3ef 5bbd 447f 8cbd
000002f0: 3398 e73c d2f5 a93c af3c 64bd 01b8 1c3e
00000300: 4710 43bc b5bf 50bc 0549 abbc 56cc 883c
00000310: a147 3f3d 1947 99bc 0e11 933c 0eb1 823d
00000320: ee69 67bc 87c9 383d 2432 85bd f70a 113e
00000330: baa0 db3b bbb1 babd 32a0 193e 474e 30bd
00000340: 9265 b1bd 064e 453d abc4 b93b 451a b53c
00000350: 731a 0f3d 5387 cb3d 2da7 8a3d 04d6 67bc
00000360: 6d97 db3c 7a59 74bd 041e c13d 9c2d c2bb
00000370: d6e9 ff3b 0b27 c3bb 4f00 49bd 8dcc 5a3c
00000380: ee40 a2bd fa80 323d f8c0 5c3d 6543 583d
00000390: 71c5 18bd 840e 72b9 3ac0 26bb 5c98 8b3d
000003a0: c63d 1b3d e00c 5fbd c48c b03d bac9 afbd
000003b0: 2366 fa3c 7427 c63d 3d6c f73d 3228 59bc
000003c0: e25f 2d3d 373f a03d ab57 bc3c 1a60 32bb
000003d0: 187e a7bd 2025 b83d a3cd b3bc 445c 573c
000003e0: 40db b03d 8f5b a53d c835 d63d e1d0 fcbc
000003f0: f33f 883d 83bf 92bd 0d6b c93d a789 b53d

layers.1.lin_l.bias f4 [128]
0.019931702 -0.0341126 -0.040519234 -0.02964487 0.0024444314 -0.040484186 0.0048325737 0.051100627
-0.004426237 -0.02846482 0.06058364 -0.010392762 -0.08225006 0.024215337 0.036249932 -0.013933656
0.029076226 0.044192646 0.05705021 -0.010200384 -0.06164256 0.023269584 0.034081433 0.040190797
0.047486752 -0.0004568189 0.042060666 -0.004531751 -0.08293606 0.011680683 0.032055978 -0.086202934
0.08172355 -0.005183149 -0.08591899 0.039804276 0.0053974907 0.066354424 -0.0061308523 -0.0014693291
0.027116623 -0.02845991 0.03952979 0.049798325 0.013415512 -0.065193154 0.10665014 -0.00092393265
0.020611864 0.09274484 0.031196164 0.118421875 0.048539083 -0.0842903 0.00077027216 -0.10295472
-0.07371178 0.054740217 0.045981552 0.06809174 0.036869287 0.049227558 0.09046117 0.11731213
0.040341217 0.026114902 0.095316 0.05618755 0.02056442 -0.07850478 0.009854567 -0.014621458
0.061964687 0.051884662 -0.03417946 -0.04433424 0.07855426 0.02825442 -0.08195563 -0.102286376
-0.027330201 -0.0010292939 0.034845874 0.0077279406 -0.065065145 -0.07859914 0.060954332 0.07610226
0.048687134 0.07736053 -0.02076941 -0.06589341 0.055595517 0.081889525 0.09118796 0.11531386
-0.023438562 -0.095378816 0.025085956 -0.015072423 0.01721968 0.013574966 0.087032676 0.051267512
-0.04817117 0.0043018693 0.056197718 -0.08032105 -0.013695933 -0.014804862 -0.09029587 -0.016691366
-0.074032746 -0.014890147 -0.052592978 -0.010545118 0.042817634 -0.07641664 0.09935971 0.019305786
-0.0054014744 -0.10781267 0.0047941343 0.07799321 -0.02505167 0.12877177 0.054557245 -0.05399466
00000000: cf47 a33c a7b9 0bbd 7ff7 25bd ccd9 f2bc
00000010: c132 203b bfd2 25bd 915a 9e3b e44e 513d
00000020: f809 91bb 0e2f e9bc 8d26 783d 6746 2abc
00000030: b872 a8bd 3e5f c63c cf7a 143d fd49 64bc
00000040: 4431 ee3c 5903 353d 7bad 693d 831f 27bc
00000050: e97c 7cbd db9f be3c f998 0b3d 1b9f 243d
00000060: 7881 423d 3281 efb9 ce47 2c3d 157f 94bb
00000070: 62da a9bd 5660 3f3c 214d 033d 2a8b b0bd
00000080: ad5e a73d 68d7 a9bb 4cf6 afbd cf09 233d
00000090: 6fdd b03b d4e4 873d 51e5 c8bb 8196 c0ba
000000a0: ae23 de3c c224 e9bc fde9 213d 54f9 4b3d
000000b0: bccc 5b3c fd83 85bd 636b da3d 1234 72ba
000000c0: 36da a83c 02f1 bd3d 198f ff3c 2b87 f23d
000000d0: ebd0 463d 65a0 acbd 17ec 493a edd9 d2bd
000000e0: 34f6 96bd 4737 603d 2757 3c3d af73 8b3d
000000f0: 4004 173d d6a2 493d b543 b93d 5841 f03d
00000100: d53c 253d ebee d53c 0935 c33d eb24 663d
00000110: b776 a83c 1dc7 a0bd 0d75 213c d78e 6fbc
00000120: afce 7d3d 0385 543d c3ff 0bbd d297 35bd
00000130: 0ee1 a03d d075 e73c 5ad8 a7bd 857b d1bd
00000140: 96e3 dfbc 5fe9 86ba 8cba 0e3d aa3a fd3b
00000150: e040 85bd 96f8 a0bd 40ab 793d 80db 9b3d
00000160: 296c 473d 336f 9e3d 9c24 aabc 20f3 86bd
00000170: 20b8 633d b2b5 a73d c1c0 ba3d ac29 ec3d
00000180: 3a02 c0bc f855 c3bd 1081 cd3c 53f2 76bc
00000190: 4910 8d3c 8969 5e3c 303e b23d e2fd 513d
000001a0: 224f 45bd b2f6 8c3b 942f 663d 5d7f a4bd
000001b0: e864 60bc 1890 72bc 0bed b8bd 55bc 88bc
000001c0: 7b9e 97bd cef5 73bc bc6b 57bd 6ec5 2cbc
000001d0: 8b61 2f3d 5480 9cbd 1b7d cb3d 2b27 9e3c
000001e0: dafe b0bb e4cc dcbd 1d18 9d3b e7ba 9f3d
000001f0: 2939 cdbc bfdc 033e 6b77 5f3d 8129 5dbd

layers.1.lin_r.weight f4 [128, 128]
-0.11410003 -0.123129845 -0.0050148433 -0.01513971 -0.07059143 -0.16735743 -0.07036772 0.0077822777
0.0335992 -0.041916016 0.034727164 0.10840614 0.0864043 -0.07784995 0.020711616 0.10613789
-0.03259353 0.02080921 -0.016959453 -0.08523817 0.06839408 -0.0330013 -0.12335127 0.037252817
-0.051710144 0.015214821 0.07454709 0.042158756 -0.04343481 -0.09102831 -0.025720315 -0.06265828
0.04761658 0.10408982 -0.04392532 -0.038180895 -0.148144 -0.07489825 0.18092722 -0.061965566
-0.061008833 0.0028457018 0.066384465 -0.051955204 -0.047206353 -0.038694274 0.021359604 0.081742026
0.00088413665 -0.06083824 0.08480646 -0.052812524 -0.07401731 -0.09213535 0.04006381 0.06858803
-0.0113999 0.044610087 -0.050104566 -0.0744675 -0.079472244 0.054286152 -0.010262223 -0.0066273133
0.0029635336 -0.08319873 -0.08703005 0.032358408 -0.0063547525 0.010809785 0.11332013 0.035008084
-0.09979554 0.030534156 0.023088353 0.0072492114 -0.06938156 -0.092979826 -0.16480932 0.039132897
0.013136728 -0.051453553 -0.10092126 0.09538954 0.020880068 -0.046312515 -0.055227607 0.11409263
-0.011568262 -0.0020918807 0.01107401 0.08340561 -0.18866621 0.18268096 -0.15536736 0.062207654
-0.08154389 -0.012377071 -0.07869382 -0.023886468 -0.14543734 0.06790092 0.049053617 -0.14584199
-0.1407751 0.056491937 0.18088876 -0.055644184 0.11628678 -0.1078818 -0.0033170264 0.0778419
-0.024028167 -0.10385953 0.041142512 -0.0005010446 -0.104166694 -0.03247878 -0.05232328 -0.012792352
-0.02456512 0.067825496 -0.08055728 -0.008137868 0.0008399518 -0.073745154 0.15003961 -0.03646196
-0.012235097 0.06209556 0.07235652 -0.030529436 -0.033080406 -0.1160438 -0.022649305 -0.019616298
0.041512493 0.07342692 0.10957358 0.047800563 0.100235246 0.0900749 -0.021984877 0.06841162
0.019232184 0.06668383 -0.018373534 0.008895813 0.07737463 -0.015360879 -0.10399188 0.0155095365
0.08399481 0.124445066 -0.016670747 0.110363945 -0.04823176 -0.018110769 0.06366589 -0.03592641
0.00406406 0.11047524 0.017073048 -0.04138151 -0.1004773 -0.068637125 0.14398222 -0.07490217
-0.044936415 0.14419387 0.0389465 0.08534464 -0.05215965 0.047295965 0.09173133 0.079651974
0.026931912 0.06344073 0.060613587 0.09362019 -0.042873677 0.0050487746 0.056076996 -0.013564758
0.05000082 0.054695833 0.034150783 -0.039363306 -0.09888036 0.07598004 0.07241682 -0.0006762394
-0.07523703 0.08223181 0.037963886 0.04673019 0.06965149 0.05810513 -0.05630545 0.050750073
-0.047603015 0.014714103 0.11094465 0.08232735 -0.050324563 -0.023483133 -0.04656895 0.030338492
0.01749141 0.053296555 0.093853705 0.07550618 0.0017611247 0.027155166 0.026649281 0.18145247
0.09808638 0.007058054 0.06590934 0.026257565 -0.03143043 0.08946951 -0.15218769 -0.007193419
-0.005466719 0.043768205 0.04104809 -0.021119663 -0.058322914 0.12542419 -0.0019246957 -0.0043488457
-0.109657966 -0.05664065 0.0633248 -0.089147516 0.11180841 -0.1035772 -0.027939934 -0.0705885
0.03638103 -0.10732156 -0.037541226 0.09724323 0.01054033 -0.07700428 -0.10593621 -0.0931184
0.06846533 0.029045029 0.028089669 -0.060245298 -0.02239937 0.062235624 0.128085 0.03458272
00000000: 47ad e9bd 802b fcbd 8e53 a4bb 8c0c 78bc
00000010: 3d92 90bd bf5f 2bbe f41c 90bd 7a02 ff3b
00000020: 519f 093d 21b0 2bbd 123e 0e3d 0a04 de3d
00000030: bdf4 b03d cb6f 9fbd 68ab a93c d25e d93d
00000040: cb80 05bd 1478 aa3c 8dee 8abc 5a91 aebd
00000050: 3212 8c3d 5f2c 07bd 979f fcbd 6996 183d
00000060: 04ce 53bd 9647 793c 25ac 983d a9ae 2c3d
00000070: b3e8 31bd 0d6d babd 69b3 d2bc fc52 80bd
00000080: 9a09 433d 0b2d d53d 09eb 33bd 9263 1cbd
00000090: 10b3 17be 4164 99bd fc44 393e 9bcf 7dbd
000000a0: 66e4 79bd f47e 3a3b 94f4 873d fbce 54bd
000000b0: 735b 41bd e37d 1ebd 56fa ae3c 5d68 a73d
000000c0: 68c5 673a 8531 79bd 02af ad3d f251 58bd
000000d0: 6396 97bd 75b1 bcbd f319 243d e277 8c3d
000000e0: a5c6 3abc 11b9 363d 723a 4dbd 6b82 98bd
000000f0: 58c2 a2bd 285b 5e3d e222 28bc ef29 d9bb
00000100: d837 423b 1964 aabd d03c b2bd 408a 043d
00000110: 873b d0bb 861b 313c 6214 e83d a364 0f3d
00000120: 9b61 ccbd c422 fa3c c923 bd3c cb8a ed3b
00000130: eb17 8ebd 356c bebd c6c3 28be d149 203d
00000140: 6e3b 573c f6c0 52bd ceaf cebd 975b c33d
00000150: ad0c ab3c 31b2 3dbd 5836 62bd 66a9 e93d
00000160: cf88 3dbc ef17 09bb c46f 353c 8fd0 aa3d
00000170: b731 41be b810 3b3e 9f18 1fbe 74cd 7e3d
00000180: 7c00 a7bd 33c9 4abc 3a2a a1bd 8ead c3bc
00000190: 87ed 14be a30f 8b3d 72ec 483d 9a57 15be
000001a0: 5927 10be 1764 673d e73a 393e 28eb 63bd
000001b0: c327 ee3d 22f1 dcbd 7862 59bb 936b 9f3d
000001c0: b8d6 c4bc 4eb4 d4bd 0d85 283d 8958 03ba
000001d0: 5955 d5bd 7808 05bd f050 56bd 0397 51bc
000001e0: ca3c c9bc 18e8 8a3d 37fb a4bd b154 05bc
000001f0: 3630 5c3a b307 97bd fca3 193e 2359 15bd
00000200: b775 48bc ea57 7e3d a82f 943d de18 fabc
00000210: 527f 07bd 5fa8 edbd 098b b9bc 5cb2 a0bc
00000220: 0109 2a3d da60 963d 1d68 e03d 86ca 433d
00000230: 2348 cd3d 3079 b83d a119 b4bc 641b 8c3d
00000240: d08c 9d3c 8891 883d 1884 96bc bebf 113c
00000250: 9776 9e3d 32ac 7bbc b2f9 d4bd b61b 7e3c
00000260: 7905 ac3d 0edd fe3d 1791 88bc 7e06 e23d
00000270: aa8e 45bd 095d 94bc 4363 823d 9227 13bd
00000280: ce2b 853b d840 e23d c7dc 8b3c a97f 29bd
00000290: 0bc7 cdbd 9f91 8cbd 1370 133e 4f66 99bd
000002a0: 3f0f 38bd 8fa7 133e 5d86 1f3d 2cc9 ae3d
000002b0: 5ba5 55bd 6ab9 413d a3dd bb3d 9320 a33d
000002c0: 50a0 dc3c 37ed 813d f445 783d f1bb bf3d
000002d0: 4f9c 2fbd 3170 a53b feb0 653d b83e 5ebc
000002e0: a9cd 4c3d bd08 603d b1e1 0b3d 6b3b 21bd
000002f0: c981 cabd 6c9b 9b3d 454f 943d a845 31ba
00000300: df15 9abd 2769 a83d 0580 1b3d 2868 3f3d
00000310: 71a5 8e3d a5ff 6d3d 8ba0 66bd 4fdf 4f3d
00000320: 61fb 42bd 6c13 713c f336 e33d 3e9b a83d
00000330: 2121 4ebd b35f c0bc 15bf 3ebd 6e88 f83c
00000340: 254a 8f3c 7d4d 5a3d 5f36 c03d fca2 9a3d
00000350: 8ad5 e63a 8374 de3c 984f da3c adce 393e
00000360: 83e1 c83d 4047 e73b 7afb 863d 1b1a d73c
00000370: 32bd 00bd ca3b b73d 17d7 1bbe c6b6 ebbb
00000380: 2a22 b3bb 4a46 333d 0b22 283d 2503 adbc
00000390: 02e4 6ebd 336f 003e 1246 fcba c380 8ebb
000003a0: 5b94 e0bd 0700 68bd 6fb0 813d f992 b6bd
000003b0: cffb e43d 4820 d4bd 4ae2 e4bc b490 90bd
000003c0: 4604 153d 68cb dbbd d4c4 19bd 7527 c73d
000003d0: 59b1 2c3c 6cb4 9dbd 15f5 d8bd dcb4 bebd
000003e0: 8d37 8c3d d7ef ed3c 4e1c e63c c6c3 76bd
000003f0: e27e b7bc c8ea 7e3d b728 033e 9ca6 0d3d
