code/gnn/models/training/MLP/export/4/best_model.pt (torch, 6248 bytes, 3 tensors)

lin1.weight f4 [64, 14]
0	0xbdb3d118	-0.08780116
1	0x3e952e98	0.2913711
2	0x3e766a2c	0.24063939
3	0xbe4f92d4	-0.20270854
4	0xbf008aff	-0.5021209
5	0x3f601b73	0.87541884
6	0x3ea7c558	0.3276775
7	0x3e223985	0.15842254
8	0xbf43195b	-0.76210564
9	0x3e92af46	0.28649348
10	0xbf58daf2	-0.84709084
11	0xbe8b41de	-0.2719869
12	0xbf4385bf	-0.76375955
13	0xbe9a5e10	-0.3014989
14	0xbe367e43	-0.17821603
15	0x3eb1313f	0.34607884
16	0x3e8d9cf9	0.27658823
17	0x3ce3c750	0.027805
18	0xbd878a28	-0.06618148
19	0x3e3f5061	0.18683006
20	0x3eb7c2eb	0.35890898
21	0xbe906354	-0.2820078
22	0x3ed6cd1d	0.41953364
23	0xbe08b37a	-0.13349715
24	0x3e549462	0.20759729
25	0xbe78bc27	-0.24290524
26	0x3e7e84d8	0.24855363
27	0x40138ec5	2.305589
28	0xbe80e783	-0.2517663
29	0x3e75d35b	0.24006407
30	0x3e9fe3d6	0.31228513
31	0xbeeae611	-0.45878652
32	0xbf4f3f1f	-0.8095569
33	0x3f4853c9	0.78252846
34	0x3f1ea275	0.6196664
35	0xbdc654ec	-0.09684166
36	0xbf1ed233	-0.6203949
37	0x3e45a4c1	0.1930113
38	0xbdd48d45	-0.103785075
39	0xbf0f46ab	-0.55967206
40	0xbf2134a3	-0.6297094
41	0x3dd1a243	0.10236027
42	0xbecc86a6	-0.3994648
43	0xbe808cb5	-0.2510735
44	0xbe3b785a	-0.18307629
45	0xbe128284	-0.143076
46	0x3e0f88fb	0.14017098
47	0x3ed810de	0.4220037
48	0x3eab3bb5	0.3344399
49	0xbef1081e	-0.47076505
50	0x3e0d769c	0.13814777
51	0xbcb34fad	-0.021888578
52	0x3dc6788f	0.096909635
53	0xbee1b1ae	-0.4408087
54	0x3e1cd99d	0.15317388
55	0x40472f71	3.1122706
56	0x3bbb956a	0.0057245987
57	0x3f086800	0.5328369
58	0x3ec309c1	0.3809338
59	0x3d8346ec	0.06410012
60	0x3d0fe415	0.035129625
61	0x3eb388d5	0.35065332
62	0x3e885ce6	0.26633376
63	0xbebf1542	-0.37320906
64	0x3f1114c5	0.56672317
65	0xbdaaba27	-0.08336287
66	0x3ec6ad56	0.3880412
67	0xbe76464b	-0.24050252
68	0x3eafcd99	0.34336546
69	0x402c5aa9	2.6930335
70	0x3e3fa207	0.18714152
71	0xbf087754	-0.5330708
72	0xbebed759	-0.37273672
73	0xbd6b14f6	-0.057393037
74	0xbce5193f	-0.02796614
75	0xbd814cad	-0.06313453
76	0x3e9bc61a	0.30424577
77	0xbf0f2cca	-0.5592772
78	0xbf10031e	-0.56254756
79	0x3ed6e891	0.4197431
80	0x3d80e430	0.06293523
81	0x3f033886	0.5125812
82	0xbe0530cc	-0.13006896
83	0x3ed36a0a	0.4129184
84	0xbdcde279	-0.10052962
85	0xbe01424e	-0.1262295
86	0xbcf20f6a	-0.029548366
87	0x3f09c71d	0.5381945
88	0xbf0f3ca1	-0.5595189
89	0xbe2301f1	-0.1591871
90	0x401c9ba5	2.4469998
91	0x3e4026e7	0.1876484
92	0x3e649c64	0.22325283
93	0xbef52ff7	-0.47888157
94	0x3db95ea3	0.09051254
95	0xbebf1156	-0.37317914
96	0x3f4ff684	0.8123553
97	0xbde69366	-0.11258583
98	0x3e92a41e	0.28640836
99	0x3deab818	0.11460894
100	0x3eea0899	0.45709684
101	0xbd8aeaea	-0.067830876
102	0x3d8fd625	0.07023267
103	0x3ea43851	0.32074216
104	0x3ea2d70d	0.31804696
105	0xbe77ae3f	-0.24187563
106	0x3eecd439	0.46255663
107	0xbe2a8136	-0.16650853
108	0x3eceabd9	0.40365484
109	0xbee3829e	-0.4443559
110	0x3e7f2199	0.2491516
111	0x3ff4721f	1.9097327
112	0xbf727f27	-0.9472527
113	0xbef40236	-0.47657937
114	0xbe3b9eb4	-0.18322259
115	0x3dbbee1c	0.09176275
116	0xbf067c6b	-0.52533597
117	0x3f010d18	0.50410604
118	0x3ed6e63c	0.4197253
119	0x3e6fcda8	0.23418295
120	0xbdc49625	-0.0959895
121	0x3e49d73f	0.19711016
122	0x3ea06698	0.31328273
123	0xbc90fb78	-0.017698035
124	0xbf001746	-0.5003551
125	0x3efb99cc	0.49140775
126	0xbe83188a	-0.2560466
127	0x3f8ed3cb	1.1158384
128	0xbdb95528	-0.090494454
129	0xbe75edd6	-0.24016508
130	0xbd257f01	-0.040404323
131	0xbc67496b	-0.014116625
132	0xbe262807	-0.16226207
133	0x3f8ff920	1.1247902
134	0xbe183b91	-0.14866473
135	0xbb590611	-0.0033115188
136	0xbc241a9c	-0.01001611
137	0x3e90dcda	0.28293496
138	0x3c9d844e	0.019228127
139	0x3c46f7f5	0.0121440785
140	0xbca7289f	-0.020405112
141	0x3ea3fe98	0.32030177
142	0xbf547427	-0.82989734
143	0xbeddec05	-0.4334413
144	0x3e91e4d7	0.28494903
145	0xbec6b45d	-0.3880948
146	0xbf2081f1	-0.62698275
147	0xbf22427e	-0.6338271
148	0x3cbf54f2	0.023355935
149	0xbdd09833	-0.1018528
150	0xbf1de2af	-0.61674017
151	0xbdfb97bb	-0.122848
152	0xbebf7e4d	-0.37401047
153	0xbf6c433e	-0.92290103
154	0x3e964956	0.29352826
155	0x3e8d2453	0.27566776
156	0xbf4a8feb	-0.7912585
157	0x3de130fd	0.10995672
158	0x3e5f3577	0.21797739
159	0xbec9926f	-0.39369532
160	0xbefee6ca	-0.49785453
161	0xbf97ec06	-1.1868904
162	0xbcd48575	-0.025942544
163	0xbe087e6b	-0.13329475
164	0xbf7fdc76	-0.9994577
165	0xbe73b7f4	-0.23800641
166	0x3d468ce8	0.048474222
167	0xbf944bf2	-1.1585677
168	0xbf32a987	-0.6978993
169	0xbe59f7d3	-0.21285944
170	0xbe1412de	-0.14460322
171	0xbe2d4ff7	-0.16925035
172	0x3e83d98c	0.25751913
173	0xbf16800d	-0.5878914
174	0xbf0737b4	-0.5281937
175	0xbf3c921f	-0.73660463
176	0x3e62d87f	0.22152899
177	0xbe78653c	-0.24257368
178	0x3e3752f5	0.1790274
179	0x3decfa86	0.11571221
180	0xbf44edff	-0.76925653
181	0xbf7c24b8	-0.9849353
182	0xbedfe96c	-0.43732774
183	0xbe4095d4	-0.18807155
184	0xbed552e3	-0.416648
185	0xbddf53d4	-0.10904661
186	0x3e3edea8	0.18639624
187	0xbf14510b	-0.5793616
188	0xbf218c07	-0.6310429
189	0xbefbc723	-0.49175367
190	0x3ec4f574	0.38468516
191	0xbe566eb4	-0.20940667
192	0x3e5b1ade	0.21396968
193	0x3e1bfbd0	0.15232778
194	0xbf29f98f	-0.6639642
195	0xbfa50194	-1.2891107
196	0xbef92614	-0.48661864
197	0x3f019dca	0.5063139
198	0x3e4332b5	0.19062312
199	0xbe0c4920	-0.1369977
200	0x3e667866	0.22506866
201	0x3eddf338	0.43349624
202	0x3f153839	0.58288914
203	0xbf26fd6c	-0.6523044
204	0x3e42c46f	0.19020246
205	0x3ce89438	0.028390989
206	0xbee5ef9f	-0.4490938
207	0xbe878952	-0.26471955
208	0x3e2cc88b	0.16873376
209	0x4008fb39	2.1403334
210	0xbe2abf43	-0.16674523
211	0x3dd069c5	0.10176424
212	0x3ea5563e	0.3229236
213	0x3ef92f3e	0.48668855
214	0xbf079872	-0.5296699
215	0x3f85ae58	1.044383
216	0x3ebd5579	0.36979273
217	0xbd1cd781	-0.038291458
218	0xbf66a69d	-0.9009798
219	0x3e4ead71	0.2018335
220	0xbf0d2b71	-0.5514441
221	0xbf001b4a	-0.5004164
222	0xbf0cb9d5	-0.5497106
223	0xbe2344de	-0.1594424
224	0xbecefde8	-0.4042809
225	0x3e90b791	0.2826505
226	0x3e6bced4	0.23028117
227	0x3bd3cb5d	0.006463452
228	0x3e612aae	0.21988937
229	0x3f4916c7	0.7855038
230	0x3effd9c1	0.4997082
231	0xbf53234f	-0.8247575
232	0x3e610be2	0.21977189
233	0x3e7eccbc	0.24882787
234	0xbde184bf	-0.110116474
235	0xbeefe7ca	-0.4685653
236	0xbeacde01	-0.33763126
237	0x3ff60144	1.9219136
238	0xbeb921cf	-0.36158606
239	0x3eb9bbda	0.36276132
240	0xbdf3f176	-0.119112894
241	0x3e9f752d	0.31144086
242	0xbf585ce2	-0.8451673
243	0x3f005179	0.5012432
244	0x3f9685c3	1.1759571
245	0x3e47ebd6	0.19523558
246	0xbf276dbf	-0.65401834
247	0xbe03ba4b	-0.12864034
248	0x3e9be7f4	0.30450404
249	0xbede91e0	-0.4347067
250	0x3f346579	0.70467335
251	0xbc6e57a7	-0.014547265
252	0xbeb81ebf	-0.35960957
253	0x3e1d5d66	0.1536766
254	0xbe7cb5ce	-0.24678728
255	0xbf4f6e9a	-0.8102814

lin1.bias f4 [64]
0	0xbe9d0541	-0.3066807
1	0x3e0209bb	0.12699024
2	0xbe8c74ff	-0.2743301
3	0xbd80f18e	-0.06296073
4	0x3e214ce1	0.15751983
5	0x3dbf520c	0.09341821
6	0xbd513c8f	-0.051083144
7	0x3e787b4d	0.24265786
8	0xbde325e7	-0.11091214
9	0xbec33f4e	-0.38134235
10	0xbd28b137	-0.04118463
11	0xbe3009b6	-0.17191204
12	0xbe179565	-0.14803083
13	0xbe57da5a	-0.21079388
14	0x3e44090d	0.19144078
15	0xbdac2bb2	-0.08406772
16	0x3e97416b	0.29542097
17	0xbe629d7d	-0.2213039
18	0xbe33e2c5	-0.17566974
19	0xbe177b5b	-0.1479315
20	0xbe648138	-0.22314918
21	0xbedaa1c3	-0.4270154
22	0x3eba6f2c	0.36412942
23	0xbe3e53cb	-0.18586652
24	0xbe691cef	-0.22764944
25	0x3ce63569	0.02810164
26	0xbe737d80	-0.23778343
27	0xbe5a7e32	-0.21337202
28	0x3e920f2d	0.28527203
29	0x3b172919	0.0023065268
30	0x3ea9a2f9	0.3313215
31	0xbe6cd284	-0.2312718
32	0xbdc67052	-0.09689392
33	0xbe5d4e6b	-0.21611945
34	0xbf113e71	-0.56735903
35	0xbe5ffdb4	-0.21874124
36	0x3e26f991	0.1630614
37	0x3ea5ee7c	0.32408512
38	0xbd889a8c	-0.066701025
39	0xbead9295	-0.33900896
40	0xbe7b2857	-0.24527107
41	0xbcafc024	-0.021453924
42	0x3ea35ad3	0.3190523
43	0xbf089644	-0.5335429
44	0x3e88856f	0.26664302
45	0xbd912d6a	-0.0708874
46	0xbe55d206	-0.20880899
47	0x3e504ccb	0.20341794
48	0xbf0407c0	-0.51574326
49	0xbec62903	-0.38703164
50	0xbe0cd123	-0.13751654
51	0xbe71d6c2	-0.2361708
52	0x3e14b57b	0.14522354
53	0xbf095a34	-0.53653264
54	0xbe49e347	-0.19715606
55	0x3e5a4cf9	0.21318425
56	0xbe6924d9	-0.22767963
57	0xbe978f28	-0.29601407
58	0xbdf9b352	-0.12192406
59	0xbce9c4c3	-0.028536206
60	0xbecbb416	-0.39785832
61	0xbdd97e44	-0.106197864
62	0x3e2d1dde	0.16905925
63	0xbdb167bb	-0.08662363

lin2.weight f4 [1, 64]
0	0xbf4b34ba	-0.7937733
1	0x3e77050b	0.24123017
2	0xbf6a6950	-0.91566944
3	0x3ec1b7a5	0.37835422
4	0x3efea645	0.4973623
5	0x3eba9fce	0.36450046
6	0xbf9c93ff	-1.2232665
7	0x3ec8fed3	0.39256915
8	0x3f8b5d6d	1.0887886
9	0xbfea15c1	-1.8287889
10	0xbfb788ee	-1.4338663
11	0xbfbc0ab6	-1.4690769
12	0xbf7b8b0b	-0.9825904
13	0xbf61ac30	-0.8815336
14	0x3f5e9dc4	0.8695948
15	0xbf8bdd7d	-1.0926968
16	0x3f42a362	0.7603055
17	0xbffc4631	-1.9708921
18	0xbf7f6e66	-0.9977783
19	0x3fd67998	1.6755857
20	0xbf66c330	-0.9014158
21	0x3fd4eee5	1.6635405
22	0x3fa3ddb2	1.2802031
23	0xbf2596e1	-0.6468335
24	0x3f55dfb5	0.83544475
25	0xbff98bd3	-1.9495796
26	0xbf1ee9dc	-0.6207559
27	0x3fa53cee	1.2909219
28	0x3e72146b	0.23640601
29	0xc04e780b	-3.2260768
30	0x3e91023d	0.2832202
31	0x3f8e7856	1.1130474
32	0xbfae26b5	-1.3605562
33	0x3f9a4304	1.2051702
34	0x3ff3b891	1.90407
35	0xbf4af01b	-0.7927262
36	0x3ed77ca2	0.42087275
37	0x3eeb09ed	0.4590601
38	0x3fba8123	1.4570659
39	0xbfbc2e36	-1.4701602
40	0xbf9c9243	-1.2232136
41	0xc00802f9	-2.1251814
42	0x3e94455a	0.2895916
43	0x400e3731	2.2221186
44	0x3e940bbe	0.2891521
45	0xbfa07f27	-1.2538804
46	0x3f8697da	1.0515091
47	0x3f599df7	0.8500666
48	0x3fe579a1	1.7927743
49	0xbfb5f862	-1.4216425
50	0xbfb706c6	-1.4298942
51	0xbf7db716	-0.9910749
52	0x3f335b50	0.70061207
53	0x3ff04c27	1.877324
54	0xbf27291d	-0.6529711
55	0x3e7bd86b	0.24594276
56	0x3f70f070	0.9411688
57	0xbf243d4f	-0.6415605
58	0xbf805d3e	-1.0028455
59	0xbf52644c	-0.8218429
60	0xbf8038a9	-1.0017291
61	0xbef5e0a5	-0.48022953
62	0x3db40ddb	0.08791705
63	0xc00a3cb9	-2.1599562
