code/gnn/models/training/GAT/multi-graph-export/7/best_model.pt (torch, 36258 bytes, 15 tensors)

layers.0.att f4 [1, 4, 32]
0	0x3de7d6eb	0.11320289
1	0x3eabff16	0.33593053
2	0xbe75d55d	-0.24007173
3	0x3d9ef099	0.07760734
4	0xbe0b2f2b	-0.13592212
5	0x3eaca427	0.33718988
6	0x3d976e70	0.07394111
7	0xbd430a4d	-0.047617245
8	0x3ef03ce3	0.46921453
9	0x3dabe759	0.083937354
10	0x3d3847ba	0.04499028
11	0xbec14a3f	-0.37751958
12	0x3e41012c	0.18848103
13	0xbe7533be	-0.2394552
14	0xbe58659a	-0.21132508
15	0x3e98e9fb	0.29866013
16	0xbef41761	-0.47674087
17	0xbea56869	-0.3230622
18	0x3e2ef7e2	0.17086747
19	0x3db54a7c	0.088520974
20	0x3ec38a9a	0.38191682
21	0x3e1e397d	0.15451618
22	0xbdf4a58a	-0.119456366
23	0x3e2839e5	0.16428335
24	0x3e7ac0e5	0.24487646
25	0xbd518859	-0.051155422
26	0xbe47fe8b	-0.19530694
27	0x3df51b9b	0.11968156
28	0xbe8a4ba6	-0.2701084
29	0x3e204259	0.1565031
30	0x3d9a223e	0.075260624
31	0xbe670fb7	-0.22564588
32	0xbeaefd0c	-0.34177434
33	0x3e75dbf1	0.24009682
34	0x3f612ba2	0.87957203
35	0x3e5736c8	0.21016991
36	0xbf0351e2	-0.5129682
37	0x3e832e20	0.25621128
38	0xbe120f2e	-0.14263603
39	0x3db218c5	0.08696131
40	0x3d10d306	0.035357498
41	0xbe945d2a	-0.2897733
42	0x3e6589b7	0.22415815
43	0xbdb15f9d	-0.08660815
44	0xbe2e23f4	-0.17005903
45	0x3eb1ffc8	0.34765458
46	0xbe3e185f	-0.18563984
47	0x3e66bb6c	0.22532433
48	0x3e892782	0.26787955
49	0xbf5862a4	-0.84525514
50	0x3ecfea1f	0.40608308
51	0xbf035462	-0.5130063
52	0x3e829498	0.25503993
53	0x3f1569c2	0.583645
54	0xbcd69919	-0.02619605
55	0x3f027075	0.50952846
56	0x3d4f2729	0.050574455
57	0x3e71af83	0.23602109
58	0x3c10748a	0.008816848
59	0xbe75cf8f	-0.24004959
60	0xbc8c35e7	-0.017115546
61	0x3ea4a7d8	0.32159305
62	0x3ebf3630	0.3734603
63	0x3ede9c38	0.4347856
64	0xbe8d9440	-0.27652168
65	0xbbe7d34a	-0.007074748
66	0x3ea6fddc	0.32615554
67	0x3e0f6adb	0.14005606
68	0xbd5657d1	-0.052329842
69	0xbe431231	-0.19049908
70	0x3e9651d0	0.29359293
71	0xbf44e085	-0.7690509
72	0xbd3d4ab9	-0.04621384
73	0xbd5f2d10	-0.054486334
74	0x3c7ddecd	0.015495014
75	0xbe14dfda	-0.14538518
76	0xbdb3056f	-0.08741271
77	0xbe5a6960	-0.2132926
78	0xbd1ba267	-0.037996676
79	0xbe5eda3d	-0.21762939
80	0x3e8c291e	0.2737512
81	0xbd4be8fa	-0.04978273
82	0xbe841967	-0.2580063
83	0x3e3fd8dc	0.18735069
84	0xbd04599b	-0.032312017
85	0xbd52de25	-0.051481385
86	0xbc92a717	-0.01790194
87	0x3e092e2c	0.1339652
88	0xbd48cc31	-0.049022857
89	0xbe57b6f6	-0.21065888
90	0x3e0475f7	0.12935625
91	0x3ef3c61d	0.47612086
92	0xbdc0fc69	-0.094231434
93	0xbe184fd8	-0.14874208
94	0x3ea5add2	0.32359177
95	0x3ec522d7	0.38503143
96	0xbecd6084	-0.40112698
97	0xbed08e1e	-0.40733427
98	0x3eda2e3e	0.42613405
99	0x3f107279	0.5642467
100	0xbef1560f	-0.4713597
101	0x3e46ec59	0.19426097
102	0x3a816bef	0.0009874086
103	0x3e74f907	0.23923121
104	0xbf2a02d7	-0.66410583
105	0xbddc2001	-0.10748292
106	0x3e8b87b8	0.27251983
107	0xbed0b2e5	-0.40761486
108	0xbed5ef93	-0.41784343
109	0xbcb219c6	-0.021740805
110	0x3ec592c0	0.38588524
111	0xbeca2b84	-0.39486325
112	0x3e4e04a6	0.2011896
113	0x3dfa36b0	0.12217462
114	0x3ebb8ea5	0.36632267
115	0xbe0bf751	-0.13668562
116	0xbcb45b96	-0.022016328
117	0xbef67958	-0.48139453
118	0xbe5567f5	-0.20840438
119	0xbf0828ff	-0.53187555
120	0x3edd0cab	0.43173727
121	0x3db04fa4	0.0860894
122	0xbf2446c8	-0.64170504
123	0x3e73a2e8	0.23792613
124	0x3e11c932	0.14236906
125	0x3e1f7606	0.15572366
126	0x3f07d17e	0.53054035
127	0xbef39aec	-0.47579134

layers.0.bias f4 [128]
0	0xbe234307	-0.15943538
1	0xbd96fa44	-0.07371953
2	0x3e0af39d	0.13569494
3	0x3dc577cb	0.09641989
4	0xbdb65b53	-0.089041375
5	0x3eaea92e	0.3411345
6	0x3c90f0fe	0.017693039
7	0x3e558457	0.20851265
8	0x3e1f6f02	0.1556969
9	0xbdadea2d	-0.08491931
10	0xbdaaca85	-0.08339409
11	0x3cc353ec	0.023843728
12	0x3e4896eb	0.1958882
13	0x3cb3fefa	0.021972168
14	0xbd8944cd	-0.06702576
15	0x3e59b51f	0.21260498
16	0x3ecee3ec	0.40408266
17	0xbe20b82e	-0.15695259
18	0x3e4e6729	0.2015654
19	0x3e5eb329	0.21748032
20	0x3d9b7fe6	0.07592754
21	0x3da3ab6a	0.07991679
22	0xbd4d2da0	-0.05009234
23	0xbd6b907e	-0.057510845
24	0x3e3ce49f	0.18446587
25	0xbd7508e7	-0.059822943
26	0xbdad0a9b	-0.084492885
27	0x3daa32d1	0.08310474
28	0xbdb63b72	-0.08898057
29	0x3edbc1b0	0.4292121
30	0x3d0ad62c	0.033895656
31	0xbb2028db	-0.0024438414
32	0x3dcead44	0.100916415
33	0x3f2d34e8	0.67658854
34	0xbda52748	-0.08064133
35	0xbe10ad1f	-0.1412854
36	0xbcef1776	-0.029185992
37	0xbd623fe8	-0.055236727
38	0x3d894170	0.06701934
39	0x3e9a834b	0.30178294
40	0x3e8406d3	0.25786456
41	0xbe1b51ef	-0.15167974
42	0x3ea4267d	0.32060614
43	0x3d645528	0.055745274
44	0x3d615e4b	0.055021565
45	0xbd0f8949	-0.035043035
46	0x3e6753f8	0.22590625
47	0x3db02e60	0.08602595
48	0x3e0536e0	0.13009214
49	0xbd8258a1	-0.06364561
50	0xbe826e06	-0.25474566
51	0xbd57e156	-0.05270513
52	0x3e19e387	0.15028201
53	0xbe361330	-0.17780757
54	0x3dfb43ee	0.12268816
55	0x3dc1bf2a	0.0946029
56	0x3dfbbcd2	0.12291874
57	0x3e5d7dbc	0.21629995
58	0x3cf2572a	0.029582579
59	0xbda502b2	-0.08057155
60	0x3f00c0cf	0.502942
61	0x3def6a37	0.11690181
62	0x3cb9712e	0.022636976
63	0x3e0228be	0.12710854
64	0x3d7520db	0.059845787
65	0xbd3b9742	-0.045798548
66	0x3d9cad12	0.07650198
67	0x3d20542b	0.03914277
68	0x3db212a9	0.086949654
69	0xbd6569b7	-0.05600902
70	0x3d81a9b3	0.06331196
71	0xbc6851ce	-0.01417966
72	0x3b796c8d	0.0038059086
73	0x3e4f3d88	0.20238316
74	0x3b97d48d	0.0046334923
75	0x3c494e1d	0.01228669
76	0x3cefa329	0.029252606
77	0xbcaabcce	-0.020841982
78	0xbdbb2f15	-0.091398396
79	0x3df77784	0.12083343
80	0x3e2d1960	0.16904211
81	0xbd6f1390	-0.058368266
82	0xbcae2d63	-0.021261876
83	0x3d35b849	0.0443652
84	0xbd271c70	-0.040798604
85	0xbd0f81d2	-0.035035916
86	0xbcd10279	-0.025513874
87	0xbd8b9b59	-0.068167396
88	0xbd6a4d21	-0.057202462
89	0xbd79a769	-0.06095067
90	0x3d53a2d1	0.051668946
91	0x3f4e4bcb	0.805844
92	0xbddd56cf	-0.10807573
93	0x3d7ab5eb	0.061208647
94	0xbd48cb33	-0.04902191
95	0x3d881777	0.066451006
96	0x3d2e0a83	0.042490494
97	0xbe21ae55	-0.15789159
98	0xbd65c038	-0.056091517
99	0xbe036f8e	-0.12835523
100	0x3ced3de2	0.028960172
101	0xbd80bb21	-0.06285692
102	0x3f1c5f35	0.61082774
103	0xbd7712f3	-0.060320806
104	0xbd7aad27	-0.061200287
105	0x3d1bf5fd	0.03807639
106	0xbd2073b8	-0.039172858
107	0x3cb990a7	0.022651983
108	0x3b1049da	0.0022016675
109	0x3d327bf9	0.04357526
110	0xbd9844f8	-0.0743503
111	0x3ca8e9ec	0.020619355
112	0xbe1b2c77	-0.1515368
113	0xbe1471ae	-0.1449649
114	0xbd186822	-0.037208684
115	0xbdd6efcc	-0.104949564
116	0xbd23b5c8	-0.039968282
117	0xbdba6ade	-0.091024145
118	0xbd2292da	-0.03969083
119	0xbc47d0d9	-0.012195789
120	0x3b77c5be	0.0037807073
121	0x3e000af0	0.12504172
122	0xbcfba9c8	-0.030720606
123	0x3d16107b	0.03663681
124	0xbd8a6bf2	-0.0675887
125	0x3ea5963a	0.32341176
126	0x3d662114	0.05618389
127	0xbdd5973f	-0.104292385

layers.0.lin_l.weight f4 [128, 11]
0	0x3e6e3c08	0.23265088
1	0xbd3eda81	-0.0465951
2	0x3eab34c7	0.33438703
3	0xbd8a9949	-0.06767518
4	0xbe911b24	-0.2834102
5	0xbe85aeef	-0.26110026
6	0x3e4665da	0.19374791
7	0x3d81530e	0.063146695
8	0x3e8f8e6f	0.28038356
9	0xbe19a839	-0.15005578
10	0xbe8ebd76	-0.27878922
11	0xbce56f2a	-0.028007109
12	0x3e066fc8	0.13128579
13	0x3e89a277	0.26881763
14	0x3e7f1f01	0.24914171
15	0x3de1aee2	0.110196844
16	0xbcf01d5a	-0.02931087
17	0x3ca08732	0.019595716
18	0xbbcf3b05	-0.0063241743
19	0xbd8d4247	-0.06897407
20	0xbe1d3427	-0.15351926
21	0xbd4f8665	-0.050665278
22	0xbe45e5ca	-0.19325939
23	0x3e37c405	0.1794587
24	0x3ebbc657	0.3667476
25	0xbea891a2	-0.3292361
26	0xbe11a7bf	-0.14224146
27	0xbe272638	-0.16323173
28	0xbe73caa9	-0.23807777
29	0x3d923157	0.07138317
30	0x3f2df81d	0.67956716
31	0x3da5d4d8	0.08097237
32	0x3e24397d	0.16037555
33	0x3d33c6b5	0.043890674
34	0xbec24c3d	-0.3794879
35	0x3e093580	0.13399315
36	0x3ed2fa0e	0.41206402
37	0xbe181255	-0.14850743
38	0xbe17edac	-0.14836758
39	0x3d9f38f8	0.07774538
40	0x3e08a4aa	0.13344064
41	0xbeddb4e0	-0.4330206
42	0xbe2c3f3b	-0.16820996
43	0xbe188660	-0.1489501
44	0x3e1773d8	0.14790285
45	0xbe0a22f6	-0.13489899
46	0x3e81b91a	0.25336534
47	0xbe8bb872	-0.27289158
48	0x3d5a0e37	0.053236213
49	0xbd5fa9a1	-0.05460513
50	0x3e10db05	0.1414605
51	0xbe856ea1	-0.26060966
52	0x3ec8a566	0.3918869
53	0x3c1a218c	0.009407412
54	0x3cbcf6a5	0.023066828
55	0xbd8e51d6	-0.06949203
56	0xbf171879	-0.5902172
57	0x3ced5682	0.028971914
58	0x3f394b61	0.72380644
59	0x3b752944	0.003740863
60	0x3e93ece7	0.2889168
61	0xbe023e9b	-0.12719195
62	0x3f431f89	0.76219994
63	0xbf2ba5fa	-0.67050135
64	0xbe80e489	-0.25174358
65	0x3ea9d908	0.33173394
66	0x3cefdf0b	0.02928116
67	0xbe9b309c	-0.30310524
68	0xbdde757b	-0.10862251
69	0x3ea696af	0.32536837
70	0x3da77fcb	0.081786714
71	0xbc8d7fdc	-0.017272882
72	0x3e6d929a	0.23200455
73	0x3dbe974e	0.09306203
74	0xbf2d63eb	-0.6773059
75	0x3d20ae23	0.03922857
76	0x3d54cc9c	0.051952943
77	0x3de9998e	0.11406241
78	0xbdf29c43	-0.11846211
79	0xbe0baa19	-0.13639106
80	0x3e21275d	0.15737672
81	0xbcbeb135	-0.023277858
82	0x3def79b1	0.11693133
83	0x3e0bb04c	0.1364147
84	0x3e52da65	0.20591123
85	0xbe71f08e	-0.2362692
86	0xbbe4bfaf	-0.0069808583
87	0xbe08b85b	-0.13351576
88	0x3d8127ce	0.0630642
89	0xbec34b58	-0.3814342
90	0xbdfebe75	-0.124386705
91	0x3f231cfe	0.63716114
92	0x3bafe04f	0.005367316
93	0xbda18084	-0.078858405
94	0x3e79bf2b	0.24389331
95	0x3e5cdd78	0.21568859
96	0xbec58ba2	-0.38583094
97	0xbdf20c60	-0.118187666
98	0xbeaa143b	-0.3321856
99	0x3d7d7658	0.06188044
100	0xbdb52467	-0.08844834
101	0x3dd221cc	0.102603525
102	0x3e758c56	0.23979315
103	0xbe0e6801	-0.13906862
104	0x3e17ca70	0.14823318
105	0x3e79eeba	0.24407473
106	0x3d90ae7e	0.07064532
107	0xbea23624	-0.3168193
108	0xbd3818cb	-0.04494552
109	0xbe6abe72	-0.22924212
110	0xbdfb2ab1	-0.12264002
111	0x3e1cffee	0.15332004
112	0xbdd0a3e1	-0.101875074
113	0x3ea578a7	0.32318613
114	0x3c945152	0.018105183
115	0xbd9fc747	-0.07801681
116	0x3e71d2d3	0.2361558
117	0x3e2ab9fe	0.16672513
118	0xbe9a0ede	-0.30089468
119	0x3e021eea	0.12707105
120	0xbd851452	-0.064980164
121	0x3ed57c86	0.41696566
122	0x3e87be84	0.2651254
123	0x3ded62a5	0.115910806
124	0xbf30fb66	-0.69133604
125	0xbdfacf2b	-0.122465454
126	0xbe89b0aa	-0.26892596
127	0xbe408f2b	-0.18804614
128	0x3a25588e	0.0006307446
129	0x3f92e788	1.1476908
130	0xbcd79ecc	-0.026320837
131	0x3d638733	0.055548858
132	0x3de740aa	0.112916306
133	0xbeb3b98a	-0.35102493
134	0xbcf3da2d	-0.02976712
135	0x3e9d829a	0.30763704
136	0x3d01a5e8	0.03165236
137	0x3e7d7198	0.24750364
138	0x3cafec20	0.021474898
139	0x3f19ddc0	0.6010399
140	0xbf355439	-0.7083164
141	0xbd96ba8c	-0.073598
142	0x3c5eba57	0.013594232
143	0xbd811981	-0.063036926
144	0xbaf69938	-0.0018813973
145	0xbd3018dc	-0.042992458
146	0xbeda4fc2	-0.42638975
147	0xbe242909	-0.16031279
148	0x3c9a749f	0.018854437
149	0x3e02051a	0.12697259
150	0xbe641c44	-0.22276407
151	0x3dca59de	0.09880422
152	0x3e0db7c5	0.13839634
153	0x3e6824ea	0.22670332
154	0x3d571be4	0.052516833
155	0xbd9a4bc3	-0.07533982
156	0xbc7d22ad	-0.015450162
157	0xbe84cdbc	-0.25938213
158	0x3e2176f3	0.15768032
159	0xbe68142d	-0.22663946
160	0x3e27734f	0.1635258
161	0xbe305ffe	-0.17224118
162	0xbd33616a	-0.043794073
163	0x3dd24102	0.102663055
164	0x3d524628	0.051336437
165	0xbd7e6df0	-0.062116563
166	0xbe843df9	-0.2582853
167	0xbe4e16dd	-0.20125909
168	0x3ef12a0a	0.47102386
169	0x3d9268fc	0.071489304
170	0xbd20411f	-0.039124604
171	0x3ddc2834	0.10749856
172	0x3ebbc4af	0.36673495
173	0xbee94db4	-0.45567095
174	0xbcda060d	-0.026614213
175	0xbb9d5537	-0.004801418
176	0xbec17abf	-0.3778896
177	0x3f1113db	0.5667092
178	0xbdbdc2f9	-0.09265704
179	0xbf7f1036	-0.9963411
180	0x3c456054	0.012046892
181	0xbd50734b	-0.050891202
182	0x3d166b5c	0.03672348
183	0xbf1c53c0	-0.6106529
184	0x3fa25452	1.2681983
185	0xbe745ef2	-0.23864344
186	0x3ec78a4d	0.38972703
187	0x3d46948e	0.048481517
188	0x3dbf2df2	0.09334935
189	0x3e81c16c	0.25342882
190	0xbea308a3	-0.31842527
191	0xbe2f862c	-0.17141026
192	0x3cf32dde	0.029684957
193	0xbe340ad6	-0.17582259
194	0xbe215e5e	-0.15758654
195	0x3ea7e6b5	0.32793203
196	0x3dba685b	0.091019355
197	0xbd4ab973	-0.049493264
198	0xbe089a08	-0.13340008
199	0xbe5799c7	-0.21054755
200	0xbe70e177	-0.23523508
201	0x3ee8357d	0.45353308
202	0xbe2a6095	-0.16638406
203	0xbdb55694	-0.08854404
204	0xbe36f9a2	-0.17868665
205	0x3e8e9b24	0.27852738
206	0xbf119578	-0.56868696
207	0xbd5428ce	-0.051796727
208	0x3d1d24ea	0.038365282
209	0xbd3cdfe0	-0.04611194
210	0xbf0380cc	-0.51368403
211	0xbe6117c0	-0.21981716
212	0xbc4265b1	-0.011865065
213	0xbec33924	-0.38129532
214	0xbbc15d5b	-0.0059010214
215	0xbdd8ca84	-0.10585502
216	0x3e776ece	0.24163362
217	0xbeba31aa	-0.36366016
218	0xbb04860b	-0.0020221497
219	0xbe1092ba	-0.14118472
220	0xbdbae58b	-0.09125813
221	0xbd5c7a5e	-0.053827636
222	0x3e19f15b	0.15033476
223	0x3ed40180	0.41407394
224	0x3df8b03d	0.1214299
225	0x3e1525c8	0.14565194
226	0x3ddd540a	0.10807045
227	0x3e973899	0.29535368
228	0xbea0b677	-0.3138921
229	0x3e4899b2	0.1958988
230	0xbdcef96c	-0.10106167
231	0x3d962db1	0.07332934
232	0xbe97c3fc	-0.29641712
233	0xbe058f39	-0.13042916
234	0x3eeb17aa	0.45916492
235	0x3db0d9a3	0.08635261
236	0x3dda32ce	0.106542215
237	0x3dbcad50	0.09212744
238	0x3e652ace	0.2237961
239	0xbe8bf117	-0.27332374
240	0x3d9e5a63	0.07732084
241	0x3da0152b	0.078165375
242	0xbec2b212	-0.38026482
243	0xbdec7ac8	-0.11546856
244	0x3e8bc919	0.27301863
245	0xbce6af18	-0.028159663
246	0xbe2fcc56	-0.17167792
247	0xbe72edd7	-0.23723541
248	0xbdb6eb56	-0.089316055
249	0x3e1f79c2	0.1557379
250	0x3ed6164b	0.41813883
251	0x3e44e290	0.19227052
252	0x3e2d3920	0.16916323
253	0x3da9ae52	0.08285202
254	0xbb1ed0af	-0.0024233272
255	0xbe69f881	-0.22848703

layers.0.lin_l.bias f4 [128]
0	0x3db549b8	0.08851951
1	0xbe198ee4	-0.14995915
2	0xbd9dbfc9	-0.07702596
3	0xbe3f938c	-0.18708628
4	0xbe36bbbf	-0.17845057
5	0x3dde61e6	0.108585164
6	0xbdf4becb	-0.11950453
7	0xbe6a64c0	-0.22889996
8	0x3d7e944b	0.062153142
9	0x3d545c0d	0.0518456
10	0xbe8e3582	-0.27775198
11	0x3e277a99	0.16355361
12	0xbeadc5ef	-0.33940074
13	0x3c8130d5	0.015770355
14	0xbea55fcb	-0.32299647
15	0x3e47ab89	0.19499029
16	0xbdb40644	-0.087902576
17	0xbe5664ca	-0.20936885
18	0x3de8e83a	0.11372419
19	0x3e87a1c8	0.26490617
20	0x3e2bf287	0.16791736
21	0x3e803107	0.25037405
22	0x3e326983	0.17423062
23	0xbeaa205c	-0.33227813
24	0xbd0efafa	-0.03490732
25	0xbcd36310	-0.025804073
26	0x3c6173f6	0.013760557
27	0xbe1dd41e	-0.15412948
28	0x3e168b83	0.14701657
29	0xbdf91134	-0.12161484
30	0x3d0f9f9d	0.03506433
31	0x3dd6d9d7	0.104907684
32	0x3e80c213	0.25148067
33	0x3d50c73c	0.050971255
34	0x3db52c4c	0.088463396
35	0xbdfdc2ed	-0.12390695
36	0x3e4ab3a2	0.19795087
37	0x3e6004d5	0.21876843
38	0xbd5407c6	-0.051765226
39	0x3d2500a1	0.040283803
40	0xbdaf4740	-0.08558512
41	0xbd400621	-0.046880845
42	0xbd8768ef	-0.06611811
43	0x3e60f3d8	0.21968019
44	0xbe09bfce	-0.13452074
45	0xbd96a111	-0.0735494
46	0xbd5d0049	-0.05395535
47	0x3e541c3b	0.20713894
48	0x3e393b17	0.18088947
49	0x3dd896a5	0.10575608
50	0xbea81267	-0.3282654
51	0xbd5bd413	-0.053669047
52	0x3e586620	0.21132708
53	0x3d707938	0.058709353
54	0x3e56c6fe	0.20974347
55	0x3dfabe1c	0.12243292
56	0xbeb5e3e8	-0.3552544
57	0xbda49233	-0.08035698
58	0xbda6f4a1	-0.08152128
59	0xbe2e001e	-0.16992232
60	0xbd828d81	-0.06374646
61	0x3bd51428	0.006502647
62	0xbeaa3f70	-0.33251524
63	0xbdd66233	-0.10467949
64	0xbd004e2a	-0.031324543
65	0xbea3ad35	-0.31968084
66	0xbe8e7722	-0.27825266
67	0x3e4c3e92	0.19945744
68	0x3c6f9b7b	0.014624472
69	0x3e17d263	0.1482635
70	0x3d32b99d	0.043634046
71	0x3da748ce	0.08168183
72	0xbe03649a	-0.12831345
73	0xbd427e08	-0.047483474
74	0xbe6bdb74	-0.23032933
75	0x3c506db8	0.0127214715
76	0x3d98abe5	0.07454661
77	0xbe30f6c1	-0.17281629
78	0x3b5847ff	0.0033001897
79	0xbda77da2	-0.081782594
80	0xbe895038	-0.26819015
81	0x3db41beb	0.087943874
82	0x3e692928	0.22769606
83	0xbde625e0	-0.11237693
84	0xbea97673	-0.33098182
85	0xbdc4b7ea	-0.09605391
86	0xbe17fffe	-0.14843747
87	0xbe20b36f	-0.15693448
88	0x3d7ae59d	0.061254133
89	0xbe86ccda	-0.26328164
90	0x3b577212	0.0032874388
91	0x3dace102	0.08441354
92	0xbeafbfde	-0.3432607
93	0x3d9c84af	0.07642495
94	0x3e39ebd2	0.18156365
95	0x3daf53b1	0.08560885
96	0xbeec8f01	-0.46202853
97	0xbe185d25	-0.14879282
98	0xbe44ce91	-0.19219424
99	0xbe89954e	-0.26871723
100	0xbc49042c	-0.012269061
101	0xbcaeb3e8	-0.02132602
102	0xbd9b0fbd	-0.07571361
103	0xbe28cb7d	-0.16483875
104	0x3e013aa8	0.12620032
105	0xbdb0b416	-0.08628099
106	0x3e1bbb48	0.15208161
107	0xbe3c7dd2	-0.18407372
108	0xbe4a7c22	-0.19773915
109	0x3dc257df	0.09489416
110	0xbe81a343	-0.2531987
111	0x3dff04c6	0.12452082
112	0xbe672c76	-0.22575554
113	0xbeb74609	-0.3579562
114	0xbee5eb6e	-0.4490618
115	0x3e644ee3	0.22295718
116	0xbe0afef2	-0.13573816
117	0xbeb47ec2	-0.3525296
118	0xbeb40d7c	-0.35166538
119	0xbe29bb26	-0.16575298
120	0xbc027e05	-0.007964616
121	0xbe67b241	-0.22626592
122	0xbe973e98	-0.29539943
123	0x3deb690b	0.11494645
124	0x3d9707ca	0.073745325
125	0xbd146bd4	-0.036235645
126	0x3e5ad7b2	0.21371344
127	0xbd66e63e	-0.05637192

layers.0.lin_r.weight f4 [128, 11]
0	0xbd23c4ce	-0.03998261
1	0xbdd3ff63	-0.103514455
2	0xbb06063f	-0.00204505
3	0x3e129666	0.14315185
4	0xbe3d791b	-0.1850323
5	0xbea9ae44	-0.33140767
6	0x3e5ccd86	0.21562776
7	0xbd341889	-0.04396871
8	0xbe2abd37	-0.16673742
9	0x3ec85c09	0.39132717
10	0xbedda069	-0.43286446
11	0x3e9a3c54	0.30124152
12	0x3e96de84	0.2946664
13	0xbf14b271	-0.5808478
14	0x3e235cf9	0.15953435
15	0x3edd3025	0.43200794
16	0x3edddf9e	0.4333467
17	0xbe1726e5	-0.14760931
18	0xbeda46e8	-0.42632222
19	0xbeb0cbd7	-0.34530517
20	0x3f084146	0.532246
21	0x3d9c8e36	0.07644312
22	0x3e919326	0.28432578
23	0x3e8fe9af	0.28107974
24	0xbcd863c6	-0.026414763
25	0x3ea6d93d	0.32587615
26	0x3f077dcb	0.5292632
27	0xbe1f4ea5	-0.15557344
28	0xbd3c2a3e	-0.045938723
29	0x3e871853	0.26385745
30	0x3e147d61	0.14500953
31	0x3e00a7c9	0.12564005
32	0xbd570de2	-0.052503474
33	0xbe47aa6f	-0.19498609
34	0xbedbb4bb	-0.42911324
35	0xbe009363	-0.12556224
36	0xbec97a1a	-0.3935097
37	0x3b444851	0.002995033
38	0x3e5ea0b6	0.21740994
39	0xbe4f44d6	-0.20241103
40	0x3e2426f8	0.1603049
41	0xbeb4ba05	-0.35298172
42	0x3ef695c9	0.48161152
43	0x3d98be49	0.07458169
44	0xbea79666	-0.32731932
45	0x3e307dae	0.17235443
46	0x3dfc6f97	0.123259716
47	0xbe5ab614	-0.2135852
48	0x3e8e8c1d	0.27841273
49	0x3dd9ad5f	0.10628771
50	0xbdd0e2da	-0.101995185
51	0xbd4dd25d	-0.050249446
52	0x3e55c498	0.20875776
53	0xbd758c95	-0.059948523
54	0x3eb274ba	0.3485468
55	0xbf11bd61	-0.56929594
56	0xbf040c4e	-0.51581275
57	0x3cde1c2a	0.027113039
58	0x3d9998bc	0.07499835
59	0x3e6935f4	0.22774488
60	0x3e6b96c2	0.23006728
61	0xbedef398	-0.43545222
62	0x3eefc32a	0.46828586
63	0x3ca43cd9	0.020048546
64	0x3ca18ab1	0.019719454
65	0x3e9c6d2f	0.3055205
66	0x3e927dc2	0.2861157
67	0x3e2b4d42	0.1672869
68	0xbe102b44	-0.14079005
69	0xbd993ba3	-0.07482078
70	0x3dbaa5a0	0.09113622
71	0x3c12e91e	0.008966712
72	0x3de5de12	0.11223997
73	0xbe427a09	-0.18991865
74	0xbdd5d94f	-0.10441839
75	0x3e3f83cf	0.18702625
76	0xbe07bf5f	-0.13256596
77	0x3d1cbed1	0.038267914
78	0xbd4bccdd	-0.04975592
79	0xbdb8a457	-0.0901572
80	0x3d395708	0.045249015
81	0xbb97c792	-0.004631945
82	0x3d40703d	0.04698204
83	0x3e035be5	0.12828024
84	0xbdf25f9a	-0.11834641
85	0xbdb61425	-0.08890561
86	0xbda11284	-0.0786486
87	0xbde42c79	-0.11141295
88	0x3db98b2e	0.090597495
89	0xbc8b821c	-0.017029814
90	0xbed5ba5d	-0.41743746
91	0x3e975feb	0.29565367
92	0x3e95343d	0.29141417
93	0x3dfb9356	0.122839615
94	0xbedbf7b8	-0.42962432
95	0x3eff6dca	0.4988845
96	0xbeac7217	-0.33680794
97	0x3e82eae4	0.25569832
98	0xbe1aefe7	-0.15130578
99	0xbc4b644d	-0.01241405
100	0x3eb23fb3	0.34814224
101	0xbdb99477	-0.090615205
102	0x3ef48867	0.47760317
103	0xbd9b3871	-0.07579125
104	0xbe0da99b	-0.1383423
105	0xbd1808c9	-0.037117753
106	0x3ee6f252	0.4510675
107	0x3e0707e2	0.13186601
108	0xbccc2e0f	-0.024924306
109	0xbdc621bc	-0.09674403
110	0xbf02eccd	-0.5114258
111	0xbd18c904	-0.03730108
112	0xbe69848d	-0.2280447
113	0xbeaf0f45	-0.34191337
114	0x3e4903a5	0.19630297
115	0x3ed69efd	0.41918173
116	0xbe03a734	-0.12856752
117	0xbe1aab5d	-0.15104432
118	0x3f046d4c	0.51729274
119	0xbe824162	-0.25440508
120	0x3e9845b7	0.29740688
121	0xbe10b675	-0.14132102
122	0x3f0f3c46	0.55951345
123	0xbf321a7e	-0.69571674
124	0x3ec66c3e	0.38754457
125	0x3f646551	0.89217097
126	0x3e0a3670	0.13497329
127	0xbe7fb2f7	-0.24970613
128	0xbf464f8a	-0.77465117
129	0xbe22d3e7	-0.15901147
130	0x3d5b2e42	0.05351091
131	0x3e4c1332	0.19929197
132	0xbe983394	-0.2972685
133	0xbe5e53c0	-0.21711636
134	0xbe424352	-0.18970993
135	0x3eca0e04	0.39463818
136	0x3e182d65	0.14861067
137	0xbcc7616f	-0.024338452
138	0xbe86ac0f	-0.26303145
139	0x3e04ffa8	0.1298815
140	0xbd5198b4	-0.05117102
141	0xbea3946c	-0.31949174
142	0xbd453e90	-0.048155367
143	0xbe5ccb15	-0.21561845
144	0x3e6fbd94	0.23412162
145	0xbe6cac9c	-0.2311272
146	0xbe436ca7	-0.19084416
147	0x3c7e10e6	0.015506959
148	0x3e3d9346	0.18513212
149	0xbe874bb8	-0.26424956
150	0xbdbd8b39	-0.0925507
151	0x3e3b9132	0.18317106
152	0xbdf0c7ce	-0.1175686
153	0x3ecc2b94	0.39876997
154	0xbe44fc75	-0.1923693
155	0xbe3af3fd	-0.18257137
156	0xbf145f95	-0.57958347
157	0x3e397bcc	0.18113631
158	0x3c3063a7	0.0107659465
159	0x3e4f0d96	0.20220026
160	0x3e79e85e	0.24405047
161	0xbea6455a	-0.32474786
162	0xbd64d904	-0.055871025
163	0xbef8e7fc	-0.4861449
164	0xbf045107	-0.5168614
165	0xbd30722b	-0.04307763
166	0xbf0c23af	-0.5474195
167	0xbed44134	-0.41455996
168	0x3f095f99	0.53661495
169	0x3e5fe0d4	0.21863109
170	0xbcee7514	-0.029108562
171	0xbf40c809	-0.7530523
172	0x3ef99a48	0.4875052
173	0xbf1cf50f	-0.6131143
174	0x3eeedb72	0.46651798
175	0x3d99c508	0.07508284
176	0x3e3cf4b8	0.18452728
177	0xbf5be0e2	-0.8589002
178	0xbe823f8a	-0.254391
179	0x3eac67ee	0.33673042
180	0xbe58f6d1	-0.21187903
181	0x3d06e40c	0.032932326
182	0xbedd9430	-0.4327712
183	0x3eab6f0c	0.3348316
184	0xbef36faa	-0.4754613
185	0x3f4caaf9	0.79948384
186	0x3dfb4ae0	0.12270141
187	0xbe8d951f	-0.27652833
188	0x3edad22c	0.42738473
189	0x3d31bbfb	0.043392163
190	0xbedaacfc	-0.42710102
191	0x3e0f70ca	0.1400787
192	0x3e82bff8	0.25537086
193	0xbe3657dc	-0.17806953
194	0xbec38917	-0.3819053
195	0x3ebb62ac	0.36598718
196	0x3e79dfb6	0.24401745
197	0x3db7a181	0.08966351
198	0xbde688a5	-0.112565316
199	0xbf188460	-0.5957699
200	0x3e0f0e6f	0.1397035
201	0x3dc6e28c	0.09711179
202	0xbe702ed9	-0.23455371
203	0xbca25f22	-0.019820753
204	0xbeb05c07	-0.3444521
205	0x3efb0216	0.4902503
206	0xbd4a474b	-0.049384397
207	0xbeb351fb	-0.35023484
208	0x3ebc19ab	0.36738333
209	0xbd5ab9a2	-0.05339969
210	0x3c57eb0d	0.013178599
211	0xbe686ea3	-0.22698455
212	0x3e95455d	0.29154482
213	0xbe4bb929	-0.19894852
214	0x3c308b3b	0.010775383
215	0xbd0fdc5b	-0.035122257
216	0x3e7cc67b	0.2468509
217	0x3d4f2bb0	0.050578773
218	0x3d474dcf	0.04865819
219	0x3e8096b1	0.25114968
220	0xbe23e6e9	-0.16006054
221	0xbec18395	-0.37795702
222	0x3c844100	0.016144276
223	0xbca2840b	-0.019838354
224	0x3b97e97e	0.0046359887
225	0x3a100754	0.0005494256
226	0xbe0afc2c	-0.13572758
227	0x3f002546	0.50056875
228	0x3e648fe9	0.22320522
229	0xbef11b62	-0.47091204
230	0x3f00272e	0.50059783
231	0xbea72228	-0.32643247
232	0x3ded3f17	0.11584299
233	0xbe7e663e	-0.2484369
234	0xbda06f1b	-0.07833692
235	0x3f09e142	0.5385934
236	0x3e798568	0.24367297
237	0xbd86aee3	-0.06576326
238	0xbec3ffaa	-0.38280994
239	0x3dc66019	0.09686298
240	0xbd6657b8	-0.056236
241	0x3d64eaae	0.05588787
242	0xbcb47469	-0.022028165
243	0xbd173226	-0.03691306
244	0x3e314fb5	0.17315562
245	0x3d2cb8e6	0.04216852
246	0xbe6776a1	-0.22603847
247	0x3e60a2ca	0.21937099
248	0xbd8d2b05	-0.06892971
249	0x3f0dc7ba	0.55382884
250	0x3e466673	0.19375019
251	0xbef1830b	-0.4717029
252	0x3eeded06	0.46469897
253	0xbed4f600	-0.41593933
254	0xbec564b5	-0.38553396
255	0x3e83b595	0.25724474

layers.0.lin_r.bias f4 [128]
0	0xbec5560a	-0.38542205
1	0xbd7af647	-0.061270025
2	0x3e092039	0.13391198
3	0xbd7842f7	-0.060610738
4	0x3e99a9ba	0.30012304
5	0x3eec6974	0.46174204
6	0x3e387638	0.18013847
7	0xbd86af39	-0.0657639
8	0x3df57800	0.11985779
9	0x3d3515fa	0.04421041
10	0xbcdd8eb8	-0.027045593
11	0xba660561	-0.0008774605
12	0xbd88ad89	-0.06673724
13	0x3f251262	0.64481175
14	0xbe1cad2f	-0.1530044
15	0xbed8bd21	-0.42331794
16	0xbdce10d4	-0.100618035
17	0x3ed60d06	0.4180681
18	0xbddd2fe6	-0.108001515
19	0x3dd1b6e9	0.102399655
20	0x3efd9724	0.49529374
21	0x3e8ea1c0	0.2785778
22	0x3efffb7d	0.49996558
23	0x3de1c311	0.11023534
24	0xbe03f338	-0.1288575
25	0xbe14c337	-0.14527594
26	0xbe035411	-0.12825038
27	0xbeb8b3b4	-0.36074603
28	0x3e248cf8	0.160694
29	0x3e80e479	0.2517431
30	0xbe955019	-0.29162672
31	0xbe93c009	-0.2885745
32	0xbe3bc992	-0.18338612
33	0x3dcffe5a	0.101559356
34	0x3e470d0d	0.19438572
35	0xbd81f5ee	-0.063457355
36	0xbed2ca33	-0.4116989
37	0xbe5f879a	-0.21829072
38	0xbe5b943e	-0.21443269
39	0xbf1266a0	-0.57187843
40	0xbf1176b9	-0.5682178
41	0x3e402164	0.18762738
42	0xbeb50b78	-0.35360312
43	0xbe5fc9ec	-0.21854371
44	0xbe0494e9	-0.1294743
45	0xbf073b67	-0.52825016
46	0x3ddcbadd	0.10777829
47	0xbe1cd87d	-0.15316959
48	0x3f16061c	0.5860307
49	0x3ec92660	0.3928709
50	0xbe27b1e5	-0.16376455
51	0x3d7f6003	0.062347423
52	0xbe33c67e	-0.17556188
53	0x3ec629d6	0.38703793
54	0x3cb0efbd	0.021598691
55	0x3e843ad6	0.25826138
56	0xbedb9a54	-0.4289118
57	0xbd63f752	-0.055655785
58	0xbe4f161a	-0.20223275
59	0x3eef244e	0.46707386
60	0xbdcafd6f	-0.0991162
61	0xbf2fa180	-0.68605804
62	0xbbff6598	-0.0077940933
63	0x3d42b9fa	0.047540642
64	0x3e3e3301	0.18574144
65	0xbe86b364	-0.2630874
66	0xbe970f9a	-0.2950409
67	0xbd2f840d	-0.042850543
68	0xbe134466	-0.1438156
69	0xbe15afce	-0.14617845
70	0xbdfd7fe9	-0.123779126
71	0x3f050d17	0.519731
72	0xbed17198	-0.40906978
73	0x3e83d184	0.25745785
74	0x3c354240	0.0110631585
75	0x3bad3902	0.005286337
76	0xbd726181	-0.05917502
77	0xbe5a37ee	-0.21310398
78	0x3ea683d7	0.3252246
79	0xbd4a624b	-0.049410146
80	0x3e8f98eb	0.28046355
81	0x3e98bf71	0.29833558
82	0xbe18c9cf	-0.14920734
83	0xbe74ae72	-0.2389467
84	0xbc35ac33	-0.011088419
85	0x3cd72c19	0.026266145
86	0xbebc0518	-0.36722636
87	0xbe8291cb	-0.25501856
88	0xbee3f6b9	-0.44524172
89	0xbe8c05bc	-0.27348125
90	0x3e402dc0	0.18767452
91	0x3efffbd8	0.4999683
92	0xbe7a24fc	-0.24428171
93	0x3c6bcd24	0.014392171
94	0x3da75bc4	0.081718
95	0xbe2d9807	-0.16952525
96	0x3e7b54da	0.24544087
97	0xbe03385e	-0.12814471
98	0xbe8db210	-0.27674913
99	0xbcca5ea5	-0.024703333
100	0xbeb58c1d	-0.3545846
101	0x3eb79851	0.35858396
102	0xbdec448f	-0.11536514
103	0xbe604ebe	-0.21905038
104	0x3e4907ba	0.19631854
105	0xbebac9a2	-0.3648196
106	0x3be786b8	0.0070656203
107	0x3ec87bbf	0.3915691
108	0xbdd96ea2	-0.10616805
109	0xbd5ce31f	-0.053927537
110	0x3dd50382	0.1040106
111	0xbec64b69	-0.38729408
112	0xbe1fd6d6	-0.15609297
113	0x3e21370a	0.15743652
114	0x3f0305b0	0.51180553
115	0xbe5b3425	-0.2140661
116	0xbedc69bd	-0.43049422
117	0x3c92803e	0.017883416
118	0x3e97edd0	0.29673624
119	0x3c0f2ffa	0.008739466
120	0x3edf1c22	0.4357615
121	0xbe287135	-0.16449435
122	0x3e8902e3	0.26760015
123	0xbe568982	-0.20950893
124	0x3dac10c3	0.084016345
125	0xbe8fa572	-0.28055912
126	0xbe21ef15	-0.15813859
127	0x3efc3f53	0.49267063

layers.0.lin_edge.weight f4 [128, 13]
0	0xbe8d3de4	-0.2758628
1	0xbe513918	-0.20431936
2	0xbd942199	-0.07232971
3	0x3e0728bd	0.13199134
4	0x3ea07a0f	0.31343123
5	0x3e3e1535	0.18562777
6	0xbc1fe586	-0.0097593125
7	0xbdf9c137	-0.12195056
8	0x3ded24b7	0.115792684
9	0xbe2fcc24	-0.17167717
10	0xbde7a531	-0.11310805
11	0x3e179ddb	0.14806311
12	0xbe7ecb0a	-0.24882141
13	0xbd8b0798	-0.06788558
14	0x3f151ad1	0.58244044
15	0xbd3553c7	-0.04426935
16	0xbd843eec	-0.06457314
17	0x3ba39766	0.0049924133
18	0xbe3152dd	-0.17316766
19	0x3f2c82df	0.67387193
20	0x3f11e4dc	0.56989837
21	0xbf498961	-0.7872525
22	0x3ef115b4	0.4708687
23	0x3e8f8c8d	0.2803692
24	0x3f2a5dfc	0.6654966
25	0x3f137985	0.576073
26	0x3da113e3	0.07865121
27	0xbf59003e	-0.84765995
28	0x3ef68953	0.48151645
29	0x3d48bc54	0.04900773
30	0xbe955541	-0.29166606
31	0x3eba4b3e	0.3638553
32	0xbf07e2ee	-0.5308064
33	0xbf183ca2	-0.5946752
34	0x3effafb5	0.4993874
35	0xbe7e8af0	-0.24857688
36	0xbe3d0615	-0.18459351
37	0xbf2b773d	-0.6697882
38	0xbf11809a	-0.56836855
39	0xbd938113	-0.07202353
40	0xbebba3ee	-0.36648506
41	0x3ddf0462	0.10889508
42	0x3dc579ac	0.09642348
43	0xbe92eb6d	-0.2869524
44	0x3e3bba91	0.18332888
45	0xbeaead18	-0.34116435
46	0xbef542a8	-0.47902417
47	0x3f195c01	0.5990601
48	0xbe70d5a1	-0.23518993
49	0x3dc64482	0.096810356
50	0xbedce77e	-0.43145365
51	0xbe9c9502	-0.30582434
52	0x3e8b5efd	0.27220908
53	0xbe09f033	-0.13470535
54	0x3ea853d4	0.32876456
55	0x3e5d4ab1	0.21610524
56	0xbe5f315e	-0.21796176
57	0xbdbe5ea5	-0.09295396
58	0xbd725b81	-0.059169296
59	0x3e43678e	0.19082472
60	0x3d6f60a7	0.058441784
61	0x3df86bd3	0.12129941
62	0x3f02956f	0.5100927
63	0x3e43a4af	0.1910579
64	0x3e92e592	0.28690773
65	0xbbfe85ab	-0.0077673993
66	0x3f15dab8	0.58536863
67	0xbf00c062	-0.5029355
68	0xbe4429df	-0.19156598
69	0x3e2aba1a	0.16672555
70	0xbeb92958	-0.36164355
71	0x3e7d8a16	0.24759707
72	0x3efa66a7	0.48906443
73	0xbe08ac8f	-0.13347076
74	0x3eac4aad	0.33650723
75	0x3e18f00c	0.1493532
76	0x3efdbd29	0.4955838
77	0x3e343c56	0.17601141
78	0xbbb13f79	-0.005409178
79	0xbf291429	-0.66046387
80	0x3eb6ea7d	0.35725775
81	0x3e952bdc	0.29135025
82	0xbdae4d7b	-0.08510872
83	0x3e88e85d	0.2673978
84	0xbf6950fd	-0.91139203
85	0xbf528fb0	-0.822505
86	0x3f3f4a3f	0.74722666
87	0xbea93c0f	-0.33053634
88	0xbec0c872	-0.37652928
89	0xbf26af3d	-0.6511114
90	0xbf04aaa1	-0.5182286
91	0x3e3fb2b5	0.18720515
92	0x3f22af3d	0.6354864
93	0x3d063305	0.0327635
94	0xbe0dac27	-0.13835202
95	0x3cec555a	0.028849293
96	0xbdcb703c	-0.099335164
97	0x3f54f9f2	0.83193886
98	0x3efd072a	0.49419528
99	0xbf33fb35	-0.70305187
100	0x3efa4c6e	0.48886436
101	0x3d92f428	0.07175475
102	0x3ef7babf	0.48384663
103	0x3f1449c9	0.5792509
104	0xbe06f3a5	-0.1317888
105	0x3e94509b	0.28967747
106	0xbd0fc06b	-0.035095613
107	0x3e1708a8	0.14749396
108	0x3e928b81	0.28622058
109	0xbed3caec	-0.41365755
110	0x3f0917f5	0.5355218
111	0x3f025e1e	0.5092486
112	0xbf4c6e8e	-0.79856193
113	0x3f3817fe	0.7191161
114	0x3dd9839b	0.10620805
115	0x3f409bc8	0.75237703
116	0x3f48df95	0.7846616
117	0x3d96ace5	0.07357196
118	0x3e0d3b17	0.13792072
119	0xbec5fe40	-0.3867054
120	0xbe1529af	-0.14566682
121	0x3d42b9e0	0.047540545
122	0xbe82c11c	-0.25537956
123	0x3ecacb15	0.39608064
124	0x3e94af22	0.29039866
125	0xbee86d73	-0.45396003
126	0x3ea27da7	0.3173649
127	0xbe6b4f13	-0.22979383
128	0x3e1f24ff	0.15541457
129	0x3eb3b15b	0.3509625
130	0x3e32474a	0.17410007
131	0xbd5f29b3	-0.054483127
132	0xbf070816	-0.52746713
133	0x3d3d3f40	0.046202898
134	0x3dd49f6b	0.10381969
135	0xbe913725	-0.28362384
136	0x3ebe27a2	0.37139612
137	0xbe278084	-0.16357619
138	0xbe620041	-0.2207041
139	0x3e98af18	0.29821086
140	0x3eadab6b	0.33919844
141	0xbd83d0ed	-0.06436334
142	0x3e485950	0.1956532
143	0x3d755434	0.059894755
144	0xbf296ffd	-0.66186506
145	0x3e2f2ad2	0.17106178
146	0x3e107876	0.14108452
147	0xbea7c918	-0.3277061
148	0x3f0e2105	0.55519134
149	0xbf264329	-0.6494623
150	0xbf3173c4	-0.6931727
151	0x3f503106	0.81324804
152	0xbf2c6f41	-0.6735726
153	0xbed4cc3d	-0.4156207
154	0xbefb36b8	-0.49065185
155	0xbf19e313	-0.6011211
156	0x3d3c3ca8	0.045956284
157	0x3d5b5964	0.053552046
158	0xbe8913c1	-0.26772884
159	0xbe35263d	-0.17690368
160	0xbd99dbec	-0.0751265
161	0xbe93938e	-0.28823513
162	0x3e9b72a3	0.30360898
163	0x3e566693	0.20937566
164	0xbdb788ec	-0.08961663
165	0x3d8551a5	0.06509713
166	0xbcdd5261	-0.02701682
167	0x3e941139	0.2891939
168	0x3dd73735	0.10508577
169	0x3e6979db	0.2280039
170	0xbe335eb6	-0.17516598
171	0x3d8ce26d	0.06879125
172	0x3ce80934	0.0283247
173	0xbe4c1377	-0.199293
174	0xbd1bafed	-0.038009573
175	0xbeaf4cd1	-0.34238294
176	0x3da10726	0.078626916
177	0x3e3063a6	0.17225513
178	0x3e5fcef7	0.21856295
179	0x3eb5f102	0.35535437
180	0x3d909101	0.07058907
181	0x3cc441c3	0.023957139
182	0xbe2e19d0	-0.17002034
183	0x3e58e09c	0.21179432
184	0x3e7a8910	0.24466348
185	0xbbc10e81	-0.0058916216
186	0x3e936660	0.28789043
187	0xbd006b7b	-0.0313525
188	0x3efceebf	0.494009
189	0x3e910a0e	0.28327984
190	0xbf084882	-0.5323564
191	0x3cdda367	0.027055455
192	0xbdd9bd2d	-0.106317855
193	0x3e863912	0.26215416
194	0x3ea0ec9f	0.31430528
195	0x3ccf8efc	0.025336735
196	0x3e8bd891	0.27313665
197	0xbdf35c14	-0.11882797
198	0xbc4aa0c3	-0.01236743
199	0xbc76ceea	-0.015063981
200	0xbebf8368	-0.37404943
201	0x3f1b07a6	0.60558546
202	0x3eaf31e1	0.34217742
203	0xbe975f24	-0.29564774
204	0x3e02bfc9	0.12768473
205	0xbe35782b	-0.17721622
206	0x3dab4aa6	0.083638474
207	0x3eceffbb	0.40429482
208	0xbdcd4978	-0.10023779
209	0xbee85da8	-0.45383954
210	0x3efc5872	0.49286228
211	0x3e0335fd	0.12813564
212	0x3dc4fae8	0.09618169
213	0x3ed48d25	0.41513935
214	0xbe058467	-0.13038789
215	0xbf079fb7	-0.5297808
216	0x3f0a8c2c	0.54120135
217	0xbed40e72	-0.4141727
218	0xbdfb3566	-0.12266044
219	0xbec0c41e	-0.37649626
220	0xbdb42771	-0.08796585
221	0x3e60cc53	0.21952944
222	0xbdaca1e3	-0.08429315
223	0x3eb205be	0.34770006
224	0xba685a2e	-0.00088635355
225	0x3c8a45b7	0.016878946
226	0x3e1f3481	0.15547372
227	0xbf09246b	-0.53571194
228	0x3cc2cc42	0.023779038
229	0x3e8d04f0	0.2754283
230	0x3c8a311a	0.016869117
231	0x3e0907a5	0.13381822
232	0x3cfc953d	0.030832881
233	0xbe7e6b2d	-0.24845572
234	0x3df2e5f2	0.11860265
235	0x3f648290	0.8926172
236	0xbe684e87	-0.22686206
237	0xbe1a06da	-0.15041676
238	0x3dd1fcf7	0.10253327
239	0xbec3a08d	-0.38208428
240	0x3f2d4e4b	0.6769759
241	0x3f1bc484	0.60846734
242	0xbf3d2c39	-0.73895603
243	0x3f28136c	0.65654635
244	0x3e80321d	0.25038233
245	0x3f575d2f	0.8412656
246	0x3f1641ad	0.58693963
247	0xbdfb23af	-0.122626655
248	0xbe62ceba	-0.22149172
249	0xbd3e4f20	-0.04646218
250	0x3c98114b	0.018562933
251	0xbd9e52b7	-0.0773062
252	0x3e8e8e07	0.27842733
253	0xbf2a4515	-0.6651166
254	0xbeede298	-0.4646194
255	0x3eb0b52e	0.3451323

layers.0.res.weight f4 [128, 11]
0	0x3d6ceb7b	0.05784176
1	0x3e7fc763	0.24978404
2	0xbdfbe98a	-0.123004034
3	0xbc16a09e	-0.009193568
4	0xbe3120bf	-0.17297648
5	0xbd7919d5	-0.06081565
6	0x3e9fabb4	0.31185687
7	0xbe59e8f7	-0.21280275
8	0xbb4c65b4	-0.003118855
9	0x3e920f94	0.2852751
10	0xbec5595b	-0.38544735
11	0xbe0fc617	-0.14040409
12	0x3d1afa88	0.03783658
13	0x3d6ca7fe	0.057777397
14	0x3e6fe667	0.23427735
15	0x3e254221	0.16138507
16	0xbe0ac8db	-0.13553183
17	0xbd6834c5	-0.05669095
18	0x3d9b21bc	0.07574794
19	0x3dc8bdce	0.09801827
20	0x3d78f678	0.060781926
21	0xbc832ae0	-0.016011655
22	0xbdaae34b	-0.08344134
23	0x3eee4d8d	0.46543542
24	0xbee1251f	-0.43973634
25	0x3e17176b	0.14755027
26	0x3ec7c7f9	0.39019755
27	0xbea40658	-0.3203609
28	0xbe71da5f	-0.23618458
29	0x3efefabd	0.49800673
30	0xbe02f312	-0.12788036
31	0x3e0603a6	0.1308733
32	0x3e9a0d68	0.30088353
33	0xbec47af9	-0.3837507
34	0xbd388af6	-0.0450544
35	0x3eacc837	0.33746502
36	0x3d173833	0.03691883
37	0xbe91fbbf	-0.2851238
38	0xbe85b977	-0.2611806
39	0xbecc8a91	-0.39949468
40	0x3ecf1e91	0.40453008
41	0xbe94e6a0	-0.29082203
42	0xbe092590	-0.13393235
43	0xbe9fb8f8	-0.31195807
44	0xbdacd416	-0.0843889
45	0x3e2c74d6	0.16841444
46	0x3e18b2da	0.14911976
47	0xbe25a6ec	-0.16176957
48	0x3d7d6c9f	0.061871167
49	0x3e0c69f4	0.13712293
50	0x3e87c3a8	0.2651646
51	0xbd205608	-0.039144546
52	0xbd1014a8	-0.03517595
53	0x3e908f60	0.28234386
54	0xbe14ff1e	-0.14550444
55	0x3e300ff6	0.17193589
56	0x3e472edb	0.19451468
57	0x3e065729	0.13119186
58	0x3db55fe7	0.088561825
59	0xbf20c3fe	-0.6279906
60	0x3e54c0f2	0.20776728
61	0xbd4ad548	-0.049519807
62	0x3f043db2	0.5165664
63	0xbd2b3512	-0.04179866
64	0xbe1498cb	-0.14511411
65	0xbf75b1be	-0.9597434
66	0x3debabf5	0.115074076
67	0x3d11e77f	0.035621163
68	0xbea12b26	-0.31478232
69	0x3cfaa37b	0.030595532
70	0x3f242931	0.64125353
71	0x3eab7a3b	0.33491692
72	0x3e1cbec1	0.15307142
73	0xbf6d1d25	-0.92622596
74	0x3e819e2a	0.25315982
75	0xbdcb233d	-0.099188305
76	0x3d3a9519	0.045552347
77	0xbde15a47	-0.11003547
78	0xbe432977	-0.19058786
79	0x3eb59a73	0.35469398
80	0xbd8323ad	-0.06403289
81	0xbe2e250f	-0.17006324
82	0xbe86c984	-0.2632562
83	0xbd122efb	-0.035689335
84	0x3f25a4ea	0.64704764
85	0x3c9d8f68	0.01923342
86	0xbd771fea	-0.06033317
87	0xbe1ea56c	-0.15492791
88	0x3e32ff54	0.17480212
89	0xbe652d77	-0.22380625
90	0xbe615a72	-0.22007158
91	0xbecc5672	-0.39909703
92	0x3e96b566	0.2943527
93	0x3e1e98b1	0.15487935
94	0xbe84855f	-0.25883004
95	0xbe8230b5	-0.25427786
96	0xbb96785e	-0.0045919856
97	0xbe60d8fd	-0.21957774
98	0x3de8f91c	0.11375639
99	0x3c5e803e	0.01358038
100	0xbca946a7	-0.020663572
101	0x3c5386f1	0.0129105905
102	0xbd78e926	-0.060769223
103	0x3c3602fd	0.011109111
104	0x3d877cf4	0.0661563
105	0x3e5d8796	0.21633753
106	0xbe190c82	-0.14946178
107	0x3ce16838	0.027515516
108	0x3ccd71e1	0.025078716
109	0xbe6b2ddd	-0.22966714
110	0x3d7ffad8	0.062495083
111	0xbe074285	-0.13208969
112	0xbd0f0487	-0.034916427
113	0x3df5e568	0.120066464
114	0xbda93f73	-0.08264055
115	0xbdcf478f	-0.101210706
116	0x3da575cc	0.080791086
117	0xbd2904ff	-0.04126453
118	0xbd8fc14e	-0.07019292
119	0x3e5ed649	0.21761431
120	0xbe5c55b4	-0.21517068
121	0xbd872698	-0.06599158
122	0x3dd15006	0.102203414
123	0xbe4ac256	-0.19800696
124	0xbd7ed3b3	-0.06221361
125	0xbe997f2b	-0.29979834
126	0xbcbe58f2	-0.023235772
127	0x3d9c7123	0.076387666
128	0x3da88e85	0.082303084
129	0xbc20ce26	-0.009814775
130	0x3e7f8dbb	0.2495641
131	0x3ebfc74a	0.37456733
132	0xbe914e9b	-0.28380284
133	0x3e16932b	0.14704578
134	0x3e1c9631	0.15291668
135	0xbe346402	-0.17616275
136	0xbe597438	-0.2123574
137	0x3f1111f2	0.5666801
138	0xbe7b2e57	-0.24529396
139	0x3d623f44	0.055236116
140	0xbe394e77	-0.18096338
141	0xbca7cfc2	-0.020484809
142	0xbf0c45b6	-0.5479387
143	0x3e05853d	0.13039108
144	0x3e184083	0.1486836
145	0xbde60be7	-0.11232739
146	0x3e373d89	0.17894568
147	0x3e6e2580	0.23256493
148	0xbdff6b88	-0.12471682
149	0xbe31bf8a	-0.17358223
150	0x3eb8be01	0.3608246
151	0x3d7d5cc4	0.061856046
152	0x3e97e84c	0.29669416
153	0x3e4b3955	0.19846089
154	0xbc6f3297	-0.014599464
155	0x3d0db523	0.034596574
156	0x3cf5b60c	0.029994033
157	0x3da023f4	0.078193575
158	0xbd2642ce	-0.040591054
159	0xbd991e1e	-0.074764475
160	0x3d827590	0.063700795
161	0xbd52fa90	-0.051508486
162	0xbd7534e8	-0.05986491
163	0x3deada7d	0.114674546
164	0xbd9288fa	-0.071550325
165	0x3e730e28	0.23735869
166	0xbda9339f	-0.08261799
167	0xbdd16d4a	-0.10225923
168	0xbf0314c2	-0.5120355
169	0x3e537e20	0.20653582
170	0x3ed28dfd	0.41123953
171	0xbdbd48d1	-0.09242404
172	0xbe91c4b0	-0.28470373
173	0x3c5e6a0f	0.013575091
174	0xbe83236d	-0.25612965
175	0xbea5e71c	-0.32402885
176	0xbe871944	-0.26386464
177	0x3f05dda5	0.5229133
178	0xbbf66594	-0.0075194333
179	0xbd800558	-0.06251019
180	0x3d37c49d	0.04486524
181	0xbe9c7779	-0.305599
182	0x3ec06c6e	0.37582725
183	0x3eb6fbbd	0.35738936
184	0xbd1b84f2	-0.037968583
185	0x3e70a932	0.23502043
186	0x3fa82368	1.3135805
187	0x3e382612	0.17983273
188	0xbe3c65fd	-0.1839828
189	0xbdbbff36	-0.09179537
190	0xbc98be3c	-0.018645398
191	0x3e02171b	0.12704127
192	0xbe887d05	-0.26657882
193	0x3e14c378	0.1452769
194	0x3e37fe6d	0.1796815
195	0xbd22ec71	-0.03977627
196	0x3e7b249d	0.24525686
197	0xbebf639c	-0.37380683
198	0x3e7dbd2d	0.24779196
199	0x3e1fbdb5	0.15599711
200	0x3e34b054	0.17645389
201	0xbe2ae13e	-0.16687486
202	0x3de8d42f	0.11368596
203	0x3ea1f955	0.31635538
204	0xbd80097c	-0.06251809
205	0xbee64f17	-0.44982216
206	0xbdd4d921	-0.103929766
207	0xbe9365a8	-0.28788495
208	0xbec35dea	-0.38157588
209	0x3f65ff83	0.89843005
210	0x3eca9bd5	0.39572015
211	0x3ea86798	0.32891536
212	0x3ec592e5	0.38588634
213	0xbe5285a1	-0.20558788
214	0x3d4c4cdc	0.049877986
215	0xba9b3ca6	-0.0011843636
216	0x3f0ba94c	0.545552
217	0x3c7a0228	0.015259303
218	0xbe54b1d0	-0.20770955
219	0xbf6f24b6	-0.9341539
220	0x3e85fcdb	0.26169476
221	0xbed22803	-0.41046152
222	0x3e957a9a	0.291951
223	0xbe06b62d	-0.13155432
224	0xbd95431a	-0.07288189
225	0xbe08ad9b	-0.13347475
226	0x3d9c6bb4	0.0763773
227	0x3ee87f38	0.4540956
228	0xbd9077d6	-0.07054107
229	0x3d701039	0.05860922
230	0xbdbbbac6	-0.091664836
231	0x3e03026c	0.12793893
232	0x3d8c7153	0.068575524
233	0xbda930db	-0.082612716
234	0xbe2ace0c	-0.16680163
235	0xbca2bffd	-0.019866938
236	0xbc44af45	-0.012004678
237	0xbd8abc50	-0.06774199
238	0xbe0081e5	-0.12549551
239	0x3e4b4910	0.1985209
240	0xbd3060cc	-0.043061063
241	0xbde3d068	-0.11123735
242	0x3f166422	0.5874654
243	0x3eeec416	0.46633977
244	0xbe078aff	-0.13236617
245	0xbd2083ee	-0.039188318
246	0xbd79cfc9	-0.060989175
247	0xbe225000	-0.1585083
248	0x3e0c0208	0.1367265
249	0xbec987fb	-0.39361557
250	0x3ecc3cde	0.39890188
251	0xbb0fd314	-0.002194588
252	0xbe5b6856	-0.2142652
253	0x3c922dc1	0.017844083
254	0xbd3d9de8	-0.04629317
255	0xbd8f736f	-0.07004439

layers.1.att f4 [1, 4, 1]
0	0xbf916209	-1.1358043
1	0xbeef8fcc	-0.46789396
2	0x3f8314aa	1.0240681
3	0xbe14cfb7	-0.14532362

layers.1.lin_l.weight f4 [4, 128]
0	0x3d86003b	0.06543013
1	0xbe10e059	-0.14148082
2	0xbd52aac3	-0.051432382
3	0x3dffb9bd	0.12486599
4	0x3bf9ac63	0.007619427
5	0x3e1c9949	0.15292849
6	0xbdaf5f3f	-0.085630886
7	0x3ebcc49c	0.3686875
8	0x3e053119	0.1300701
9	0xbdcea9ab	-0.10090955
10	0x3d1635c1	0.036672357
11	0x3df96ad5	0.1217858
12	0xbdcc8216	-0.099857494
13	0x3d3a6f06	0.045516036
14	0x3d804f47	0.06265121
15	0x3e32581e	0.17416427
16	0xbf1f5370	-0.6223669
17	0xbdf15323	-0.11783435
18	0xbcc60a60	-0.024174869
19	0x3dd7ec0a	0.10543068
20	0x3dd7565d	0.10514519
21	0x3d453931	0.048150245
22	0x3d49d280	0.049273014
23	0xbe29880a	-0.16555801
24	0x3e79db61	0.24400093
25	0x3dbc118e	0.09183036
26	0xbd2db627	-0.042410042
27	0x3de918e7	0.11381703
28	0x3e05b30c	0.13056582
29	0x3e59e96b	0.21280448
30	0x3e7f163a	0.24910823
31	0x3d381cc6	0.044949315
32	0xbd40996f	-0.047021326
33	0x3e709d2c	0.23497456
34	0xbd122293	-0.035677504
35	0x3e6c3054	0.2306531
36	0xbbf75053	-0.007547417
37	0xbd205df8	-0.039152116
38	0xbe00c5d9	-0.12575473
39	0x3e8732f7	0.2640607
40	0xbd7b44cb	-0.061344903
41	0x3de9f195	0.11423031
42	0xbe97d0fa	-0.29651624
43	0x3e4ec0f0	0.20190787
44	0x3dddab3b	0.10823675
45	0xbd84563a	-0.06461759
46	0x3e8f7f3d	0.28026763
47	0xbda02915	-0.07820336
48	0x3c4c1af2	0.012457596
49	0x3e318851	0.17337157
50	0xbd60b8cb	-0.054863732
51	0x3d05a328	0.0326263
52	0xbdf4dc37	-0.11956065
53	0xbdcdc985	-0.100482024
54	0x3e92c1d8	0.28663516
55	0x3e1b163f	0.15145205
56	0x3ee770c6	0.45203227
57	0x3dadeb1c	0.08492109
58	0xbe139823	-0.14413504
59	0x3d8db21e	0.06918739
60	0x3dc74bcd	0.09731255
61	0x3da8300e	0.08212291
62	0xbe24123b	-0.1602258
63	0x3e1b1828	0.15145934
64	0x3e32eb16	0.1747249
65	0xbe02ee26	-0.12786159
66	0x3ee3c4ec	0.44486177
67	0xbd72bf51	-0.059264485
68	0xbcacc45d	-0.021089727
69	0xbc29c43d	-0.010361728
70	0x3e73cc2b	0.23808353
71	0x3e91ffb8	0.2851541
72	0xbeb777dd	-0.35833636
73	0xbdafa1be	-0.08575772
74	0x3e0f11f4	0.13971692
75	0x3d34c053	0.044128727
76	0x3d26b088	0.040695697
77	0x3e4d2139	0.20032205
78	0x3dce7b63	0.10082128
79	0x3e529bf0	0.20567298
80	0x3e75feca	0.24022976
81	0x3e2dc683	0.16970257
82	0x3e8f9d07	0.2804949
83	0xbdb152ba	-0.08658357
84	0xbe99bfa2	-0.30029017
85	0x3df546bd	0.11976383
86	0x3e5173ef	0.20454381
87	0xbe614ce9	-0.22001995
88	0x3d592e3f	0.05302262
89	0x3dfbf71b	0.12302991
90	0x3d7fe1fa	0.062471367
91	0xbf05a283	-0.522011
92	0x3d0a8e03	0.03382684
93	0xbdb5f015	-0.08883683
94	0x3e0dbd81	0.13841821
95	0x3db955ac	0.09049544
96	0xbe03f0c0	-0.12884808
97	0xbe3a143b	-0.1817178
98	0xbd31fd52	-0.043454476
99	0x3d223492	0.039600916
100	0x3e8a1509	0.26969174
101	0xbd972f97	-0.07382124
102	0x3ebb7855	0.36615244
103	0x3e05b054	0.13055545
104	0xbd63a11f	-0.05557358
105	0x3cba7f05	0.022765646
106	0xbc565a34	-0.01308303
107	0xbc8c391c	-0.017117076
108	0xbe0ec988	-0.13944066
109	0x3e8f6dfc	0.280136
110	0x3e59269c	0.21206135
111	0x3dc79011	0.09744275
112	0xbc1d9af8	-0.009619467
113	0x3e59ec1f	0.2128148
114	0x3df2d3af	0.11856782
115	0xbe0c301e	-0.1369023
116	0x3d78475c	0.06061493
117	0x3eca0018	0.39453197
118	0xbdca85f8	-0.09888834
119	0x3b4e9973	0.0031524568
120	0x3db21872	0.08696069
121	0x3e31faf8	0.17380893
122	0xba441e95	-0.0007481364
123	0x3e43f548	0.19136536
124	0xbe339000	-0.175354
125	0xbcdc1c8e	-0.026869085
126	0x3e35eeb2	0.17766836
127	0xbd710b0a	-0.05884842
128	0x3e0d4dd0	0.13799214
129	0x3d274761	0.040839557
130	0xbe7a6945	-0.2445422
131	0x3d974c5d	0.07387612
132	0x3e2be9d5	0.16788419
133	0xbe35d175	-0.17755683
134	0x3e023fcb	0.12719648
135	0x3e5b1295	0.21393807
136	0x3ca1f08b	0.01976802
137	0xbe0e9804	-0.13925177
138	0x3c94a8e6	0.018146943
139	0x3e7b4240	0.24536991
140	0xbdfa04b7	-0.122079305
141	0x3ee379b2	0.44428784
142	0x3d0d2eca	0.03446845
143	0xbc646bad	-0.0139416875
144	0xbea57494	-0.32315505
145	0xbdadd10d	-0.08487139
146	0x3dc2801d	0.09497092
147	0x3eee8b38	0.4659059
148	0x3b4ef1e7	0.003157729
149	0x3dce3bec	0.10070023
150	0x3e67eb69	0.22648396
151	0xbe2045be	-0.15651605
152	0xbafca905	-0.0019276446
153	0xbe27291c	-0.16324276
154	0xbe14934b	-0.14509313
155	0x3e98a254	0.29811347
156	0xbe86429f	-0.26222703
157	0xbe9075e6	-0.2821495
158	0x3e07e6fa	0.13271704
159	0x3f20c5a5	0.6280158
160	0x3e4af4bd	0.19819923
161	0xbeb6f658	-0.3573482
162	0xbcd218a7	-0.02564652
163	0xbda540b3	-0.08068981
164	0xb9dc2d7c	-0.00041995558
165	0xbe152ec3	-0.1456862
166	0x3ebe9b37	0.37227795
167	0x3e3117aa	0.17294183
168	0x3dac1a84	0.08403495
169	0xbcab846c	-0.020937167
170	0xbe51f6a7	-0.20504247
171	0x3e49d6e6	0.19710883
172	0x3e88a73a	0.26690084
173	0xbe0ed4a1	-0.13948299
174	0x3f96b1b2	1.1772978
175	0x3dbba700	0.09162712
176	0xbd006960	-0.031350493
177	0x3e5001e9	0.20313229
178	0x3e19beed	0.15014239
179	0x3deee307	0.11664396
180	0x3cafba2b	0.021451076
181	0x3d7778a9	0.060417805
182	0x3e602c09	0.21891798
183	0x3e0800db	0.13281576
184	0x3d839961	0.06425739
185	0x3cfc0312	0.030763183
186	0x3c99a93f	0.01875746
187	0x3e175df2	0.14781931
188	0xbd4c3103	-0.04985143
189	0x3e43851b	0.19093744
190	0xbe2bdcc1	-0.1678343
191	0x3e01b280	0.12665749
192	0x3e1edffb	0.1551513
193	0x3e4911f5	0.19635756
194	0xbe400ba5	-0.18754442
195	0x3a934584	0.0011235927
196	0x3e9f7f77	0.31151935
197	0x3e4e385a	0.20138684
198	0x3d93492a	0.07191689
199	0x3e17b121	0.14813663
200	0xbe49bf97	-0.19701992
201	0xbd6e17c8	-0.05812815
202	0x3db0a745	0.08625654
203	0x3ecdb090	0.4017377
204	0x3e8b24eb	0.27176604
205	0x3dc6a9de	0.09700368
206	0x3e5c77ca	0.21530071
207	0x3eb2fb95	0.34957567
208	0xbdb74d86	-0.08950333
209	0x3e0a6aa8	0.13517249
210	0x3e68e4c7	0.22743522
211	0x3e0488e8	0.1294285
212	0xbdf4b274	-0.119481
213	0x3d1e592f	0.03865927
214	0x3df814a7	0.12113314
215	0x3e3a29bc	0.18179983
216	0xbd833063	-0.064057134
217	0xbe310eef	-0.17290853
218	0x3e6e02b4	0.23243219
219	0xbf07ed1a	-0.53096163
220	0xbd675d4d	-0.056485463
221	0xbd27360d	-0.04082303
222	0xbda5aacb	-0.08089217
223	0x3d5d9699	0.0540987
224	0x3e0705f4	0.13185865
225	0xbd9d06ac	-0.07667288
226	0x3e2174a3	0.1576715
227	0x3d967b41	0.073477276
228	0xbdd999ea	-0.1062506
229	0x3e52550b	0.20540254
230	0x3e21de8b	0.1580755
231	0xbd2c65cb	-0.042089265
232	0x3b2b698d	0.0026155442
233	0x3ea97b20	0.3310175
234	0xbe148787	-0.14504825
235	0x3e27fb2f	0.16404413
236	0x3dc19b80	0.094534874
237	0x3eb6299d	0.35578623
238	0xbe00e106	-0.1258584
239	0xbd91b20d	-0.071140386
240	0x3e114a42	0.14188483
241	0x3c92dbcb	0.017927071
242	0x3e0fde4a	0.1404964
243	0x3e7590d7	0.23981033
244	0x3cd77259	0.026299642
245	0x3ddea0ca	0.10870512
246	0x3d9484c1	0.07251883
247	0x3ca4020a	0.020020504
248	0x3e4618bd	0.19345374
249	0xbd685043	-0.05671717
250	0xbcc990a1	-0.024605097
251	0x3e2a0e79	0.16607083
252	0x3db64f5b	0.089018546
253	0x3e9f8660	0.31157207
254	0x3e437ef6	0.190914
255	0x3e6a78db	0.22897665

layers.1.lin_l.bias f4 [4]
0	0xbc51e48e	-0.012810839
1	0x3e2bd64b	0.16780965
2	0xbcbac45e	-0.022798713
3	0x3dd6cf79	0.10488791
