code/gnn/models/training/GCN/total/2/best_model.pt (torch, 6376 bytes, 3 tensors)

layers.0.bias f4 [64]
0.6413293 0.89403296 -0.04752345 0.7089614 0.05663076 -0.0425498 0.8434134 0.2226011
1.0035113 1.111427 1.1727908 -0.049230393 0.1163986 0.94266075 0.81833094 1.1285415
0.1076678 0.119117826 -0.06985756 0.23939033 0.89779717 0.91880554 1.0798186 -0.28474838
0.9767813 0.12077487 1.0748557 0.2106476 0.48838326 1.025516 0.92774564 0.81118476
-0.2416756 -0.024511386 -0.16957586 0.93690157 0.42233208 0.2583151 0.62445134 1.135702
0.13529329 0.21090063 1.0860122 1.1279671 0.91929287 0.21551664 -0.086170375 1.09126
0.8865785 0.85972077 0.20103623 1.1067004 0.7809179 1.0475196 0.8748074 0.8066707
0.2884136 0.93144536 0.77135885 -0.024850445 0.26450035 0.05660039 0.20145819 0.85989535
00000000: 282e 243f 58df 643f f3a7 42bd 7f7e 353f
00000010: a8f5 673d b348 2ebd f1e9 573f 8bf1 633e
00000020: 0f73 803f 3d43 8e3f 021e 963f cfa5 49bd
00000030: 6462 ee3d 3752 713f 237e 513f 0c74 903f
00000040: ef80 dc3d 0cf4 f33d 7b11 8fbd bd22 753e
00000050: 09d6 653f d736 6b3f 7f37 8a3f 8aca 91be
00000060: 570e 7a3f d158 f73d df94 893f 01b4 573e
00000070: 5f0d fa3e 1c44 833f bd80 6d3f cea9 4f3f
00000080: cf79 77be 1acc c8bc 4ba5 2dbe c8d8 6f3f
00000090: e93b d83e e041 843e 0bdc 1f3f af5e 913f
000000a0: 538a 0a3e 56f6 573e 7302 8b3f 3a61 903f
000000b0: c756 6b3f 65b0 5c3e 187a b0bd 68ae 8b3f
000000c0: cff6 623f a916 5c3f 71dc 4d3e 5ca8 8d3f
000000d0: 3cea 473f 1f15 863f 61f3 5f3f f981 4e3f
000000e0: f3aa 933e 3473 6e3f c677 453f 2993 cbbc
000000f0: 976c 873e cfd5 673d 0e4b 4e3e 1a22 5c3f

layers.0.lin.weight f4 [64, 14]
1.5719253 -0.19044566 -0.8530744 -1.0455565 -1.6797986 0.62443566 3.0724535 0.14513163
-0.20517717 -1.4926522 -0.012802994 0.62991565 -1.8265187 1.0906584 -0.813018 1.3878754
0.23831262 -0.4689854 -0.9259248 1.3438863 -0.05170556 -1.0316275 0.38598096 -0.027139831
-0.18042746 0.3537772 -0.20924419 -0.3576124 -0.0039827493 0.022431841 -0.0772683 0.0022212106
0.04645255 0.05301633 0.054908566 -0.09221524 0.0116541805 -0.074529186 -0.003311243 0.03442198
0.037566222 0.0049839457 -1.5386385 1.5257776 0.26683632 -0.12853363 -1.4420244 0.6417426
0.5451013 -0.74712247 0.29189423 -0.18665057 -0.24359751 0.4416121 -0.9086996 -0.5933901
0.90264404 0.4101177 -1.5527272 0.4781631 -0.35245684 -0.40483496 2.7190833 0.22888933
1.7959381 -3.4197237 0.8980816 -0.26951063 -1.1250097 1.3812301 0.044247545 -0.052432645
-0.06979047 -0.06761175 0.0074912184 -0.007959621 0.08878511 -0.06684821 0.06519925 -0.054021947
-0.03561287 0.008375334 -0.047100767 -0.004815518 -1.437518 1.2220217 0.74300605 0.63690984
-1.1539673 0.35233137 -0.28271452 -0.20285286 -0.38987973 0.6452592 -0.5235062 0.16693059
-0.18479802 -0.38435447 1.8119403 0.17463334 -1.2931404 0.12601475 -0.7708439 -0.2650145
2.2913272 0.3443684 0.3212157 -2.950728 0.88057363 -0.2975822 -1.2779226 1.2735759
-1.9368734 0.85777205 0.31451148 -0.04550129 -0.17607853 0.43295383 -0.19192414 -1.1350207
0.520088 -0.01072639 -0.22590905 0.40752262 -0.868034 0.15349296 -2.0145586 0.65032005
0.20790076 -0.14866132 -0.13159624 0.44447207 -0.4236117 -1.0906411 0.48274082 0.37778577
-0.7650943 0.75170124 -1.1661886 0.32261416 -3.1967037 -0.080818474 0.273922 0.17789851
-0.56624854 -0.21247768 -0.37406644 -0.13088058 -0.3578578 0.50801665 -0.44259953 0.38652858
-0.9926401 0.47006258 -0.010584077 -0.034241147 -0.08029654 -0.0023017393 0.064057924 0.10576806
0.009113736 0.0035932178 0.030159941 0.021259507 0.00057840016 0.09241881 0.041036382 0.09743946
1.1811628 0.4559371 -1.1324707 -2.191238 0.11967895 -0.25389737 1.2133491 0.078620926
2.9302638 -4.3083754 0.89624935 -0.2723169 -1.4992965 -0.058402788 -1.8797171 0.71508354
0.42841205 0.041282035 -0.2776911 0.6603333 -0.010829294 -0.9571566 0.6323722 -0.10247049
-0.19949664 0.20506917 -0.3543072 0.22698224 -0.37741283 1.5266826 0.3188157 -1.1204134
0.14754805 1.2563314 -0.46600318 -1.2320164 0.62297094 0.035630934 -0.13811615 0.20834756
0.4148339 0.03707212 -3.1021068 -0.20783707 0.30401716 0.49351212 -0.08566144 -0.16750352
-0.76054054 -0.29453033 -0.11012007 0.75316864 -0.6184146 0.45726773 -1.1658596 0.4263748
1.3794986 -0.4455469 -1.1587002 -1.7531515 1.6756618 0.27437702 -0.99999213 -2.1237822
1.4553297 0.42291552 -0.44581968 0.34587377 0.68816197 -0.3515489 1.5108873 0.5552891
-1.148354 -1.3450788 0.13737081 -0.21728684 1.4146804 0.23341382 2.5307286 -3.7915564
0.8887301 -0.33097357 -1.5591874 0.20741048 -0.0076001543 -0.0025174 0.0546039 -0.04173018
00000000: d934 c93f 3004 43be 1563 5abf ccd4 85bf
00000010: a403 d7bf 04db 1f3f 14a3 4440 639d 143e
00000020: f719 52be 3a0f bfbf a6c3 51bc 2742 213f
00000030: 5dcb e9bf b29a 8b3f f321 50bf e7a5 b13f
00000040: 3908 743e db1e f0be 6809 6dbf 7704 ac3f
00000050: 36c9 53bd 5f0c 84bf 4c9f c53e 5a54 debc
00000060: fac1 38be 4922 b53e 1c44 56be f918 b7be
00000070: b981 82bb fbc2 b73c d83e 9ebd bb91 113b
00000080: 0745 3e3d a727 593d cee7 603d 58db bcbd
00000090: 2df1 3e3c c2a2 98bd 7001 59bb 10fe 0c3d
000000a0: 0adf 193d 5e50 a33b 1bf2 c4bf ae4c c33f
000000b0: c59e 883e 529e 03be 4194 b8bf 3e49 243f
000000c0: c28b 0b3f 6b43 3fbf 2973 953e 5421 3fbe
000000d0: a071 79be fb1a e23e 89a0 68bf 6ae8 17bf
000000e0: ae13 673f f2fa d13e c4bf c6bf cbd1 f43e
000000f0: 3975 b4be 8746 cfbe 7605 2e40 f761 6a3e
00000100: 4de1 e53f c1dc 5ac0 ade8 653f 4cfd 89be
00000110: 5100 90bf 26cc b03f ea3c 353d 9dc3 56bd
00000120: 4eee 8ebd 0778 8abd e578 f53b 1269 02bc
00000130: f8d4 b53d b7e7 88bd 2f87 853d 1e46 5dbd
00000140: cdde 11bd b238 093c bcec 40bd 7ecb 9dbb
00000150: 9700 b8bf 356b 9c3f a535 3e3f 860c 233f
00000160: 33b5 93bf c764 b43e f5bf 90be a9b8 4fbe
00000170: 519e c7be b52f 253f 8104 06bf daef 2a3e
00000180: b13b 3dbe 1cca c4be a9ed e73f 15d3 323e
00000190: a085 a5bf 030a 013e 0756 45bf fbaf 87be
000001a0: 1ba5 1240 0e51 b03e 6276 a43e bad8 3cc0
000001b0: 466d 613f b25c 98be f892 a3bf 8904 a33f
000001c0: 78eb f7bf f396 5b3f a607 a13e 905f 3abd
000001d0: ee4d 34be 20ac dd3e c387 44be 5c48 91bf
000001e0: 7d24 053f bebd 2fbc b454 67be cea6 d03e
000001f0: 7a37 5ebf 422d 1d3e 87ee 00c0 607b 263f
00000200: f0e3 543e ac3a 18be 2ac1 06be d891 e33e
00000210: a2e3 d8be 219a 8bbf ce29 f73e 236d c13e
00000220: 38dd 43bf 7e6f 403f ab45 95bf af2d a53e
00000230: cb96 4cc0 2884 a5bd 813f 8c3e 072b 363e
00000240: aaf5 10bf c093 59be a385 bfbe 8f05 06be
00000250: 2339 b7be 610d 023f 689c e2be 13e7 c53e
00000260: a91d 7ebf 0bac f03e d668 2dbc 7240 0cbd
00000270: 8372 a4bd c7d8 16bb cd30 833d ed9c d83d
00000280: c851 153c 317c 6b3b fb11 f73c 6b28 ae3c
00000290: c79f 173a 1346 bd3d c415 283d 578e c73d
000002a0: 5830 973f 9670 e93e cdf4 90bf 3e3d 0cc0
000002b0: 3d1a f53d d6fe 81be 064f 9b3f 0204 a13d
000002c0: 7189 3b40 36de 89c0 9970 653f 1f6d 8bbe
000002d0: f3e8 bfbf c337 6fbd 929a f0bf b70f 373f
000002e0: d358 db3e 5a17 293d 872d 8ebe 9a0b 293f
000002f0: 5a6d 31bc 3708 75bf 25e3 213f 0cdc d1bd
00000300: d948 4cbe a7fd 513e c167 b5be 086e 683e
00000310: 413c c1be 566a c33f d03b a33e b569 8fbf
00000320: d616 173e 78cf a03f f897 eebe b7b2 9dbf
00000330: 067b 1f3f bef1 113d 526e 0dbe 1059 553e
00000340: 1c65 d43e efd8 173d eb88 46c0 3ed3 54be
00000350: 23a8 9b3e 9fad fc3e 446f afbd 0b86 2bbe
00000360: c9b2 42bf aecc 96be a286 e1bd a9cf 403f
00000370: 6b50 1ebf ff1e ea3e e33a 95bf cc4d da3e
00000380: 6993 b03f b91e e4be 4a50 94bf 4567 e0bf
00000390: 167c d63f 257b 8c3e 7cff 7fbf 0cec 07c0
000003a0: 3e48 ba3f 6288 d83e 7a42 e4be 5e16 b13e
000003b0: 622b 303f 38fe b3be c164 c13f 6d27 0e3f
000003c0: 44fd 92bf 8b2b acbf efaa 0c3e 7180 5ebe
000003d0: 3f14 b53f 0804 6f3e 75f7 2140 dca8 72c0
000003e0: d183 633f 5e75 a9be 7493 c7bf 6a63 543e
000003f0: b70a f9bb f7fa 24bb 57a8 5f3d 44ed 2abd

layers.1.lin.weight f4 [1, 64]
-3.0056179 1.4214435 0.0051281126 1.6113285 -3.8991368 0.022347003 0.69587785 -2.9918234
2.4046571 3.0351255 1.8672183 0.010830953 -3.4624078 2.0673316 1.5204988 2.088616
-2.775677 -3.6335032 -0.008076042 -2.251465 2.1643286 2.3050203 2.9513648 -4.5150304
2.3809357 -2.6141691 2.5420446 -2.319356 -3.4109128 2.3733509 1.2529961 1.4542177
-1.4563109 0.007775827 -0.9153633 1.5238917 -4.61856 -3.4260256 -2.7367058 3.115221
-2.6122987 -3.603481 3.223712 2.9598377 -3.2872689 -4.107888 -3.2205606 2.521065
1.7154953 1.1681224 -3.8405662 2.6985893 -3.0600314 2.250773 0.9761172 0.73559415
-1.8098795 1.3055803 -3.0278456 0.00390783 -4.169728 -2.4026046 -3.7061281 -3.5509417
00000000: 0b5c 40c0 dcf1 b53f ba09 a83b 0340 ce3f
00000010: 758b 79c0 1011 b73c 0d25 323f 097a 3fc0
00000020: e7e5 1940 7f3f 4240 0201 ef3f 4f74 313c
00000030: 1798 5dc0 294f 0440 b49f c23f e2ab 0540
00000040: b1a4 31c0 518b 68c0 6051 04bc 0118 10c0
00000050: 5c84 0a40 7485 1340 29e3 3c40 217b 90c0
00000060: 4061 1840 8c4e 27c0 dcb0 2240 5470 14c0
00000070: 654c 5ac0 fbe4 1740 2d62 a03f ce23 ba3f
00000080: 6568 babf 5dcc fe3b 4055 6abf e20e c33f
00000090: 3ecb 93c0 0144 5bc0 3026 2fc0 c85f 4740
000000a0: e72f 27c0 6f9f 66c0 4c51 4e40 fb6d 3d40
000000b0: 9d62 52c0 d273 83c0 aa1d 4ec0 2159 2140
000000c0: 5a95 db3f 0985 953f d6cb 75c0 b0b5 2c40
000000d0: 8ed7 43c0 aa0c 1040 d1e2 793f e64f 3c3f
000000e0: 22aa e7bf 411d a73f 39c8 41c0 410d 803b
000000f0: 696e 85c0 46c4 19c0 3431 6dc0 a142 63c0
