code/gnn/models/training/GCN/export/7/best_model.pt (torch, 6376 bytes, 3 tensors)

layers.0.bias f4 [64]
00000000: 56e4 f83f a534 773f 822c cc3f dd13 ce3f
00000010: 0467 ca3f c4f0 813f d3bc 043f a176 db3f
00000020: 1d87 633e b897 f5bf f448 8dbd 2b9e d53f
00000030: 69f6 c83f c205 aa3f 0a83 a03f 315b ce3f
00000040: b8fb edbf 410e d13f eb54 6bbe 8266 aa3f
00000050: 8f8c 063f 26f6 033f 72ca 883e 67b2 ad3f
00000060: a2c1 c43f 648f 513f 9411 a1bf ee98 9abc
00000070: 83c1 c93e 257f 0c40 279a 243e d9b0 a03f
00000080: b12e 583f 0b84 ce3f 7dc8 9bbd b6d1 433f
00000090: 84a6 b13f 4164 e23f ff27 48bd 1e71 f33e
000000a0: a478 c03f 8f84 163e 9825 0a3f c7cf e73f
000000b0: 15ca 66bd ea3d bf3f 73f7 7f3f 7f18 443f
000000c0: 752c c23f 6449 c83f a0a3 de3f a5f6 a33f
000000d0: 92b6 ae3d 7003 cb3f cb25 da3d 2069 393f
000000e0: 1b74 2b3e 5691 b83f 76eb c73f 84c0 bc3e
000000f0: de35 563f 5e28 cd3f ae7c e0be f2f1 9bbd
1.9444683 0.96564704 1.5951083 1.6099812 1.5812688 1.0151601 0.5185062 1.7145578
0.2221951 -1.9186926 -0.0689868 1.6688894 1.5700198 1.3283007 1.253999 1.612158
-1.8592443 1.6332475 -0.22981612 1.3312533 0.52558225 0.5154747 0.26716954 1.3570069
1.5371592 0.8185942 -1.258349 -0.01887175 0.3940545 2.1952603 0.1607443 1.255397
0.84446245 1.6134046 -0.076065995 0.7649187 1.3878942 1.7686845 -0.04886627 0.4754724
1.5036817 0.14699005 0.53963614 1.8110284 -0.056345064 1.494077 0.9998695 0.7659988
1.5169817 1.5647397 1.7393684 1.2809645 0.08530916 1.5860424 0.1065174 0.72426033
0.1674351 1.4419353 1.5618732 0.36865628 0.83675945 1.6027944 -0.43845123 -0.07614507

layers.0.lin.weight f4 [64, 14]
00000000: 768a fa3e f7b1 183e 5b85 d9bf 50cb bcbf
00000010: 3d1f 62be d3bc 993f 772a 8ebd 6e53 adc0
00000020: c5de 1fbe 1166 343f 7ce4 92c0 b468 8740
00000030: 9d39 69bf a3bc 68bf 5331 833f 5be7 b83d
00000040: f8d9 33bf 1fa2 a5be c9db 31c0 ca92 84be
00000050: ce3f ae3f dd19 993f 1dc0 21bf acc7 0bbf
00000060: bf1d bdbe 1882 4dbd 3e7c 05c0 3044 993f
00000070: 29b0 debe d937 c0be 68fa 973e ae16 10be
00000080: 5ec0 3dbf 378b d4bd f92a 6dbe cc42 00c0
00000090: 1104 e1bd ffb7 9f3e ea4b 3bbf de13 b73f
000000a0: a2b0 c0bd 6283 8cbd 3f64 d3be bcb7 aabe
000000b0: c5bb 893e 9473 b3bc 2805 1bbf 142d 2c3d
000000c0: 9c2b c0be 4bbc ecbf 1a34 0ebb 5818 8c3e
000000d0: b57a 31bf 9d57 b53f fa55 8cbe 6ad5 d6bd
000000e0: 2d87 19bd 8534 2bbf 08f7 c8be 9276 613e
000000f0: 9945 b3be 5a79 c9be 32d3 973e a553 99bf
00000100: 73b7 2c3f 46a1 00bf 52e2 32bd 6919 c13f
00000110: 65e1 05c0 f977 bb3e 0a15 a3be 5df6 9c3e
00000120: 827f e23e 04e8 eabf 0e5a 13bf 90ec 6d3f
00000130: 23e1 efbe eb9b 8abf c7c9 09bf 60dc 533f
00000140: 96b9 bdbe 72aa 9d3e 2f70 823f f2d9 7d3e
00000150: 87e5 c5be e735 393f 4356 413f 4641 da3e
00000160: 28ff 0cc0 f0b3 983f 5d3d 9d3c 3379 65bf
00000170: 8f48 45bf 82c6 893f d7af 0fbf c6c9 993e
00000180: 130c 703f b6c7 fb3e db29 eabf b74e cfbe
00000190: 770f 60be a1c7 01c0 b20b c6bf fadb e33f
000001a0: 2818 afbd 506e b8bf 02ef 88bf 3604 be3f
000001b0: 6ce4 96c0 539a 2540 c544 0f3c 64c8 a4bd
000001c0: 12e2 073f a145 0ec0 0ceb 163f 3769 86be
000001d0: d910 cdbd 5a20 0ebf 55fc 933f 92cd 303f
000001e0: d31f 95be 32fe 07c0 13c8 c13e 5150 50bf
000001f0: 6016 95bf 3208 a23e 20ed 70be b7e1 86bf
00000200: 1fcd 973f c8c0 86be 2e9e 8d3f 18cd 1dbe
00000210: 919b 59be ee62 c23e 0d1c 57bf 35e8 4e3f
00000220: d3c5 abbe cf4e 1dbc 49c0 0c3f 67bf 54be
00000230: da9f cabd 1f30 83bd a0c3 a33d 282c 0cbe
00000240: cfb6 bebb 92d6 2d3e b7a8 a43d 0aa7 17be
00000250: c17b 6cba 3490 cebd 75db 33be debe b8bd
00000260: d393 3dbe e14b 403e bef8 dabd ecd4 0abf
00000270: c775 823e 8ed6 0b3d 0765 5bbf ad45 53be
00000280: e6f1 e4be 7d0d febf 9bee 8d3d a82e c23e
00000290: ef3e 68bf d259 c03f 44bb 96be 5e03 84bb
000002a0: e81d a5be 51dd c1be 21fc 753e 9d8a 55bd
000002b0: 590f 57bf 98f4 07be 9f54 8bbe b966 fcbf
000002c0: ee22 d2bd a88c ab3e 59cd 10bf 1545 bc3f
000002d0: 47e1 0ebe 9628 e3bd 0c07 5a3e df8d eabe
000002e0: c6d6 8c3e 40f0 a33d d487 79bf c864 1dbf
000002f0: 9c9a 26be b77b e6bf b573 c3be bc6d ff3e
00000300: 57dc 86bf f3bb c33f f904 57bf 13e5 cf3d
00000310: b550 f2bd a1cd c1be 66e6 4d3e 4685 0dbe
00000320: ec76 84bf 6136 8abe c0ef 3abe 2281 babf
00000330: c12f 5b3d b010 003f 6c86 6abf d321 9d3f
00000340: e08c c0bd 4bf6 2cbe 08a2 013e 7ee8 20bf
00000350: 47ff 6fbe 3365 e23e 8dbc 16bf aca9 13bf
00000360: f29d 1d3e ecbe b0bf 4aea f33e c265 febd
00000370: 9561 d2be 92c0 a23f 9227 c6bf c5d7 5d3f
00000380: 39ca bdbf f447 01c0 4976 acbe b335 a0bf
00000390: 7149 113f 49db 53bf a2f6 49bf d200 c93e
000003a0: d846 85bf 9a91 d53e 22c1 bbbf 1e31 2d3f
000003b0: 96bf b63e 0a2f 373f c599 61bf 8b80 10be
000003c0: 39ea 5e3e 635b b73e 829d 07bf a4b5 073d
000003d0: a6b0 b0be d69a d4bf 1d44 bb3e 2188 6c3e
000003e0: b006 16be d041 753f ae6a 24bf c4ce 173f
000003f0: f73d 0f3f 8f71 77c0 b778 6e3f afd3 94be
0.48933762 0.14911638 -1.6993822 -1.4749546 -0.22082229 1.201075 -0.06941693 -5.4164343
-0.15612324 0.7046824 -4.590391 4.231531 -0.91103536 -0.90912837 1.0249428 0.090285026
-0.7025447 -0.3235025 -2.7790396 -0.2589324 1.3613222 1.1961018 -0.63183767 -0.5460155
-0.36936757 -0.050172895 -2.0857081 1.1973934 -0.43493775 -0.37542608 0.29683232 -0.14071152
-0.74121654 -0.103781156 -0.23160924 -2.004077 -0.10987104 0.31195065 -0.7316271 1.4302938
-0.0940869 -0.06860997 -0.4128742 -0.33343303 0.2690107 -0.021905698 -0.6055474 0.042035177
-0.3753327 -1.8494962 -0.0021698535 0.27362323 -0.6932786 1.4167362 -0.27409345 -0.10489924
-0.03748243 -0.66877013 -0.3925097 0.22017887 -0.35014036 -0.39350396 0.29653317 -1.1978651
0.6746742 -0.50246084 -0.043672867 1.508588 -2.091882 0.3661497 -0.3185199 0.3065671
0.44237906 -1.8352056 -0.5755929 0.9293909 -0.46851453 -1.0828832 -0.5382351 0.8275814
-0.37055653 0.30794102 1.0190486 0.24790171 -0.38651678 0.72347873 0.7552225 0.42627925
-2.2030735 1.1929913 0.0191943 -0.8963806 -0.7706384 1.0763705 -0.56127685 0.30036753
0.93768424 0.49175805 -1.8294023 -0.40489742 -0.218809 -2.0278094 -1.5472319 1.7801507
-0.08549529 -1.4408665 -1.0697939 1.4845035 -4.7153835 2.5875442 0.008744423 -0.08046034
0.5307933 -2.2229998 0.58952403 -0.26252148 -0.10012979 -0.55518115 1.1561381 0.69063675
-0.29125842 -2.1248899 0.37847957 -0.81372553 -1.1647453 0.31646878 -0.23527956 -1.0537633
1.1859473 -0.26318955 1.1063898 -0.15410268 -0.2125075 0.37966102 -0.8402718 0.8082307
-0.33549365 -0.009601309 0.54980904 -0.20776139 -0.098937705 -0.06405663 0.07996297 -0.1368872
-0.0058201323 0.16976383 0.08039992 -0.14809814 -0.00090211263 -0.10086098 -0.17564185 -0.0902078
-0.18513422 0.18778946 -0.10691975 -0.54231143 0.25480482 0.034140162 -0.8570103 -0.20632048
-0.44715804 -1.9847866 0.06930276 0.3792622 -0.9072103 1.5027411 -0.29439747 -0.0040287217
-0.3224938 -0.37864164 0.24021961 -0.052134145 -0.84007794 -0.13276899 -0.27212998 -1.9718848
-0.102605686 0.3350575 -0.56563336 1.4708582 -0.13953124 -0.110917255 0.2129175 -0.45811364
0.2750761 0.080048084 -0.9747288 -0.61481905 -0.16269916 -1.8006505 -0.38174215 0.49888408
-1.0535992 1.5291733 -0.8399196 0.10151114 -0.118318 -0.37852195 0.20107421 -0.13820371
-1.0348792 -0.26994613 -0.1825552 -1.4570658 0.05351234 0.50025463 -0.9161136 1.2275947
-0.0940187 -0.16890828 0.12659466 -0.62854755 -0.23437224 0.44217834 -0.58881456 -0.57680774
0.15392283 -1.3808265 0.47639686 -0.124217525 -0.41090074 1.2715018 -1.5480826 0.86657363
-1.4827338 -2.0200167 -0.33683994 -1.2516388 0.5675269 -0.8275648 -0.78891957 0.39258438
-1.0412245 0.41712648 -1.4668314 0.6765307 0.35693043 0.7155615 -0.8812526 -0.14111535
0.21769036 0.3581191 -0.5297471 0.03313221 -0.34509772 -1.6609752 0.36575404 0.23098804
-0.14650989 0.95803547 -0.6422528 0.59299874 0.55953926 -3.866306 0.93152946 -0.29067752

layers.1.lin.weight f4 [1, 64]
00000000: 6304 1dc1 6223 0ac0 a229 3640 013f 1e40
00000010: 096d 3540 6327 243f fb95 403f 5739 9bc0
00000020: e7de bbbf 1ab5 01c0 f615 0bbe 2cde 4c40
00000030: 3968 3740 af13 1a40 a60f 923f b1e1 3140
00000040: cb05 2f40 f6ac 1d40 1f3d 0dc0 1ef7 ed3f
00000050: 82ce 90bf ca87 823f 9c06 dbbf 0c9a 1940
00000060: 03ee 2340 296a 583f 0df2 5cc0 fd79 5fc0
00000070: 7f5c 1bc0 58d5 cbc0 5208 cbbf a431 d23f
00000080: cafa 413f 2ec3 7f40 a28e 963d 38e3 0bc0
00000090: 0890 1540 af8f 4b40 34d4 1ebe 14be 04c0
000000a0: 1800 1b40 20d8 17c0 313d 7bc0 df0c ec40
000000b0: fe73 2d3b 5c8a 413f ca90 303f 5db3 233f
000000c0: 7cda 2540 8ce7 0540 982c 9fc0 54d8 c63f
000000d0: e727 65c0 6581 2640 c5a3 c2bf 72f1 45c0
000000e0: f96c dabf f25b 2040 01eb f63f 3c8d efbf
000000f0: b1c7 ddc0 8a11 3840 5c5e b9bf bd4f cbbd
-9.813571 -2.1584096 2.846291 2.4725955 2.83478 0.641226 0.7522885 -4.8507495
-1.4677399 -2.0266786 -0.13582596 3.2010603 2.8657362 2.4074514 1.1411026 2.7794
2.7347286 2.4636817 -2.2068555 1.8591039 -1.1313021 1.019769 -1.7111392 2.4000273
2.561402 0.8453699 -3.4522736 -3.4918206 -2.4275205 -6.369793 -1.5861914 1.6421399
0.757733 3.9962878 0.07351424 -2.1857433 2.336916 3.1806448 -0.15510637 -2.0741014
2.4218807 -2.3725662 -3.9256098 7.376571 0.0026466842 0.75601745 0.6897093 0.6394556
2.5914602 2.0922575 -4.9741936 1.5534768 -3.5805604 2.6016476 -1.5206228 -3.0928617
-1.7064506 2.505612 1.9290468 -1.8714976 -6.9306264 2.8760705 -1.4481921 -0.09927318
