code/gnn/models/training/MLP/multi-graph-export/9/best_model.pt (torch, 8808 bytes, 3 tensors)

lin1.weight f4 [128, 11]
0	0x3e9a6091	0.301518
1	0xbe87df36	-0.26537484
2	0xbf1ece0f	-0.6203317
3	0x3de7cbbe	0.113181576
4	0x3f87db31	1.0613767
5	0x3f15dbdf	0.5853862
6	0xbee621b0	-0.44947577
7	0xbd3b90eb	-0.0457925
8	0x3ee53747	0.44768736
9	0xbeea994f	-0.4582009
10	0xbf6a12d3	-0.91434973
11	0x3e9679f9	0.29389933
12	0xbe83a581	-0.25712207
13	0xbec7c9d3	-0.39021167
14	0xbd18d6a8	-0.037314087
15	0x3ea8d814	0.32977355
16	0x3eb61af0	0.35567427
17	0xbea66c61	-0.32504562
18	0xbebb1de1	-0.36546233
19	0x3efd29e7	0.4944603
20	0xbf40c6bd	-0.7530325
21	0xbd33e953	-0.043923687
22	0x3f9868ee	1.1907022
23	0xbeae2b2b	-0.3401731
24	0xbe345124	-0.17609078
25	0xbde7a5dc	-0.11310932
26	0x3ef4339d	0.47695628
27	0x3ecbbf78	0.39794517
28	0x3cb14ddf	0.021643577
29	0xbdaa3561	-0.083109625
30	0x3ea869af	0.3289313
31	0xbe8ca0cc	-0.27466428
32	0xbe4efa91	-0.20212771
33	0x3f135d75	0.5756448
34	0xbe8a4835	-0.27008215
35	0x3da5d689	0.0809756
36	0xbd4d7d0d	-0.050168086
37	0x3d0d4f01	0.034499172
38	0x3e34671b	0.17617457
39	0x3ca00916	0.019535583
40	0x3e9406de	0.2891149
41	0xbdd0485d	-0.10170052
42	0x3dbd7f18	0.09252757
43	0xbef84394	-0.48489058
44	0xbee2c5b6	-0.44291466
45	0xbd71e807	-0.05905917
46	0xbfb299d6	-1.3953197
47	0x3e77a337	0.24183355
48	0x3f8c1acc	1.0945678
49	0x3f61a7eb	0.8814685
50	0xbf701e38	-0.9379611
51	0xbf0a15c7	-0.5393948
52	0x3f29c11e	0.663103
53	0xbebfad16	-0.37436742
54	0xbf9ccf8c	-1.2250838
55	0xbdf6217a	-0.12018104
56	0xbe9b98ef	-0.30390117
57	0xbf0a8583	-0.5410997
58	0xbe3fa3d9	-0.18714847
59	0x3f0bf4d6	0.54670465
60	0x3e55452c	0.20827168
61	0xbecfd6dc	-0.40593612
62	0xbe6fd979	-0.23422803
63	0x3ec4227f	0.38307568
64	0xbf0010aa	-0.5002543
65	0xbf51ce45	-0.8195537
66	0x3ed7da45	0.42158714
67	0xbe7e809e	-0.24853751
68	0xbe994653	-0.29936466
69	0x3cd7c9b8	0.026341304
70	0xbe156ff7	-0.14593492
71	0x3e038ba0	0.12846231
72	0xbef47750	-0.47747278
73	0x3eda6ef6	0.4266278
74	0x3dcd6662	0.100292936
75	0xbe5e5485	-0.21711929
76	0xbf083da8	-0.5321908
77	0xbee126e5	-0.43974987
78	0xbdcffe6f	-0.10155951
79	0x3ed84194	0.42237532
80	0xbde5351e	-0.11191772
81	0xbea32eca	-0.31871635
82	0xbea70655	-0.32622018
83	0xbf571eef	-0.84031576
84	0x3ece7f57	0.40331528
85	0x3e834d00	0.25644684
86	0xbea46cfe	-0.32114404
87	0xbf3eba71	-0.74503237
88	0x3f527d34	0.82222295
89	0xbe10fe25	-0.14159448
90	0x3e8cf3cf	0.2752976
91	0xbe18a3f5	-0.14906295
92	0xbe9c1811	-0.3048711
93	0x3df96169	0.12176783
94	0xbf127750	-0.57213306
95	0x3deb2fb8	0.11483711
96	0x3e5f3123	0.21796088
97	0xbef9b3d0	-0.4877
98	0xbea7e37c	-0.32790744
99	0x3ed0ee4b	0.40806803
100	0xbec51123	-0.38489637
101	0x3f15f12a	0.5857111
102	0xbdff982f	-0.124801986
103	0xbebea4b8	-0.37235045
104	0xbf1c0deb	-0.6095874
105	0xbe9b4a71	-0.30330232
106	0x3f959b0f	1.1687945
107	0xbe6aa124	-0.22913033
108	0xbec6dc16	-0.38839787
109	0xbf751f1b	-0.9575059
110	0xbcc2fd4e	-0.023802426
111	0xbd925fcc	-0.07147178
112	0xbb0b0867	-0.0021214725
113	0x3c5282d2	0.012848573
114	0x3e1e3979	0.15451612
115	0x3e062a97	0.13102184
116	0x3dbb3b05	0.091421165
117	0x3e1926a6	0.1495615
118	0xbad9507b	-0.0016579771
119	0x3e503b04	0.20335013
120	0xbed7318a	-0.42029983
121	0x3d977d3d	0.07396934
122	0x3da035d0	0.07822764
123	0x3e2b6562	0.16737893
124	0xbe098fd3	-0.13433771
125	0x3e8a6a89	0.27034405
126	0xbe5f91b6	-0.21832928
127	0x3d9f7ab9	0.07787079
128	0x3e003e20	0.12523699
129	0xbe443f57	-0.19164787
130	0x3df07e03	0.11742785
131	0xbe5bbb6a	-0.21458212
132	0xbe7c0aa9	-0.24613442
133	0xbd20dfb4	-0.03927584
134	0xbe332877	-0.17495905
135	0x3ea54d37	0.32285473
136	0x3dcdf096	0.10055654
137	0xbe7f8796	-0.24954066
138	0x3e2a4819	0.16629066
139	0x3d18e4c5	0.037327547
140	0x3dd708c8	0.10499722
141	0x3d2dfd4c	0.04247789
142	0xbe9f3f64	-0.3110305
143	0x3f209357	0.6272482
144	0xbe1e0b5d	-0.15434022
145	0x3e919d30	0.28440237
146	0xbb85620a	-0.004070525
147	0xbeb29154	-0.34876502
148	0x3d85a22a	0.06525071
149	0xbec2304f	-0.37927482
150	0x3f0ead7d	0.5573347
151	0x3e81231c	0.252221
152	0xbecc9871	-0.39960054
153	0xbe6748e5	-0.22586401
154	0x3d94d5e2	0.072673574
155	0xbe0d7cd7	-0.13817154
156	0xbd3ea928	-0.04654804
157	0xbe14ab8b	-0.14518563
158	0xbe2110ce	-0.15729067
159	0xbe5cb228	-0.21552336
160	0xbe18dcd1	-0.14927985
161	0xbe988072	-0.29785496
162	0xbd85806d	-0.06518636
163	0x3d8eeb7a	0.06978507
164	0xbddc22e0	-0.107488394
165	0xbbc12bb6	-0.0058951033
166	0xbc8ad591	-0.01694754
167	0x3e3931ee	0.18085453
168	0x3ddd3350	0.10800803
169	0x3dab159f	0.08353733
170	0xbd9b502c	-0.07583651
171	0xbd1cf666	-0.03832092
172	0xbdd87654	-0.10569444
173	0xbdaa2aa8	-0.08308917
174	0x3e8f5ddb	0.28001294
175	0xbd99d074	-0.075104624
176	0x3ea9fc8c	0.3320049
177	0xbe437bb7	-0.19090162
178	0x3e7e019b	0.248053
179	0x3e93124a	0.2872489
180	0xbdfa1270	-0.12210548
181	0xbe444503	-0.19166951
182	0xbde97ed5	-0.114011444
183	0xbeb93d16	-0.36179417
184	0xbd04c44a	-0.03241376
185	0xbe3b3866	-0.18283233
186	0xbe8c72d8	-0.2743137
187	0xbf9712bc	-1.1802592
188	0x3f38d7a6	0.72204053
189	0x3e45c033	0.193116
190	0xbceeecd5	-0.029165665
191	0x3e3282c3	0.17432694
192	0xbebb2775	-0.3655354
193	0xbd7a1143	-0.06105162
194	0xbe9613c4	-0.29311955
195	0xbc2e3988	-0.010633834
196	0x3ea4e8c3	0.32208833
197	0x3faf8fee	1.3715799
198	0xbf06fcae	-0.5272931
199	0x3e92e0d0	0.28687143
200	0xbd170251	-0.036867443
201	0x3e14b636	0.14522633
202	0xbe03617c	-0.12830156
203	0xbdd2c101	-0.10290719
204	0x3e161e92	0.14660099
205	0x3f64f7f2	0.89440835
206	0x3d6e0488	0.05810979
207	0xbee28d95	-0.44248644
208	0xbf357b29	-0.7089105
209	0x3f3fe105	0.7495273
210	0xbe950fee	-0.29113716
211	0x3d567139	0.05235407
212	0xbabd859b	-0.0014459373
213	0xbe2c034c	-0.16798133
214	0x3e9d6d90	0.30747652
215	0xbe4f7393	-0.20258932
216	0x3f0c0521	0.54695326
217	0x3e3bb290	0.18329835
218	0xbeba4906	-0.36383837
219	0xbe97f1d6	-0.29676694
220	0xbde5c735	-0.11219636
221	0xbe09bfe7	-0.13452111
222	0x3eb86b78	0.36019492
223	0xbe13fa94	-0.14451057
224	0xbef32e67	-0.4749634
225	0xbe95c9c2	-0.29255491
226	0xbeefa7aa	-0.46807605
227	0x3ed43b78	0.4145162
228	0xbec07844	-0.37591755
229	0xbea29016	-0.31750554
230	0xbf381856	-0.71912134
231	0x3e2b5e3f	0.16735171
232	0x3dd8d34f	0.10587179
233	0x3c466af0	0.012110457
234	0xbe29a6aa	-0.16567484
235	0x3dd0a813	0.101883076
236	0xbdb30291	-0.08740724
237	0xbe535174	-0.2063654
238	0xbee0eb49	-0.43929508
239	0xbe5ce317	-0.21571003
240	0x3e8807c5	0.26568428
241	0xbe14fb54	-0.14548999
242	0xbee508b5	-0.44733205
243	0xbdf23cf3	-0.118280314
244	0x3ef18004	0.4716798
245	0x3e6641f2	0.22486094
246	0xbf317fa4	-0.6933539
247	0x3e83bd9d	0.257306
248	0xbf0acf99	-0.5422302
249	0x3f6e56d1	0.9310122
250	0xbe1afb07	-0.15134822
251	0xbf449ab0	-0.76798534
252	0xbf38ea4e	-0.7223252
253	0x3f5edf51	0.87059504
254	0xbea1ff50	-0.316401
255	0xbe44935e	-0.19196841

lin1.bias f4 [128]
0	0x3f04c246	0.5185894
1	0x3d26ea5a	0.04075084
2	0x3f20b83b	0.62781113
3	0x3ef305f9	0.47465494
4	0xbe1c80be	-0.15283486
5	0x3dccf554	0.1000773
6	0x3efce328	0.49392056
7	0xbe036592	-0.12831715
8	0x3e1e3ed4	0.15453655
9	0x3f278409	0.65435845
10	0xbcb00038	-0.02148448
11	0xbe9e6539	-0.30936602
12	0xbe720800	-0.23635864
13	0x3e398049	0.18115343
14	0xbeb8f737	-0.3612611
15	0xbe0138c6	-0.12619314
16	0x3e968e81	0.29405597
17	0x3e2708c0	0.16311932
18	0xbe898d5a	-0.26865655
19	0x3eff0fe5	0.49816814
20	0xbd855b34	-0.06511536
21	0xbeb91d6c	-0.3615526
22	0xbe06c71c	-0.13161892
23	0x3f0ca9cf	0.5494661
24	0xbe4d9f4a	-0.20080295
25	0xbcfc35f3	-0.030787444
26	0x3e927627	0.28605768
27	0x3eec8f30	0.46202993
28	0xbe617e1a	-0.2202076
29	0xbd767ae5	-0.060175795
30	0xbcc90b0a	-0.024541397
31	0x3f2520e4	0.6450331
32	0xbea037d6	-0.312926
33	0xbe518e48	-0.20464432
34	0x3f621a26	0.8832115
35	0x3e20a2ca	0.15687099
36	0xbda22eb4	-0.07919064
37	0x3c8fcbf0	0.0175533
38	0x3f5cbc37	0.86224693
39	0x3f1c6b92	0.6110164
40	0x3f2b490d	0.6690834
41	0x3ad63dea	0.0016345356
42	0x3eb6de12	0.357163
43	0xbd9097d8	-0.07060212
44	0x3e48bc83	0.19603162
45	0xbe9ede83	-0.31029138
46	0x3d00f1d1	0.031480614
47	0xbd9014e1	-0.07035232
48	0xbea039f0	-0.31294203
49	0xbe3ee68c	-0.18642634
50	0x3f19f722	0.6014272
51	0xbe1a57c1	-0.15072538
52	0xbe2cb9be	-0.1686773
53	0xbe9587b0	-0.29205084
54	0x3f772876	0.96546113
55	0x3d8aefef	0.06784045
56	0x3e5ca7d0	0.2154839
57	0xbbb7fe1c	-0.005615009
58	0x3f05fedf	0.5234203
59	0x3da199a9	0.078906365
60	0x3daa3a88	0.08311945
61	0xbdeb053b	-0.11475607
62	0x3f2f0ce7	0.6837906
63	0x3d443da6	0.047910355
64	0x3f482afe	0.781906
65	0x3eadf937	0.33979198
66	0x3e69f8b2	0.22848776
67	0xbe00443b	-0.12526028
68	0xbea0b8d2	-0.31391007
69	0xbdd33b5f	-0.103140585
70	0x3e9b06a8	0.30278516
71	0xbec8d9fa	-0.39228803
72	0xbe9e4f54	-0.30919898
73	0xbe40f0e2	-0.1884189
74	0x3d9b70af	0.07589852
75	0x3f15296c	0.5826633
76	0x3d7eff22	0.062255032
77	0x3f1c0db2	0.609584
78	0x3e20baf9	0.15696324
79	0x3f6da249	0.9282575
80	0xbe9d0981	-0.30671313
81	0xbdcd6004	-0.10028079
82	0x3ec430d2	0.38318497
83	0x3f487ac1	0.7831231
84	0xbe8670ea	-0.26258022
85	0x3f2dea75	0.6793588
86	0x3ebc5dc9	0.36790302
87	0x3eef1c36	0.4670121
88	0x3ec448bc	0.38336742
89	0x3f5fd955	0.87441
90	0x3f02ab80	0.5104294
91	0x3f6db834	0.92859197
92	0x3f039c3d	0.51410276
93	0xbd1082f6	-0.035281144
94	0x3e8e5600	0.27799988
95	0xbd13fd2e	-0.036130123
96	0x3ea512d9	0.32240942
97	0xbd826eb8	-0.06368774
98	0xbe1bed85	-0.15227325
99	0xbe42110e	-0.18951818
100	0xbb60f28b	-0.0034324254
101	0xbe816f3a	-0.25280172
102	0x3b02c1b3	0.001995188
103	0xbdae0540	-0.08497095
104	0x3ee80ed4	0.45323813
105	0x3e21e899	0.15811385
106	0xbe9a84d7	-0.30179474
107	0x3e20cf08	0.15703976
108	0x3e4357c2	0.19076446
109	0xbe8502de	-0.2597875
110	0xbc9d1868	-0.019176677
111	0x3f2583fe	0.6465453
112	0x3ebd1021	0.36926368
113	0xbe7498a1	-0.23886348
114	0x3d7cf222	0.061754353
115	0x3ee5f047	0.4490988
116	0x3f58e690	0.8472681
117	0xbce85754	-0.028361954
118	0x3c430d82	0.011905076
119	0x3e899238	0.2686937
120	0xbe8c9082	-0.27454
121	0x3e006183	0.12537198
122	0x3e86aa2d	0.2630171
123	0xbe71b987	-0.2360593
124	0x3c026628	0.007958926
125	0xbdba158a	-0.090861395
126	0xbe3bf442	-0.18354896
127	0xbe9b9a45	-0.30391136

lin2.weight f4 [1, 128]
0	0x3e7cb932	0.24680021
1	0x3e999616	0.2999732
2	0x3e8a6b4a	0.2703498
3	0x3e21f7a8	0.1581713
4	0x3fb5dbc4	1.4207692
5	0x3e745198	0.2385925
6	0x3e445145	0.19171627
7	0x3eb8dc5f	0.3610563
8	0x3e8331a3	0.25623807
9	0x3f6d3134	0.92653203
10	0x3d71ac07	0.05900195
11	0x3caab8d9	0.020840095
12	0x3d6c69e6	0.05771818
13	0x3e8a1059	0.26965597
14	0x3c9f2d45	0.019430766
15	0xbc077a3a	-0.008268887
16	0x3dbd1158	0.09231824
17	0xbecedb40	-0.4040165
18	0x3e9acfa9	0.30236557
19	0x3e63d140	0.22247791
20	0x3e941067	0.28918764
21	0x3d7f5a8e	0.06234222
22	0x3e8986e3	0.26860723
23	0x3edcf0c3	0.43152437
24	0xbe62d6d4	-0.22152263
25	0x3e2d6b27	0.16935407
26	0x3ddab8ff	0.106798165
27	0x3e82bc07	0.25534078
28	0x3d0eb38b	0.034839194
29	0x3e8e2a97	0.27766868
30	0x3e5360b6	0.20642361
31	0x3e85af23	0.2611018
32	0x3d51a287	0.05118039
33	0x3d2057bd	0.039146174
34	0x3f3c2607	0.73495525
35	0x3e82b47f	0.25528333
36	0x3ea9e7d3	0.3318468
37	0x3ea365ca	0.31913596
38	0x3ee07782	0.43841177
39	0x3ecaf62e	0.39640945
40	0x3ea80ed8	0.32823825
41	0x3e576847	0.21035872
42	0x3ebccfe7	0.36877367
43	0x3e9501cf	0.29102942
44	0x3e6f8329	0.23389877
45	0xbb253538	-0.0025208723
46	0x3ea6a33a	0.32546407
47	0x3e314772	0.1731241
48	0x3d30e279	0.04318473
49	0x3c4bc5ee	0.012437327
50	0x3eb1b1ee	0.34706062
51	0x3e9addd6	0.30247372
52	0x3e959d7c	0.29221714
53	0x3f11c5f0	0.56942654
54	0x3f1376fe	0.5760344
55	0x3eccccc1	0.39999965
56	0x3de2bb1d	0.11070845
57	0x3e9736e7	0.29534075
58	0x3e909a92	0.28242928
59	0x3e9787dd	0.29595843
60	0x3e63902f	0.2222297
61	0xbf6974f7	-0.911941
62	0x3eab5b7c	0.33468235
63	0x3e81ec44	0.2537557
64	0x3eacc5ca	0.3374465
65	0x3e88eb55	0.26742044
66	0x3df2efa8	0.11862117
67	0x3e9b4fe9	0.30334404
68	0xbfab86c4	-1.3400502
69	0x3ea91d8c	0.33030355
70	0x3e85359a	0.26017457
71	0xbf9c4697	-1.2209042
72	0x3f228664	0.63486314
73	0x3d24d35f	0.04024064
74	0x3f10577d	0.56383497
75	0x3e9abb38	0.30220962
76	0x3f85e723	1.0461162
77	0x3eec5630	0.46159506
78	0x3d6efb61	0.058345202
79	0x3ef66cc5	0.4812986
80	0x3fca1df6	1.5790393
81	0x3d9a74d5	0.07541815
82	0x3ea1cdd5	0.3160235
83	0x3ea0e357	0.31423447
84	0x3e4e127a	0.20124236
85	0x3e97d293	0.29652843
86	0x3edcb56f	0.43107173
87	0x3f20c481	0.6279984
88	0x3ea5be07	0.32371542
89	0x3eb4efe1	0.35339263
90	0x3e44c343	0.19215111
91	0x3f108222	0.56448567
92	0x3e847f10	0.2587819
93	0x3f355c04	0.7084353
94	0x3eb3b3ce	0.35098118
95	0x3e11f338	0.14252937
96	0x3ddcab02	0.10774805
97	0x3e8ea0b7	0.2785699
98	0x3ea4dbf0	0.3219905
99	0x3efba835	0.4915177
100	0x3e9b5cad	0.30344144
101	0x3d682861	0.056679133
102	0x3eef3cf1	0.46726182
103	0x3de6cde3	0.112697385
104	0x3e7db9d3	0.24777918
105	0x3ccbcfa3	0.024879282
106	0x3d7bd606	0.061483406
107	0x3d9bf1cd	0.07614479
108	0xbe35a64a	-0.17739215
109	0x3e6fe235	0.23426135
110	0x3e381250	0.17975736
111	0x3ea4deee	0.32201332
112	0x3e86d157	0.2633159
113	0x3c909cd4	0.017652906
114	0x3e80ea1c	0.2517861
115	0x3e755c51	0.23960997
116	0x3e8d2063	0.27563772
117	0x3ddc87ab	0.10768064
118	0x3ecf76d7	0.40520355
119	0xbe359fdb	-0.17736761
120	0x3d2149ea	0.03937713
121	0x3d9dc987	0.07704454
122	0xbecb1a54	-0.39668524
123	0x3e9a681b	0.3015755
124	0x3ecffaec	0.40621126
125	0x3d9d06b3	0.076672934
126	0x3e2dbf0c	0.1696741
127	0x3c13d284	0.009022359
