code/gnn/models/training/GCN/export/3/best_model.pt (torch, 6376 bytes, 3 tensors)

layers.0.bias f4 [64]
000000 0d c5 5e 3f c5 a3 6c bd 5a 17 c7 be 27 d3 80 3f
       0.87019426 -0.05777337 -0.38885003 1.0064439
000010 02 c8 86 3f 5c 2f 8f 3f 9f 1c 9d 3f 94 66 93 3f
       1.0529788 1.1186328 1.227436 1.1515679
000020 33 82 6a be 86 2f 87 3f 6f 5b 9d 3f b4 b2 83 3f
       -0.2290123 1.0561378 1.2293528 1.0288911
000030 b7 ea 65 3f 03 22 a3 3e a5 5c f4 be 92 07 e5 be
       0.8981127 0.31861886 -0.47726932 -0.44732338
000040 8a e1 78 3f cb b9 97 be e3 90 f9 be 11 0b ee bd
       0.97219145 -0.29633936 -0.48743352 -0.116232045
000050 7b 74 a4 3f 0a 3d e6 be 29 fd cb be 08 c2 e5 be
       1.2848047 -0.44968444 -0.39841583 -0.44874597
000060 0b fb 02 bf d7 9f cb be 76 6a ac 3f ee 57 8e be
       -0.5116431 -0.39770386 1.3469989 -0.2780146
000070 14 ac d6 be 34 27 74 3d 8f 94 a7 3f 8c 56 76 3f
       -0.4192816 0.0596077 1.3092211 0.9622581
000080 2d 61 a4 3f 4e 60 3c be e2 b0 8a 3f a7 a8 33 3f
       1.2842156 -0.18396112 1.083523 0.7017922
000090 ca 9a 8e 3f 0c 83 29 3f b8 12 a7 be 24 fc 65 3f
       1.1140988 0.66215587 -0.3263147 0.8983786
0000a0 71 d0 b0 be 66 8a 91 3f 62 c2 cd be 0a 2f ac be
       -0.34534028 1.1370361 -0.40187365 -0.33629638
0000b0 57 2a 8c 3f 26 71 e0 be 24 63 0e bf 0f d8 b7 3e
       1.0950421 -0.43836325 -0.55620027 0.35907027
0000c0 b1 d5 9b 3f af 6a 9b 3f 7e 62 cb be e6 73 4c 3f
       1.2174588 1.2141932 -0.3972358 0.79864347
0000d0 ca 48 02 bb 33 48 83 3f 05 51 49 3f da 2d e8 be
       -0.0019879811 1.0256408 0.7863925 -0.45347482
0000e0 a2 82 94 3e 6e cf 9c be 8b fd 53 3f fa 9a 7e 3f
       0.29005915 -0.30627006 0.8280875 0.99455225
0000f0 57 f6 b1 be 38 9f 66 3f 80 9f dc bd 4c 12 97 3f
       -0.34758255 0.900867 -0.1077261 1.1802459

layers.0.lin.weight f4 [64, 14]
000000 96 a5 43 bd f5 36 46 3a a2 09 7e 3e 07 0d 94 be
       -0.047765337 0.000756129 0.24808362 -0.2891619
000010 14 ab 0f be 8f 11 42 3f 93 ec 20 be 80 ac 0f bf
       -0.14030105 0.7580804 -0.15715246 -0.5612259
000020 eb fd e5 bb 78 e5 f4 3e ab 57 07 bf 02 8d 47 3f
       -0.007018795 0.4783132 -0.52868146 0.77949536
000030 23 a9 2f be ed 12 b7 3d 58 f5 2f bf 19 18 e0 bf
       -0.17154364 0.08939157 -0.6873374 -1.7507354
000040 c4 42 8a 3e af 59 2f 3f 80 53 25 3f 82 47 96 be
       0.27004063 0.6849622 0.64580536 -0.2935143
000050 80 e7 04 bf 58 06 0b 3e 5b cc a6 be f8 59 2f 3f
       -0.5191574 0.13576639 -0.32577786 0.68496656
000060 57 f8 28 be 71 5b 98 be 39 24 7a bd b1 a5 19 bd
       -0.16500984 -0.29757264 -0.0610697 -0.03751153
000070 88 ba ef bd c6 91 c2 3b 6f c0 e0 3d 7c c7 83 bf
       -0.117055 0.0059377877 0.10974204 -1.0295253
000080 2f fb 9f 3e 9f 04 2c bf 8f cb d0 3d bb b0 12 3f
       0.31246325 -0.6719455 0.10195076 0.5730092
000090 8f db 73 be 49 4b 05 bf 4a 6c dd 3e b7 b7 1f bf
       -0.23814224 -0.52068 0.4324668 -0.623897
0000a0 1c f7 56 3e 3a 00 23 3f 14 f1 a3 3e 7f de 36 3e
       0.20992702 0.6367222 0.32019866 0.17858313
0000b0 98 d2 ff 3d f4 0e 8d bd 74 40 50 3e 0e f1 57 3e
       0.124913394 -0.06887618 0.20337087 0.21088049
0000c0 e2 01 52 be 86 a7 1f bf c3 a5 60 3e 9d 18 b3 3e
       -0.2050853 -0.62364995 0.21938233 0.34979716
0000d0 8f a2 ef 3d 53 39 32 3f cb a0 d1 3d d9 da de be
       0.117009275 0.6961872 0.10235747 -0.43526343
0000e0 02 74 37 3e 0e 4c b6 3c 47 36 07 3f 29 f7 bc be
       0.17915347 0.022253063 0.52817196 -0.36907318
0000f0 ed 6d 07 bf 1b cb 33 3f ce 6a 48 bd c2 46 4e bf
       -0.5290211 0.7023179 -0.048929982 -0.8057672
000100 63 0d 5b be c1 63 cc 3e ad 51 ea be a4 95 2e 3f
       -0.21391825 0.39919856 -0.4576544 0.68197083
000110 85 22 b9 be 5b 17 b7 3a eb 7d 91 be eb 7a b7 be
       -0.3615915 0.0013968752 -0.2841638 -0.35835966
000120 38 d0 48 3d 4f da 73 bd 28 e1 90 3e b4 f5 b4 3e
       0.049026698 -0.059534367 0.2829678 0.35343707
000130 a2 43 7d be 3b a0 5b bf 33 ed d6 bd a5 2e d2 3e
       -0.24732831 -0.8579137 -0.10494461 0.41051212
000140 43 eb 3b be 66 9b 4e 3f 95 37 83 be b9 0c 08 3f
       -0.18351464 0.8070587 -0.25628343 0.53144413
000150 39 30 b1 be 15 67 e2 bd 36 45 af bc fc a6 06 bd
       -0.34607103 -0.110548176 -0.021395307 -0.032874092
000160 f7 2a 82 3e 87 8f 49 be e7 be 96 be 75 d0 88 bf
       0.25423405 -0.19683658 -0.29442522 -1.0688616
000170 88 28 45 be ab eb 19 3f c6 7d 4e bf 50 f4 59 3f
       -0.19253743 0.60125226 -0.80660665 0.85138416
000180 e3 bc cb be 1c c6 94 3f 6b 2a d1 be 0c 12 1f be
       -0.39792547 1.1622958 -0.40852675 -0.15534228
000190 ac 6a 92 3c 4b 96 81 be 81 82 3b be e4 c5 8e 3e
       0.01787313 -0.25309977 -0.18311502 0.27885354
0001a0 18 34 b4 be 3f f2 67 bf 7e 6a 25 be 6a 31 9b 3e
       -0.35195994 -0.90604013 -0.16153905 0.30311137
0001b0 8a 1d 39 bf 5a de 64 3f ba 48 0b bf c8 f6 1d 3e
       -0.723107 0.8940178 -0.54407847 0.15426171
0001c0 a9 04 f1 be 3d dc 99 be cc 86 a5 be e1 fb c0 bf
       -0.47073868 -0.3005084 -0.32329404 -1.5076867
0001d0 fe 72 55 3e 78 39 33 bf e6 4b 10 3e 4d b5 18 3f
       0.20844647 -0.70009565 0.14091453 0.59651643
0001e0 52 01 0b bf a9 89 86 bd c0 b6 d3 3e 52 70 17 bf
       -0.5429889 -0.06569225 0.41350365 -0.5915576
0001f0 b8 24 17 3f 57 f7 a7 3e ae c7 dd bc 5d e1 79 be
       0.59040403 0.32805893 -0.027072754 -0.24402376
000200 9b c0 34 3c c0 3e 9b be 41 ed a2 be 24 57 03 3f
       0.011032249 -0.30321312 -0.31821635 0.5130484
000210 4b 8c b1 be 03 87 82 bf 77 ed 01 be 3b a2 18 3f
       -0.34677348 -1.0197452 -0.12688242 0.59622544
000220 1a 95 a7 be 36 7a 2e 3f 8c 0c 01 be 87 29 b3 3d
       -0.32730943 0.6815523 -0.12602443 0.08748155
000230 10 0f 02 bf 92 9b 00 be 58 69 b2 3d b8 44 06 be
       -0.50804234 -0.12559345 0.08711499 -0.13112152
000240 b2 ba 20 be a2 c0 a8 3d 74 24 e8 be 85 32 70 bf
       -0.15696219 0.08239867 -0.45340312 -0.93827087
000250 62 9b 63 be 55 00 f3 3e e2 72 10 bf f1 fb 8b 3f
       -0.22227243 0.4746119 -0.564253 1.0936261
000260 ab ac ff be b2 58 2f 3e 4e 99 9e 3e 41 f0 9b 3e
       -0.49936423 0.17123678 0.30976337 0.30456737
000270 dd 6e 44 3e 0e 8f 47 3d 3f 1b d3 be 15 ff 11 3f
       0.19182916 0.048720412 -0.41231725 0.5702985
000280 ee d8 31 be f2 7f 68 bf 29 73 09 be 3b 77 47 3f
       -0.17367908 -0.9082023 -0.13422836 0.77916306
000290 f3 fa 5a be 67 29 59 3e f6 38 cc bc 08 a0 e3 3d
       -0.21384792 0.212072 -0.024929505 0.11114508
0002a0 52 1a 9d 3e c5 e6 e2 3d 15 ba b2 3e 49 62 e0 3d
       0.30684143 0.11079172 0.34907594 0.109562464
0002b0 c4 d2 24 bd 23 d3 f2 bb 6f d4 67 be 0a b2 80 be
       -0.040240064 -0.0074104234 -0.2263963 -0.25135833
0002c0 20 1f 0e 3f 00 83 5d be c7 21 81 bd e1 e6 12 3f
       0.55516243 -0.21632004 -0.06305271 0.57383543
0002d0 97 73 1c be 98 fb 83 be b0 04 f5 bf ff cf e6 bf
       -0.15278469 -0.25777888 -1.9142056 -1.8032225
0002e0 2e da 6b be c1 67 e6 be 6f d3 c2 3e 76 79 ac be
       -0.23032448 -0.45001033 0.38051936 -0.33686417
0002f0 5f 25 35 bf 41 f0 84 3e 75 ed 11 bf 1e 23 a3 3e
       -0.7076015 0.2596455 -0.57002956 0.3186273
000300 3e 13 95 be 48 63 22 be 95 89 ab 3e 16 57 6f bc
       -0.29116243 -0.15858185 0.33503404 -0.014608165
000310 c8 b5 43 be 61 4b 2c bf 43 46 05 be 68 63 d8 ba
       -0.19112313 -0.6730252 -0.13015084 -0.0016509118
000320 51 44 ab be a6 4c a0 be 8f ca 96 3e 0a ac c6 3e
       -0.3345056 -0.31308478 0.29451415 0.3880313
000330 b7 17 85 be cd d7 96 bc b0 58 80 3e ae fe c0 be
       -0.25994655 -0.018413449 0.25067663 -0.37694305
000340 20 38 c1 3e 05 19 de 3e 18 f7 d9 bd a5 65 39 be
       0.37738132 0.43378463 -0.106428325 -0.1810518
000350 e1 75 af 3d e8 34 86 bd 08 e6 12 bd 88 b1 84 be
       0.085674055 -0.0655306 -0.035863906 -0.25916696
000360 01 96 c0 3e 78 94 52 3f ee 7c c3 be 96 d9 cc bd
       0.37614444 0.82257795 -0.3818125 -0.10002439
000370 b0 e7 b7 3e ce df 1e bf 55 dc c8 3e dc d8 f5 3e
       0.3591895 -0.6206025 0.392306 0.48017013
000380 4f f6 9c be 44 b1 a2 bd b9 fc 91 3e 54 94 cb be
       -0.3065667 -0.07943967 0.28513125 -0.39761603
000390 d9 1a 02 be 3b ee 36 3e c3 bb 1a be 6c c7 5c bf
       -0.12705554 0.17864315 -0.15110688 -0.86241794
0003a0 e9 b8 86 be e5 70 48 3e 3a a2 40 bf b4 46 62 3f
       -0.2631295 0.19574316 -0.7524754 0.88389134
0003b0 d0 a8 4e bf 04 6c 58 3e 22 fa 0e bf b8 53 11 bf
       -0.8072634 0.21134955 -0.5585042 -0.5676837
0003c0 f1 f2 67 3e 5a 09 c0 bf d4 dd a9 3e f9 b5 09 bf
       0.22651269 -1.5002854 0.33177054 -0.53793293
0003d0 55 81 7d 3d e2 54 0b 3f 44 db b1 be 65 a0 70 be
       0.06189092 0.54426396 -0.347376 -0.23498686
0003e0 07 03 c7 3e 68 6e 0b bf f8 99 1d 3f 8b d2 9f 3e
       0.38869497 -0.5446534 0.6156306 0.3121532
0003f0 bb 8a f0 be 68 6b 9d be 36 8b 1a be d6 c1 8d 3e
       -0.46980843 -0.30746007 -0.15092167 0.27686948

layers.1.lin.weight f4 [1, 64]
000000 46 9a 14 3f bc 65 5f bf b4 4c 09 bf 33 13 6c 3f
       0.580479 -0.8726461 -0.53632665 0.92216796
000010 c5 c2 84 3f a9 52 f2 3f d5 b5 1f 40 8a 45 e8 3f
       1.0371939 1.8931476 2.4954731 1.8146222
000020 9a dd 88 bf bf 72 ab 3f 94 a1 26 40 a3 7e 41 3f
       -1.0692627 1.3394393 2.603612 0.7558386
000030 d1 7d 17 3f 8e 4e 8b bf fa 07 9a be 25 bc db be
       0.59176356 -1.0883348 -0.3008421 -0.4291698
000040 4b 1f bb 3f 31 7a 8b bf 19 75 a5 be 5c 94 e1 3b
       1.4618925 -1.0896665 -0.323159 0.006884141
000050 3e 4d 05 40 7d 05 b6 be 95 18 d4 be ec 01 9c bf
       2.0828395 -0.35551062 -0.41425005 -1.2188087
000060 d4 e3 ac be d1 26 3c be 18 1e 16 40 22 cf ae be
       -0.3376757 -0.18374182 2.3455868 -0.34142405
000070 63 0c 31 bf 00 15 71 bf 19 00 0d 40 f2 bc 95 3f
       -0.69159526 -0.9417267 2.203131 1.1698287
000080 e8 fc 15 40 3d 31 06 bf 40 e2 9f 3f bc d2 ec bf
       2.3435612 -0.5241888 1.2490921 -1.8501811
000090 38 93 aa 3f 76 da 0c c0 07 dc 36 bf 97 b3 2f 3f
       1.3326178 -2.2008338 -0.71429485 0.6863341
0000a0 90 ad 2a bf cc 7d d2 3f 53 a2 69 be 88 a5 6d bf
       -0.66671085 1.644464 -0.22815828 -0.92830706
0000b0 ea 4b d3 3f cc 08 6f bf f4 e7 29 3f 58 28 ee bf
       1.6507542 -0.933728 0.6636956 -1.8606062
0000c0 a1 ff f2 3f ae 64 d9 3f 8e 32 4a bf 81 cf e7 bf
       1.8984262 1.698385 -0.7898339 -1.81102
0000d0 14 80 76 bf 6d bd cb 3f 87 03 4e 3f 6e 02 37 bf
       -0.9628918 1.5917183 0.8047413 -0.7148808
0000e0 73 6d a5 bf f9 56 41 bf 3a 25 11 3f 50 a1 60 3f
       -1.2924026 -0.75523335 0.5669743 0.87746143
0000f0 dc 94 50 bf 8d a1 33 3f 4b 58 60 bf ed 23 1f 40
       -0.8147714 0.7016838 -0.87634724 2.4865677
