code/gnn/models/training/MLP/export-layered/2/best_model.pt (torch, 8296 bytes, 3 tensors)

lin1.weight f4 [64, 22]
00000000: 75b4 b13e aa4b bebe 6d0a 00bf 29bf 013e
00000010: 2cb7 593e ba85 9fbe 695a d2be 5a27 68bf
00000020: d5fb 3f3c ff86 70be 080c 15bf 5ea2 1fbe
00000030: c951 193e 5e32 d9bf 7465 1abd e5ab c5be
00000040: b910 04bf e1d7 2e3d 3211 473e dbb1 773e
00000050: ebf3 2f3e 84e9 3fbf 8040 bbbe 0a4c 8f3e
00000060: f543 a2be 48df ffbe a06e 3a3e e5b8 babe
00000070: 0faa 0dbf 6d18 8dbe ecbb 0a3e 7a08 8cbe
00000080: 4028 e3be 195d 723e ab19 11bd bd02 2fbf
00000090: 0508 3c3e 7b10 0c3e 0e4a 8a3e b90a 06be
000000a0: 860b 913e 633f 17bf 4373 b93d bdc7 65bc
000000b0: ddf7 85be 34e2 b93d eb18 ac3d d7e7 29be
000000c0: 82fb d7be 2bee 733e 9b3f 3b3f 9cdd a7bc
000000d0: cd2f eabe b23d e03e 83ff 8ebe 5459 f7be
000000e0: 3c77 02bf bb83 4f3f c041 063d 2f67 823f
000000f0: 7c21 4e3e eadb 6ebf 748f 043f f1cd 0f3f
00000100: 834b 803f 50cc cd3e 61fb c63d 0ac4 193f
00000110: cf4a 903e b515 483e 6573 a2be 881f c83d
00000120: b5e6 f23d d0b7 b1be becc bb3e 5015 f7be
00000130: fc2e fc3e 887a 893d 2603 a53e a934 7e3c
00000140: 6fb7 20bf 1ba3 3abe b2c6 56be fa0f 5abf
00000150: 6a74 953e 0b95 4cbd 2a82 6bbf 0b54 a63e
00000160: 1599 8c3e 4b94 21bf b0d9 3bbe 9c00 44bf
00000170: b8f1 51be bfff 2cbe c74c 8a3f 418c 173e
00000180: e02d 293e 631e 4ebf e199 643e 9caf 1e3e
00000190: e163 80be 7815 833e f3de 1a3f e032 83bb
000001a0: 6088 d63d 23ca cf3c 162f 923e 6df5 2cbf
000001b0: 2ed6 ecbd ff7d 313e 871e b73e 51cc 2cbf
000001c0: 0a61 cbbe 7d03 273e d128 2bbe 099d 47be
000001d0: b25b 363f daf5 a13e 1dba 9e3e e89e 03bf
000001e0: 9a0a 1d3f 3181 5dbe 4d8f fd3c 6ff7 27bf
000001f0: f5b3 933f 562d dabe 4c0b d3bd 07da c63e
00000200: 479d ab3e a48d 88bf f8ec 1ebf 24a8 b1be
00000210: 60f2 933e 546f efbc c043 c43e 2e4f 2d3d
00000220: 5145 e03c ce3d 85be d6d4 863e e37f fcbc
00000230: 239a 253e 7c30 40be 3782 d13e 4b9e 9d3e
00000240: b6d8 333e 487d 213f 411b 32be cb5f 973e
00000250: c63c b03e 5ae9 66be 27cc 04bf 30c8 dabd
00000260: ee39 0abf 4af7 d0bd 3a8f d73e 0f77 b73e
00000270: cb66 ba3e 5140 153d 7957 003e 5633 563d
00000280: b3f0 8ebc 4f44 b4be 66a8 e73e 3827 9bbe
00000290: a187 ce3e 28c4 96bd 2736 4f3e 83eb 3f3f
000002a0: 6147 b0be 4d45 5f3e 483d 75bd 9a19 ccbe
000002b0: fd5f c73c a62b 93be 3d82 64bf 45f8 b9be
000002c0: 6834 5abf 4679 3abe 39dc 113f 77e0 353d
000002d0: 999e af3e 11b4 2e3e a43a eb3e d066 31bf
000002e0: 0e7b 2abe 863e ff3c 7900 c73d e9a4 9ebc
000002f0: 1e59 ee3d 588f 383f 4bd2 6bbe cd99 803e
00000300: 585c 8d3f cf20 ff3e 18ce 0fbe ad2c 0dbe
00000310: 9718 323f 4f7d 34bf 464c cabe 7979 7d3f
00000320: 7a4d 40be d3e1 aebe b21a 27be d20e 2bbe
00000330: 8268 19bc 16e3 303f 33ca a7bd 23e1 96be
00000340: a7cd 763e bc15 103f b1ef 94be 1076 ea3d
00000350: 9b06 013f cee6 8dbe ca36 793e cced 803f
00000360: 9a07 00bf 3678 c1bf 8a93 2d3f 88ca 493f
00000370: 1bc9 1e3f d7b5 dd3e 4985 ff3e 2c85 62bd
00000380: 3b89 4e3e ad9c f4bd cb81 01be 79dc afbe
00000390: 1059 2b3f 2529 4fbe 7b0a fc3e a4c2 1dbe
000003a0: 2bee 703e af1c fd3e e774 f2be 08e0 dd3e
000003b0: 6bf5 9f3d c910 10bf 7d0e cabd c0c0 30bd
000003c0: 7fdb 2ebf 075f 59be db87 ba3e 1a8a e7be
000003d0: 10a3 80be bcf9 b13c cea3 723e b995 e0bd
000003e0: ad11 acbe edfe 93bf 4d33 73bd 77e7 84bd
000003f0: fa8b 27bf 361e 43be 0183 b7be 9537 febf
0.3470799 -0.37167102 -0.5001591 0.12670578 0.21261281 -0.31156713 -0.41084602 -0.90685046
0.011717756 -0.23488997 -0.58221483 -0.15589282 0.14972605 -1.6968496 -0.03769441 -0.38607708
-0.51588017 0.042686347 0.19440153 0.2418894 0.17182891 -0.7496569 -0.36572647 0.279877
-0.31692472 -0.49975038 0.18206263 -0.36469188 -0.55337614 -0.27557698 0.13548249 -0.27350217
-0.44366646 0.23668326 -0.03542487 -0.68363553 0.18362434 0.13678162 0.27009624 -0.13090028
0.28329104 -0.59081095 0.090551876 -0.014024672 -0.26165667 0.09076348 0.0840319 -0.16592346
-0.42184073 0.23821323 0.7314393 -0.020491414 -0.45739594 0.4379707 -0.27929315 -0.4831034
-0.5096319 0.8106038 0.032777548 1.0187739 0.20129961 -0.9330431 0.5178139 0.56173617
1.0023044 0.4019494 0.097159155 0.60064757 0.28182074 0.1953953 -0.31728664 0.09771639
0.1186041 -0.3471055 0.36679643 -0.48258448 0.49254596 0.06712824 0.32228965 0.015515485
-0.627799 -0.18226282 -0.20974234 -0.8518063 0.2919038 -0.049946826 -0.9199549 0.32485995
0.27460542 -0.631169 -0.1834476 -0.7656343 -0.20502365 -0.16894434 1.080468 0.14799596
0.16521406 -0.80515116 0.22324325 0.15496677 -0.25076202 0.25602317 0.60496444 -0.0040038675
0.1047523 0.025364941 0.2855155 -0.6756199 -0.11564289 0.1733322 0.35765478 -0.6749926
-0.39722472 0.16309924 -0.16714789 -0.19493498 0.71233666 0.31632882 0.31001368 -0.51414347
0.613443 -0.21631314 0.03095212 -0.6561193 1.1539294 -0.42612714 -0.10304889 0.38838217
0.3351843 -1.0668225 -0.62080336 -0.34698594 0.28895855 -0.02922789 0.3833294 0.04231184
0.027376803 -0.26023716 0.26334256 -0.0308227 0.1617208 -0.18768495 0.4091966 0.3078483
0.17563137 0.6308179 -0.17393209 0.29565272 0.34421366 -0.22549954 -0.5187401 -0.10682714
-0.53994644 -0.10203417 0.4210146 0.35833022 0.3640655 0.03643829 0.12533368 0.05229505
-0.017448759 -0.35208365 0.45245665 -0.3030336 0.40337852 -0.073616326 0.20235501 0.7496874
-0.34429458 0.2180378 -0.059872895 -0.39863282 0.024337763 -0.2874424 -0.8926123 -0.36322227
-0.85236216 -0.18210325 0.5697666 0.04440352 0.34300688 0.17060877 0.45943177 -0.69297504
-0.16648504 0.031157743 0.09716887 -0.019365745 0.116380915 0.72093725 -0.23029439 0.2511734
1.1043806 0.49829718 -0.14043462 -0.13786574 0.6956877 -0.70503706 -0.39511317 0.9901348
-0.18779555 -0.34156665 -0.16318777 -0.16704872 -0.0093632955 0.69096506 -0.08192863 -0.2946864
0.24101888 0.56283164 -0.2908912 0.114483 0.50400704 -0.27715153 0.24337307 1.007257
-0.500116 -1.511481 0.6780325 0.78824663 0.6202561 0.43302795 0.49906376 -0.055302784
0.20169537 -0.11943946 -0.12647168 -0.34347895 0.66932774 -0.20230539 0.49226746 -0.15406281
0.23528354 0.49435946 -0.47354814 0.43334985 0.07810482 -0.5627561 -0.09866045 -0.04315257
-0.68303674 -0.21227656 0.36431774 -0.4522255 -0.25124407 0.021725528 0.23695299 -0.10966057
-0.33607236 -1.1562172 -0.059375096 -0.06489461 -0.6544796 -0.19054493 -0.35842136 -1.9860712

lin1.bias f4 [64]
00000000: c189 c6be 9b22 9abe 7996 68be dd84 053e
00000010: 5e2f b4be 9df9 f03c 148b 993e 4536 9c3e
00000020: 858b 163e 2e00 0ebe f227 873e 77e7 e8be
00000030: b35d 5bbe 4264 333e e07c 0e3e 77b1 303d
00000040: a96e 8d3e e0c7 8d3d 6356 393e 21aa d63e
00000050: e948 293e 1b8a 893d c7d2 83bc ea1f 26be
00000060: 9c97 8fbe ef3e 28be 85a9 eabe 65c5 8ebe
00000070: 6d72 a0be 3762 8ebe db3f 64be a16a 85be
00000080: 4b72 07be 6518 9cbe 9add cdbd 84db d9bd
00000090: 7014 ffbd 0998 0f3e 66f5 d7bd 2aff 0bbe
000000a0: 2cec 45bc 6e94 e93b dae4 9abd a323 a1bd
000000b0: 003c 90be 74c1 61be 0b44 043e 4f10 30be
000000c0: ca28 963d 78f8 953d c6bd 723e 735e 783e
000000d0: 5835 b53d 7995 283d 6e13 ddbe 60b0 adbe
000000e0: 4a8a 41be 1ce5 233e 12f6 b0be 30a4 98be
000000f0: 03ea 043e ff30 a7be 18d1 a2bc 954d 0c3e
-0.38776973 -0.30104527 -0.22713651 0.13038965 -0.35192388 0.0294159 0.2998892 0.30510154
0.1470166 -0.13867256 0.26397663 -0.45489094 -0.21422462 0.17518714 0.13914824 0.043137994
0.2762349 0.06922889 0.1809936 0.41926673 0.1653172 0.06715795 -0.016091717 -0.16223112
-0.28045356 -0.16430257 -0.45832458 -0.27884975 -0.313373 -0.27809307 -0.22289984 -0.26057914
-0.13227193 -0.30487362 -0.10052033 -0.106375724 -0.1245507 0.1402284 -0.10544853 -0.13671556
-0.012080234 0.00712829 -0.07563181 -0.07868125 -0.28170776 -0.22046453 0.12916581 -0.17193721
0.07331999 0.07322782 0.23705205 0.2425478 0.08848065 0.041158173 -0.43178886 -0.33923626
-0.1890041 0.16005367 -0.34562737 -0.29812765 0.12979893 -0.3265457 -0.019875094 0.1370147

lin2.weight f4 [1, 64]
00000000: 6c23 83bf a0aa ffbe 18cd 94bf 1eab a63e
00000010: dd48 c1bf f27a a6bf 2a4e 273e 4f38 883e
00000020: de25 4d3f ff7d 05c0 594e f33e ff86 3ebf
00000030: 35a2 57bf 7436 e33e 255d 113f 6210 efbf
00000040: 3f00 3b3f f3e4 20c0 ce3b 913e 6c17 c63e
00000050: 1dab 27bf 7830 bf3e 12d6 5ebf d57e 9e3f
00000060: 40d6 03c0 bf7b cebf 66a6 71bf 748d 54bf
00000070: 5806 a13f e4c0 5dbf b4d3 a5bf 36cb ccbe
00000080: 297a 173c 59bf 91be acf5 a53c 8b17 03c0
00000090: 4a7e 02c0 34b7 91bf 8cd8 afbf 6590 6e3f
000000a0: 71b3 6cbf 07bf 8ebf 594a e8be b99a d1bf
000000b0: 5ba7 2cbf 2b89 04bf e6c5 083f 0813 a93f
000000c0: 1dc5 96bf 1b31 513f acbe ff3e 84c6 673e
000000d0: 4535 49bf d8ab d7bf bc55 9cbf ca0b 0fbf
000000e0: 521d 5bbf b38e 243f 451e 55bf a00d 46bf
000000f0: ec63 5bbf 5012 35bf d681 91bf 2ee4 1d3f
-1.0245185 -0.49934864 -1.162509 0.32552427 -1.5100361 -1.300627 0.16338411 0.2660546
0.80135906 -2.0858152 0.47520712 -0.7442474 -0.84231883 0.44377482 0.5678275 -1.8676875
0.7304725 -2.513974 0.2836594 0.38689744 -0.65495473 0.37341666 -0.87045395 1.2382456
-2.0599518 -1.6131514 -0.9439453 -0.8302834 1.2580061 -0.8662245 -1.2955232 -0.39998788
0.009245434 -0.284663 0.020258747 -2.048312 -2.038958 -1.1384034 -1.373796 0.9318908
-0.92461306 -1.1152047 -0.45369223 -1.6375343 -0.67442864 -0.517718 0.5342697 1.3208933
-1.1778904 0.81715554 0.4995016 0.22634321 -0.7859691 -1.6849318 -1.2213664 -0.55877364
-0.85591614 0.6428024 -0.8324931 -0.7736454 -0.85699344 -0.7073107 -1.1367748 0.616763
