code/gnn/models/training/GCN/total/7/best_model.pt (torch, 6376 bytes, 3 tensors)

layers.0.bias f4 [64]
0	0xbd32d719	-0.043662164
1	0x3e03a604	0.12856299
2	0x3f6d276c	0.9263828
3	0x3f68e658	0.90976477
4	0x3f55491c	0.8331468
5	0x3f58d132	0.84694207
6	0x3f5a8982	0.8536607
7	0x3ef17f4d	0.47167435
8	0x3e7992a6	0.24372348
9	0x3e918b76	0.28426713
10	0x3e0f0fb1	0.1397083
11	0x3f856300	1.0420837
12	0x3f7aa3a8	0.9790597
13	0x3f687fb6	0.9081987
14	0x3f7bd721	0.98375136
15	0x3f71d6e2	0.9446851
16	0x3e88523c	0.2662524
17	0x3f6054d7	0.87629455
18	0xbee4e161	-0.447032
19	0x3eb5c1b4	0.35499346
20	0x3e98c4ad	0.29837552
21	0x3f7592b8	0.95927
22	0x3e765d8a	0.2405912
23	0x3f68bdb3	0.9091446
24	0x3f88cd7c	1.0687709
25	0x3f5de37e	0.8667525
26	0x3eb1efa2	0.34753138
27	0x3e508651	0.20363738
28	0x3ecdd4c1	0.4020138
29	0x3ea9593f	0.33075902
30	0x3ec3371c	0.38127983
31	0x3f623dd6	0.88375604
32	0x3f6e8fe8	0.93188334
33	0x3f4a4d04	0.79023767
34	0xbd55ac56	-0.052166305
35	0x3ea57dab	0.3232244
36	0x3f849eba	1.036094
37	0x3f7334f0	0.9500265
38	0xbd66054e	-0.056157403
39	0x3edac4df	0.42728326
40	0x3f76a514	0.9634564
41	0xbe64c1c4	-0.2233954
42	0xbd85a1e9	-0.065250225
43	0x3f7bf0d4	0.9841435
44	0xbe86f33a	-0.26357442
45	0x3f6bc4ca	0.9209715
46	0x3f21c902	0.6319734
47	0x3f8abe94	1.083941
48	0x3f77fa48	0.96866274
49	0x3f6afb3c	0.91789603
50	0xbe7707f5	-0.24124129
51	0x3f4cee89	0.80051476
52	0x3e675c57	0.22593819
53	0x3f82129a	1.0161927
54	0x3e88c963	0.26716146
55	0xbf3aca20	-0.7296467
56	0x3efe35f3	0.49650535
57	0x3ef6935f	0.4815931
58	0x3f66341f	0.8992328
59	0xbd5f022c	-0.05444543
60	0x3e58490b	0.21121614
61	0x3f6b8178	0.9199443
62	0x3f0ce07d	0.5503004
63	0xbdbdf6b3	-0.0927557

layers.0.lin.weight f4 [64, 14]
0	0x3d01cf35	0.03169175
1	0x3d977c80	0.07396793
2	0xbdb73033	-0.0894474
3	0xbd3588a4	-0.044319764
4	0x3deac03c	0.11462447
5	0x3e2dcf1a	0.16973534
6	0x3cf96f04	0.030448444
7	0xbde3da80	-0.1112566
8	0xbd170704	-0.036871925
9	0x3d98e1ba	0.07464929
10	0xbdf6dd83	-0.12053969
11	0x3ddca403	0.1077347
12	0xbc024c4d	-0.007952762
13	0x3e2de014	0.1698001
14	0x3ebea051	0.37231687
15	0x3f5f62e6	0.8726028
16	0xbfe8169c	-1.81319
17	0xbe8782b2	-0.264669
18	0xbe5aa535	-0.21352084
19	0xbf130867	-0.57434696
20	0x3fb6eede	1.4291646
21	0x3f353fb3	0.7080032
22	0x3f87b224	1.0601239
23	0xc04fc716	-3.2465262
24	0x3f4e7607	0.80648845
25	0xbde1ce9a	-0.11025734
26	0xbf323925	-0.69618446
27	0x3d5966b7	0.053076472
28	0xbf32ea36	-0.6988863
29	0x3f3ad936	0.7298769
30	0x3f8ada78	1.0847921
31	0x3ecb392f	0.39692065
32	0xbe2316ca	-0.15926662
33	0x3d0c278f	0.034217414
34	0xbef24324	-0.4731685
35	0xbdcfbdc7	-0.10143619
36	0xbf20957a	-0.62728083
37	0x3f4393b0	0.7639723
38	0x3d6eda2a	0.058313526
39	0xbe51f3ef	-0.2050321
40	0x3e92a0f6	0.28638428
41	0xbec97e12	-0.39353997
42	0xbfd53da5	-1.6659437
43	0xbe067767	-0.13131486
44	0x3ee8f7d0	0.45501566
45	0xbe2a3d01	-0.16624834
46	0x3db690e0	0.089143515
47	0x3f3df8b3	0.7420761
48	0xbeb1fd5e	-0.34763616
49	0xbf81e93f	-1.0149306
50	0x3eb7d0ce	0.35901493
51	0x3e49befd	0.19701762
52	0xbf048b83	-0.5177538
53	0x3f1356de	0.57554424
54	0xbf83be05	-1.0292364
55	0x3f5b37d6	0.85632074
56	0xbf9320ef	-1.1494426
57	0x3d91af95	0.07113568
58	0x3ee2e1fe	0.44313043
59	0xbe85ab4a	-0.26107246
60	0x3e91a92e	0.28449386
61	0x3edddb8b	0.4333156
62	0xbe99d80c	-0.30047643
63	0xbf99cd25	-1.201573
64	0x3eb195be	0.34684557
65	0x3ea93a6a	0.3305238
66	0xbef6742c	-0.48135507
67	0x3f24ebe6	0.6442245
68	0xbeb96090	-0.36206484
69	0x3f2a31d1	0.66482264
70	0xbece35ba	-0.40275365
71	0x3eacd667	0.33757326
72	0x3f2f53b0	0.6848707
73	0xbf8c6623	-1.096867
74	0x3f2ef524	0.68342805
75	0xbd78e7f1	-0.06076807
76	0xbf5d68fc	-0.8648832
77	0xbf17372c	-0.5906856
78	0xbd4ea844	-0.05045344
79	0x3ee69858	0.45038104
80	0xbdedb69b	-0.11607095
81	0x3e4969e2	0.19669297
82	0x3e94b357	0.29043075
83	0x3f89f810	1.0778828
84	0xbfaefe18	-1.3671293
85	0x3d7cc831	0.061714355
86	0x3ef56552	0.47928864
87	0xbea2f926	-0.3183071
88	0xbe725282	-0.23664287
89	0x3ebf7502	0.37393957
90	0xbe011074	-0.12603933
91	0xbf8ea673	-1.1144546
92	0x3ec1b229	0.37831238
93	0x3e0f996f	0.14023374
94	0xbea56a8d	-0.32307854
95	0x3ef3f21c	0.47645652
96	0xbf814648	-1.0099573
97	0x3f12791c	0.5721605
98	0x3fbf6eba	1.4955666
99	0xbe1c237f	-0.15247916
100	0xbf81caba	-1.0139992
101	0x3f4b3607	0.79379314
102	0xbff09669	-1.8795902
103	0x3de4a8e5	0.111650266
104	0x40378ab7	2.8678415
105	0x3f00a918	0.50258017
106	0xbee7c7e9	-0.45269707
107	0xbf0e7110	-0.5564127
108	0xbe2628d5	-0.16226514
109	0x3e970b0c	0.29500616
110	0xbf982474	-1.1886125
111	0x3f6cb4fa	0.9246365
112	0x3f7ecb36	0.99528825
113	0x3f8412cb	1.0318235
114	0xbfd25fee	-1.6435525
115	0xbf126f78	-0.5720134
116	0x3f1814a0	0.5940647
117	0xbee88931	-0.4541717
118	0x3d17a27f	0.037020203
119	0x3ec026fa	0.37529737
120	0x3fa72bc1	1.3060228
121	0xc01293c3	-2.2902687
122	0x3f81e6b2	1.0148528
123	0xbedea0e1	-0.43482116
124	0xbfa08bc1	-1.254265
125	0xbe6b202e	-0.22961494
126	0x3f500173	0.8125221
127	0x3f9a5cb3	1.205954
128	0xbfce105e	-1.6098745
129	0xbf431ca1	-0.7621556
130	0x3f4f17cd	0.8089569
131	0xbe909581	-0.28239062
132	0x3e884194	0.26612532
133	0x3ef08532	0.4697662
134	0x3fa43e86	1.2831581
135	0xc002715f	-2.0381696
136	0x3f85ab11	1.044283
137	0xbe129abb	-0.14316837
138	0xbf8cf0e6	-1.1011016
139	0xbd67f152	-0.056626625
140	0xbdfb49a5	-0.12269906
141	0x3f17b612	0.5926219
142	0xbfa1f124	-1.2651715
143	0xc01fbe13	-2.4959762
144	0x3f478316	0.77934396
145	0xbdf19883	-0.117966674
146	0xbe8aaf9c	-0.27087104
147	0xbe968fcf	-0.29406592
148	0x3fe487fa	1.7853997
149	0xbfd7e157	-1.6865643
150	0x3eba23e8	0.3635552
151	0x3b45892d	0.0030141578
152	0xbf11b092	-0.5691005
153	0x3e97f7fe	0.2968139
154	0xbfa05d86	-1.2528541
155	0xbee8b08f	-0.45447204
156	0x3da07e72	0.078366175
157	0xbf1cf0aa	-0.61304724
158	0xbdedb15b	-0.116060935
159	0x3f19ae59	0.6003166
160	0xbee5e6c2	-0.44902617
161	0xbf82cc08	-1.0218515
162	0x3ea09084	0.31360257
163	0x3ecb4d6d	0.3970751
164	0xbf3efd2a	-0.7460505
165	0x3ef267ba	0.47344762
166	0xbf8866bb	-1.0656351
167	0x3f540aed	0.8282917
168	0xbfd60907	-1.6721505
169	0x3eba2d33	0.3636261
170	0x3ed5ee8f	0.41783568
171	0xbe6b3253	-0.22968416
172	0xbdfc76ff	-0.12327384
173	0x3e8420d7	0.25806305
174	0xbe68e16b	-0.2274224
175	0xbf8a3954	-1.0798745
176	0x3e527dd9	0.2055582
177	0x3dbc1412	0.091835156
178	0xbe772fe7	-0.24139367
179	0x3f391995	0.7230466
180	0xbfba3126	-1.4546249
181	0x3e2924b9	0.16517915
182	0xbfb2c58c	-1.3966537
183	0xbd899d6a	-0.067194775
184	0x3ee78d05	0.45224777
185	0xbeab2673	-0.33427772
186	0xbe752926	-0.23941478
187	0x3ed160a2	0.40894037
188	0xbe3ab5c3	-0.18233399
189	0xbf8a4921	-1.0803567
190	0x3ef76978	0.48322654
191	0xbb88c370	-0.0041736886
192	0xbead1558	-0.33805346
193	0x3edd12c9	0.43178394
194	0xbf353b39	-0.7079349
195	0x3f1fae9e	0.6237582
196	0xbfed6cd6	-1.8548839
197	0x3ebaf4c1	0.36514857
198	0x3ecedf9a	0.4040497
199	0xbc252147	-0.010078735
200	0xbeac745c	-0.33682525
201	0x3e8e123b	0.27748284
202	0xbe57a8e4	-0.2106052
203	0xbf54de44	-0.8315165
204	0x3e86a082	0.26294333
205	0x3e9151ca	0.28382713
206	0xbf2c9fe8	-0.674315
207	0x3efa3ae7	0.48873064
208	0xc003c329	-2.0587866
209	0xbd43c42c	-0.047794506
210	0xbfc539df	-1.5408286
211	0xbdb75964	-0.08952597
212	0x3e775d76	0.24156746
213	0xbf0ac2ee	-0.5420369
214	0xbd96cfc4	-0.07363847
215	0x3ef0ca8d	0.47029534
216	0xbe310cd5	-0.17290051
217	0xbf8ebe2a	-1.1151783
218	0x3e748d6b	0.23882072
219	0x3ed43087	0.41443273
220	0xbf29b238	-0.66287565
221	0x3f08dec7	0.5346493
222	0xbf643ab4	-0.89152074
223	0x3f45d2d3	0.7727482
224	0x3f854cd3	1.041407
225	0x3f85dd65	1.0458189
226	0xbfd0537f	-1.6275481
227	0xbf25854c	-0.6465652
228	0x3f414ddd	0.75509435
229	0xbe958a57	-0.29207107
230	0x3e1a5ee6	0.15075263
231	0x3ebcffc6	0.3691389
232	0x3f783281	0.9695206
233	0xbff6eca2	-1.9290965
234	0x3f4af64a	0.7928206
235	0xbdc041a9	-0.09387524
236	0xbf8b2fe0	-1.0873985
237	0xbcf1177e	-0.029430147
238	0xbfb9db67	-1.4520081
239	0x3dd89bc9	0.10576589
240	0x3ebd01f1	0.36915544
241	0xbeb1c9a5	-0.34724155
242	0xbe034715	-0.12820084
243	0x3f12228e	0.57083976
244	0xbe8a7fdb	-0.2705067
245	0xbf98107b	-1.188003
246	0x3eab924f	0.33510062
247	0x3e46a1be	0.19397637
248	0xbedf6488	-0.43631387
249	0x3f0a3f50	0.5400286
250	0xbf362ebb	-0.71165055
251	0x3f26022d	0.6484707
252	0xbf58d84d	-0.8470505
253	0xbf872d52	-1.0560706
254	0xbf7460ff	-0.95460504
255	0xbf2a12f5	-0.66435176

layers.1.lin.weight f4 [1, 64]
0	0xbdbc0d25	-0.091821946
1	0xc01182e5	-2.2736142
2	0x3f5dcb3c	0.86638236
3	0x40123070	2.2842064
4	0x3fc5e1b9	1.545951
5	0x3f86c12e	1.0527704
6	0x3fda60b3	1.706076
7	0xc0169f21	-2.3534625
8	0xbfe1e251	-1.7647191
9	0xbff50d14	-1.9144616
10	0xbfde3359	-1.735942
11	0x4025a983	2.5884712
12	0x4020bb9f	2.5114515
13	0x40031d29	2.0486548
14	0x40323cbc	2.784957
15	0x400f9c04	2.2438974
16	0xbfd5bc5c	-1.6698108
17	0x400224dc	2.0334997
18	0xbf406e5a	-0.75168383
19	0xc015c32e	-2.3400378
20	0xc0142057	-2.3144739
21	0x4016661b	2.349982
22	0xc00a80bf	-2.164108
23	0x3f6982b2	0.9121505
24	0x402d955d	2.7122414
25	0x3ffe1acd	1.9851929
26	0xc01f06b7	-2.4847848
27	0xbffede5d	-1.991161
28	0xc00d8fdd	-2.2119057
29	0xc0384fc0	-2.8798676
30	0xbffcd821	-1.9753457
31	0x3fb628e3	1.4231228
32	0x4014b95d	2.3238137
33	0x3f94352c	1.1578727
34	0x3df9e755	0.12202326
35	0xc01c6f0f	-2.4442785
36	0x3ff799ee	1.9343851
37	0x40161a44	2.3453531
38	0xbe0fc203	-0.14038853
39	0xc021e1bd	-2.529403
40	0x40066677	2.100004
41	0xbf9b768b	-1.2145551
42	0xbe20a9b3	-0.15689735
43	0x400f11ff	2.2354734
44	0xbfc079ad	-1.5037133
45	0x4015c446	2.3401046
46	0x3f47e9e5	0.7809127
47	0x4025b419	2.5891173
48	0x40130952	2.2974439
49	0x400393f7	2.055906
50	0xbfc11275	-1.5083758
51	0x3fdde4ea	1.7335484
52	0xbfc48e44	-1.5355916
53	0x402e9032	2.727551
54	0xc0136e8e	-2.3036227
55	0xc05a20c5	-3.40825
56	0xc00b7054	-2.178731
57	0xc007bf11	-2.1210368
58	0x3ff50525	1.9142195
59	0xbdec79cf	-0.11546671
60	0xbfe86930	-1.8157101
61	0x3fd4fdee	1.6639993
62	0xc00ba8a2	-2.1821675
63	0xbde46a8b	-0.11153134
