code/gnn/models/training/SAGE/export-layered/5/best_model.pt (torch, 95140 bytes, 8 tensors)

layers.0.lin.weight f4 [22, 22]
0	0xbd729bd7	-0.05923065
1	0xbd45a064	-0.048248664
2	0xbe6a3b12	-0.22874096
3	0x3d1b7d7c	0.037961468
4	0xbd9f7a89	-0.077870436
5	0x3e3d5828	0.1849066
6	0x3db91e69	0.090390034
7	0x3ddc6465	0.10761336
8	0x3dd895a8	0.1057542
9	0x3d65a5f1	0.056066457
10	0xbe1e2346	-0.15443143
11	0xbe2686b0	-0.16262317
12	0x3e8211ec	0.25404298
13	0xbe24cea6	-0.16094455
14	0x3d0e3499	0.03471813
15	0x3e006358	0.12537897
16	0xbc95d1f8	-0.018288597
17	0xbdb61a20	-0.08891702
18	0xbd9a0025	-0.07519559
19	0x3dce0f18	0.10061473
20	0xbdbb07a7	-0.09132319
21	0x3d3fdabe	0.04683947
22	0xbd1aa09c	-0.037750825
23	0x3e05dd3f	0.1307268
24	0xbeac170a	-0.33611327
25	0x3d700eb2	0.058607765
26	0x3c3a579e	0.011373429
27	0x3e371d10	0.1788218
28	0x3e0b4c48	0.13603318
29	0x3e3539c6	0.1769782
30	0x3dd4fcf5	0.1039981
31	0x3d644135	0.05572625
32	0xbe085723	-0.1331449
33	0xbae1594f	-0.0017192754
34	0x3e8c5754	0.27410376
35	0xbe146145	-0.1449023
36	0xbd8b6525	-0.06806401
37	0x3dbf2cfe	0.093347535
38	0x3d00357f	0.031301018
39	0x3dad9f37	0.084776334
40	0xbe3e70d0	-0.18597722
41	0x3da3b4f2	0.07993497
42	0x3c4c5bd4	0.012473065
43	0x3d2efecc	0.042723462
44	0xbd433fa9	-0.047668133
45	0xbdd02a26	-0.10164289
46	0xbea0a950	-0.31379175
47	0xbba730b8	-0.0051022433
48	0x3db728d2	0.08943333
49	0xbd53a818	-0.05167398
50	0xbe1151f4	-0.14191419
51	0xbbe43d6e	-0.006965331
52	0x3e69353f	0.22774218
53	0xbe5d3402	-0.2160187
54	0x3be1adb3	0.0068871616
55	0xbe052b5d	-0.13004823
56	0xbdf68ac1	-0.12038184
57	0xbd35b6db	-0.044363838
58	0x3cc2d753	0.023784315
59	0xbdc26257	-0.09491413
60	0x3dae937e	0.08524226
61	0xbc737e04	-0.014861587
62	0xbd5dc689	-0.054144416
63	0xbc64f7f4	-0.013975132
64	0xbe45f675	-0.19332297
65	0xbd52ef51	-0.05149776
66	0x3e7477a8	0.2387377
67	0x3d63779a	0.055533983
68	0x3dff379a	0.12461777
69	0x3dd17a9f	0.10228466
70	0xbddc85c6	-0.10767703
71	0xbdc8a741	-0.09797526
72	0x3dea00f6	0.114259645
73	0xbe3f351e	-0.18672606
74	0xbe25e992	-0.16202381
75	0x3d91e4c6	0.07123713
76	0x3d8125db	0.063060485
77	0x3db1a416	0.08673875
78	0xbd283df2	-0.0410747
79	0x3e02fd94	0.12792045
80	0x3e00ef94	0.12591392
81	0xbe37384b	-0.17892568
82	0xbdd11bd9	-0.1021039
83	0x3e6f6db0	0.23381686
84	0x3e0274a3	0.12739806
85	0xbe48719a	-0.19574586
86	0xbd81db3a	-0.06340642
87	0xbdb15b55	-0.08659998
88	0x3d878fca	0.066192225
89	0xbe42deed	-0.19030352
90	0xbd3617a5	-0.044456143
91	0xbd242dea	-0.04008285
92	0x3d459a97	0.04824313
93	0xbe3f8b64	-0.18705517
94	0x3e86eaf4	0.2635113
95	0x3e131188	0.14362156
96	0xbd040660	-0.032232642
97	0xbe942600	-0.28935242
98	0x3e0e0d47	0.13872252
99	0x3e45f9ab	0.19333522
100	0x3c368cb4	0.011141945
101	0x3c1c06fd	0.0095231505
102	0xbd68c8f3	-0.056832265
103	0xbe05bb94	-0.13059837
104	0xbdd6c379	-0.10486502
105	0x3e17f909	0.14841093
106	0xbd7ff434	-0.06248875
107	0x3e36eb07	0.17863093
108	0x3d646f3a	0.055770136
109	0xbc81d936	-0.015850645
110	0xbc2eedb2	-0.010676788
111	0xbe41a589	-0.18910803
112	0xbc86ff5f	-0.016479192
113	0xbd5acbb4	-0.053416923
114	0xbe28d85c	-0.16488785
115	0x3df9996a	0.121874645
116	0x3e6f42e2	0.23365358
117	0xbdcf0df3	-0.101100825
118	0xbe667392	-0.22505024
119	0xbe2a4597	-0.16628109
120	0xbe4164d3	-0.18886118
121	0x3e9bfcc2	0.30466276
122	0x3eaef0a9	0.34167984
123	0xbdf5fe3c	-0.12011382
124	0xbd895117	-0.0670492
125	0x3db8d0df	0.09024214
126	0x3c1592b8	0.009129219
127	0x3e2a91a5	0.16657121
128	0xbd6e9902	-0.05825139
129	0x3dede5a4	0.11616066
130	0xbdbb85f8	-0.09156412
131	0xbdc369a1	-0.095416315
132	0xbe1d3674	-0.15352803
133	0x3d87e071	0.06634606
134	0xbe4d4392	-0.20045307
135	0x3cf329c0	0.029682994
136	0xbd767fc2	-0.060180433
137	0x3c7b8d9f	0.015353589
138	0xbe2d55bf	-0.16927241
139	0xbdff7a5d	-0.12474511
140	0xbe147818	-0.14498937
141	0x3d76a7e1	0.060218696
142	0xbd057478	-0.032581776
143	0xbe6f8258	-0.23389566
144	0x3d989099	0.07449455
145	0x3d46018a	0.04834131
146	0x3dc9c9e2	0.09852959
147	0x3e18ccd1	0.14921881
148	0xbdbbf8cc	-0.091783136
149	0xbe1029c8	-0.14078438
150	0x3c8be310	0.017076045
151	0x3dab5b36	0.083670065
152	0x3e2d87d4	0.16946346
153	0x3e053e76	0.13012108
154	0xbdaba8d0	-0.08381808
155	0xbd959b72	-0.073050395
156	0xbe4d7874	-0.2006548
157	0x3d459f45	0.048247594
158	0xbd90ad4b	-0.07064303
159	0x3db5b643	0.08872654
160	0xbcdff7e3	-0.027339881
161	0x3dd39863	0.103318
162	0xbde73606	-0.11289601
163	0xbd0f5ced	-0.03500073
164	0xbe59715f	-0.21234654
165	0x3d97ab5e	0.074057326
166	0x3bf41fec	0.0074500944
167	0xbe690823	-0.2275701
168	0x3e622274	0.22083455
169	0xbe744989	-0.23856176
170	0xbddeaba9	-0.10872585
171	0x3d407551	0.04698688
172	0x3cd7223a	0.026261438
173	0xbd4bf209	-0.04979137
174	0xbdf46624	-0.11933544
175	0xbd02c3b9	-0.031924937
176	0xbe94e5dc	-0.2908162
177	0xbe821eda	-0.25414163
178	0x3c01fc83	0.007933739
179	0xbe1b1869	-0.1514603
180	0x3deb4494	0.114876896
181	0xbe618b14	-0.2202571
182	0xbdec7ed1	-0.11547626
183	0xbe00d84b	-0.12582509
184	0x3e6132f3	0.21992092
185	0xbe400cd7	-0.18754898
186	0x3e2b63bc	0.16737264
187	0x3b5dd8b6	0.0033851094
188	0xbd000d8b	-0.031262916
189	0x3d577506	0.052601837
190	0xbbe3c5bd	-0.0069510625
191	0xbcc176fd	-0.023616308
192	0x3e263791	0.16232134
193	0x3da35844	0.0797582
194	0xbe298dfa	-0.16558066
195	0xbdc58a97	-0.096455745
196	0x3de3cc95	0.11123005
197	0x3d50a15b	0.05093513
198	0xbe0d1399	-0.13777007
199	0xbe3466f4	-0.17617399
200	0xbdad728e	-0.08469115
201	0xbd8bef8b	-0.068327986
202	0xbe2ed01e	-0.17071578
203	0x3e1db245	0.15400036
204	0x3d106302	0.03525067
205	0xbd9099c0	-0.070605755
206	0x3b7b1142	0.0038309847
207	0x3e688c5a	0.2270979
208	0xbe44d22c	-0.19220799
209	0x3dcdb323	0.10043933
210	0x3e780060	0.24218893
211	0x3e130f1e	0.14361235
212	0xbd322317	-0.043490496
213	0x3e467795	0.19381554
214	0xbdbd83b5	-0.09253637
215	0xbde462cd	-0.11151657
216	0x39cf51c0	0.00039543025
217	0x3df86446	0.12128501
218	0x3e367791	0.17819048
219	0xbd5ccab4	-0.05390425
220	0xbe918e00	-0.2842865
221	0x3e7b0b05	0.24515922
222	0x3e0f9a2a	0.14023653
223	0xbb9e1788	-0.0048245825
224	0x3d821ecd	0.06353531
225	0x3e80c73b	0.25152
226	0x3d6c18d8	0.05764088
227	0x3d667d92	0.056272097
228	0xbce4b01c	-0.027916007
229	0x3d55627b	0.05209587
230	0x3d11cb67	0.03559437
231	0x3d851668	0.06498414
232	0xbdde114a	-0.108431414
233	0x3dcebe12	0.10094847
234	0x3dbfa6e7	0.09358006
235	0x3e16256e	0.14662716
236	0x3e6b2e1c	0.22966808
237	0x3d387622	0.045034535
238	0xbe45cbce	-0.19316027
239	0x3da9ec93	0.08297076
240	0x3d6491b8	0.05580303
241	0x3db85c5f	0.090019934
242	0xbda55bff	-0.080741875
243	0xbcc71932	-0.024304006
244	0x3e64f726	0.22359905
245	0xbe92db50	-0.28682947
246	0xbe0fa0d9	-0.14026202
247	0x3e32e556	0.17470297
248	0xbe27b8c0	-0.1637907
249	0xbdf8f05c	-0.1215522
250	0x3d97e188	0.074160635
251	0x3e00bca9	0.12571968
252	0xbe0a8e3e	-0.13530824
253	0x3e39fd99	0.18163146
254	0x3d1d6527	0.038426545
255	0x3d594b84	0.053050533

layers.0.lin.bias f4 [22]
0	0x3e34af9e	0.17645118
1	0x3d77dc73	0.06051297
2	0xbe1c73fd	-0.15278621
3	0xbd8840db	-0.06652995
4	0xbdc170bb	-0.0944533
5	0xbca487bb	-0.020084253
6	0xbd845e2d	-0.06463275
7	0xbdcedb8f	-0.10100471
8	0xbe2b9fcc	-0.16760176
9	0x3cc05fd2	0.02348319
10	0x3dcfd924	0.10148838
11	0x3e51f4e7	0.20503579
12	0x3d9339e2	0.07188775
13	0xbd9b01e6	-0.075687215
14	0xbdc144f0	-0.09436977
15	0x3e398913	0.18118696
16	0x3e49224c	0.1964199
17	0x3d27e90a	0.040993728
18	0xbda744ec	-0.08167443
19	0xbdfaa571	-0.12238587
20	0x3b9fbd99	0.0048748967
21	0xbd28fbaa	-0.04125563

layers.0.lin_l.weight f4 [128, 22]
0	0x3e6fa91d	0.23404355
1	0xbd10dff1	-0.035369817
2	0x3e201a3c	0.15635008
3	0x3d2896c2	0.0411594
4	0x3e9676aa	0.29387408
5	0x3ea732ff	0.32656094
6	0x3e5c9394	0.21540672
7	0xbddec8ac	-0.10878119
8	0x3e83d8e5	0.25751415
9	0x3e9c4ba1	0.3052645
10	0x3d8ce2f5	0.06879226
11	0x3e5e081c	0.21682781
12	0x3dc5a7b7	0.0965113
13	0xbdc576c9	-0.09641797
14	0x3d1a4965	0.03766765
15	0xbcc52130	-0.024063677
16	0xbcf2d4d1	-0.029642494
17	0x3e6b1ef9	0.22961034
18	0xbc185ac0	-0.00929898
19	0xbb6ad75b	-0.0035833928
20	0x3e0f0cc5	0.13969715
21	0xbe3a20f5	-0.18176635
22	0xbde06181	-0.109560974
23	0xbd1dd0fe	-0.03852939
24	0x3e11be29	0.14232697
25	0xbe2b5d96	-0.16734919
26	0x3e40ad9f	0.18816231
27	0x3e715f1f	0.23571442
28	0x3de2a31d	0.11066268
29	0x3dc02b78	0.09383291
30	0x3dcaa2d6	0.0989434
31	0x3cde7072	0.027153227
32	0x3e1583f4	0.14601117
33	0x3e2b7689	0.16744436
34	0x3e0ce1bc	0.13757986
35	0x3e1d89db	0.15384619
36	0x3d7e5557	0.062093105
37	0xbdbf9e56	-0.09356372
38	0x3e1707f9	0.14749135
39	0x3db84272	0.089970484
40	0x3e6868fa	0.22696295
41	0x3e43c5be	0.19118401
42	0xbd7083d0	-0.058719456
43	0xbe091965	-0.13388593
44	0xbcd4b930	-0.02596721
45	0x3e0278ad	0.12741347
46	0x3ca9e585	0.020739326
47	0x3db01785	0.08598236
48	0xbe2994b4	-0.16560632
49	0x3db9410d	0.090456106
50	0x3d6bd4b2	0.05757589
51	0x3da40fab	0.08010801
52	0xbc57ea7d	-0.013178465
53	0x3d53af2b	0.051680725
54	0x3e0b04d6	0.13576064
55	0x3db22d0b	0.086999975
56	0x3d89b136	0.067232534
57	0xbd9c3d21	-0.07628847
58	0x3dcd9608	0.10038382
59	0xbda0d22e	-0.078525886
60	0xbd2664bd	-0.040623415
61	0x3dbd0446	0.09229331
62	0x3cb53b7d	0.022123093
63	0x3e05f771	0.13082673
64	0x3da350c7	0.079743914
65	0xbdb0fe34	-0.086422354
66	0x3dc892c1	0.09793616
67	0xbd4fe445	-0.050754804
68	0x3defd914	0.11711326
69	0x3e09032f	0.1338012
70	0xbd05bdd1	-0.032651726
71	0x3d1a42d6	0.037661396
72	0xbd993526	-0.074808404
73	0xbce2b81f	-0.027675686
74	0xbd62e6df	-0.055395957
75	0xbe03899c	-0.12845463
76	0x3bb7a40c	0.0056042727
77	0x3da782e1	0.0817926
78	0xbe04f0b3	-0.12982444
79	0x3d07a5d5	0.033117134
80	0x3b692d11	0.003557984
81	0x3d2f910a	0.04286293
82	0xbdd044e9	-0.101693936
83	0xbd2e66c6	-0.04257848
84	0x3ccf9b31	0.025342556
85	0xbdc8a914	-0.09797874
86	0xbd3f680b	-0.046730082
87	0xbe21452c	-0.15749043
88	0x3e380e21	0.1797414
89	0x3cefb969	0.029263215
90	0x3dad25b7	0.08454459
91	0xbe3b7d3f	-0.18309496
92	0xbe8aa4f8	-0.27078986
93	0xbdf2cd18	-0.11855525
94	0x3da461cc	0.08026466
95	0x3db0bcdc	0.08629772
96	0xbe1a305e	-0.15057513
97	0x3d9a843b	0.07544752
98	0xbe82c2d2	-0.2553926
99	0xbdaa1567	-0.083048634
100	0xbd9a3826	-0.07530241
101	0x3e2f2cad	0.17106886
102	0xbddd30b6	-0.108003065
103	0xbda3c963	-0.07997396
104	0xbe8a2c18	-0.26986766
105	0xbde22c3f	-0.110435955
106	0x3e2503c1	0.16114713
107	0xbd97e3d2	-0.074165
108	0xbe0c64eb	-0.13710372
109	0x3e2a2de2	0.16619065
110	0xbd072107	-0.03299048
111	0xbd9de2fc	-0.077093095
112	0x3de9493e	0.11390923
113	0x3d5c8f92	0.053847857
114	0xbc433309	-0.011914023
115	0x3e4ca8ad	0.1998622
116	0x3dcd206b	0.10015949
117	0xbceaccd6	-0.028662127
118	0x3dd2f9e7	0.10301571
119	0x3dc95314	0.09830299
120	0x3d132019	0.035919283
121	0x3d2033cf	0.03911191
122	0xbdf4b0ab	-0.11947759
123	0xbd47aab7	-0.04874679
124	0x3d1f9468	0.03895989
125	0x3e02963a	0.1275262
126	0x3e1cc87a	0.1531085
127	0x3d9a814b	0.07544192
128	0xbb8276c2	-0.003981442
129	0x3cead885	0.028667698
130	0x3e135971	0.14389588
131	0xbd7bf30c	-0.061511084
132	0xbd46b874	-0.048515752
133	0xbe5458c3	-0.20736985
134	0xbdea4b1a	-0.11440106
135	0xbe3d30ca	-0.18475643
136	0xbe14c731	-0.1452911
137	0xbdb77ccd	-0.08959351
138	0xbca465e9	-0.020068126
139	0xbd8134f1	-0.06308926
140	0x3d82fe65	0.06396178
141	0x3dc36bee	0.0954207
142	0xbe4d9623	-0.20076804
143	0xbccea72b	-0.025226196
144	0xbe33c1a3	-0.17554335
145	0x3e3835bf	0.17989253
146	0xbdbd9236	-0.09256403
147	0xbcb4ccb7	-0.022070272
148	0xbe428074	-0.18994313
149	0xbdb13a91	-0.08653749
150	0xbc8de71f	-0.017322121
151	0x3e2c7425	0.1684118
152	0xbe6d672f	-0.23183893
153	0xbab882ab	-0.0014077028
154	0x3e066274	0.13123494
155	0xbd94d66a	-0.07267459
156	0xbe6f0f40	-0.23345661
157	0x3dc21f1b	0.09478589
158	0xbd78f075	-0.060776193
159	0x3dae3ea2	0.0850804
160	0xbd88cb20	-0.06679368
161	0x3d060ba8	0.03272596
162	0xbd9462bb	-0.07245394
163	0xbddab3ef	-0.10678851
164	0xbe5d676c	-0.21621484
165	0xbdda8a9d	-0.1067097
166	0x3d7cf43f	0.06175637
167	0x3e5c073e	0.21487138
168	0x3da195c5	0.078898944
169	0x3dc56888	0.096390784
170	0x3bc62346	0.0060466854
171	0x3e9912d0	0.29897165
172	0xbd78a71a	-0.060706235
173	0xbe230f53	-0.15923814
174	0x3e08e38b	0.13368051
175	0xbd67f9ad	-0.056634594
176	0xbdaaf829	-0.08348114
177	0xbe1c027b	-0.15235321
178	0x3e08fd08	0.13377774
179	0x3e4b2453	0.19838075
180	0xbe78ef99	-0.24310149
181	0x3d16f335	0.036853034
182	0xbe1ef416	-0.15522799
183	0x3d6119f9	0.05495641
184	0xbd647b7b	-0.055781823
185	0x3e2729a7	0.16324483
186	0x3e3703b0	0.178725
187	0x3dc187b9	0.09449715
188	0x3d3ff193	0.046861243
189	0x3e23dfd8	0.16003358
190	0xbe2f46aa	-0.171168
191	0x3e03262e	0.12807533
192	0x3c9317a9	0.017955618
193	0xbcdb4740	-0.026767373
194	0xbdf47aa7	-0.119374566
195	0xbdb006f0	-0.08595073
196	0xbe342688	-0.17592824
197	0x3dc6657d	0.09687326
198	0x3d7ef161	0.062241916
199	0x3d12b629	0.035818253
200	0xbce20969	-0.027592378
201	0xbd90faeb	-0.07079109
202	0x3e865393	0.26235637
203	0xbde896e3	-0.11356904
204	0x3e4f2c3b	0.20231716
205	0x3b11f48a	0.0022271
206	0x3e596221	0.2122884
207	0x3c2f545c	0.010701265
208	0xbd005425	-0.031330246
209	0x3e5fff8d	0.21874829
210	0xbdafd322	-0.08585192
211	0x3b64acda	0.0034893067
212	0x3e21a718	0.15786397
213	0x3df62912	0.12019552
214	0xbd90ff07	-0.070798926
215	0xbd9b73ed	-0.075904705
216	0xbe235974	-0.15952092
217	0x3d591fe1	0.053008918
218	0x3d83017e	0.06396769
219	0x3c56aeed	0.013103229
220	0xbe4df779	-0.20113935
221	0xbdf370bb	-0.11886736
222	0x3d29405e	0.04132115
223	0x3e0bd4fd	0.13655467
224	0x3bede15a	0.00725953
225	0xbcfe7d54	-0.03106562
226	0x3e3360a7	0.17517339
227	0xbe1e329f	-0.15448998
228	0xbe2e1dc5	-0.17003544
229	0x3dd02b5a	0.10164519
230	0xbd510715	-0.051032145
231	0xbe04b268	-0.12958682
232	0x3d66c65b	0.05634151
233	0xbdc8439b	-0.0977852
234	0x3df62977	0.120196275
235	0x3d9886ce	0.07447587
236	0xbe487dab	-0.19579189
237	0xbd0f550b	-0.034993213
238	0xbd8916c3	-0.066937946
239	0x3e2ba884	0.16763502
240	0x3e07949a	0.13240281
241	0x3d940822	0.07228114
242	0x3e4203b7	0.1894673
243	0x3e2ce5b8	0.16884506
244	0xbda9096c	-0.0825375
245	0x3df758c0	0.120774746
246	0x3e066b13	0.13126783
247	0x3e6be7c7	0.23037635
248	0x3e42888e	0.18997404
249	0xbdfc377f	-0.123152725
250	0x3da4eb8e	0.08052741
251	0x3e05c008	0.13061535
252	0xbd305fa4	-0.04305996
253	0x3d932b9b	0.071860515
254	0x3e4264a3	0.18983702
255	0xbd877dc5	-0.066157855

layers.0.lin_r.weight f4 [128, 22]
0	0xbd841ba3	-0.06450584
1	0xbd7e2d72	-0.06205506
2	0xbdbea4d7	-0.093087845
3	0x3a49f9ef	0.00077047845
4	0xbdde1726	-0.10844259
5	0xbb060011	-0.0020446817
6	0xbe044cc5	-0.1291991
7	0x3d0d06e5	0.034430403
8	0x3d025fb5	0.031829555
9	0x3e90d347	0.28286192
10	0xbd675170	-0.05647415
11	0xbc9d28e8	-0.019184545
12	0x3d86e318	0.065862834
13	0x3e4e75d9	0.20162143
14	0xbc7b4d44	-0.015338246
15	0x3d1d7eb3	0.038450908
16	0x3df26788	0.11836153
17	0xbd3a8880	-0.045540333
18	0xbde55f45	-0.11199812
19	0xbd5a06fe	-0.053229325
20	0xbdea5464	-0.114418775
21	0x3d9d21f6	0.07672493
22	0x3ddcaaba	0.10774751
23	0xbe40e2a4	-0.18836457
24	0xbc183128	-0.0092890635
25	0x3e0be3d0	0.13661122
26	0x3e18748e	0.14888212
27	0xbe64fb97	-0.22361599
28	0x3d239a43	0.039942037
29	0xbdcb36f7	-0.09922593
30	0xbb27788f	-0.0025554036
31	0xbd6f5531	-0.058430854
32	0xbdbd4b3e	-0.09242867
33	0x3e605035	0.21905597
34	0xbe70c361	-0.23512031
35	0x3e101349	0.14069857
36	0xbe202034	-0.15637285
37	0xbd32c62b	-0.04364602
38	0xbd8774d0	-0.06614077
39	0xbd0e3b58	-0.034724563
40	0xbc935d21	-0.017988743
41	0x3b692946	0.003557758
42	0xbd71c518	-0.059025854
43	0xbca72e6e	-0.020407882
44	0xbce9bccd	-0.02853241
45	0xbd909216	-0.07059114
46	0x3e1d1ca1	0.15342952
47	0xbd93a39b	-0.0720894
48	0xbc8aa597	-0.016924663
49	0xbe201f89	-0.1563703
50	0xbd8e1be8	-0.069389164
51	0xbd5918e8	-0.053002268
52	0xbd91dfa6	-0.07122736
53	0xbcc06f30	-0.023490518
54	0x3bf5dd1d	0.0075031654
55	0xbde1bb78	-0.11022085
56	0x3e09f35b	0.13471739
57	0xbdaff4b6	-0.08591597
58	0xbcf02800	-0.029315948
59	0xbda434f8	-0.080179155
60	0xbde2a187	-0.11065965
61	0x3b249e7e	0.0025118883
62	0x3d9e6b92	0.07735361
63	0xbd2471a7	-0.04014745
64	0xbd239e2b	-0.039945763
65	0x3cec98fd	0.028881544
66	0xbe632cd9	-0.22185077
67	0xbd9a0461	-0.075203665
68	0xbd28691c	-0.041115865
69	0x3d2f56b0	0.04280728
70	0xbe43a253	-0.1910489
71	0xbdd0e589	-0.1020003
72	0x3e7222a1	0.23646022
73	0x3e54a7e1	0.20767166
74	0x3dc8bae5	0.09801272
75	0xbe51ca3b	-0.20487301
76	0x3e627617	0.2211536
77	0xbdeea55e	-0.11652635
78	0x3de1116d	0.10989652
79	0xbce17db8	-0.027525768
80	0xbdc52fe3	-0.09628274
81	0xbd9b738a	-0.07590397
82	0xba86ff3a	-0.0010299452
83	0x3e1bf405	0.15229805
84	0x3c320468	0.010865308
85	0xbc1dfc8c	-0.009642731
86	0xbd6ec20b	-0.058290523
87	0x3e16e5cd	0.147361
88	0xbe098af6	-0.13431916
89	0xbdac3322	-0.0840819
90	0xbe4e395b	-0.20139067
91	0x3d25340c	0.04033284
92	0xbd9b22e8	-0.07575017
93	0xbe86dc83	-0.26340112
94	0x3e02169b	0.12703936
95	0x3cc243e7	0.023714019
96	0x3e18c3fd	0.14918514
97	0x3daf91a2	0.08572699
98	0x3d29d259	0.04146037
99	0xbd6b4db3	-0.057447147
100	0x3e8d5546	0.2760412
101	0xbdfc5a88	-0.12321955
102	0xbe3aa455	-0.1822675
103	0x3dabf811	0.08396924
104	0xbe1ea2f2	-0.15491846
105	0xbe1c5bc7	-0.15269385
106	0xbd632f11	-0.055464808
107	0x3e04c8bb	0.12967198
108	0x3dcfb442	0.10141803
109	0x3d5f754c	0.054555222
110	0xbd6f97ad	-0.05849426
111	0x3ecb1bd0	0.39669657
112	0xbe2f909d	-0.1714501
113	0xbe159c65	-0.14610441
114	0xbe8d571e	-0.27605528
115	0x3dc94dac	0.09829268
116	0x3e81da01	0.25361636
117	0xbc535ea0	-0.012900978
118	0x3d07b82d	0.033134628
119	0xbe108255	-0.14112218
120	0x3ce7213d	0.028214091
121	0x3d321f1f	0.04348671
122	0xbe3a54f7	-0.18196474
123	0xbdbe9050	-0.09304869
124	0xbbd8c586	-0.0066153435
125	0xbe330686	-0.17482957
126	0xbcfb1537	-0.030649764
127	0x3e63dd9e	0.22252509
128	0xbe2b560f	-0.16732047
129	0xbdad6117	-0.08465784
130	0xbd8a5ed9	-0.06756372
131	0x3e3b86ba	0.18313113
132	0x3de4886a	0.111588314
133	0x3ec726af	0.388967
134	0xbcf6d69b	-0.030131629
135	0x3e109323	0.14118628
136	0xbdc690fb	-0.096956216
137	0xbd679675	-0.05653997
138	0xbbfff9f0	-0.0078117773
139	0x3e80a8aa	0.2512868
140	0x3e04c749	0.12966646
141	0xbe196021	-0.14978077
142	0xbc055e3b	-0.008140142
143	0x3dd9d6c2	0.10636665
144	0x3ec48b59	0.38387564
145	0x3d093374	0.033496335
146	0xbdbfa12f	-0.09356915
147	0xbdda471d	-0.10658095
148	0xbe51725a	-0.20453778
149	0xbde64824	-0.112442285
150	0x3c6f1e87	0.014594681
151	0x3e1a16bb	0.15047733
152	0xbc26832f	-0.010163113
153	0xbd8d6787	-0.06904512
154	0xbe6e6707	-0.2328149
155	0xbdcb4f78	-0.09927267
156	0x3daca889	0.08430583
157	0xbd2a9135	-0.041642386
158	0xbe35891e	-0.17728087
159	0xbd73bb8b	-0.059505027
160	0x3daa339f	0.08310627
161	0xbdde09c2	-0.10841705
162	0xbdfe3728	-0.12412864
163	0x3e81a09f	0.25317857
164	0xbe4ca3ef	-0.1998441
165	0xbce44167	-0.027863218
166	0x3e9a2117	0.3010337
167	0x3dbd1117	0.09231775
168	0xbd8a0df1	-0.0674094
169	0xbe42cf1a	-0.19024315
170	0x3d9d49be	0.07680081
171	0x3e0fa037	0.14025961
172	0x3d8f1255	0.069859184
173	0xbd9e2018	-0.07720965
174	0x3c0d9735	0.008642008
175	0xbe04a0d0	-0.1295197
176	0x3e20541a	0.15657082
177	0x3e275b4c	0.1634342
178	0xbd8a0d54	-0.067408234
179	0xbd7d7815	-0.061882097
180	0x3b4d4488	0.0031321365
181	0x3e1ff327	0.15620099
182	0x3d0095f1	0.031392995
183	0xbe4b6938	-0.19864357
184	0x3c525911	0.012838618
185	0xbc1d0cfc	-0.009585615
186	0x3e3b636c	0.18299645
187	0xbe803ac0	-0.25044823
188	0x3e6be25d	0.2303557
189	0x3dc1af81	0.09457303
190	0x3d6ed056	0.058304153
191	0xbd519e9b	-0.05117665
192	0xbdc71eef	-0.09722697
193	0x3ce16491	0.027513774
194	0xbd8d883c	-0.0691075
195	0xbd116503	-0.035496723
196	0x3d2e8621	0.042608384
197	0xbcd628ab	-0.026142439
198	0x3d0ab332	0.0338623
199	0xbe1434fd	-0.14473338
200	0xbc7c0af0	-0.015383467
201	0x3d5b97c0	0.053611517
202	0x3dffa2a3	0.12482192
203	0x3d3d596a	0.04622785
204	0x3c7e6059	0.015525901
205	0x3d692432	0.056919284
206	0x3e8240d9	0.254401
207	0xbe031c67	-0.12803803
208	0xbd30a1e8	-0.043123156
209	0xbda3e4e2	-0.0800264
210	0xbe0c9957	-0.1373037
211	0xbdcbe2fb	-0.099554025
212	0xbd23ce02	-0.039991386
213	0xbd449d50	-0.048001587
214	0x3ca20d3f	0.019781707
215	0x3c614bdb	0.0137509955
216	0x3cfedbf4	0.031110741
217	0x3de85bca	0.113456324
218	0x3c19449e	0.0093547385
219	0x3db2f249	0.087376185
220	0x3c492183	0.012276056
221	0x3ec5ac31	0.38607934
222	0x3e80ceb2	0.25157696
223	0x3d1aa344	0.03775336
224	0xbce3ea55	-0.0278217
225	0x3e61e302	0.22059253
226	0xbe1932f7	-0.14960848
227	0xbd72b0aa	-0.05925051
228	0xbe345799	-0.17611541
229	0x3e07c507	0.13258754
230	0xbd69001b	-0.056884866
231	0xbe5ee2d2	-0.21766213
232	0x3e11325f	0.14179371
233	0xbe1606a8	-0.14650977
234	0xbdef6d3e	-0.11690758
235	0x3db319a6	0.087451264
236	0x3d60a2fb	0.05484293
237	0xbd4a03ca	-0.04932002
238	0x3dd26a6d	0.10274205
239	0x3d2f22c3	0.04275776
240	0xbd3a7967	-0.045525935
241	0x3e08c922	0.13357976
242	0x3d915c14	0.07097641
243	0xbd3bff2e	-0.045897655
244	0x3e069e19	0.13146247
245	0x3e1117c4	0.14169222
246	0x3e1ea61f	0.15493058
247	0xbdea36f6	-0.11436264
248	0x3d0e1535	0.034688193
249	0xbe251729	-0.16122116
250	0x3d07cce9	0.033154402
251	0x3ddc0505	0.10743145
252	0xbdc5239c	-0.096259326
253	0x3e33eb77	0.17570291
254	0xbea53300	-0.32265472
255	0xbddae0bf	-0.10687398

layers.1.lin.weight f4 [128, 128]
0	0xbd29bdff	-0.04144096
1	0xbaa25812	-0.0012385866
2	0xbdcfbfa7	-0.10143977
3	0x3d4d0930	0.05005759
4	0x3d303f82	0.043029316
5	0xbd992c5c	-0.07479164
6	0x3df12bf0	0.117759585
7	0x3e2e0410	0.16993737
8	0x3da494fd	0.0803623
9	0xbdb3a808	-0.08772284
10	0xbd14deff	-0.03634548
11	0xbda8628c	-0.08221921
12	0x3b53c4b8	0.0032313298
13	0x3def7cbf	0.11693715
14	0x3da6b38f	0.08139717
15	0x3d9bc71c	0.076063365
16	0xbc865ac2	-0.016400699
17	0xbd5a4aea	-0.0532941
18	0x3d0f0de3	0.034925353
19	0x39cb3f94	0.00038766547
20	0xbd6a44ea	-0.057194628
21	0xbd9bc639	-0.07606167
22	0x3c85acb9	0.016317712
23	0x3d8ea9db	0.06965991
24	0x3d92e459	0.0717246
25	0x3d26b713	0.040701937
26	0x3c891307	0.016732706
27	0x3cc706b8	0.024295196
28	0x3bdf9a4a	0.0068238126
29	0xbd657917	-0.056023683
30	0x3d63b988	0.05559686
31	0xbdc94352	-0.098272935
32	0xbdc43bed	-0.095817424
33	0xbd086942	-0.033303507
34	0x3e12111f	0.14264344
35	0x3dd0590d	0.10173235
36	0xbcc0549e	-0.023477849
37	0x3dea288d	0.11433516
38	0x3cbff3ad	0.023431623
39	0xbd2e4fba	-0.042556502
40	0x3d11a922	0.03556169
41	0x3db06f2f	0.086149566
42	0xbdced538	-0.10099262
43	0x3d60dc5e	0.05489766
44	0x3dcd0f71	0.10012711
45	0x3be2ba0e	0.006919152
46	0x3d2c2b0c	0.04203324
47	0x3d5810dc	0.052750453
48	0x3d913a59	0.07091207
49	0x3e138387	0.14405642
50	0xbd80cd30	-0.062891364
51	0xbda7f519	-0.082010455
52	0x3d27d7c5	0.04097726
53	0xbdb98dc3	-0.09060242
54	0x3d5362e6	0.05160799
55	0xbd3238e2	-0.04351128
56	0x3dc90854	0.098160416
57	0x3ce9ec1a	0.028554965
58	0xbdaa89a3	-0.08327033
59	0xbd85668d	-0.06513701
60	0xbdcebe83	-0.10094931
61	0x3db175ed	0.08665071
62	0x3dbb3195	0.091403164
63	0xbb5bef54	-0.0033559399
64	0xbc172a7a	-0.009226436
65	0xbda2a6a4	-0.079419404
66	0xba3cdbb9	-0.0007204372
67	0xbd4d70aa	-0.050156273
68	0xbd8767d5	-0.06611601
69	0x3c3eb596	0.011639973
70	0xbd576b5e	-0.052592628
71	0xbdc196e7	-0.094526105
72	0xbc500193	-0.012695688
73	0x3dfe583a	0.12419172
74	0x3d67b78c	0.05657153
75	0xbc9f219a	-0.019425202
76	0xbb9b66db	-0.004742486
77	0x3cf38eb7	0.029731138
78	0x3d60e218	0.05490312
79	0x3d52f739	0.0515053
80	0xbcc191f5	-0.023629168
81	0xbdac77cb	-0.08421286
82	0xbc2e984e	-0.010656429
83	0x3d8381fe	0.064212784
84	0xbd99e951	-0.07515205
85	0xbbaf2927	-0.005345482
86	0xbcf4262e	-0.029803362
87	0x3db691fa	0.089145616
88	0xbd7426f4	-0.05960746
89	0xbd8d56f5	-0.06901351
90	0x3da7cd5a	0.081934646
91	0x3cf371f8	0.02971743
92	0x3accf31c	0.0015636417
93	0xbd13cc6b	-0.03608362
94	0xbcdc89be	-0.02692115
95	0x3d694244	0.05694796
96	0xbd7f10d6	-0.062271915
97	0x3bca03b4	0.006164992
98	0xbb820186	-0.0039674668
99	0x3dbd9a7c	0.09257981
100	0xbcf67374	-0.03008435
101	0xbb8bd6e9	-0.0042675626
102	0x3e3565d8	0.17714632
103	0x3d8a88df	0.06764387
104	0x3d060023	0.032714974
105	0xbe12c706	-0.14333734
106	0xbca59ce7	-0.020216418
107	0xbca4faf8	-0.020139202
108	0xbddd9001	-0.10818482
109	0x3e06af8d	0.13152905
110	0x3da1ec46	0.07906394
111	0xbdd0efa2	-0.10201956
112	0xbdcbba1e	-0.099476084
113	0x3c7b8733	0.015352058
114	0x3d481300	0.048846245
115	0x3d0dd2b4	0.03462477
116	0xbd8339ba	-0.06407495
117	0xbd1e34ff	-0.03862476
118	0x3def172a	0.1167434
119	0xbd8fd998	-0.070239246
120	0x3aed10f0	0.0018086713
121	0xbdcd33ef	-0.10019671
122	0x3db553bd	0.088538624
123	0xbd39957c	-0.045308575
124	0x3d8bb7e0	0.06822181
125	0x3dff8f5d	0.12478516
126	0xbe1d340a	-0.15351883
127	0xbc91f2fa	-0.017816056
128	0x3c4f2980	0.012644172
129	0xbd642d5e	-0.055707328
130	0xbd32f850	-0.04369384
131	0x3c05c3c2	0.008164348
132	0x3c9ba845	0.019001136
133	0x3d757dcf	0.059934434
134	0x3e00ba3a	0.1257104
135	0x3c945157	0.018105192
136	0x3d82d4fb	0.06388279
137	0xbd9577c8	-0.07298237
138	0xbbac6762	-0.0052613476
139	0xbd30b4b7	-0.043141093
140	0xbd15a1cf	-0.036531266
141	0x3d336f21	0.043807153
142	0x3d136411	0.035984103
143	0xbdb2b827	-0.087265305
144	0xbcdeacef	-0.02718207
145	0xbdefc8b2	-0.117082015
146	0xbde6ea95	-0.11275212
147	0xbd8f15ea	-0.06986602
148	0xbcf43481	-0.029810192
149	0xbdd99bb5	-0.10625402
150	0x3d9dd64c	0.077068895
151	0x3d17add8	0.037031025
152	0xbcd75be0	-0.026288927
153	0x3d882f37	0.066496305
154	0x3d8cbafd	0.06871603
155	0xbd6cf2cb	-0.057848733
156	0x3d04cff5	0.032424886
157	0x3cf32156	0.029678982
158	0xbc2f9cb6	-0.010718515
159	0xbc0f61f0	-0.008751377
160	0x3c4902dc	0.012268748
161	0xbd79020e	-0.060792975
162	0x3d9c9ba7	0.07646876
163	0x3cadd063	0.02121753
164	0xbdb5c43e	-0.08875321
165	0xbbed124f	-0.0072348486
166	0xbc4014d6	-0.011723718
167	0xbd5c1c56	-0.05373796
168	0x3d174d45	0.036938924
169	0x3d18b4b1	0.037281696
170	0x3c0fbee9	0.008773544
171	0x3c6160c6	0.013755983
172	0xbd09b86a	-0.033623137
173	0x3c604c55	0.013690074
174	0x3dca19e5	0.0986822
175	0x3ca62a25	0.020283768
176	0x3d3cf073	0.046127748
177	0x3d9f0f89	0.07766635
178	0xbdcbad09	-0.09945113
179	0xbdfce286	-0.123478934
180	0xbd586f09	-0.052840266
181	0x3c775476	0.015095821
182	0x3ddcdc2e	0.107841834
183	0xbdb6abb9	-0.08919472
184	0x3acc734c	0.0015598326
185	0xbc93f52e	-0.018061247
186	0x3d5c5ca3	0.053799283
187	0xbb996de8	-0.0046822913
188	0xbd6691b9	-0.056291316
189	0xbd71eadc	-0.05906187
190	0x3d7ad93d	0.06124233
191	0xbb9dba5f	-0.004813477
192	0xbd9090ae	-0.070588455
193	0xbc6c86aa	-0.014436403
194	0xbd88ecb2	-0.06685771
195	0x3d648eaf	0.055800136
196	0x3db4ca29	0.088276215
197	0xbd931867	-0.07182389
198	0xbd9f50a9	-0.077790566
199	0xbce8eaad	-0.028432215
200	0xbda48b17	-0.08034342
201	0x3c9a5fc9	0.018844502
202	0x3cff5cb0	0.031172127
203	0x3c13546d	0.008992297
204	0xbcc86c8f	-0.024465827
205	0x3cbdfff9	0.023193346
206	0x3dc4cdd2	0.096095696
207	0xbc8efda5	-0.017454932
208	0x3dbf6cf2	0.093469515
209	0x3ca3b361	0.019982995
210	0xbb05de6e	-0.0020426768
211	0x3e0f6ec3	0.14007096
212	0xbd9d51df	-0.07681631
213	0xbceaaf01	-0.028647901
214	0xbc9acb18	-0.01889567
215	0xbd35e63a	-0.044409014
216	0x3ce31b9a	0.027723122
217	0x3d324b9d	0.04352914
218	0xbdabf412	-0.08396162
219	0xbc105950	-0.008810356
220	0xbda309c6	-0.079608485
221	0xbd314613	-0.04327972
222	0x3d4f80fa	0.05066011
223	0x3c63ef1b	0.013911988
224	0x3afe5e79	0.0019406817
225	0xbb86bb80	-0.004111707
226	0xbd60a5b9	-0.054845545
227	0x3c33cf21	0.010974676
228	0xbd7e69ca	-0.062112607
229	0xbc2a895d	-0.0104087265
230	0x3da33126	0.07968359
231	0x3ce37371	0.027765008
232	0xbd7159f1	-0.058923665
233	0xbd09e158	-0.03366217
234	0xbcfbb6cc	-0.030726813
235	0xbd3a0a55	-0.04542001
236	0xbdd76dfd	-0.105190255
237	0xbd1e62fe	-0.038668625
238	0xbc5beb2b	-0.013422768
239	0xbd5b1027	-0.0534822
240	0xbd4e4531	-0.050358955
241	0xbd82dd17	-0.06389826
242	0x3d342850	0.043983757
243	0xbd30043f	-0.0429728
244	0xbd7cea9c	-0.06174718
245	0xbd3e22e6	-0.04642
246	0x3d48fa00	0.049066544
247	0x3c021bbd	0.007941184
248	0x3a6b14d1	0.00089676405
249	0x3c98303e	0.018577691
250	0xbc8026ae	-0.015643444
251	0x3d155824	0.03646101
252	0xbd0af3e5	-0.033924002
253	0xbd769f7e	-0.060210697
254	0xbc0086d2	-0.007844644
255	0xbd8130d4	-0.06308141

layers.1.lin.bias f4 [128]
0	0x3dae0481	0.08496953
1	0x3d75bb3b	0.05999301
2	0xbcebba43	-0.02877534
3	0x3ddb2d24	0.10701969
4	0x3ca5bfcf	0.020233063
5	0xbc595d9c	-0.013266947
6	0x3d72a9e8	0.059244066
7	0x3a3433d2	0.0006874177
8	0x3cf801ee	0.030274358
9	0x3d05a9c7	0.032632615
10	0x3d5b1598	0.05348739
11	0x3ca7f679	0.02050327
12	0x3d1d5f58	0.038421005
13	0x3b598c8b	0.0033195342
14	0x3d59ea92	0.05320222
15	0x3bdfd46f	0.006830744
16	0x3d845938	0.064623296
17	0xbc37779f	-0.0111979535
18	0x3d903e84	0.07043174
19	0x3c847f2e	0.016173925
20	0xb92dc742	-0.00016572795
21	0xbc38cd57	-0.011279426
22	0x3df1232c	0.11774287
23	0x3d9fcbb3	0.078025244
24	0xbd19ff71	-0.037597124
25	0x3dcf51ea	0.10123046
26	0x3cb47a5d	0.022031004
27	0xbae3c8ae	-0.0017378533
28	0x3d3eeefd	0.046614636
29	0xbbbd7587	-0.0057818326
30	0xbb40d893	-0.0029425963
31	0xbd009ac7	-0.031397607
32	0xbcbd636e	-0.0231187
33	0xbbce2b8d	-0.0062918128
34	0x3d15fd6d	0.03661864
35	0x3d29d810	0.04146582
36	0x3cebc9c6	0.028782737
37	0x3cbc072c	0.022952639
38	0xbcaf24f8	-0.021379933
39	0x3db94b89	0.0904761
40	0x3d092c7d	0.033489693
41	0x3d1609e2	0.03663052
42	0xba7dc2e1	-0.00096802233
43	0xbd1cddc6	-0.038297437
44	0xaaa20f6e	-2.8787687e-13
45	0x3d960f86	0.073271796
46	0x3d489cd1	0.048977677
47	0x3d5493d4	0.051898792
48	0x3dc6674c	0.09687671
49	0x3db63c7a	0.08898254
50	0x3d1f6775	0.038917024
51	0x3dd73fdc	0.10510227
52	0x3da3513c	0.079744786
53	0x3b72be09	0.003703954
54	0xb980c128	-0.00024557975
55	0x3d9faa0b	0.07796105
56	0x3d70102a	0.058609165
57	0x3c1a5cb7	0.009421519
58	0xbbe9c987	-0.0071346196
59	0x3d148efb	0.03626917
60	0xbbaae5dd	-0.00521539
61	0x3c03fc9b	0.008055831
62	0xbb21edb8	-0.0024708342
63	0xbbbe2a24	-0.0058033634
64	0x3c141f89	0.009040722
65	0xbcff4aa5	-0.031163523
66	0xbc2fa0bd	-0.010719475
67	0x3d320d66	0.04346981
68	0x3c86095c	0.016361885
69	0xbd31d91a	-0.043419935
70	0x3cc6f5b9	0.024287092
71	0x3c12882d	0.0089436
72	0xbca98530	-0.020693392
73	0x3e04d85e	0.12973163
74	0x3ccf85af	0.0253323
75	0xbc0c8976	-0.008577695
76	0x3dc2ddd2	0.09514965
77	0xbc159561	-0.009129853
78	0xbbc66e15	-0.0060556033
79	0xbd0762c8	-0.03305319
80	0x3dcd6fd4	0.10031095
81	0x3d654fa6	0.05598416
82	0x3cb2fe52	0.021849785
83	0xbbb9b1e1	-0.005666957
84	0x3cdb373f	0.026759742
85	0xbca24d60	-0.019812286
86	0x3da664ed	0.08124719
87	0x3dc964fd	0.09833715
88	0x3d109896	0.035301767
89	0xbaa90f19	-0.0012898176
90	0x3ce241fe	0.027619358
91	0x3cbb45fd	0.022860521
92	0x3d842a6a	0.06453402
93	0xbcd040db	-0.02542155
94	0xbcd7b653	-0.026332056
95	0x3bde3c82	0.0067821154
96	0xbc18844d	-0.009308887
97	0xbc952596	-0.018206399
98	0x3c2489dd	0.010042635
99	0x3d9a06ac	0.07520804
100	0x3cf3e7fc	0.029773705
101	0xbce9b2fa	-0.028527725
102	0x3df4d535	0.119547285
103	0x3d7db39c	0.061938867
104	0x3c1ca626	0.009561097
105	0x3d257351	0.040393177
106	0x3d2ff6f3	0.04296012
107	0xbb89d1b2	-0.004205906
108	0x3d4bbd10	0.04974085
109	0x3d9c8342	0.07642223
110	0xbd809f1a	-0.06280346
111	0x3c5e247b	0.013558502
112	0x3d063395	0.032764036
113	0x3d442b85	0.047893066
114	0x3dacc7c0	0.08436537
115	0xbd69a44d	-0.057041455
116	0x3d9d46ca	0.076795176
117	0xbc4a3fee	-0.012344344
118	0x3cee524f	0.029091982
119	0x3bb479f5	0.0055077025
120	0x3dab6d86	0.08370499
121	0xb8fa7156	-0.000119420394
122	0x3bb91b79	0.005649027
123	0x3c04152e	0.00806169
124	0x3dda9640	0.10673189
125	0x3ddb46eb	0.10706886
126	0x3d6400e8	0.055664927
127	0x3ddb0d73	0.106959246

layers.1.lin_l.weight f4 [1, 128]
0	0x3e49308a	0.19647422
1	0x3defb4ba	0.11704393
2	0xbdda1238	-0.10648006
3	0x3e58ebb1	0.21183659
4	0x3df5d220	0.12002969
5	0x3e2aae42	0.16668037
6	0xbdc134db	-0.094339095
7	0xbb825b87	-0.003978196
8	0x3e10a1f5	0.14124282
9	0x3e05008c	0.1298849
10	0xbd808334	-0.06275025
11	0x3e22e560	0.15907812
12	0xbda1892e	-0.07887493
13	0x3e1b16f8	0.1514548
14	0x3e106605	0.14101417
15	0x3e625315	0.22102006
16	0x3e383897	0.17990337
17	0x3e494302	0.19654468
18	0x3e1ef0b4	0.15521508
19	0x3e4ee79b	0.20205538
20	0x3b51d941	0.0032020363
21	0x3e037036	0.12835774
22	0x3e638a3d	0.22220702
23	0xbda61f33	-0.081114195
24	0x3e504086	0.20337114
25	0x3e2ca698	0.16860425
26	0x3e640321	0.22266819
27	0xbdac795f	-0.08421587
28	0xbd73714f	-0.05943423
29	0x3e009884	0.1255818
30	0x3dededf2	0.1161765
31	0x3e4d311b	0.20038263
32	0xbd79fe3c	-0.061033472
33	0xbd0ba080	-0.03408861
34	0xbd4c2ee6	-0.049849413
35	0xbd881a12	-0.066455975
36	0xbdbb0121	-0.09131075
37	0xbd2d8b36	-0.04236909
38	0xbdb7a647	-0.08967262
39	0x3e3d6441	0.18495275
40	0xbda0dff8	-0.07855219
41	0x3e514e2e	0.2043998
42	0x39b4d19d	0.0003448845
43	0x3d55ec92	0.052227564
44	0x3a4297b9	0.0007423121
45	0xbd8ddb6c	-0.06926617
46	0x3e60fb1c	0.2197079
47	0x3e73787e	0.23776433
48	0xbd9e8358	-0.077398956
49	0x3e58109d	0.21100087
50	0x3e487d90	0.19579148
51	0xbde82e65	-0.11336974
52	0x3e48618d	0.19568463
53	0x3df56c8d	0.11983595
54	0xba945ec6	-0.0011319749
55	0x3e3b2974	0.18277532
56	0xbd9790d3	-0.0740067
57	0xbd985641	-0.074383266
58	0xbc98137b	-0.018563977
59	0xbd4e47a1	-0.05036128
60	0xbcb287eb	-0.021793326
61	0xbd0b514b	-0.034013074
62	0xbb0ade6e	-0.0021189707
63	0x3e8527ad	0.26006833
64	0x3e27724f	0.16352199
65	0x3e7cf727	0.24703656
66	0x3e0cb74f	0.13741802
67	0xbdc6127a	-0.09671493
68	0x3e2d00ac	0.16894788
69	0x3e41a08c	0.189089
70	0xbdb71002	-0.089386
71	0x3e22b553	0.15889482
72	0xbd2761b6	-0.04086467
73	0x3e561d1d	0.20909543
74	0x3e280260	0.16407156
75	0xbdd22af7	-0.10262101
76	0xbda7c0ca	-0.081910685
77	0xbd31beaa	-0.043394722
78	0x3e3438fa	0.1759986
79	0x3de5a2fd	0.11212728
80	0x3e61f5e9	0.22066464
81	0xbd2228e1	-0.039589766
82	0xbcb4ea27	-0.022084309
83	0xbbe3d52f	-0.0069529037
84	0x3e28a391	0.16468646
85	0xbdce219f	-0.100650065
86	0x3e3d4ce9	0.1848637
87	0x3e5920d7	0.21203934
88	0xbd4114b9	-0.047138903
89	0xbaab67a0	-0.0013077147
90	0xbcf308e7	-0.02966733
91	0x3e889504	0.2667619
92	0x3e8c8c40	0.27450752
93	0x3e477635	0.19478686
94	0x3e1d4e1c	0.15361828
95	0x3e40a2a0	0.18812037
96	0xbd107a84	-0.03527309
97	0xbdabfbd1	-0.083976395
98	0xbddacf02	-0.10684015
99	0x3e278a5d	0.16361375
100	0xbdbcc0dd	-0.09216473
101	0x3e11d8e3	0.14242892
102	0x3e054d57	0.13017784
103	0x3e38267d	0.17983432
104	0xbcfa5178	-0.030556425
105	0xbd7e3ed3	-0.062071633
106	0x3e627523	0.22114997
107	0xbd5b561e	-0.053548925
108	0x3dd16c79	0.10225768
109	0x3e2f3829	0.17111267
110	0x3e50959a	0.20369568
111	0xbd717e9b	-0.05895863
112	0x3e1add92	0.15123585
113	0x3e0f4cc5	0.13994129
114	0xbd67b4a9	-0.056568775
115	0x3e07e70a	0.13271728
116	0xbd9cb279	-0.076512285
117	0xbd10f04c	-0.035385415
118	0x3e17b575	0.14815314
119	0xbd33cc69	-0.043896113
120	0xbd26cf18	-0.040724844
121	0x3d51bde8	0.0512065
122	0x3e7a9823	0.24472098
123	0x3dc2ddd2	0.09514965
124	0x3e532f6b	0.20623557
125	0x3e60e072	0.21960619
126	0x3e3b6441	0.18299963
127	0x3e1b6260	0.15174246

layers.1.lin_r.weight f4 [1, 128]
0	0x3e2fd525	0.17171152
1	0x3e233aba	0.15940371
2	0xbb6a37d9	-0.0035738854
3	0xbe07f4eb	-0.13277023
4	0xbe288ff2	-0.16461161
5	0xbe358ad4	-0.1772874
6	0xbe67fb0d	-0.22654362
7	0x3bedf6f3	0.0072621047
8	0xbd21ad8a	-0.03947214
9	0xbbe98aea	-0.0071271555
10	0xbe7143d5	-0.23561032
11	0x3dd596c2	0.104291454
12	0xbd67ebb4	-0.05662127
13	0xbc19cbb0	-0.009386942
14	0xbd0327a8	-0.03202024
15	0x3bdc7667	0.006727982
16	0x3dacd2fe	0.08438681
17	0xbcfccd3f	-0.030859588
18	0xbe1497b3	-0.14510994
19	0xbc4beb15	-0.012446185
20	0x3dfbfa00	0.12303543
21	0xbe151f20	-0.14562654
22	0xbe870161	-0.2636824
23	0x3dd6b7e4	0.10484293
24	0x3ca2188d	0.019787097
25	0xbe31c57c	-0.1736049
26	0x3d22b85a	0.039726593
27	0x3d4f7de0	0.050657153
28	0x3ca039f3	0.019558882
29	0x3d9fb5fe	0.07798384
30	0x3d896228	0.06708175
31	0xbd5ef3b3	-0.05443163
32	0xbe1e0d1f	-0.15434693
33	0x3e488496	0.19581828
34	0xbe38834b	-0.18018834
35	0xbe252146	-0.16125974
36	0xbdd22a7a	-0.10262008
37	0xbe91daff	-0.28487393
38	0xbe0df36c	-0.1386239
39	0xbe2da8be	-0.16958901
40	0xbdc85ea6	-0.09783678
41	0xbdec4af9	-0.115377374
42	0xbd3fe9ca	-0.046853818
43	0xbdb56a1a	-0.08858128
44	0x3d9c2dc0	0.076259136
45	0xbe3fe391	-0.18739153
46	0xbcc92eea	-0.024558503
47	0xbdba52d2	-0.09097828
48	0x3e379715	0.17928727
49	0xbdf9b232	-0.12192191
50	0x3d081e97	0.033232298
51	0xbcb5db9e	-0.022199448
52	0x3df00524	0.117197305
53	0x3d0e1a05	0.034692783
54	0xbe046559	-0.12929286
55	0x3d5c1c80	0.053738117
56	0xbe00d7b3	-0.12582283
57	0x3d738551	0.059453312
58	0xbe957a3f	-0.2919483
59	0xbd33a00e	-0.043853812
60	0xbddadb77	-0.10686391
61	0xbcf23d26	-0.029570173
62	0xbea6abac	-0.3255285
63	0xbde0e735	-0.10981599
64	0x3de7d064	0.11319044
65	0x3ded3c98	0.11583823
66	0x3d909162	0.070589796
67	0x3c9769f7	0.018483145
68	0xbe28c66f	-0.16481946
69	0xbe05d478	-0.13069332
70	0xbdb9b008	-0.090667784
71	0xbe4c849e	-0.19972464
72	0x3dd7e2c9	0.10541303
73	0xbe563141	-0.20917226
74	0x3e21294f	0.15738414
75	0xbe07bcea	-0.13255659
76	0xbd764032	-0.060119815
77	0xbe942228	-0.2893231
78	0xbe096202	-0.13416293
79	0xbe8f84c1	-0.2803097
80	0x3d9d5847	0.07682853
81	0xbc46bfb4	-0.0121306665
82	0xbd4adbed	-0.049526144
83	0xbe79d3ef	-0.24397253
84	0x3d4580c0	0.04821849
85	0x3e16f217	0.14740787
86	0xbea2e6a9	-0.31816605
87	0xbe5a28c9	-0.21304621
88	0xbe6fdc6c	-0.23423928
89	0xbe1cc6a6	-0.15310153
90	0x3d58cc31	0.052929107
91	0x3b3690e0	0.0027857348
92	0xbe7eb43e	-0.24873444
93	0x3e0c2761	0.13686897
94	0x3e2a60e6	0.16638526
95	0xbdf22309	-0.11823089
96	0xbe165886	-0.14682207
97	0xbe224a87	-0.15848742
98	0x3c15cce5	0.009143089
99	0xbe1e2417	-0.15443455
100	0x3e14ddb8	0.14537704
101	0x3d63c574	0.055608228
102	0x3c159dda	0.009131873
103	0xbe3b86f0	-0.18313193
104	0x3d94d09e	0.07266353
105	0xbe0e706b	-0.13910072
106	0x3d2ad363	0.0417055
107	0x3d0d0d38	0.034436435
108	0xbd53e5e6	-0.05173292
109	0xbe4499e3	-0.19199328
110	0xbeb847f3	-0.35992393
111	0xbe6db23e	-0.23212525
112	0xbd91f51d	-0.0712683
113	0xbbaeaf46	-0.005330953
114	0xbe207784	-0.15670592
115	0xbe9b660e	-0.303513
116	0x3c6b7cea	0.014373044
117	0xbe8d8ecf	-0.27648017
118	0xbe81a24b	-0.25319132
119	0xbe670938	-0.2256211
120	0x3de0aa67	0.10970002
121	0xbe36806e	-0.1782243
122	0xbce1b438	-0.027551755
123	0x3adb6f76	0.0016741592
124	0xbd31edd1	-0.04343969
125	0xbdfb9c22	-0.12285639
126	0xbe581cd1	-0.21104743
127	0xbe5b40a9	-0.21411385
