code/gnn/models/training/GCN/export/9/best_model.pt (torch, 6376 bytes, 3 tensors)

layers.0.bias f4 [64]
00000000: 84cf 6e3f 97ba ae3f 38ec 55be dd4a ab3f
00000010: acfd 823f d728 7abe f878 14be 0da9 93be
00000020: 50d6 55be 710c 9e3f af32 b83f 7f0d 333e
00000030: c2c2 6fbe e1a3 213f cef2 613f 3f26 653f
00000040: 5271 d8bb 9d96 9d3f 5e13 eb3e 914c c0be
00000050: 07e6 b43f b6ea c03e 64c8 663f 36a5 a63e
00000060: 5923 853f 9b2e 76be 55a6 42be 513a 85be
00000070: 8490 003e 2c94 b73f d2b7 81be 1776 42be
00000080: 4613 3ebd 8707 a43f 47a3 4fbd 4df1 a73f
00000090: 0bd1 e13d 6f21 b53d 49da d5be 2c7f 123f
000000a0: fd2e a63f 9c1b 753f fe08 febd 04ea 753f
000000b0: ecc9 84bd 3d31 a63f 4bdc 973f 4030 973f
000000c0: 15e4 983f 751e aa3f 1ae8 8dbe 3fe5 c33d
000000d0: 2e45 883f 6267 973f 4335 37be c659 b8be
000000e0: 80c9 8e3f f5c1 953f d24a d6be af51 ad3f
000000f0: 78c1 e3be 0131 403f 9e2a c0bd ae00 8f3f
0.93285394 1.3650693 -0.20890892 1.3382221 1.0233665 -0.24429642 -0.14499271 -0.28839913
-0.20882535 1.2347547 1.4390467 0.17485617 -0.23414138 0.63140684 0.88261116 0.89511484
-0.0066053057 1.2311589 0.45913213 -0.37558416 1.4132699 0.3767907 0.9014952 0.3254792
1.0401412 -0.24041216 -0.19008763 -0.26021054 0.12555128 1.4342093 -0.25335556 -0.1899036
-0.0464051 1.2814797 -0.050692823 1.3120514 0.110262 0.088442676 -0.417681 0.572253
1.298309 0.95745254 -0.12404059 0.96060205 -0.06483826 1.2983776 1.1864103 1.18116
1.1944605 1.3290545 -0.27716142 0.095652096 1.0646112 1.1828425 -0.17891411 -0.36005992
1.1155243 1.1699816 -0.41853958 1.3540553 -0.44483542 0.75074774 -0.093831286 1.1172082

layers.0.lin.weight f4 [64, 14]
00000000: 4396 9a3e 8789 a13e b685 9cbd 0b9a 65be
00000010: abe5 76be b73b 8e3f 0d26 843e f683 05bf
00000020: 1e11 643d 235d 8d3e 80de 33be f76c ee3e
00000030: a9f8 63be cb61 8abe 63e5 d3be 40e5 cabd
00000040: 1348 8f3d fab3 f03d 0268 e03e 8803 b13e
00000050: 93f4 c9be d1e9 bdbf e6b3 243e 0563 713e
00000060: b701 39be 47c3 313f d912 00bf 09dc f83e
00000070: 19bf 38bf a95d b3ba 7c0e dbbe 2305 33be
00000080: 7130 39bf a279 2bbf 9dc9 8e3f 6ea7 823f
00000090: 5249 90be f63b 87bf 8397 143f 67e7 65bf
000000a0: 3701 b63e fc5f 663f de78 52bb b97e bfbe
000000b0: 691c 0dbd e33a d43d e730 553e 12da 9f3e
000000c0: 28c5 19bf beea a0bf 05f9 8b3e 333b ac3e
000000d0: a360 4fbe 5105 683f 2ccc 14bf d582 113f
000000e0: d3c6 d93e 59a6 9f3e 1681 a23e ad29 94bc
000000f0: 867e 92be 2b07 b13e b053 fbbe b429 13bf
00000100: faec 2a3e 3c46 3ebd 8a20 1dbd e2f5 bf3e
00000110: 94aa d53e e502 32be 1efa 5abe 5046 a7be
00000120: 29c7 273e f5b7 44bf 4b68 983e 2883 57bf
00000130: 830d e83e 592d 333f fd6c f6bd b5b0 73bf
00000140: 6f36 1c3f 7cba 14bf 7c47 32be 89e3 8d3f
00000150: 3f16 c7bd 06dc 1ebe e9dc 953d b6d1 4cbd
00000160: 7f6f 47bd 606c ef3d ea9d d43d 4cfd 0bbe
00000170: adf5 d53d ffd3 65be 5d39 553d 152e 19be
00000180: 76c5 a5be dac7 4e3e ad33 53bf 4df3 71bf
00000190: 819a 29be ed6b 083f d24a 2e3e c04d 88be
000001a0: acae 1a3f 9fee 513f 4aac f3bd de90 adbc
000001b0: efc9 8e3e 6b0d fabe 2f31 0abf c4b3 813e
000001c0: d147 94bf fc89 fbbf 2d6f a03d fbfd 693f
000001d0: 5689 8b3f c518 00bf 9d9c 1abf 103c 8abd
000001e0: f311 3fbe 3279 883f 30d6 77be 99c8 febe
000001f0: 1aa6 20be c004 49be f27e ffbe eb9a 26ba
00000200: 429e 803d d6c9 043d 865a 853e 9dfe 873e
00000210: 794f 1cbf fe6f a2bf e52f b3bd b7bd 6e3e
00000220: c262 aebe 16ec 7a3f 4b72 e9bd 4f69 043f
00000230: bbd1 0abf 7d78 aebe e93b 0d3e 5635 dbbd
00000240: 1a86 8ebe 9b72 1b3f 82c9 19bf c979 83bf
00000250: 7f53 693c e769 993e 435d 6bbf fd97 953f
00000260: 888e b6be 46fa 353e 298a 523f a85b 183f
00000270: 2421 6fbf cee2 613f efc7 e6bf c3b6 0c40
00000280: b702 a33e 800e 8f3d c525 aabe 8337 3c3f
00000290: 34b6 adbf 9e29 4abe 29ac 42bf 38d1 643e
000002a0: 0341 5ebe b379 0bbf 45f0 4f3e 41be 85c0
000002b0: 358d 993e aa6a 27bf 1dde bbbd 633a 093f
000002c0: 2a37 bdbe 3159 093d a6d6 a13e 02d2 2ebf
000002d0: 26b2 51be 81fb 59be 5fe6 e0be f879 90bd
000002e0: 1d1f a7bf 1687 26c0 eed3 7e3e 1f4e be3d
000002f0: b13d 3bbf 8763 e1bf 03e5 1d3e d120 773f
00000300: f069 09c0 e803 c93f d662 3b3e cd62 23be
00000310: 5f36 903e 9591 143f a119 ec3e 7e2e 03be
00000320: 88b1 a9bc 9297 8b3e 5980 a8be 6b8d e2be
00000330: 5d80 81bd 3b02 d4be 582d 873e d23c 6a3e
00000340: 8fa6 e0bb 1c22 d0be 2eb5 b53e 00f5 fd3e
00000350: 1d5a ac3e 146b 0abe 3077 03bf 13ae 2abb
00000360: 2e12 bebe e3e5 5cbe 8aea b53e 09be 8a3c
00000370: e99f df3c ff9b f63e ad28 cb3e a89b a7be
00000380: 2104 643f fdf5 55be aa95 74bd dd0e 5f3f
00000390: f559 e0bf 0b6c fb3f c8c0 293f 33e2 183e
000003a0: 4194 11bf 5b54 253f 5700 3dbf b8cf 67bc
000003b0: 92e4 9ebf 1971 513f efc4 05bf c72f 653d
000003c0: 6895 cd3d 8268 ec3d 16cf ab3e a3c7 a13e
000003d0: 0860 31bf f5cc 97bf b449 363e 1313 753e
000003e0: a716 adbe 5861 683f 1ffa 06bf 493e 053f
000003f0: ed3e 11c0 3117 28bf 0f0d afbf c83b 9bbe
0.30192766 0.31550238 -0.07642691 -0.22422044 -0.24111049 1.1111974 0.2581028 -0.5215448
0.055680387 0.2761012 -0.17565346 0.4656751 -0.22262825 -0.27027735 -0.41385946 -0.09907007
0.06996169 0.11753078 0.43829352 0.34573007 -0.39444408 -1.483698 0.16084251 0.23572929
-0.1806706 0.69438595 -0.5002876 0.48605374 -0.7216659 -0.0013684529 -0.42784488 -0.17482428
-0.7233954 -0.6698247 1.1155277 1.0207345 -0.2818094 -1.0565174 0.5804369 -0.89806217
0.35547802 0.8999021 -0.00321155 -0.3740137 -0.034450922 0.10362794 0.20819436 0.31221062
-0.6006646 -1.2571638 0.27338424 0.33638915 -0.20251708 0.9063311 -0.5812404 0.5684026
0.42534503 0.311816 0.3173911 -0.018086279 -0.28612155 0.3457578 -0.49087286 -0.5748551
0.16691962 -0.0464537 -0.03836111 0.3749228 0.41731703 -0.17383917 -0.21384475 -0.32670832
0.16384567 -0.76843196 0.2976707 -0.84184504 0.4532281 0.6999107 -0.120325066 -0.9519151
0.6102056 -0.5809705 -0.17410082 1.1085063 -0.0972104 -0.1551362 0.07317526 -0.050004683
-0.048690315 0.11690593 0.10381682 -0.13670844 0.104472496 -0.22444151 0.05205666 -0.14958985
-0.32377213 0.20193425 -0.82500726 -0.9451187 -0.16562845 0.5328968 0.17020729 -0.2662182
0.6042278 0.8200473 -0.11898096 -0.021187242 0.27888438 -0.48838362 -0.539813 0.25332463
-1.1584417 -1.9651484 0.07833705 0.9140317 1.0901287 -0.50037795 -0.6039522 -0.06749737
-0.18659191 1.0661986 -0.242028 -0.4976242 -0.15688363 -0.19630718 -0.4990154 -0.0006355482
0.06280185 0.03241905 0.26045626 0.26561442 -0.61058766 -1.2690427 -0.087493695 0.23314558
-0.3405972 0.9801649 -0.11398753 0.5172319 -0.54226273 -0.340763 0.13792385 -0.107035324
-0.27836686 0.6072175 -0.600731 -1.0271541 0.014241098 0.2996361 -0.9193918 1.1687008
-0.35655618 0.17771253 0.82242066 0.59514856 -0.93409944 0.882367 -1.8029765 2.198655
0.3183801 0.069851875 -0.3323194 0.73522204 -1.3571229 -0.19742438 -0.76043946 0.22345436
-0.21704488 -0.54482573 0.203065 -4.1794744 0.29990545 -0.6539713 -0.09173224 0.53604716
-0.3695615 0.033532325 0.31609076 -0.68289196 -0.20478114 -0.21287347 -0.4392576 -0.07054514
-1.305637 -2.601995 0.24885532 0.09292244 -0.7314101 -1.7608498 0.15419392 0.9653445
-2.147091 1.5704317 0.18299422 -0.15955658 0.28166482 0.5803464 0.46113303 -0.12810704
-0.020714536 0.27264076 -0.32910421 -0.44248518 -0.063233115 -0.41407952 0.26401782 0.22874764
-0.006855793 -0.40651023 0.35489792 0.49600983 0.336625 -0.1351741 -0.5135374 -0.0026043698
-0.37123245 -0.2157207 0.35530502 0.016936319 0.02729793 0.4816589 0.3967947 -0.32735944
0.890688 -0.20894618 -0.059713043 0.87132055 -1.7527453 1.9642347 0.66309786 0.14930038
-0.5686684 0.6458184 -0.73828644 -0.014148645 -1.2413504 0.818132 -0.5225362 0.055953767
0.100382626 0.11543371 0.33556432 0.31597623 -0.6928716 -1.1859423 0.17801553 0.23933057
-0.33806345 0.90773535 -0.52725405 0.52048165 -2.2694657 -0.6566039 -1.367586 -0.30319047

layers.1.lin.weight f4 [1, 64]
00000000: c8dd cf3e 04c6 2040 e3e3 debf 9a97 0940
00000010: 694d 3e3f 0253 84bf 3aa6 89bd 199a 14bf
00000020: ac38 9fbf d6c3 0b40 1bc0 3a40 b136 02c0
00000030: 8a95 c0bf 7a6d 29c0 1b9d 053f f99b fd3e
00000040: be1e bbbf ac64 0440 453d e1bf eb7b 62bf
00000050: 08b6 2740 6bd8 3b3f 7d4a 5a3f 284f dfbf
00000060: 2d92 703f d93f a3bf 5db0 8c3c 63b5 36bf
00000070: 9336 09c0 a129 3740 1fdf 78bf 1633 1dbf
00000080: 436e 36be 766f 5cc0 8695 e43d c895 2cc0
00000090: 4f79 21bf 2eeb abbf 1666 4dbf 1ac4 9d3f
000000a0: b67b 0f40 1826 523f b254 92bf 2618 763f
000000b0: 344c 67bf 0afb e03f 1958 c13f 8f44 fe3f
000000c0: f673 0e40 9eda 1840 3dd4 76bf 11f8 efbf
000000d0: 31c1 af3f b6e0 fe3f 4cdc f1be e5e6 11bf
000000e0: e324 a33f ceba 0540 c331 f5be b32a 0840
000000f0: c5c1 14bf 6021 b03e 00a1 62bf de01 d13f
0.40598893 2.512086 -1.7413296 2.149878 0.7433687 -1.0337832 -0.06721158 -0.58047634
-1.243917 2.1838279 2.9179752 -2.034588 -1.5045636 -2.647307 0.5219285 0.4953306
-1.4618757 2.0686445 -1.7596823 -0.88470334 2.6204853 0.733771 0.8526991 -1.7446032
0.93973047 -1.275386 0.01717394 -0.71370524 -2.143956 2.8619158 -0.97215456 -0.61406076
-0.17815499 -3.444303 0.11161332 -2.696642 -0.6307573 -1.3431146 -0.80233896 1.232547
2.2419257 0.82089376 -1.1432097 0.961306 -0.9035065 1.7576611 1.510501 1.9864672
2.2258277 2.3883433 -0.964176 -1.8747579 1.3730832 1.9912326 -0.47238386 -0.5699294
1.2745632 2.0895267 -0.47889528 2.1276062 -0.5810817 0.34400463 -0.88526917 1.6328695
