code/gnn/models/training/GAT/export-layered/1/best_model.pt (torch, 36258 bytes, 15 tensors)

layers.0.att f4 [1, 4, 32]
0	0xbd53317b	-0.05156086
1	0xbdaa53d1	-0.08316768
2	0x3deafffc	0.114746064
3	0x3eae50d3	0.3404604
4	0x3e1a5417	0.1507114
5	0x3d59e914	0.053200796
6	0x3ed94e37	0.42442486
7	0x3e0389dc	0.12845558
8	0xbdd4f056	-0.10397403
9	0x3e9b9547	0.30387327
10	0x3eae8f1c	0.3409356
11	0x3e07fb09	0.13279356
12	0xbea979bd	-0.3310069
13	0xbdbd7a14	-0.092518
14	0x3e6e6aca	0.23282924
15	0x3ed8503d	0.42248717
16	0x3ed4ae73	0.41539344
17	0x3cfd2d82	0.030905489
18	0x3ec42781	0.3831139
19	0x3d80fc02	0.06298067
20	0x3ea5120e	0.32240337
21	0x3e3d9b1e	0.18516204
22	0x3ce6debe	0.028182384
23	0xbe87c28f	-0.26515624
24	0xbe4eff92	-0.2021468
25	0xbead868e	-0.3389172
26	0xbe78fd1c	-0.24315304
27	0x3e8efc9a	0.27927095
28	0xbe61ae1b	-0.22039072
29	0xbe9c6623	-0.30546674
30	0xbe779e02	-0.24181369
31	0x3cc40085	0.023926029
32	0xbdd76fe4	-0.10519388
33	0xbe91ba96	-0.28462666
34	0x3e1aec29	0.1512915
35	0xbede074c	-0.43364942
36	0x3e187e8f	0.14892028
37	0xbd9723b1	-0.073798545
38	0x3e688473	0.22706775
39	0x39d3da1a	0.00040407554
40	0xbe2825d1	-0.16420676
41	0xbe5374b0	-0.20649981
42	0xbd293231	-0.041307632
43	0x3e66a8b4	0.22525293
44	0x3ea63fd6	0.32470578
45	0xbe541d38	-0.20714271
46	0xbec95c57	-0.39328262
47	0xbea591aa	-0.32337695
48	0x3e4d964c	0.20076865
49	0x3e475a65	0.19468077
50	0x3e7ad1d5	0.24494107
51	0x3e83786d	0.25677815
52	0x3d17add1	0.037031
53	0x3ed69152	0.41907746
54	0x3e4e1149	0.20123781
55	0xbe059ef8	-0.13048923
56	0x3ebe04ea	0.37113124
57	0xbe82ba90	-0.2553296
58	0x3da62ec1	0.08114386
59	0x3eba98c1	0.36444667
60	0x3e3185ae	0.17336151
61	0xbe44a7ca	-0.19204631
62	0x3ed1975d	0.40935794
63	0xbd856c75	-0.06514827
64	0x3c8fb390	0.017541677
65	0xbd83a784	-0.064284354
66	0xbe8bc762	-0.27300555
67	0xbd306206	-0.043062232
68	0x3d081053	0.033218693
69	0x3d359c80	0.044338703
70	0xbe217293	-0.15766363
71	0xbd666f45	-0.05625846
72	0xbef66ed2	-0.48131424
73	0x3eb3cd34	0.35117495
74	0x3e1099b5	0.14121135
75	0x3e4502f5	0.1923941
76	0x3e83698e	0.2566647
77	0xbd3cc401	-0.04608536
78	0x3e581e25	0.21105249
79	0x3ea8faa3	0.3300372
80	0xbe212c96	-0.15739664
81	0xbe61131f	-0.2197995
82	0xbdb127bb	-0.08650156
83	0xbdf5677c	-0.11982629
84	0x3e867883	0.26263818
85	0x3eb1796c	0.3466295
86	0xbdbf9f89	-0.09356601
87	0xbeaaf453	-0.3338953
88	0x3d68a20f	0.056795176
89	0xbd106f49	-0.03526238
90	0xbe8c9ee7	-0.27464983
91	0xbc6cfe36	-0.0144649055
92	0xbdf36588	-0.118846
93	0x3dba2efc	0.09090993
94	0x3e9717a0	0.29510212
95	0xbdb2ead1	-0.08736194
96	0xbef85b93	-0.48507366
97	0x3e4ca683	0.19985394
98	0xbce7afa7	-0.028282
99	0x3e46e0e6	0.1942173
100	0x3d910a29	0.07082016
101	0x3e2089b0	0.15677524
102	0xbee3c562	-0.4448653
103	0xbedcbba6	-0.43111914
104	0xbccf0ad7	-0.025273724
105	0xbe754aba	-0.23954287
106	0x3e4317aa	0.19051996
107	0x3d16d902	0.03682805
108	0xbeabe191	-0.3357053
109	0xbdecd5d1	-0.1156422
110	0xbdc4aabe	-0.09602879
111	0x3e98317a	0.29725248
112	0x3e7c11d2	0.24616173
113	0xbd780511	-0.060551707
114	0x3eb45996	0.352246
115	0xbc447ada	-0.011992181
116	0x3eb5cf2b	0.3550962
117	0x3decacf9	0.115564294
118	0x3e5fb658	0.21846902
119	0x3e80a694	0.2512709
120	0x3e31a03f	0.17346285
121	0xbe98281c	-0.297181
122	0x3ea65237	0.324846
123	0x3e8ae4c9	0.27127674
124	0x3dff2084	0.12457374
125	0x3d7e0c0b	0.062023204
126	0x3b01abd0	0.0019786246
127	0xbd619d06	-0.05508139

layers.0.bias f4 [128]
0	0xbd70c3b1	-0.058780376
1	0x3d9a8db6	0.075465605
2	0x3d97ee69	0.0741852
3	0x3c93695b	0.017994573
4	0x3da77a25	0.08177594
5	0xbd645b90	-0.055751383
6	0x3d38e3b9	0.04513905
7	0xbd67f5d3	-0.05663092
8	0xbd5ff6ed	-0.054678846
9	0x3d8ef959	0.06981153
10	0x3db103bd	0.08643291
11	0x3d8dd94b	0.06926211
12	0x3d87ef31	0.06637419
13	0x3d98dff2	0.07464589
14	0xbd903e91	-0.070431836
15	0x3d9b08ff	0.07570075
16	0xbd5774a3	-0.052601468
17	0xbd6d2bd4	-0.057903126
18	0x3d8f1ca0	0.06987882
19	0xbd597e30	-0.053098857
20	0x3da121d0	0.07867777
21	0x3d03b081	0.03215075
22	0xbd617e44	-0.055052057
23	0x3db05964	0.086108
24	0xbd703d03	-0.058651935
25	0x3d9079a3	0.0705445
26	0xbd300142	-0.04296995
27	0xbd72fe51	-0.059324566
28	0x3d9fbcfc	0.07799718
29	0xbd66b7ce	-0.056327634
30	0x3d915c4c	0.07097682
31	0x3dae53b7	0.08512061
32	0x3d905674	0.070477396
33	0xbd396b47	-0.045268323
34	0x3d7f89d1	0.06238729
35	0x3d8aaaac	0.06770834
36	0xbd2d2790	-0.042274058
37	0xbd6b4b1c	-0.057444677
38	0xbd543a18	-0.051813215
39	0x3d8d3753	0.06895318
40	0x3d89b360	0.06723666
41	0xbd5ec729	-0.054389153
42	0xbd3e36ba	-0.04643891
43	0x3d8e9bff	0.06963348
44	0x3d992bb2	0.07479037
45	0x3da1625f	0.07880091
46	0xbd44641e	-0.04794704
47	0x3da61785	0.08109955
48	0xbd766fcf	-0.060165223
49	0x3da185f4	0.07886878
50	0x3da0e31e	0.07855819
51	0x3d981da6	0.0742753
52	0xbd5dc5cb	-0.05414371
53	0x3d9c1202	0.07620622
54	0xbd6bc84a	-0.057564057
55	0xbd634bdf	-0.05549228
56	0x3d9900e6	0.074708745
57	0x3db59c56	0.08867709
58	0xbd3f562f	-0.04671305
59	0x3dadf34c	0.08493671
60	0xbd63ae4b	-0.05558614
61	0x3d9ee263	0.077580236
62	0x3d8d26f3	0.068921946
63	0xbd6578d8	-0.05602345
64	0x3d88da53	0.06682267
65	0x3d89c67e	0.067273125
66	0x3da1fa6d	0.07909093
67	0x3d931ba3	0.07183006
68	0x3db1c6fa	0.0868053
69	0xbd32f2f6	-0.043688737
70	0x3d90151c	0.07035276
71	0x3dae1e8f	0.08501922
72	0x3da37fd0	0.07983363
73	0xbd6e42a0	-0.058169007
74	0x3daf7dd8	0.08568925
75	0xbd5b7219	-0.05357561
76	0x3da08095	0.07837025
77	0xbd671445	-0.056415815
78	0xbd3ff995	-0.04686888
79	0x3d8ede8a	0.0697604
80	0x3d8c7957	0.06859081
81	0x3d972673	0.073803805
82	0x3db85fbd	0.09002636
83	0x3daf4234	0.08557549
84	0xbd5c22d8	-0.053744167
85	0xbd746752	-0.059668846
86	0x3da60d35	0.08107988
87	0x3d9b8bc0	0.075950146
88	0x3db05e69	0.08611757
89	0xbd2e2ae5	-0.042521376
90	0x3da442f4	0.08020583
91	0x3d93d206	0.07217793
92	0xbd3cc8fb	-0.046090107
93	0xbd1cf547	-0.038319852
94	0x3da43ae4	0.08019045
95	0xbd7ad5fe	-0.061239235
96	0xbd5ad8fc	-0.05342959
97	0x3d9d4541	0.07679225
98	0xbd5eaa15	-0.05436142
99	0xbd63efa7	-0.055648472
100	0x3d8f7963	0.070055746
101	0x3d9b0d8e	0.07570945
102	0xbd78f02f	-0.060775932
103	0xbc25c45a	-0.010117615
104	0xbd79644d	-0.06088667
105	0xbd099b84	-0.033595577
106	0xbd738108	-0.059449226
107	0xbd743224	-0.05961813
108	0x3d9a5568	0.07535821
109	0x3db5045d	0.08838723
110	0x3d9743d5	0.07385985
111	0x3d91a459	0.07111425
112	0x3da8f36e	0.082495555
113	0xbd67d7b5	-0.0566022
114	0x3da44463	0.08020856
115	0x3db62d05	0.088953055
116	0xbd6506d9	-0.055914734
117	0xbd4623d5	-0.048374016
118	0xbd8364fb	-0.06415745
119	0xbd79e9e7	-0.061014082
120	0x3da338a7	0.0796979
121	0x3d931d33	0.07183304
122	0xbd1bde9c	-0.038054094
123	0x3d8dc3c0	0.06922102
124	0x3db19baf	0.086722724
125	0x3b9328ca	0.0044909464
126	0xbd30f3c7	-0.043201234
127	0x3db04515	0.08606926

layers.0.lin_l.weight f4 [128, 11]
0	0x3d966052	0.073425904
1	0x3e075d80	0.13219261
2	0xbb634f09	-0.003468456
3	0x3e4d8661	0.20070793
4	0xbe14c9e1	-0.14530136
5	0x3d3ec053	0.046570133
6	0x3e1cebd7	0.15324341
7	0x3dabdc3e	0.08391617
8	0x3da1446d	0.07874379
9	0x3e510c9c	0.20414966
10	0x3db3bf72	0.0877675
11	0xbde58e6b	-0.11208805
12	0x3de45616	0.11149232
13	0xbe147946	-0.14499387
14	0xbbad1d02	-0.005282999
15	0xbe0c2937	-0.13687597
16	0xbc82cbbc	-0.015966289
17	0xbdb630b4	-0.08896008
18	0x3dbc3fb2	0.091918364
19	0xbd8069a7	-0.062701516
20	0xbe8429a9	-0.25813034
21	0x3e83ec6d	0.25766316
22	0x3dec2177	0.115298204
23	0x3e8909b7	0.26765224
24	0x3a879875	0.0010345118
25	0x3d648a5b	0.05579601
26	0xbe5c8620	-0.2153554
27	0x3d9ed4d0	0.077554345
28	0x3dee68e3	0.11641099
29	0xbb71d8ce	-0.0036902907
30	0xbc5f491c	-0.0136282705
31	0xbd04967b	-0.03237007
32	0xbd93a24a	-0.072086886
33	0xbe3d7f0d	-0.18505497
34	0xbe281be9	-0.16416897
35	0xbc7a9290	-0.015293732
36	0xbe67b844	-0.22628886
37	0x3e292153	0.16516618
38	0xbd039dbc	-0.03213285
39	0xbe80c277	-0.25148365
40	0xbe480a45	-0.19535168
41	0xbcfa63e1	-0.030565204
42	0x3e1f86d9	0.15578784
43	0x3c0cb3ca	0.008587787
44	0xbe0490d1	-0.12945868
45	0x3d9e0400	0.07715607
46	0x3ddcba85	0.10777763
47	0xbe4a5675	-0.19759543
48	0x3dfe7989	0.12425525
49	0x3e0edfa4	0.139525
50	0xbe52421b	-0.2053303
51	0xbe4345d7	-0.1906961
52	0x3e370283	0.17872052
53	0xbe3c1046	-0.18365583
54	0x3dca9ec5	0.09893564
55	0x3e02334e	0.12714884
56	0x3d082b5e	0.033244483
57	0x3e3886b5	0.18020137
58	0x3e556a86	0.20841417
59	0xbda6a011	-0.08135999
60	0x3c012e0e	0.007884515
61	0x3e61770b	0.22018068
62	0xbd96869b	-0.07349893
63	0x3bd2674c	0.0064210054
64	0xbcb20e2a	-0.02173527
65	0xbe6e04e3	-0.23244052
66	0xbe652487	-0.22377215
67	0xbc4d8ff7	-0.012546531
68	0xbe5e7b5f	-0.2172675
69	0x3d30bef8	0.043150872
70	0x3d2d7d39	0.04235575
71	0x3d0bedcc	0.034162328
72	0xbe734764	-0.23757702
73	0x3d73a744	0.05948569
74	0xbe2ad3c2	-0.16682342
75	0x3e4ec278	0.20191371
76	0x3d6a4983	0.057199012
77	0xbe4f71a4	-0.20258194
78	0x3dd57fdf	0.1042478
79	0x3e3e4a3a	0.18583003
80	0xbdfad9e9	-0.12248594
81	0xbd91c9e2	-0.07118584
82	0xbe17b2e8	-0.14814341
83	0xbdb0ac78	-0.08626646
84	0xbcc8d8a9	-0.024517374
85	0xbe539cee	-0.20665333
86	0x3e27de77	0.16393457
87	0xbe69b5af	-0.22823213
88	0xbe72820e	-0.23682424
89	0xbd39d3d7	-0.04536804
90	0x3d6b0e85	0.057386894
91	0x3dc72fe7	0.097259335
92	0xbe6d71f5	-0.23188002
93	0x3e0483d1	0.12940909
94	0xbddeb15c	-0.10873672
95	0x3e43d98b	0.19125955
96	0x3e0fac76	0.14030632
97	0x3dd66337	0.104681425
98	0xbbe00325	-0.0068363124
99	0xbe2c0c22	-0.16801503
100	0x3c0cc277	0.008591286
101	0x3df6ad3c	0.120447606
102	0xbe7a58ff	-0.24448012
103	0x3e65855e	0.22414157
104	0xbd204956	-0.03913244
105	0xbc6adbea	-0.014334658
106	0x3d9c8277	0.07642072
107	0xbd580d49	-0.052747045
108	0xbd80753c	-0.06272361
109	0xbd738eb8	-0.05946228
110	0xbca74cce	-0.020422366
111	0xbd5fad85	-0.05460884
112	0xbe66e34b	-0.22547643
113	0xbe8f9a87	-0.28047583
114	0x3e7ddc0b	0.24790971
115	0xbdd2d703	-0.102949165
116	0xbe692d1a	-0.22771111
117	0x3dbf3e84	0.09338096
118	0x3e5e5cbf	0.21715067
119	0x3df22dc4	0.11825135
120	0x3e2d71fa	0.1693801
121	0x3e7efe3a	0.24901667
122	0xbd4b8810	-0.049690306
123	0xbbb0f013	-0.005399713
124	0xbd25c3c3	-0.040469896
125	0xbe29ee37	-0.16594778
126	0x3e825a81	0.25459674
127	0xbae851e6	-0.0017724603
128	0x3e1c944d	0.15290947
129	0x3e38ebfa	0.18058768
130	0xb97674ea	-0.00023503942
131	0xbd1a2de6	-0.03764143
132	0x3e3ca18a	0.18420997
133	0x3d993efa	0.07482715
134	0xbe3156e1	-0.17318298
135	0x3d3935d8	0.045217365
136	0x3da26a69	0.079304524
137	0x3dd75285	0.10513786
138	0x3d8df5e4	0.069316655
139	0x3d946b68	0.072470486
140	0x3d4069ce	0.046975903
141	0xbd5f68e7	-0.054543402
142	0x3da6718e	0.081271276
143	0x3e27ff7c	0.16406053
144	0x3e164ebd	0.14678474
145	0x3ddc50bd	0.10757587
146	0xbe0cbb3b	-0.13743298
147	0xbe004d66	-0.12529525
148	0x3cef0e6f	0.029181687
149	0x3d20399d	0.039117444
150	0x3dcf8604	0.10132983
151	0xbc941c7a	-0.018079985
152	0x3d172f56	0.036910377
153	0x3e8d7627	0.27629206
154	0x3dc5888b	0.09645184
155	0xbd1a3326	-0.037646435
156	0xbdb65b4f	-0.089041345
157	0x3e6f5b9b	0.23374788
158	0x3de6f239	0.11276669
159	0xbdbd1312	-0.09232153
160	0xbc5e5044	-0.0135689415
161	0xbdfbe225	-0.12298993
162	0xbe364c41	-0.17802526
163	0x3e738801	0.2378235
164	0x3caac18c	0.020844243
165	0xbd9f6f9f	-0.07784962
166	0x3d15193a	0.03640101
167	0xbdd225ca	-0.10261114
168	0xbe31392f	-0.1730697
169	0xbd83ba6b	-0.06432041
170	0x3e4b2fcf	0.19842456
171	0x3d5924fc	0.053013787
172	0xbde3f735	-0.111311354
173	0xbe0752e1	-0.1321521
174	0x3da88cc0	0.08229971
175	0xbd5ca650	-0.053869545
176	0xbd904dcb	-0.07046088
177	0xbe274746	-0.16335782
178	0xbe07ff03	-0.13280873
179	0x3d9c46ce	0.076306924
180	0x3e59a362	0.21253732
181	0xbd98aec8	-0.07455212
182	0x3db65eac	0.08904776
183	0xbe1160b2	-0.14197043
184	0xbe73f24c	-0.23822898
185	0x3df2b74e	0.11851369
186	0xbd5798d5	-0.052635986
187	0x3d5fe71f	0.054663774
188	0x3dc4f8e1	0.096177824
189	0xbc40b949	-0.011762925
190	0x3dcf6097	0.10125845
191	0x3d136c0f	0.035991725
192	0xbd515299	-0.051104162
193	0x3ce9a0f3	0.02851913
194	0x3d5b64bb	0.05356286
195	0xbe6a83bf	-0.2290182
196	0x3d213dc7	0.039365556
197	0xbe3f3037	-0.18670736
198	0xbe0a89c5	-0.13529117
199	0x3e721f3c	0.23644727
200	0xbe560655	-0.20900853
201	0xbe22456d	-0.15846796
202	0x3e821bd7	0.25411865
203	0xbd63e7fe	-0.055641167
204	0xbdd10754	-0.10206476
205	0x3e1fbfec	0.15600556
206	0x3e204ca0	0.1565423
207	0x3d350ccc	0.044201657
208	0x3e0cc17f	0.13745688
209	0xbd91b1f8	-0.07114023
210	0x3dde7ba3	0.108634256
211	0x3e15e686	0.14638719
212	0x3ceffff1	0.029296847
213	0xbcb53e1b	-0.02212434
214	0xbe11529d	-0.1419167
215	0x3da76ddb	0.0817525
216	0xbe619548	-0.22029603
217	0xbe6ca4eb	-0.23109786
218	0xbe1ba0f9	-0.15198125
219	0x3d2915a4	0.041280404
220	0x3de190d8	0.11013955
221	0x3e29ca58	0.16581094
222	0xbd8d7bd4	-0.06908384
223	0xbe4df08c	-0.20111293
224	0x3be2bcc3	0.006919475
225	0x3d6662d8	0.05624661
226	0xbe14de38	-0.14537895
227	0x3d44b97c	0.048028454
228	0xbbbc76ea	-0.0057514803
229	0xbd4fd203	-0.050737392
230	0xbcba591e	-0.022747573
231	0xbd66babd	-0.05633043
232	0xbd22e7d7	-0.03977188
233	0xbe2adbd2	-0.16685417
234	0x3cfd4be1	0.030919971
235	0x3c0dbf04	0.008651499
236	0xbd6de36a	-0.058078207
237	0x3db1768c	0.08665189
238	0xbe1edd26	-0.15514049
239	0x3e2792d5	0.16364606
240	0xbac42336	-0.0014964107
241	0x3e86154c	0.26188123
242	0xbe468d8b	-0.19389932
243	0xbdf1456d	-0.1178082
244	0x3e298311	0.16553904
245	0x3cbb6aa2	0.022877995
246	0xbd5a885f	-0.05335271
247	0x3c9c6076	0.019088965
248	0xbdaed036	-0.08535807
249	0x3e3d1326	0.18464336
250	0xbdfe90c0	-0.124299526
251	0x3e6bbcf4	0.23021299
252	0x3db4ad1e	0.08822082
253	0x3e7b855d	0.24562593
254	0x3d2266cb	0.039648812
255	0xbd4ce6dd	-0.050024856

layers.0.lin_l.bias f4 [128]
0	0x3d835e73	0.06414499
1	0xbe16b704	-0.14718252
2	0x3ea0b9e8	0.31391835
3	0x3e234e87	0.15947925
4	0x3de14239	0.10998959
5	0x3d5eff8b	0.054442924
6	0xbddd39f5	-0.1080207
7	0x3e534b5a	0.20634213
8	0xbd2cee15	-0.04221924
9	0xbe29cb32	-0.16581419
10	0x3e12ac79	0.14323606
11	0xbe214ae4	-0.15751225
12	0x3cc23e09	0.023711221
13	0xbe15f4d5	-0.14644177
14	0xbebd6c15	-0.36996523
15	0x3e1dcef4	0.15410978
16	0xbe957d7f	-0.29197308
17	0x3e03dffe	0.12878415
18	0x3e9a5562	0.30143267
19	0x3d39b96f	0.04534286
20	0x3d25de1d	0.040495027
21	0xbd7f6488	-0.062351733
22	0xbe25883a	-0.16165248
23	0x3da8171c	0.08207533
24	0x3e011797	0.12606655
25	0x3e87dad9	0.26534155
26	0x3d423da6	0.047422074
27	0x3e4b597c	0.19858354
28	0xbe45eca5	-0.19328554
29	0xbd61bd94	-0.055112436
30	0x3ead3b22	0.33834177
31	0x3d143ced	0.036190916
32	0xbc314306	-0.010819202
33	0xbcbd8d87	-0.023138775
34	0xbcfcf365	-0.030877778
35	0x3eac1e66	0.33616942
36	0xbead0ad6	-0.3379733
37	0xbe808ea8	-0.25108838
38	0xbe1d1eec	-0.15343827
39	0x3cebc828	0.028781965
40	0xbdcb0a0b	-0.09914025
41	0x3e4f0268	0.20215762
42	0xbd504ae4	-0.05085267
43	0x3eb20678	0.3477056
44	0xbdd11aa3	-0.10210159
45	0xbcff285f	-0.03114718
46	0xbe958a29	-0.2920697
47	0x3e4d2584	0.20033842
48	0x3d6bb09d	0.05754148
49	0xbe338900	-0.1753273
50	0xbe63c257	-0.22242104
51	0x3e8dceb9	0.2769678
52	0xbba7755f	-0.0051104273
53	0x3e28c660	0.16481924
54	0xbd9bd40f	-0.07608806
55	0xbe968081	-0.29394916
56	0xbc8111e0	-0.015755594
57	0xbd503017	-0.050827112
58	0xbd6c31df	-0.05766475
59	0x3e512f7b	0.20428269
60	0x3db134a0	0.086526155
61	0x3d6da4c3	0.058018457
62	0xbe677b7a	-0.22605696
63	0xbd9f9624	-0.07792309
64	0x3e88d2bf	0.26723287
65	0x3e26c437	0.16285788
66	0x3e5e7b0c	0.21726626
67	0xbe497174	-0.19672185
68	0xbe441ee9	-0.19152416
69	0xbe5662a9	-0.20936073
70	0xbb24d88b	-0.0025153484
71	0xbe1b8498	-0.15187299
72	0x3e0fa60e	0.14028189
73	0xbde98b55	-0.114035286
74	0x3db0aa16	0.08626191
75	0xbd77932f	-0.0604431
76	0x3dd35797	0.10319441
77	0xbe16f7e2	-0.14742997
78	0xbeabaed3	-0.33531818
79	0x3e0c97d0	0.13729787
80	0x3d7f5f22	0.062346585
81	0xbdaa97d0	-0.08329737
82	0xbe3bd2fb	-0.18342201
83	0x3db2bbba	0.08727212
84	0xbea18052	-0.31543213
85	0xbdd29bb6	-0.10283606
86	0x3e58bf21	0.2116666
87	0x3dc32b35	0.095297255
88	0x3e8b91f9	0.27259806
89	0x3e5ed9b6	0.21762738
90	0x3d07b1de	0.03312861
91	0xbe011af0	-0.12607932
92	0xbea79ef0	-0.32738447
93	0xbbb96f09	-0.0056589884
94	0xbc7c8d0a	-0.015414486
95	0x3e5892f5	0.2114981
96	0xbde5b40f	-0.11215984
97	0x3da2e3ba	0.07953592
98	0x3db4b1ad	0.088229515
99	0x3cd22156	0.025650661
100	0x3ae25adc	0.001726951
101	0x3e6d7756	0.23190054
102	0xbe6d0183	-0.23145108
103	0xbe55b674	-0.20870382
104	0x3e1225cf	0.14272235
105	0xbdb13856	-0.08653323
106	0xbdae2cd0	-0.08504641
107	0xbe09deb9	-0.13463868
108	0xbd0f4f0d	-0.034987498
109	0xbdc35d66	-0.09539299
110	0x3e2be28e	0.16785643
111	0x3e2ac428	0.1667639
112	0xbe32ee96	-0.17473826
113	0x3e6e1851	0.23251463
114	0xbd96fa50	-0.07371962
115	0xbe31ce64	-0.17363888
116	0x3bb96e9f	0.005658939
117	0xbe090c11	-0.13383509
118	0xbe9fe27e	-0.31227487
119	0xbe9420ba	-0.28931218
120	0xbe2192d4	-0.15778667
121	0x3d29a959	0.041421268
122	0xbe967cce	-0.29392093
123	0x3e132786	0.14370546
124	0xbdfb01aa	-0.12256177
125	0x3e8c976a	0.2745927
126	0x3e624632	0.2209709
127	0x3d439e39	0.047758315

layers.0.lin_r.weight f4 [128, 11]
0	0x3e1dfaa2	0.1542764
1	0x3e1752c3	0.14777665
2	0x3e253fc6	0.16137609
3	0xbe3162ac	-0.17322797
4	0x3df34132	0.118776694
5	0x3b57ac62	0.0032909145
6	0xbe151a4e	-0.14560816
7	0x3d044ce6	0.0322999
8	0x3e0312ce	0.12800142
9	0x3e5477a1	0.2074876
10	0xbda25911	-0.07927144
11	0x3e19980a	0.14999405
12	0x3c36a861	0.011148543
13	0x3dd54e5f	0.10415339
14	0xbcfcef89	-0.030875938
15	0xbd434842	-0.047676332
16	0x3e23e809	0.16006483
17	0x3db1c1f4	0.08679572
18	0xbded8f6e	-0.11599623
19	0xbd90b147	-0.07065063
20	0xbde7fb00	-0.11327171
21	0xbd8f8aef	-0.07008921
22	0x3e1c81a2	0.15283826
23	0x3ca91488	0.020639673
24	0xbde00254	-0.10937944
25	0x3dbe30d2	0.092866555
26	0xbe1a44c1	-0.1506529
27	0x3dfb447d	0.122689225
28	0xbe04f09c	-0.1298241
29	0xbe5aca27	-0.21366177
30	0xbda31996	-0.079638645
31	0xbe1a1ff6	-0.15051255
32	0xbc0ce293	-0.008598941
33	0xbd5601a4	-0.05224766
34	0xbd6983a5	-0.05701031
35	0xbc36918e	-0.011143101
36	0x3dedeb79	0.116171785
37	0x3d1c4aa4	0.03815712
38	0x3df2149c	0.11820337
39	0xbe2b7708	-0.16744626
40	0x3ddf3d0b	0.10900315
41	0xbbb5d730	-0.005549334
42	0xbe187944	-0.14890009
43	0xbcfb4751	-0.030673655
44	0x3d41eeb4	0.047346786
45	0x3e2cf0c8	0.16888726
46	0xbe6e1528	-0.23250258
47	0xbdc3aee8	-0.09554845
48	0x3e791601	0.243248
49	0xbdb5a7b6	-0.08869879
50	0x3bfe2dd5	0.0077569284
51	0xbd17d3ce	-0.037067227
52	0xbcb57e3e	-0.022154924
53	0xbe47e4e7	-0.19520913
54	0x3dddee60	0.10836482
55	0x3e3ba40d	0.18324299
56	0x3e03213f	0.12805651
57	0x3e56baba	0.20969668
58	0x3e0469ee	0.12931034
59	0x3daaf8a9	0.083482094
60	0x3db9c865	0.09071425
61	0xbdfd3588	-0.12363726
62	0x3d22cf43	0.03974844
63	0x3d5f79d8	0.05455956
64	0x3e447a1d	0.19187208
65	0xbe2c2ea8	-0.16814673
66	0xbe42c48d	-0.1902029
67	0x3a708dc7	0.00091764
68	0xbe215fcb	-0.15759198
69	0x3e05f18d	0.13080426
70	0x3df90577	0.121592455
71	0x3d685cd9	0.05672917
72	0xbe46eeb9	-0.19427003
73	0xbd821de7	-0.0635336
74	0xbdd8030a	-0.10547455
75	0x3e3aa740	0.18227863
76	0x3bc39d59	0.005969685
77	0x3df84e5f	0.12124323
78	0xbe451844	-0.19247538
79	0xbe62acb1	-0.22136189
80	0x3e347e4e	0.17626306
81	0x3e244cf6	0.16044983
82	0xbdf3f51b	-0.119119845
83	0xbe4b9344	-0.19880396
84	0x3e3a1749	0.18172945
85	0xbdc084fd	-0.094003655
86	0x3bceb659	0.0063083586
87	0x3e1113d0	0.14167714
88	0xbd6871a6	-0.05674901
89	0xbd66964c	-0.056295678
90	0x3d6da21f	0.05801594
91	0xbd9c9a32	-0.07646598
92	0x3db24a2a	0.08705552
93	0xbd6cc31a	-0.05780325
94	0x3e70e7fb	0.23525994
95	0x3e1483b6	0.14503369
96	0xbbd25db1	-0.0064198603
97	0x3e12dc4e	0.14341852
98	0xbcb7b859	-0.022426771
99	0xbc3803c8	-0.01123137
100	0x3ddfc03b	0.10925337
101	0xbe2efe21	-0.1708913
102	0x3e430331	0.19044186
103	0x3d95edd2	0.07320751
104	0xbdf770e3	-0.12082078
105	0x3d6aa4ba	0.057286
106	0x3dc015a4	0.093791276
107	0xbdb7c24d	-0.08972607
108	0xbd041db7	-0.0322549
109	0xbe33e469	-0.175676
110	0x3e2b3f38	0.16723335
111	0xbdc2c0f4	-0.09509459
112	0xbdf32f9a	-0.11874314
113	0xbdac19d3	-0.08403363
114	0xbd9c3dcd	-0.07628975
115	0xbd660959	-0.05616126
116	0xbe3204f8	-0.17384708
117	0xbd9deaf1	-0.07710827
118	0xbd40b30b	-0.04704575
119	0xbe2ce43e	-0.16883942
120	0x3d31eedb	0.04344068
121	0x3d6564f8	0.056004494
122	0x3ddc0d56	0.10744731
123	0x3c85927d	0.016305203
124	0xbd7ab1be	-0.061204664
125	0x3cf40d93	0.029791629
126	0x3dcc300c	0.09970102
127	0x3e3d4ed7	0.18487106
128	0xbe02ff1a	-0.12792626
129	0x3b26e4cf	0.002546597
130	0xbe0bff8e	-0.13671705
131	0xbbf3db58	-0.0074419193
132	0xbe6c2335	-0.23060305
133	0x3c4d0fdb	0.012515987
134	0xbd8a0857	-0.06739872
135	0xbd3aed91	-0.045636717
136	0xbd5cca4d	-0.053903867
137	0xbda50956	-0.08058421
138	0xbe6c649e	-0.23085257
139	0x3e2099b3	0.15683632
140	0xbe03c7d1	-0.12869193
141	0x3cce2d97	0.025168223
142	0xbda99b5c	-0.082815856
143	0xbd957978	-0.07298559
144	0xbe5c60cf	-0.21521305
145	0xbdbacdff	-0.09121322
146	0xbdc43a52	-0.09581436
147	0x3e03c690	0.12868714
148	0x3e56f0ba	0.20990267
149	0xbe8c22a3	-0.27370176
150	0xbb8aded7	-0.0042379904
151	0xbe4d1c80	-0.20030403
152	0x3e3bc2f9	0.18336095
153	0xbe3f16fd	-0.18661113
154	0x3e053423	0.1300817
155	0x3e129f4b	0.14318578
156	0x3e77edb3	0.24211769
157	0xbc0d426e	-0.008621795
158	0xbcd090b7	-0.02545963
159	0xbe3b04f6	-0.18263611
160	0x3e63e7e4	0.22256428
161	0x3d6b2f08	0.0574179
162	0x3e4fddd2	0.20299461
163	0x3d72b63d	0.059255827
164	0xbe18e349	-0.14930452
165	0x3e0105e6	0.12599906
166	0xbd1ddb68	-0.03853932
167	0xbbb9ebb9	-0.0056738523
168	0xbe46e98a	-0.19425026
169	0x3e05a847	0.13052474
170	0xbbcf7f63	-0.0063323244
171	0xbdf52a85	-0.119710006
172	0x3d1a8014	0.0377198
173	0x3d90b999	0.0706665
174	0x3cd269b1	0.025685163
175	0x3d876585	0.0661116
176	0x3d7feb43	0.062480222
177	0x3e0b574a	0.13607517
178	0xbb28c445	-0.0025751751
179	0x3d704a95	0.058664877
180	0x3d65e5ed	0.056127477
181	0xbcd9b9e6	-0.026577901
182	0xbe77ab26	-0.24186382
183	0x3d343348	0.043994218
184	0xbd8ed155	-0.06973521
185	0xbe29b066	-0.16571197
186	0xbdb0c2fd	-0.08630941
187	0xbe2b9e03	-0.16759495
188	0xbd7c9943	-0.0616696
189	0xbbd58168	-0.0065156706
190	0xbd97a659	-0.07404775
191	0x3d58e130	0.05294913
192	0x3c97a390	0.01851061
193	0x3e141645	0.1446162
194	0x3c0641ee	0.00819443
195	0x3daff5a3	0.08591773
196	0x3e0a5054	0.13507205
197	0x3e0c85a5	0.13722856
198	0x3d40bca4	0.0470549
199	0xbe08c861	-0.13357688
200	0x3e1b41c7	0.15161811
201	0xbe0835d4	-0.13301784
202	0xbd20a968	-0.03922406
203	0xbd6a6ed1	-0.05723459
204	0xbe8e4f84	-0.2779504
205	0x3e4c9447	0.19978438
206	0x3da71c65	0.08159713
207	0x3df253c0	0.1183238
208	0x3d9c60eb	0.07635673
209	0xbe73f813	-0.23825102
210	0xbe376c07	-0.17912303
211	0x3d956646	0.07294898
212	0x3e12f68b	0.14351861
213	0xbe001d82	-0.12511256
214	0xbe5f03b3	-0.21778755
215	0x3d93bac4	0.07213357
216	0x3e3c8e98	0.1841377
217	0xbdb6013e	-0.08886956
218	0x3e1430eb	0.14471786
219	0xbe1843bc	-0.14869589
220	0xbdd68642	-0.104748264
221	0x3d80966c	0.06278691
222	0xbe2c76d8	-0.1684221
223	0x3d9a4754	0.07533136
224	0x3c8272ef	0.015923945
225	0x3e3a2c6c	0.18181008
226	0xbdd85d3c	-0.10564658
227	0xbd5dde55	-0.05416711
228	0xbdda9161	-0.1067226
229	0x3d194b06	0.037425064
230	0xbe2edc1a	-0.1707615
231	0xbe5dbdca	-0.2165443
232	0xbdc3f1a9	-0.095675774
233	0x3e7063b5	0.23475535
234	0xbcddadcd	-0.027060414
235	0xbc73cd6c	-0.014880519
236	0xbe800e5e	-0.2501096
237	0xbe0e2fed	-0.1388547
238	0xbda76dc0	-0.0817523
239	0xbe074582	-0.13210109
240	0x3e346bf6	0.17619309
241	0xbe37d2a3	-0.17951445
242	0xbc5c7c7a	-0.013457412
243	0xbcd1f780	-0.025630713
244	0xbe0b5d81	-0.13609888
245	0xbbd23dca	-0.0064160572
246	0xbdd8d82e	-0.10588108
247	0x3d83167e	0.064007744
248	0x3d70c7f8	0.058784455
249	0xbe267459	-0.1625532
250	0xbe0daf7d	-0.13836475
251	0xbe20cd98	-0.15703428
252	0x3db3dedc	0.087827414
253	0x3d91977c	0.071089715
254	0xbe554b87	-0.20829593
255	0xbe2faf3c	-0.1715669

layers.0.lin_r.bias f4 [128]
0	0x3e1edf86	0.15514955
1	0xbd2ad774	-0.04170938
2	0xbe9fcc27	-0.31210443
3	0x3d9f4dc6	0.07778506
4	0xbd5cf48c	-0.053944156
5	0xbe4c9ded	-0.19982119
6	0x3df82ae3	0.12117555
7	0x3e9a4bb5	0.30135885
8	0xbeadea0d	-0.3396763
9	0x3e54b765	0.20773084
10	0xbd5ada04	-0.053430572
11	0xbd9e08ce	-0.07716523
12	0x3eb87f5a	0.36034662
13	0xbcf9c53b	-0.030489555
14	0xbddb6703	-0.10713007
15	0xbca58be6	-0.02020831
16	0xbc72a119	-0.0148089165
17	0xbe157d4e	-0.14598581
18	0xbe230069	-0.15918125
19	0x3d9c8fb9	0.076446004
20	0xbe8977dd	-0.2684926
21	0xbe1109f3	-0.14163952
22	0x3e52348b	0.20527856
23	0xbdcbb9dc	-0.09947559
24	0xbd8d010d	-0.06884966
25	0xbd6e75bf	-0.05821776
26	0xbd001353	-0.03126843
27	0xbe2aa18f	-0.16663192
28	0xbe6819d9	-0.2266611
29	0xbcbf4d3f	-0.023352263
30	0x3c52934e	0.012852503
31	0x3e6e7996	0.23288569
32	0x3cbc61d7	0.022995872
33	0xbe0feb7e	-0.14054677
34	0x3e0a5106	0.1350747
35	0xbea7648c	-0.326939
36	0x3ddc3f9c	0.1075432
37	0x3e4ca0dc	0.19983238
38	0xbde62da8	-0.11239177
39	0x3e3b7f5d	0.18310304
40	0xbeaceaeb	-0.33772978
41	0xbe232617	-0.15932499
42	0x3e05b942	0.13058951
43	0x3ebced12	0.3689962
44	0x3e8fadda	0.28062326
45	0x399dd431	0.00030103468
46	0xbe3cd917	-0.18442188
47	0xbb49b6cc	-0.0030779121
48	0xbe8568cf	-0.26056525
49	0xbe2f5cc1	-0.17125227
50	0xbe1c2434	-0.15248185
51	0xbd2ca86d	-0.04215281
52	0x3e8ca1a3	0.2746707
53	0xbe8a39bf	-0.26997182
54	0x3e142bb0	0.1446979
55	0x3e0fc66a	0.14040533
56	0xbe7df165	-0.24799116
57	0xbd9f7840	-0.07786608
58	0xbe4b1950	-0.19833875
59	0x3db6b91d	0.08922026
60	0x3d8e6ec5	0.06954721
61	0xbe37bf26	-0.17944011
62	0x3e4d6c55	0.20060857
63	0xbdd552df	-0.10416197
64	0xbddda6f7	-0.10822862
65	0xbd8134b2	-0.06308879
66	0xbe870192	-0.26368386
67	0xbdcbcc3f	-0.09951066
68	0xbe13e32c	-0.14442128
69	0xbd20121f	-0.03907978
70	0xbce1e441	-0.02757466
71	0xbe875301	-0.26430514
72	0x3ea2efb9	0.3182352
73	0x3d8dbcc7	0.06920772
74	0x3eb2bd5d	0.34910098
75	0x3d755062	0.059891112
76	0xbde78a71	-0.113057025
77	0xbe23ca41	-0.15995122
78	0x3d08618a	0.033296145
79	0xbc6d31bd	-0.014477191
80	0xbc6464ad	-0.013940019
81	0x3b88f814	0.004179964
82	0xbe51e385	-0.20496948
83	0x3d2d0190	0.04223782
84	0x3e78c429	0.24293579
85	0xbbd226fb	-0.0064133382
86	0x3e21b1df	0.15790509
87	0xbe838b14	-0.25692046
88	0xbe2c429c	-0.16822284
89	0xbeb1213f	-0.34595677
90	0xbe55ca3b	-0.20877926
91	0x3dd1e8a4	0.10249451
92	0x3e5957c2	0.21224883
93	0x3e940feb	0.28918394
94	0x3dbbcf19	0.0917036
95	0xbdc95a4c	-0.09831676
96	0x3dab2248	0.08356148
97	0x3d545558	0.051839203
98	0x3d9c6a55	0.07637469
99	0xbde2fa4c	-0.110828966
100	0x3d7ab1fe	0.061204903
101	0xbe37273c	-0.1788606
102	0x3e3487af	0.17629884
103	0x3e01d075	0.12677176
104	0xbe7d00f9	-0.24707402
105	0x3e0ad3e8	0.13557398
106	0x3df8c5e0	0.12147117
107	0xbe8aa483	-0.27078637
108	0x3e89c334	0.2690674
109	0xbe4eb135	-0.20184787
110	0x3dabd5fa	0.08390422
111	0x3c717f2c	0.014739793
112	0xbdf28b5d	-0.11842988
113	0xbce127bb	-0.027484765
114	0x3dc3c999	0.09559936
115	0xbdb3b207	-0.087741904
116	0x3e329511	0.17439677
117	0xbeb3a973	-0.35090217
118	0xbda09b41	-0.07842112
119	0xbc822351	-0.01588598
120	0xbe91f78d	-0.2850918
121	0xbe4b9989	-0.19882788
122	0xbe9e9f20	-0.30980778
123	0x3e427136	0.18988499
124	0xbdbe1e76	-0.09283154
125	0x3e35f03c	0.17767423
126	0x3e9c63a8	0.30544782
127	0xbe55cad9	-0.20878161

layers.0.lin_edge.weight f4 [128, 13]
0	0x3e2f8ca1	0.1714349
1	0x3cf7177d	0.030162567
2	0x3e5d5142	0.21613029
3	0x3d2e31e5	0.042528052
4	0x3cef9dc7	0.029250039
5	0xbdb37ee7	-0.08764439
6	0x3d762960	0.060098052
7	0x3d250dd0	0.040296376
8	0xbacf962e	-0.0015837604
9	0x3d9ebb9c	0.077506274
10	0xbe1956fc	-0.14974588
11	0x3e83b76b	0.25725874
12	0xbdd5a029	-0.10430939
13	0x3e6fd862	0.23422387
14	0xbda71cf0	-0.08159816
15	0x3dc20e39	0.09475369
16	0x3e3efaf1	0.18650414
17	0xbe285dea	-0.16442075
18	0xbe33ba3c	-0.17551512
19	0x3e2374cb	0.15962522
20	0xbd85825f	-0.06519007
21	0x3dba8d99	0.09109039
22	0x3e184e22	0.14873555
23	0xbe37a1b3	-0.17932777
24	0xbd701888	-0.058617145
25	0xbe036d8a	-0.12834755
26	0xbdde7f32	-0.10864104
27	0xbe0afd0f	-0.13573097
28	0x3d9d0ca2	0.07668425
29	0xbdbe8562	-0.093027845
30	0xbe1c2907	-0.15250026
31	0x3daf80c4	0.08569482
32	0xbbf52e17	-0.007482301
33	0x3dfb2d6e	0.122645244
34	0x3e6dc875	0.23221
35	0xbbaa94de	-0.0052057346
36	0x3d12098c	0.035653636
37	0x3e166af6	0.1468924
38	0xbc519322	-0.012791427
39	0x3dc209a0	0.09474492
40	0x3df1bbbd	0.11803386
41	0xbe7edbba	-0.24888507
42	0x3dcc8066	0.099854276
43	0x3dcfbd6c	0.10143551
44	0x3d4b41ab	0.049623173
45	0x3db3710b	0.087617956
46	0x3de3932c	0.11112055
47	0xbcb458a9	-0.022014933
48	0xbe3465c8	-0.17616951
49	0x3d7ed459	0.06221423
50	0x3ddbd06e	0.10733114
51	0x3d1c477b	0.038154107
52	0xbc4011d3	-0.011723
53	0xbdb6751e	-0.08909057
54	0xba3f9aa9	-0.0007309118
55	0xbc5e852c	-0.013581555
56	0x3cd52627	0.026019169
57	0x3de99d22	0.11406924
58	0x3d5e3f46	0.05425956
59	0xbe03399f	-0.1281495
60	0xbe1d78a9	-0.1537806
61	0xbd011c94	-0.031521395
62	0x3e7c3fc9	0.24633707
63	0xbd2ff2b8	-0.042956084
64	0xbd6484b2	-0.05579061
65	0xbde14400	-0.10999298
66	0xbe203b76	-0.15647683
67	0x3d202ced	0.039105345
68	0xbe29c946	-0.16580686
69	0x3db66349	0.08905656
70	0x3e42854f	0.18996166
71	0xbdc0f7db	-0.09422275
72	0x3e1ed376	0.15510353
73	0xbdeb19f5	-0.1147956
74	0x3e05b335	0.13056643
75	0x3dadac85	0.08480171
76	0xbceed46c	-0.029154025
77	0xbe570369	-0.20997395
78	0x3d47d218	0.048784345
79	0xbdfd5b82	-0.12370969
80	0xbcb851f3	-0.022500014
81	0x3e20d06c	0.15704507
82	0x3e0c0f03	0.13677602
83	0x3e5a9ec1	0.21349622
84	0xbe476775	-0.1947306
85	0x3debdfe5	0.11517314
86	0x3e036372	0.12830904
87	0xbd05e6fb	-0.032690983
88	0x3e0ce5cc	0.13759536
89	0xbe114e4d	-0.14190026
90	0xbd96d192	-0.07364191
91	0x3b912192	0.0044290507
92	0x3d35e443	0.04440714
93	0xbe565aa4	-0.20933014
94	0xbd38f04e	-0.045151047
95	0x3d1d6ea3	0.03843559
96	0x3c6933fe	0.014233587
97	0x3de56d42	0.1120248
98	0xbe12e9df	-0.14347027
99	0x3e30259a	0.17201844
100	0xbc81b9ff	-0.01583576
101	0x3d8c8c4c	0.06862697
102	0xbc1063c2	-0.008812847
103	0xbc7ecd7f	-0.015551924
104	0x3e0974ac	0.13423413
105	0xbd80b8f8	-0.0628528
106	0x3e273776	0.1632975
107	0xbe11d19f	-0.1424012
108	0xbcbf0cc9	-0.023321526
109	0xbe0dbbe4	-0.13841206
110	0x3d4f5858	0.05062136
111	0x3b8d76a6	0.0043171225
112	0x3d3161de	0.043306224
113	0x3e015054	0.12628299
114	0x3cec128b	0.028817436
115	0x3e7ebd52	0.24876907
116	0x3e0b3324	0.13593727
117	0x3da1c2c8	0.0789848
118	0x3dd04332	0.101690665
119	0xbc6242ac	-0.013809841
120	0x3b2efd1b	0.0026701156
121	0xbc889bcd	-0.016675854
122	0x3e766755	0.24062856
123	0x3d499b58	0.049220413
124	0xbca46988	-0.020069852
125	0x3e664594	0.2248748
126	0xbdc0f0fb	-0.094209634
127	0xbdaefc59	-0.08544225
128	0xbe636717	-0.22207294
129	0xbd43776e	-0.04772132
130	0x3e1d0371	0.15333344
131	0xbdb2c832	-0.087295905
132	0xbd8d008b	-0.06884869
133	0x3d0b0362	0.033938773
134	0x3cad4b87	0.021154178
135	0x3e349af3	0.17637233
136	0xbd906a7d	-0.07051561
137	0xbe6a407b	-0.2287616
138	0x3d9a9dfa	0.07549663
139	0xbe193151	-0.14960219
140	0x3d8dec52	0.0692984
141	0xbde9a513	-0.114084385
142	0x3dea8e49	0.1145292
143	0xbbb2c33c	-0.0054554027
144	0x3e014a7c	0.1262607
145	0xbc597298	-0.01327195
146	0xbda0895b	-0.078386985
147	0xbdd409e3	-0.10353448
148	0x3ddea3d7	0.10871094
149	0xbddce316	-0.10785501
150	0xbdaa3b3c	-0.08312079
151	0x3d6f4f09	0.058424983
152	0xbe5f4040	-0.21801853
153	0xbd902d3f	-0.0703988
154	0xbe2e9175	-0.17047675
155	0x3d4bb94c	0.04973726
156	0xbdf3a81b	-0.11897298
157	0x3e8611ea	0.26185542
158	0x3e2ccdc5	0.1687537
159	0xbc38570d	-0.011251223
160	0x3d224edf	0.039626
161	0x3b50c29b	0.0031854275
162	0xbde2fb75	-0.11083118
163	0x3e68f49e	0.22749564
164	0x3de0e577	0.10981267
165	0xb9454b76	-0.00018815495
166	0x3d7ea1e5	0.062166113
167	0x3e720923	0.23636298
168	0x3d547d4b	0.0518773
169	0x3df5900b	0.11990365
170	0x3e43c35c	0.19117492
171	0x3cf4d210	0.029885322
172	0xbdea5724	-0.11442402
173	0xbe143246	-0.14472303
174	0xbd79c5ce	-0.060979657
175	0xbe1494f5	-0.14509948
176	0x3e5d185e	0.21591327
177	0xbe07b8e8	-0.1325413
178	0x3e32d79c	0.17465061
179	0xbe52cef1	-0.20586754
180	0xbbda9ae0	-0.0066712946
181	0x3e4f3dbc	0.20238394
182	0xbcc36f3f	-0.023856757
183	0x3d990f01	0.07473565
184	0x3d4569b1	0.0481965
185	0x3daecc7d	0.08535097
186	0xbdb3760f	-0.08762752
187	0x3e244a4b	0.16043966
188	0xbe5cad0a	-0.21550384
189	0xbe47e2c3	-0.19520096
190	0x3c362228	0.011116542
191	0xbdebfb5a	-0.11522551
192	0x3e3bd619	0.1834339
193	0xbe53794b	-0.20651738
194	0xbe2dc0c4	-0.16968066
195	0x3d8a42bc	0.0675101
196	0xbe8562ff	-0.2605209
197	0xbe8181f1	-0.2529445
198	0x3da4c3fe	0.08045195
199	0xbd89c290	-0.06726563
200	0xbe0b4ce7	-0.13603555
201	0xbe07b531	-0.13252713
202	0x3e1863f2	0.14881876
203	0xbe0207f8	-0.12698352
204	0x3e35413e	0.17700669
205	0xbd544aec	-0.051829264
206	0xbe098607	-0.13430034
207	0xbd11ea48	-0.03562382
208	0x3e3cc25a	0.18433514
209	0xbe3ce21d	-0.1844563
210	0x3d6c8a95	0.05774935
211	0xbd0347f8	-0.032051057
212	0x3e04a68a	0.12954155
213	0x3dc0292f	0.09382855
214	0xbb4d0b8b	-0.0031287398
215	0xbd86898a	-0.06569202
216	0xbdb85211	-0.09000028
217	0xbe08d6ba	-0.13363162
218	0x3e3c0ad8	0.18363512
219	0x3d823c56	0.063591644
220	0x3d2744c1	0.040837053
221	0x3e00f4cc	0.12593383
222	0xbe08679b	-0.13320772
223	0x3d942999	0.072344966
224	0xbe203e51	-0.15648772
225	0x3db795d9	0.08964128
226	0x3e057ea2	0.13036588
227	0xbe14cfb9	-0.14532365
228	0x3bed8568	0.0072485693
229	0x3cc23102	0.02370501
230	0x3e060bfb	0.13090508
231	0x3e0c4252	0.13697174
232	0xbd26dc7a	-0.040737607
233	0x3e158ffd	0.14605708
234	0xbd660e7e	-0.056166165
235	0x3b75b2ca	0.00374906
236	0xbe62b35e	-0.22138736
237	0xbcf56dc8	-0.029959574
238	0xbc74fb4c	-0.014952492
239	0x3e4727f7	0.19448839
240	0xbe4b3061	-0.19842674
241	0xbe17320c	-0.14765185
242	0xbdf7a5a6	-0.12092142
243	0xbdde03de	-0.10840581
244	0x3e32ec58	0.1747297
245	0xbe023b83	-0.12718014
246	0xbe8038b0	-0.2504325
247	0x3de6ba75	0.112660326
248	0x3e175c9a	0.14781418
249	0x3d4ba920	0.049721837
250	0xbde08e50	-0.10964644
251	0x3d65eb8a	0.05613283
252	0x3dacb37a	0.0843267
253	0xbd385d10	-0.045010626
254	0x3ca47e51	0.020079764
255	0x3e2bd403	0.16780095

layers.0.res.weight f4 [128, 11]
0	0x3d27c346	0.04095771
1	0xbe07a232	-0.13245466
2	0x3e3f7dde	0.18700358
3	0xbc93be47	-0.018035067
4	0x3e4fc565	0.20290144
5	0x3c6acbd9	0.014330828
6	0xbc982ab6	-0.018575054
7	0xbe826af8	-0.25472236
8	0xbde6ff17	-0.11279123
9	0xbd60a235	-0.054842193
10	0xbb3427f8	-0.0027489644
11	0xbe0d9843	-0.13827614
12	0xbe802f64	-0.25036156
13	0x3e8ade15	0.2712256
14	0xbe51430b	-0.20435731
15	0xbd1ad47c	-0.037800297
16	0xbd360fa9	-0.04444853
17	0x3b14ca3b	0.0022703547
18	0xbc03007e	-0.007995723
19	0xbe20771e	-0.1567044
20	0x3dd68e15	0.10476319
21	0x3e2ada41	0.1668482
22	0x3dc34440	0.09534502
23	0xbe2dde03	-0.16979222
24	0x3daeda8e	0.0853778
25	0xbe267e81	-0.16259195
26	0xbd20bb56	-0.039241157
27	0x3b181f18	0.0023211893
28	0xbcf356e7	-0.029704524
29	0x3e8ff1de	0.28114218
30	0x3e759538	0.23982704
31	0xbddd0b4a	-0.10793169
32	0x3c970556	0.018435162
33	0xbe31a69a	-0.1734871
34	0xbd84f46f	-0.064919345
35	0xbe065b05	-0.13120659
36	0x3e27067a	0.16311064
37	0x3d18aa0f	0.037271556
38	0x3e69a2fd	0.22816081
39	0x3e488de2	0.19585374
40	0xbdb6c63c	-0.08924529
41	0x3de07460	0.10959697
42	0x3e150ea9	0.14556374
43	0x3d9bab70	0.076010585
44	0x3e3506c1	0.17678358
45	0x3da2cd5b	0.07949325
46	0xbc2e22ec	-0.010628443
47	0x3e511f40	0.20422077
48	0x3dfde2cb	0.12396773
49	0x3e55316e	0.20819637
50	0xbe8270b0	-0.254766
51	0x3e6d27c1	0.23159696
52	0xbd814840	-0.06312609
53	0xbe725caf	-0.23668168
54	0x3df6ddf5	0.12054054
55	0x3a0e8385	0.0005436468
56	0x3d989440	0.074501514
57	0x3da0014f	0.078127496
58	0x3e438599	0.19093932
59	0x3dfb4622	0.12269236
60	0x3da13208	0.07870871
61	0xbd80e377	-0.062933855
62	0xbe60a5b4	-0.2193821
63	0xbc38f4d9	-0.011288845
64	0xbbe925fd	-0.0071151243
65	0x3a6e1932	0.0009082734
66	0x3d654bcb	0.055980485
67	0x3e4172b5	0.18891414
68	0xbd8aebef	-0.06783282
69	0xbcc06279	-0.023484455
70	0xbe217da2	-0.15770581
71	0xbe386af4	-0.1800955
72	0x3e1666d5	0.14687665
73	0x3e4739e9	0.19455685
74	0x3d572e64	0.052534476
75	0xbe27589b	-0.16342394
76	0x3e816927	0.25275537
77	0x3d8d9e52	0.06914963
78	0xbe205800	-0.1565857
79	0xbe316e95	-0.1732734
80	0x3e0a04d1	0.134784
81	0xbdf23c24	-0.11827877
82	0x3cc459af	0.023968546
83	0x3dbaa852	0.09114136
84	0xbdc77c70	-0.097405314
85	0xbe34cdb1	-0.1765659
86	0xbccd43f6	-0.02505682
87	0xbd611b4a	-0.054957666
88	0x3e531a4b	0.20615499
89	0x3af32a3c	0.0018552016
90	0xbdc4713f	-0.095919125
91	0xbdc17af9	-0.09447283
92	0xbd7f79e6	-0.06237211
93	0xbc5ade43	-0.013358655
94	0x3d585ebb	0.052824717
95	0x3dad7bec	0.08470902
96	0x3e21db40	0.15806293
97	0xbd58fd23	-0.052975785
98	0xbe4f4c01	-0.20243837
99	0x3e789865	0.24276884
100	0x3da9f949	0.082995005
101	0xbd9cb25c	-0.07651207
102	0xbd81dad6	-0.06340568
103	0xbd97494f	-0.073870294
104	0xbe822a3c	-0.25422847
105	0xbc00bee7	-0.007858015
106	0x3e2ba2c7	0.16761313
107	0xbda8c4fd	-0.082406975
108	0x3bc9f0f2	0.006162756
109	0xbd4fe86f	-0.050758775
110	0x3d576658	0.052587837
111	0x3e905bc3	0.2819501
112	0xbd498f59	-0.049208973
113	0xbd109a66	-0.035303496
114	0xbe7f773f	-0.24947833
115	0xbd59d77b	-0.053184014
116	0x3d34b4f4	0.044117883
117	0x3e12da4b	0.14341085
118	0xbdcdaf76	-0.10043232
119	0xbc3dda5a	-0.011587704
120	0xbdb75c12	-0.08953108
121	0x3e830679	0.25590876
122	0x3e8a82fc	0.27053058
123	0x3e45ca3b	0.19315426
124	0xbd842696	-0.06452672
125	0xbe889a3f	-0.2668018
126	0x3e2afbed	0.16697665
127	0xbe3c9d69	-0.18419422
128	0x3cc0608e	0.02348354
129	0xbd88ce97	-0.06680029
130	0xbd8a6bfe	-0.06758879
131	0x3e27d0e3	0.16388278
132	0x3e856950	0.2605691
133	0x3d9d1b6a	0.076712444
134	0xbda3f7f7	-0.0800628
135	0x3e0ee183	0.13953213
136	0x3e88fed6	0.26756924
137	0xbc3c960a	-0.0115103815
138	0xbe8729b1	-0.26398996
139	0xbe242eed	-0.16033526
140	0x3de57ed2	0.1120583
141	0xbe769f27	-0.2408415
142	0x3db8ee0d	0.090297796
143	0x3e58ace4	0.21159703
144	0x3ddd1ca2	0.10796477
145	0x3e0fa9e9	0.1402966
146	0xbe804c3e	-0.25058168
147	0x3d5ef057	0.054428425
148	0x3e297663	0.16549067
149	0xbd88c4e1	-0.06678177
150	0x3dd188c5	0.10231165
151	0x3e2d6e2f	0.16936563
152	0xbe6591bd	-0.22418876
153	0x3da13129	0.07870705
154	0xbd7ee8f7	-0.06223389
155	0x3e0c838b	0.13722055
156	0x3dbe7476	0.09299557
157	0x3d7d15f5	0.061788518
158	0x3d972c48	0.07381493
159	0xbdde013e	-0.10840081
160	0xbb2f7c34	-0.0026776912
161	0xbdb4e953	-0.088335656
162	0xbbf02c1e	-0.007329478
163	0x3e722932	0.23648527
164	0xbe66ed1e	-0.2255139
165	0x3e09fc44	0.13475138
166	0x3daafd53	0.08349099
167	0x3e6beb05	0.23038872
168	0xbde3ddc6	-0.11126284
169	0xbd889177	-0.0666837
170	0x3e809e8b	0.2512096
171	0xbe04a38d	-0.12953015
172	0xbe030cc1	-0.12797834
173	0xbdf37a41	-0.118885525
174	0xbe5491ef	-0.20758794
175	0x3d5bbbef	0.053646024
176	0xbe28f831	-0.16500928
177	0xbde93abd	-0.113881566
178	0x3d6dfa31	0.05809993
179	0x3e6ece55	0.23320897
180	0x3d220c1c	0.03956233
181	0x3dcc9927	0.09990149
182	0x3e1aaac1	0.151042
183	0xbc91bdef	-0.017790763
184	0x3d846d03	0.06466105
185	0xbcdd530c	-0.027017139
186	0xbc8411b9	-0.016121732
187	0xbcb6f939	-0.022335635
188	0x3d39ee91	0.04539353
189	0xbbb60b1a	-0.0055555226
190	0x3e0db979	0.13840283
191	0x3d093972	0.03350205
192	0xbd94ae03	-0.072597526
193	0xbe097fd6	-0.13427672
194	0xbe8023d7	-0.25027344
195	0xbdf9a80b	-0.12190255
196	0xbcd7c83a	-0.026340593
197	0xbb2f6b85	-0.0026766967
198	0x3dcd76a8	0.100323975
199	0x3cdab3cd	0.026697064
200	0x3bc270bf	0.0059338505
201	0xbd51ad36	-0.051190577
202	0x3e3e19a1	0.18564464
203	0x3e09907d	0.13434024
204	0xbe363679	-0.17794217
205	0xbdbfdf10	-0.09368718
206	0xbd75d08f	-0.06001335
207	0xbe43e5c9	-0.19130625
208	0x3e35fd78	0.17772472
209	0x3d03a782	0.03214217
210	0xbd890150	-0.066897035
211	0xbe7db8b1	-0.24777485
212	0x3d2573e2	0.040393718
213	0xbcb4e4e8	-0.022081807
214	0xbe3332f4	-0.17499906
215	0x3e3fad0b	0.18718354
216	0xbc324ed6	-0.010883054
217	0xbd80eef0	-0.06295574
218	0x3dee5606	0.116375014
219	0xbc908b0f	-0.017644433
220	0x3d7e329e	0.06205999
221	0x3d3ce704	0.04611875
222	0x3e50a188	0.2037412
223	0xbe78b638	-0.24288261
224	0x3c27e771	0.010248051
225	0xbda4da61	-0.08049465
226	0xbdcc2f60	-0.099699736
227	0x3c8937a8	0.016750172
228	0x3c5cb380	0.0134705305
229	0xbe60bf92	-0.21948078
230	0xbd7d6ea8	-0.06187311
231	0x3e1b0f75	0.15142615
232	0x3dff994d	0.12480412
233	0x3e571c91	0.21006991
234	0xbe369227	-0.1782919
235	0xbe8bef14	-0.2733084
236	0xbd9b2044	-0.075745136
237	0x3e11f24d	0.14252587
238	0xbc6ccc45	-0.0144529985
239	0xbcf1b96e	-0.029507365
240	0xbe351085	-0.17682083
241	0x3d1ef7ba	0.03881047
242	0xbde63514	-0.112405926
243	0x3de9ee8e	0.11422454
244	0xbdc37139	-0.0954308
245	0xbe07c4e0	-0.13258696
246	0xbdac212e	-0.08404766
247	0x3d7b033d	0.061282385
248	0x3e015946	0.12631711
249	0xbd8b59a3	-0.06804206
250	0x3c66a0a1	0.014076383
251	0x3b6fc89f	0.0036588085
252	0xbdc66e51	-0.0968901
253	0x3c34e34f	0.011040523
254	0xbe4b5cf0	-0.19859672
255	0xbdf1f788	-0.11814791

layers.1.att f4 [1, 4, 1]
0	0xbf699229	-0.9123865
1	0x3dec16ca	0.11527784
2	0x3e1db2ae	0.15400192
3	0x3f8465c8	1.0343561

layers.1.lin_l.weight f4 [4, 128]
0	0xbe132e4b	-0.14373128
1	0x3e1acc0e	0.15116903
2	0xbd8c19bb	-0.06840845
3	0x3e64bfff	0.22338866
4	0x3e170891	0.14749362
5	0xbbdf805b	-0.006820721
6	0x3e2d45ac	0.16921109
7	0xbdea951b	-0.11454221
8	0x3bbe67dd	0.0058107213
9	0xbc93e97a	-0.018055666
10	0xbda1a552	-0.078928605
11	0x3de5ceeb	0.11221107
12	0xbc64c2af	-0.013962432
13	0x3e12d098	0.14337385
14	0x3daf6360	0.08563876
15	0x3d225dfd	0.039640415
16	0xbd67b2e3	-0.056567084
17	0x3e8a0247	0.26954862
18	0x3e796956	0.24356589
19	0xbc9f2497	-0.019426627
20	0x3cc7099a	0.02429657
21	0x3d1304b3	0.035893153
22	0xbbca5756	-0.006174962
23	0x3e5aa5cc	0.21352309
24	0x3e685c75	0.2269152
25	0x3dc40da3	0.095729135
26	0xbd8cf4a1	-0.06882597
27	0xbd9a259b	-0.07526704
28	0x3e69c209	0.22827925
29	0x3d7b3ade	0.061335437
30	0xbde5bb5c	-0.112173766
31	0xbdac66e6	-0.08418064
32	0x3d56dcd4	0.05245669
33	0xbe5cb36c	-0.21552819
34	0x3e4e641f	0.2015538
35	0xbda2b50b	-0.079446875
36	0xbd29fee7	-0.04150286
37	0x3de3caaf	0.11122643
38	0x3ddc38d7	0.10753029
39	0xbd9f01f8	-0.077640474
40	0x3e5ada35	0.21372302
41	0x3da8ddea	0.08245452
42	0xbe03db98	-0.12876737
43	0x3e86ba78	0.2631414
44	0x3de7e6cc	0.11323318
45	0x3cc45350	0.023965508
46	0xbd9d715b	-0.076876365
47	0x3e536fe8	0.20648158
48	0x3dc856a5	0.09782151
49	0xbb7f080d	-0.003891471
50	0x3e3f1f50	0.18664289
51	0x3e5db2f4	0.21650296
52	0xbd90a406	-0.07062535
53	0x3e909692	0.28239876
54	0xbe088d3d	-0.13335128
55	0xbe18f943	-0.14938836
56	0x3bae5207	0.005319837
57	0xbe877de6	-0.2646324
58	0x3de4d9f5	0.111743845
59	0x3e00ca62	0.12577203
60	0x3e3ee1cf	0.18640827
61	0x3e680c65	0.22660978
62	0xbdfd0ea1	-0.12356306
63	0xbd27ab6d	-0.04093497
64	0x3d2162e9	0.03940097
65	0x3e903310	0.28163958
66	0x3d280d8c	0.041028544
67	0x3d28d9ee	0.04122346
68	0x3e557e41	0.20848943
69	0x3bd272b6	0.006422366
70	0x3d4e0d3f	0.0503056
71	0xbd147f91	-0.03625447
72	0x3e368235	0.17823108
73	0x3b84fec7	0.004058692
74	0xbd401ca9	-0.046902332
75	0x3de6d6bd	0.11271427
76	0xbd31adcd	-0.04337864
77	0x3e81dc07	0.2536318
78	0xbe1647ba	-0.14675799
79	0x3c6cc339	0.014450842
80	0xbdf5f1cd	-0.120090105
81	0x3d080bf5	0.033214528
82	0x3e07268e	0.13198301
83	0x3e24c682	0.1609135
84	0x3cb505d4	0.022097506
85	0x3dabfedd	0.08398221
86	0x3d6c2405	0.05765154
87	0x3e270891	0.16311862
88	0x3e51f312	0.2050288
89	0xbbd8736d	-0.0066055567
90	0x3d5539c0	0.052057028
91	0x3da281a4	0.07934883
92	0x3dd3a087	0.103333525
93	0x3d890e86	0.06692223
94	0x3d57d7a8	0.0526959
95	0x3de9e1ff	0.114200585
96	0xbd830fc7	-0.06399494
97	0x3d72d88c	0.059288546
98	0x3c96b0ab	0.018394789
99	0x3de5f18e	0.112277135
100	0x3da78684	0.08179954
101	0xbe056e1f	-0.13030289
102	0x3e2ec2c3	0.17066483
103	0xbe19558d	-0.14974041
104	0x3e145c00	0.1448822
105	0x3cd4dd50	0.025984436
106	0x3d276057	0.04086336
107	0x3e48772d	0.19576712
108	0x3dc7a6fc	0.097486466
109	0x3e21c692	0.15798405
110	0x3d926430	0.071480155
111	0x3e8f117c	0.27943027
112	0xbce49912	-0.02790502
113	0xbdd195d9	-0.10233659
114	0x3b2a0756	0.0025944314
115	0xbd15438c	-0.03644137
116	0x3dbb1502	0.09134866
117	0xbdc5411b	-0.096315585
118	0xbe444d1b	-0.19170038
119	0x3d8d0264	0.068852216
120	0x3ddd0740	0.107923985
121	0x3c83ba9f	0.016080199
122	0xbe05dd4f	-0.13072704
123	0x3dadc8f0	0.084855914
124	0xbe2c4f34	-0.16827089
125	0x3e02321b	0.12714426
126	0x3c8a7ea5	0.016906092
127	0x3da40221	0.080082186
128	0x3d6c54bd	0.057698
129	0x3d178462	0.036991484
130	0x3d1ff3b2	0.039050765
131	0x3e86111b	0.26184925
132	0x3e6d26e6	0.2315937
133	0x3db84c37	0.08998912
134	0x3e258e49	0.16167559
135	0x3e1cf253	0.15326814
136	0xbc86e184	-0.016464956
137	0x3e6e4053	0.23266725
138	0x3e156723	0.14590125
139	0x3e86c81c	0.26324546
140	0x3dccaffa	0.09994502
141	0x3dbe59b0	0.0929445
142	0xbcf6269c	-0.030047707
143	0x3db9f185	0.09079269
144	0xbe8e1276	-0.2774846
145	0xbd904d4b	-0.070459925
146	0x3d0e6be3	0.034770858
147	0xbd73e5c3	-0.05954529
148	0x3d42cb25	0.047557015
149	0x3df84ae3	0.121236585
150	0x3d7f38b6	0.062309943
151	0x3caa9e09	0.02082731
152	0xbdabd71d	-0.08390639
153	0x3db47a62	0.08812405
154	0xbdf6959d	-0.12040255
155	0x3e117e44	0.14208323
156	0xbd4959d3	-0.04915793
157	0x3d96225e	0.07330774
158	0x3c068686	0.008210784
159	0x3de3e313	0.11127295
160	0x3db5fe8b	0.08886441
161	0xbdcaa43d	-0.09894607
162	0x3e8ae082	0.2712441
163	0x3e54d820	0.2078557
164	0x3e69115c	0.22760528
165	0xbd362e3e	-0.044477694
166	0xbe1b0ecc	-0.15142363
167	0xbde8b88b	-0.11363324
168	0x3e22afb8	0.15887344
169	0x3dd83e29	0.10558731
170	0xbdcd5caa	-0.1002744
171	0x3de46251	0.11151565
172	0x3e923fd7	0.2856433
173	0x3e584a6d	0.21122141
174	0xbe38669b	-0.18007891
175	0x3de3aee1	0.1111734
176	0x3e1b8fce	0.15191576
177	0x3e090867	0.13382111
178	0x3e873075	0.26404157
179	0x3e16e44b	0.14735524
180	0xbdacf078	-0.08444303
181	0xbdf5a7d0	-0.11994898
182	0x3e47a9d1	0.19498374
183	0x3d34ddc3	0.0441568
184	0x3e667334	0.22504884
185	0xbe3c18ff	-0.1836891
186	0x3e174f8f	0.14776443
187	0xbba72cc9	-0.0051017744
188	0x3dfcfb75	0.12352649
189	0x3df6883c	0.120377034
190	0xbd4c094a	-0.049813546
191	0x3df6716e	0.12033354
192	0x3d281701	0.041037563
193	0x3de9df52	0.11419548
194	0x3d58a07b	0.05288742
195	0x3d18a54c	0.037267014
196	0xbdb5fe96	-0.08886449
197	0xbd823a26	-0.06358747
198	0x3e22b6fd	0.15890117
199	0x3decf7fa	0.11570735
200	0x3e3d3299	0.18476333
201	0xbcd09813	-0.02546314
202	0x3d9bdcb6	0.07610457
203	0xbd38ecdb	-0.045147758
204	0x3e0e414e	0.138921
205	0xbe1b223a	-0.15149775
206	0x3d6967bf	0.056983706
207	0x3d6582d8	0.056032985
208	0xbcb6fdca	-0.022337813
209	0xbe18900c	-0.148987
210	0x3e887a39	0.26655748
211	0x3e85a83b	0.26104912
212	0x3e5abc87	0.2136098
213	0x3d336e02	0.043806084
214	0x3e50395d	0.20334382
215	0x3e526cca	0.20549312
216	0xbdbfe621	-0.093700655
217	0x3dc2d25b	0.09512778
218	0xbdd3c188	-0.103396475
219	0xbc7eeaad	-0.015558881
220	0x3e70d170	0.23517394
221	0x3d241147	0.04005554
222	0x3e4c0013	0.19921903
223	0xbe0540d1	-0.13013007
224	0x3d1ce820	0.03830731
225	0xbd9b0358	-0.07568997
226	0x3e80377b	0.25042328
227	0xbcdce232	-0.026963327
228	0x3dfa02a7	0.12207537
229	0x3b76b89b	0.0037646655
230	0x3cbfc110	0.023407489
231	0xbd9b22a7	-0.07574969
232	0x3e78a8df	0.24283169
233	0x3e5ab76f	0.21359037
234	0xbcc35ff7	-0.02384947
235	0x3d86dd13	0.06585135
236	0x3c050a8d	0.008120191
237	0xbde499f5	-0.111621775
238	0x3e681ce4	0.22667271
239	0x3e2c7073	0.16839771
240	0x3d238bc2	0.039928205
241	0x3e1766c7	0.147853
242	0x3e65d28d	0.224436
243	0x3d77b1cf	0.060472306
244	0xbe0e49eb	-0.13895385
245	0xbd186f21	-0.037215356
246	0xbe568b87	-0.20951663
247	0xbdb9f593	-0.09080043
248	0x3e293a17	0.16526066
249	0x3e5a7ca2	0.21336606
250	0xbd182f13	-0.03715427
251	0x3e225b3b	0.15855114
252	0x3e7d604a	0.24743763
253	0xbe01d7ac	-0.12679929
254	0x3e10e897	0.14151226
255	0x3e915227	0.2838299

layers.1.lin_l.bias f4 [4]
0	0x3de3711b	0.111055575
1	0x3a3743d0	0.0006991001
2	0x3d1be768	0.038062483
3	0x3d972858	0.07380742
