code/gnn/models/training/GCN/multi-graph-export/1/best_model.pt (torch, 5608 bytes, 3 tensors)

layers.0.bias f4 [64]
0	0x00000000	0.0
1	0xbd602c3c	-0.054729685
2	0x3de735fa	0.11289592
3	0xbdb2424f	-0.087040536
4	0x3f922bc0	1.1419601
5	0x00000000	0.0
6	0xbd60ddb2	-0.054898925
7	0x3f26c41c	0.6514299
8	0xbd65cf76	-0.056106053
9	0x3f90e741	1.1320573
10	0x3f7a6566	0.9781097
11	0xbd8ad050	-0.06778014
12	0xbd83ed77	-0.06441777
13	0xbda0cf77	-0.07852071
14	0xbdd6225c	-0.10455772
15	0xbd47f049	-0.04881314
16	0x00000000	0.0
17	0x3f05633a	0.5210453
18	0x3e3da58a	0.1852018
19	0x3ed7ea75	0.42171064
20	0xbd3a1710	-0.04543215
21	0x3f961981	1.1726533
22	0x3f96f521	1.1793557
23	0xbdce899f	-0.10084843
24	0xbd237493	-0.039906096
25	0xbda1aa42	-0.07893802
26	0x3f6e47dd	0.93078405
27	0xbd3908f7	-0.045174565
28	0xbd6d405c	-0.057922706
29	0x00000000	0.0
30	0xbda173a9	-0.078833885
31	0xbdea2349	-0.11432511
32	0x3f7b5510	0.9817667
33	0x00000000	0.0
34	0xbd5e69ca	-0.054300107
35	0x3e8dde3b	0.2770861
36	0x3ecbc16f	0.39796016
37	0x3fabd83e	1.3425367
38	0xbdda4972	-0.1065854
39	0x3fc3d9fe	1.5300901
40	0xbd7de61e	-0.061987035
41	0x3ed6ad92	0.419293
42	0x3efaf4e0	0.4901495
43	0xbda8e2e8	-0.08246404
44	0x3ef57a17	0.4794471
45	0x3e9cf9d8	0.30659366
46	0x3f9db2af	1.2320155
47	0x00000000	0.0
48	0x3f60af71	0.877677
49	0xbc472851	-0.012155608
50	0xbdd8ea9a	-0.10591622
51	0x3f75ee77	0.96066993
52	0xbd801451	-0.06253875
53	0x3ea44319	0.3208244
54	0xbd46c53a	-0.048527934
55	0x3f456d5a	0.7711998
56	0x3e821d68	0.2541306
57	0xbda75010	-0.081695676
58	0x3dcb514f	0.09927618
59	0x3f63bc16	0.8895887
60	0xbd70c26d	-0.05877917
61	0xbde72c8e	-0.11287795
62	0x3f7cc897	0.98743576
63	0x00000000	0.0

layers.0.lin.weight f4 [64, 11]
0	0xbc14abfa	-0.0090742055
1	0xbdc0dd9c	-0.09417269
2	0x3e273821	0.16330005
3	0x3e7ffd94	0.24999076
4	0x3e478fe8	0.1948849
5	0xbe4e6bad	-0.20158263
6	0xbd6042e5	-0.054751296
7	0xbd4f1b65	-0.050563235
8	0x3e665cf2	0.22496393
9	0xbe0b9ce7	-0.13634072
10	0xbe1ab533	-0.15108185
11	0xbd455dfb	-0.04818533
12	0xbde94a96	-0.11391179
13	0x3d353855	0.044243176
14	0x3db03c28	0.08605224
15	0xbdd3b9c2	-0.10338165
16	0x3e0f3a9b	0.139872
17	0x3e5bbf29	0.2145964
18	0x3bb130c7	0.005407426
19	0xbe951f89	-0.29125622
20	0x3e33dea8	0.17565405
21	0x3dfcfc4d	0.1235281
22	0x3e7fa33a	0.2496461
23	0xbc5c0f81	-0.013431431
24	0xbdcefe36	-0.10107081
25	0x3cbe2cb3	0.023214674
26	0x3e6a08c5	0.22854908
27	0x3e358725	0.17727335
28	0xbd0acff6	-0.033889733
29	0xbdfc539f	-0.12320637
30	0x3dc2a96d	0.09504972
31	0x3e1f64ba	0.15565768
32	0x3d3c544a	0.04597882
33	0xbe8e5030	-0.27795553
34	0x3bbe4745	0.005806836
35	0xbe47151a	-0.19441643
36	0xbe149376	-0.14509377
37	0xbdd8f91d	-0.105943896
38	0x3cdac0d9	0.026703285
39	0x3e34c286	0.1765233
40	0xbe98f5a0	-0.29874897
41	0x3d818475	0.06324092
42	0x3e91589a	0.2838791
43	0x3df17308	0.117895186
44	0x3fa57600	1.2926636
45	0x3ee85d77	0.45383808
46	0x3c98d07e	0.018654104
47	0x3f5e8b36	0.8693117
48	0xbd8964d5	-0.06708685
49	0xbf84bf42	-1.0370867
50	0x3e6fc3c2	0.2341452
51	0x3edcecdf	0.43149468
52	0xbec3f17d	-0.38270178
53	0x3f1972bf	0.59940714
54	0xbf78a635	-0.9712861
55	0xbd55d72c	-0.052207157
56	0xbe491aa9	-0.19639076
57	0xbe19d60c	-0.15023059
58	0x3e4f3607	0.20235454
59	0xbe5d8e8e	-0.21636412
60	0xbd856a59	-0.06514425
61	0x3d6531e9	0.0559558
62	0xbe21f6e4	-0.15816838
63	0x3d7bafd2	0.061446972
64	0xbd2d92a1	-0.042376164
65	0x3dd7e816	0.10542314
66	0xbe860a44	-0.26179707
67	0xbca927c2	-0.02064884
68	0xbe3955c6	-0.18099126
69	0x3dd58b8c	0.10427007
70	0x3e46b8f4	0.19406492
71	0xbe1b43f4	-0.15162641
72	0x3dc63139	0.09677357
73	0xbe43e4f8	-0.19130313
74	0xbe67441b	-0.22584574
75	0xbd9d397d	-0.07676981
76	0xbe3ab902	-0.18234637
77	0x3ee5858c	0.4482845
78	0x3d79c547	0.060979154
79	0xbddf7ac0	-0.109120846
80	0x3ecb3870	0.39691496
81	0xbe9e81c7	-0.30958387
82	0xbf62c260	-0.8857784
83	0xbddf6e03	-0.10909655
84	0x3f21998e	0.6312493
85	0xbf107e43	-0.5644266
86	0x3e2a7269	0.16645207
87	0xbf2afdee	-0.66793716
88	0xbceba250	-0.02876392
89	0x3db36448	0.087593615
90	0x3e3bb584	0.18330961
91	0x3df40663	0.11915281
92	0x3e68c135	0.22729953
93	0xbe18384a	-0.14865223
94	0x3cad2517	0.02113585
95	0xbdcecd29	-0.10097725
96	0x3bb7a766	0.0056046722
97	0x3e97a2b0	0.29616308
98	0x3de47f10	0.11157048
99	0x3fb1a046	1.3877037
100	0x3ec7eab9	0.39046267
101	0xbe2dfa3f	-0.16989993
102	0x3f45602c	0.7709987
103	0xbddb1960	-0.10698199
104	0xbf86b1b9	-1.0522987
105	0x3e4658b0	0.19369769
106	0x3e9efdcb	0.31053004
107	0xbf2fd4bf	-0.68684
108	0x3eeffa1c	0.46870506
109	0xbf552656	-0.8326162
110	0x3f512419	0.81695706
111	0x3f030bc0	0.51189804
112	0x3de14b75	0.110007204
113	0x3f4293dd	0.7600687
114	0xbdf22e96	-0.11825292
115	0xbf2cdac4	-0.6752131
116	0x3edd1160	0.4317732
117	0x3ef60c0a	0.4805606
118	0xbf25bc13	-0.64740103
119	0x3ef3ec4d	0.4764122
120	0xbf1da95e	-0.6158656
121	0xbe2da330	-0.16956782
122	0xbe04d99a	-0.12973633
123	0xbe00fa5d	-0.12595506
124	0xbdf0a504	-0.11750224
125	0xbc91df5b	-0.0178067
126	0x3ca3103f	0.019905208
127	0x3e015c58	0.12632883
128	0x3db34e80	0.08755207
129	0xbea4fa7b	-0.3222235
130	0x3e4fbfc3	0.20287995
131	0xbe150f67	-0.14556657
132	0x3e2e048d	0.16993923
133	0xbea3b39a	-0.31972963
134	0xbdf04bac	-0.11733183
135	0x3e85b832	0.26117092
136	0x3e35a320	0.17738008
137	0xbe471aad	-0.1944377
138	0xbe2867f4	-0.16445905
139	0xbd899faf	-0.0671991
140	0x3d1de343	0.03854681
141	0xbe1eaf1d	-0.15496488
142	0xbe908e92	-0.28233773
143	0xbda0f903	-0.07859995
144	0xbe0602ce	-0.13087007
145	0x3da9865d	0.08277581
146	0xbe3395a6	-0.17537555
147	0x3d23e12d	0.040009666
148	0xbe8f2b6d	-0.2796282
149	0x3d0cdff9	0.034393284
150	0xbe59c1ea	-0.21265379
151	0x3b9b31e5	0.0047361725
152	0xbe12c3a0	-0.14332438
153	0xbe913010	-0.2835698
154	0xbe7dd1d8	-0.2478708
155	0xbea9a3f6	-0.33132905
156	0x3d644bc5	0.055736322
157	0x3d96205d	0.073303916
158	0xbd1ee79e	-0.038795106
159	0x3d9de846	0.07710318
160	0x3d428b06	0.047495864
161	0x3ced7f23	0.028991288
162	0xbe3fd1f0	-0.18732429
163	0xbdeadd6d	-0.11468015
164	0xbd4eb6f9	-0.050467465
165	0x3dec364c	0.11533794
166	0xbe9c9696	-0.30583638
167	0xbcaddbe3	-0.021223014
168	0x3dcf8fc3	0.10134842
169	0xbc963c02	-0.01833916
170	0xbd62a58d	-0.055333663
171	0xbd07c49c	-0.033146486
172	0xbe1f97a1	-0.15585186
173	0xbbbe69a7	-0.0058109346
174	0xbe035063	-0.12823634
175	0xbe887f8e	-0.26659817
176	0xbdad53a6	-0.0846322
177	0xbe38c916	-0.18045458
178	0x3da57862	0.08079602
179	0x3e404663	0.1877685
180	0x3e51c8ed	0.20486803
181	0xbe274fbc	-0.1633901
182	0x3e132ae7	0.14371835
183	0x3e3fd1a3	0.18732314
184	0x3b41cb92	0.00295708
185	0x3de3c3c9	0.111213274
186	0x3e18bd73	0.14916019
187	0x3f422a16	0.7584547
188	0x3eb8fe8b	0.361317
189	0x3daf26c1	0.085523136
190	0x3d61bfdf	0.055114623
191	0xbe98749d	-0.2977647
192	0xbee962ff	-0.4558334
193	0x3eae4f3c	0.34044826
194	0x3c03b23e	0.008038102
195	0xbe77f9d2	-0.24216393
196	0xbd3bcd31	-0.045849983
197	0xbe9f44da	-0.31107217
198	0x3d8c88c8	0.068620265
199	0xbe00c252	-0.12574127
200	0x3e4bf1de	0.19916484
201	0x3d56ecf6	0.052472077
202	0xbdeedf2e	-0.11663662
203	0xbe93e00c	-0.28881872
204	0xbe34d14c	-0.17657965
205	0x3ea0685f	0.3132963
206	0xbeae6394	-0.34060347
207	0x3e8cf568	0.2753098
208	0xbde0d726	-0.10978536
209	0x3f39c613	0.7256786
210	0x3e828277	0.25490162
211	0x3e6196ed	0.2203023
212	0x3ed84150	0.4223733
213	0xbdc38bab	-0.09548124
214	0xbecd13bb	-0.40054116
215	0x3deb7809	0.11497504
216	0x3d9e31f9	0.07724375
217	0xbe11811c	-0.14209408
218	0xbd76630c	-0.060153052
219	0xbe0bcbdc	-0.13651985
220	0x3c9ddc98	0.019270226
221	0xbe8ec9d8	-0.2788837
222	0x3dcdde2d	0.10052142
223	0x3e4b80da	0.19873372
224	0x3d89de43	0.06731846
225	0x3e3a4ec2	0.18194106
226	0xbc401a4e	-0.0117250215
227	0xbe3e3f9a	-0.1857895
228	0xbcede2c4	-0.029038794
229	0x3e5cb081	0.21551706
230	0xbe0a4205	-0.13501747
231	0x3faa0e3f	1.3285598
232	0x3f1060d9	0.5639778
233	0xbeac05c9	-0.33598164
234	0x3f51b338	0.8191409
235	0xbdb1da71	-0.086842425
236	0xbf863e01	-1.0487672
237	0x3e9ebc31	0.31002954
238	0x3f1e25f8	0.61776686
239	0xbf037e41	-0.51364523
240	0x3f2b5365	0.66924125
241	0xbf5e654e	-0.8687333
242	0x3f8a1f95	1.0790888
243	0x3f0ce796	0.5504087
244	0xbe52878d	-0.20559521
245	0x3f6dd149	0.9289747
246	0xbcf1bd90	-0.029509336
247	0xbf8cc518	-1.0997648
248	0x3eda5b26	0.42647666
249	0x3f03698f	0.51332945
250	0xbf5955f7	-0.84896797
251	0x3ed031bb	0.4066294
252	0xbf32d10c	-0.6985023
253	0x3da92679	0.08259291
254	0xbcc86247	-0.024460925
255	0xbe5a1105	-0.21295555

layers.1.lin.weight f4 [1, 64]
0	0x3e692d1e	0.22771117
1	0xbc912378	-0.017717108
2	0x3d7876c1	0.060660128
3	0xbe1bb8cd	-0.15207215
4	0x4014782a	2.3198342
5	0xbe624610	-0.22097039
6	0xbe5bb46d	-0.21455546
7	0x3f12034f	0.570363
8	0xbd963773	-0.07334795
9	0x404d9f96	3.2128654
10	0x401c2a0b	2.440066
11	0xbe5f0f5b	-0.21783201
12	0x3d4d66c8	0.050146848
13	0x3cf302be	0.029664394
14	0xbd85c305	-0.06531338
15	0xbe188a8c	-0.14896601
16	0xbdf567e7	-0.119827084
17	0x3f0d71b0	0.552516
18	0x3e3c96ba	0.18416873
19	0x3ef76620	0.48320103
20	0x3ca6229a	0.020280171
21	0x4057430f	3.363468
22	0x403cee80	2.952057
23	0x3d19f228	0.037584454
24	0x3d7facb7	0.062420573
25	0xbe43ab1c	-0.19108242
26	0x3f7e6f87	0.9938893
27	0xbd4454ad	-0.047932316
28	0xbd24f1db	-0.040269714
29	0xbde8ebad	-0.113730766
30	0x3c22cb3c	0.00993615
31	0xbde3e031	-0.111267455
32	0x3fcb0de3	1.5863613
33	0xbc3c8b0b	-0.01150776
34	0xbc6dd1bc	-0.014515337
35	0x3ec07019	0.37585524
36	0x3f10ae0f	0.5651559
37	0x407a3487	3.909456
38	0xbc415baa	-0.01180164
39	0x4097b0b3	4.7403197
40	0xbe0ee56b	-0.13954704
41	0x3f3bf137	0.7341494
42	0x3f44afe6	0.768309
43	0x3d0cda45	0.034387846
44	0x3f28824f	0.65823835
45	0x3efe9657	0.49724075
46	0x3ffe3746	1.9860618
47	0xbdd75637	-0.10514491
48	0x3f75e347	0.9604992
49	0x3ca28bdb	0.019842079
50	0xbe312496	-0.17299113
51	0x3f77af67	0.9675202
52	0xbd28cf90	-0.041213572
53	0x3e9ca0f8	0.3059156
54	0x3d3096c1	0.04311252
55	0x3fd26527	1.6437119
56	0x3e4b30a1	0.19842769
57	0xbc6ba9c8	-0.014383741
58	0x3d0d8a2a	0.03455559
59	0x3f366e98	0.712625
60	0xbd8bd6d6	-0.06828086
61	0xbd6e6973	-0.058206033
62	0x3ff3d6e7	1.9049958
63	0x3db03148	0.0860315
