code/gnn/models/training/SAGE/multi-graph-export/6/best_model.pt (torch, 1961 bytes, 2 tensors)

layers.0.lin_l.weight f4 [1, 11]
000000 22 48 df be 2d 89 f7 bf 88 f6 2a be ce 44 b0 3f
       -0.4360972 -1.9338738 -0.16695607 1.3770998
000010 7c 77 65 40 d9 7a a1 3f 6b d4 88 3f 44 46 1d 3f
       3.5854177 1.2615615 1.0689825 0.6143534
000020 ab d2 4f bf 52 ec 8a 40 7e 4c 77 40
       -0.8118083 4.3413477 3.8640437

layers.0.lin_r.weight f4 [1, 11]
000000 c0 9d 92 40 cc 2f 5f c0 db f1 9c 3e 20 a9 97 3e
       4.5817566 -3.4872923 0.3065327 0.2962122
000010 58 2d ea 3d f5 3d 24 40 40 81 16 c0 d9 9f 41 40
       0.1143443 2.5662816 -2.3516388 3.0253813
000020 fd fa 16 40 f0 38 70 c0 ea d6 f1 c0
       2.359069 -3.7534752 -7.5574846
