code/gnn/models/training/MLP/export/2/best_model.pt (torch, 6248 bytes, 3 tensors)

lin1.weight f4 [64, 14]
00000000: 79ca d53e 1207 f5be c725 9bbe fb49 aa3d
00000010: e37c 9c3e 32d3 21be 7d13 d3be 9e47 dfbf
00000020: b20c adbb eb48 dabd 8795 40bf 0d6b a7bc
00000030: 6ac2 22be 9648 d1bf c345 28bf 3445 d5be
00000040: 217c 793e 922b 68be de32 c43d 49d0 883e
00000050: 2e23 313e 2b5f c7be a6d0 39bd 4499 6d3e
00000060: 0f9e a5bc 78b5 a2bd 0d14 aa3e 5763 19be
00000070: 9284 3bbe 0ee5 3c3e b32e bbbe f1bd 15be
00000080: a2ac 9c3e 6ee6 08bf bca4 ffbe e64d f3bd
00000090: 354a 863e 6160 55be b0cd 30bf 0655 953d
000000a0: 3851 8b3d 99ee 20bf f772 ac3d abf4 e83e
000000b0: b8b7 2abd cb04 cebc 11bd f0be c45b 633f
000000c0: 269b be3e 4c91 823e 40fc b2be 6774 0c3f
000000d0: fa2d 90bd 8086 27bf 1389 94be 81c3 953e
000000e0: 231c 2e3f c2de 103e 60a1 c73e 9229 5abb
000000f0: 1bd8 013e 9419 92bd 64b9 023d e4bb f1bc
00000100: 2736 d23e 53cb 2fbe 719d 0c3f 26b3 d4be
00000110: 5040 1e3e 030e 2940 8c71 c4be bb7e 823d
00000120: 80bc dbbe 1887 bbbd c412 9b3e 2251 3abf
00000130: b4c8 0fbf 2915 51bf a3c2 4f3e 7e86 32be
00000140: 8663 dfbe f079 863e e1c5 2cbe 0939 83bf
00000150: 3f86 c6bc 9a5f b6bd 11c3 b0be a81e 273d
00000160: 9fc4 333e 4d5b 17bf 4398 d5be ece3 87be
00000170: c306 9d3e 006f 40be 7b35 d2be b643 0a3c
00000180: 9b8c 073e 0cc9 71bf e990 34be 44a1 0f3f
00000190: 4c16 52be 2310 2f3e 28c3 e3be c266 273f
000001a0: 61c7 2a3f b7af 1e3c 797e 9fbd 2a98 e23e
000001b0: c34f 9cbe b56c 27bf 5542 10be 8dda 4a3e
000001c0: 4a61 31be ca85 053e 08fc b8be 7f4e 013e
000001d0: 19a8 ac3e e8f7 06bf 998b 10bf e8d8 bfbc
000001e0: 20e5 ec3e 7889 14be 79b6 34bf e887 cf3d
000001f0: 4dcf 503e 5ab7 24bf 1d29 fbbd 8372 143e
00000200: 91fd e0be 3c18 6fbd a382 243e 7fd7 33bf
00000210: 67c9 1bbf d022 f8be 2a18 af3e 9145 7dbd
00000220: bb2b 31bf cbb6 36bc a3aa 013f 31fe 7dbf
00000230: b6aa dfbe 18b0 ca3e 79b2 3a3f 895e 8a3e
00000240: 3ebe be3c a2a3 0f3f 0d5d 1c3e 5e24 033c
00000250: 51eb 2f3f c6a3 8bbe dda6 b33e 26e0 42be
00000260: 869a 583e 4e70 c5be 9b33 11be ebee 833e
00000270: c798 d3be 8767 34be 39bb e03e 833b 02bf
00000280: 4425 1dbf 5591 433d 5476 a03e b50a cdbe
00000290: 7984 ffbe 0bac 633e 673e b13d d180 47bf
000002a0: bc64 55be 042c 90be ae89 cb3e 4bb2 1b3e
000002b0: c730 5f3d abac 2f3e 6a64 213d 0b40 36be
000002c0: f909 9bbe a48b d43d f2ea cc3e 2f3f 843e
000002d0: d6c0 c93d ffb9 3a3e 6a7f 0d3d d958 be3e
000002e0: 1cbe 46be 30a1 203e 2682 6dbe 93cc 213f
000002f0: da2e 053f 1270 7f3e 6e00 7abe 155f 773e
00000300: ee20 043e a27a dbbe 594c 9ebe bb6f 2d3e
00000310: dfa7 d73e 65d6 5c3e 4492 fd3e ab4e 74bc
00000320: 4a59 2bbc 9f3d 8abd 1567 3f3d 9688 fdbe
00000330: 16a7 d53e 8025 50be 20e6 073f a815 11be
00000340: 8699 643e 5778 373f 3eb7 f43d 3ef2 043f
00000350: c17f 19bc ce51 bc3d 9751 2abf e077 823f
00000360: d744 ce3e e189 2f3d d52c a8be 22cd 313f
00000370: 08ac adbe 6bbf 69bf 3f81 9bbe cba1 6a3e
00000380: ccff 2bbf a5f6 a8be 758f 483e 6972 80be
00000390: e243 3e3e 5d51 e63e 26a5 d13e c9d6 b0be
000003a0: a0bb e5bd ffcb 8c3e 7e80 07be 9678 5fbe
000003b0: 64d5 9b3e 6488 98be 6455 bb3c c408 06bf
000003c0: 5ee7 02bf 52c7 373e 7935 73be 9da0 f8be
000003d0: 6c1f 943f e5cb a43e 8ee3 a43e 6d17 4bbf
000003e0: 5ec6 d83e 4e69 c9be 3a0f 42be 16c7 913e
000003f0: 69b4 bd3d dcff a2be 0c84 cfbe dcc5 283d
0.41756037 -0.47856957 -0.3030226 0.08314892 0.3056403 -0.15803221 -0.41225806 -1.7443731
-0.0052810544 -0.10658439 -0.7522816 -0.020436788 -0.15894476 -1.6350276 -0.6573145 -0.4165436
0.24363758 -0.22672871 0.09580015 0.2672141 0.17298576 -0.38939795 -0.045365 0.23202997
-0.02021697 -0.07944769 0.33218423 -0.14979301 -0.1831229 0.18446752 -0.36559066 -0.14623238
0.30600458 -0.5347661 -0.4993037 -0.11880092 0.2622849 -0.20837547 -0.69063854 0.072916076
0.068026006 -0.6286407 0.08420365 0.45499167 -0.041679114 -0.02514877 -0.47019246 0.888119
0.37227744 0.25501478 -0.34958076 0.54865116 -0.07040019 -0.65439606 -0.2901083 0.2925072
0.68011683 0.14147475 0.38990307 -0.0033288938 0.12680094 -0.07133785 0.031915084 -0.029508539
0.4105694 -0.17167406 0.54927737 -0.4154293 0.15454221 2.6414802 -0.3836788 0.06371828
-0.42917252 -0.091566265 0.30287755 -0.7278005 -0.56165624 -0.8167291 0.20289092 -0.17434117
-0.43630618 0.26264906 -0.1687236 -1.0251781 -0.024233935 -0.08904953 -0.34523824 0.04080072
0.17555474 -0.5912369 -0.4171773 -0.26541078 0.3066922 -0.18792343 -0.41056427 0.008438995
0.1323723 -0.944474 -0.17633404 0.56105447 -0.20516318 0.17096 -0.4448483 0.6539117
0.6671048 0.009685448 -0.077877946 0.44256717 -0.30529603 -0.6540025 -0.14087804 0.19809933
-0.17322269 0.13039318 -0.36129785 0.126276 0.33721998 -0.52722025 -0.5646301 -0.023418859
0.46268559 -0.14505565 -0.7059093 0.10133344 0.20391579 -0.6434227 -0.12263701 0.14496808
-0.43943456 -0.05837272 0.16065459 -0.70250696 -0.6085419 -0.4846406 0.34198123 -0.06183392
-0.6920735 -0.01115198 0.50650996 -0.9921599 -0.4368493 0.39587474 0.7292858 0.2702525
0.023284074 0.5610906 0.15269871 0.008004276 0.6871844 -0.27273387 0.35088244 -0.19030818
0.21152696 -0.38562244 -0.14179842 0.25768217 -0.41327497 -0.17617618 0.4389284 -0.5087206
-0.6138499 0.04774602 0.31340277 -0.4004723 -0.49905756 0.22233598 0.086544804 -0.77930933
-0.20839208 -0.2815858 0.3975348 0.15204732 0.054489877 0.17155711 0.039402403 -0.17797868
-0.30281046 0.10378197 0.40023 0.25829455 0.09851234 0.18235014 0.03454534 0.3717716
-0.19408458 0.15686488 -0.23194179 0.6320278 0.52024615 0.24945095 -0.24414226 0.24157365
0.12903187 -0.42867 -0.30917624 0.16937153 0.42120263 0.2156616 0.49525654 -0.014911334
-0.0104583 -0.067500345 0.046729166 -0.4951827 0.4172904 -0.20326805 0.5308552 -0.14168417
0.2232419 0.71668 0.11949013 0.5193213 -0.009368838 0.091952905 -0.66530746 1.0192833
0.40286896 0.0428561 -0.32846704 0.6945363 -0.33920312 -0.91307706 -0.30372044 0.22913282
-0.6718719 -0.33000675 0.19585975 -0.25087288 0.18580583 0.4498395 0.4094631 -0.34538868
-0.11217427 0.27499387 -0.1323261 -0.21823344 0.30436242 -0.29791558 0.022867866 -0.52357125
-0.5113429 0.17947128 -0.23750867 -0.48560038 1.1572089 0.3218681 0.3220486 -0.7933262
0.42338842 -0.39338154 -0.18951121 0.28472203 0.09262926 -0.3183583 -0.4053043 0.04120432

lin1.bias f4 [64]
00000000: aa0a b1be 69f9 803e 28dd b0bd e2ce 2fbe
00000010: e1bc 843e c5b8 50be 54bd d6bd 1241 8dbd
00000020: 7b63 ffbd 1808 47be 0cce d63d 3f4b 2cbe
00000030: 4f12 db3e bcf6 973d c38b 283e e7de 6dbd
00000040: 53f4 eb3e a482 86bd 9929 f33d 0958 d8bd
00000050: 4a1c 73be 45f0 46bd ebea 163e 7f32 7abd
00000060: 8afc ca3e bc52 8b3e 68a3 14bd cc46 3ebe
00000070: 5d5b 1dbe 02b3 2a3e d709 64be ad4c 9e3e
00000080: e9d0 003e 7726 62be d3ed a23e 7998 cb3d
00000090: 002e 67bd c4c4 18be 3663 b63e 7f6f b23c
000000a0: 08ee 053e 7fc6 bf3d bf90 bc3d 1243 22bd
000000b0: 67a2 853e b819 c4bd 0fc1 45be 05d4 2ebe
000000c0: 2995 2d3e fa51 7fbe 3527 8a3c c1b6 bb3d
000000d0: 431d 963c 0695 6cbe bf0a fbbe 9c59 9bbe
000000e0: 9ae3 183d db62 edbd 3bb3 a2be 2dcd bc3d
000000f0: 7111 033e 1eca 443e 7a0c 873d 126e 32be
-0.3457845 0.25190285 -0.08635932 -0.17168763 0.25925353 -0.20382984 -0.1048533 -0.06897177
-0.12470146 -0.19436681 0.10488519 -0.16825579 0.42787406 0.07420108 0.16459565 -0.058073904
0.46084842 -0.065678865 0.118731685 -0.105636664 -0.2374126 -0.048568983 0.14738052 -0.061083313
0.39645797 0.2721156 -0.03628865 -0.18581694 -0.15366884 0.16669849 -0.22269379 0.30917874
0.12579693 -0.22084986 0.3182207 0.09941191 -0.056440353 -0.1491881 0.35622567 0.021781681
0.13079083 0.09364032 0.092072956 -0.039614744 0.26100466 -0.09575218 -0.19311927 -0.17073067
0.16951431 -0.24933615 0.016864398 0.09165717 0.0183245 -0.23103723 -0.49031636 -0.30341804
0.037326433 -0.11591121 -0.31777367 0.09218822 0.12799622 0.19217727 0.065941766 -0.17424801

lin2.weight f4 [1, 64]
00000000: ee3d afbf ead4 be3e 0923 f9be 0246 1abf
00000010: 5937 093f 2188 61bf 6f13 bbbe 5156 40bf
00000020: 8d12 28bf 4309 66bf 7784 283f 5d7e 22bf
00000030: 36bd 7a3e d667 85be 9268 b73e ae9c 61bf
00000040: aab0 c93e 455b c5bf 7440 34bf e2ff 2abf
00000050: c99a 1ebf 39ce 91bf c9bf 0b3e bc37 53bf
00000060: 46e9 ce3e eed4 063f fd86 2cbf 02fe 34bf
00000070: 35fe 17bf 4bbb 633e 7224 183f 652b 813e
00000080: 1595 37bf d7d3 21bf a37d 8b3e aded 35bf
00000090: 5bcb 43bf 6f20 423f 5d70 263e bb95 d9be
000000a0: 3763 70be 7f99 39bf 1b5c 4cbf dad2 a0bf
000000b0: e636 183f 373f 3dbf f3fc 013f 428e 27bf
000000c0: fd04 b53e 960f 3f3f 16da e2be 1f03 63bf
000000d0: f810 a7bf 5537 7fbf e3ca a43f 7621 3bbf
000000e0: 91b7 a8be 827b bdbe 6a5c 45bf c41a ea3e
000000f0: 6fa4 1d3f 00f6 d83e 0512 6cbe 4617 23bf
-1.3690774 0.37271816 -0.48659542 -0.60263073 0.5360008 -0.8809834 -0.36538264 -0.7513171
-0.65653306 -0.8985788 0.65827125 -0.63474065 0.2448624 -0.26055783 0.35821968 -0.881297
0.39392596 -1.5418478 -0.7041085 -0.66796696 -0.61954933 -1.1391059 0.13647379 -0.8250692
0.40412349 0.52668655 -0.67393476 -0.70700085 -0.59372264 0.22239415 0.5943061 0.2522842
-0.71711856 -0.63213867 0.2724429 -0.7106579 -0.7648217 0.7583074 0.162538 -0.42497048
-0.23475347 -0.7249984 -0.7982804 -1.2564347 0.5945877 -0.73924583 0.50776595 -0.65451443
0.35355368 0.7463316 -0.4430701 -0.8867664 -1.3052053 -0.99693805 1.2874416 -0.7309793
-0.3295255 -0.3700829 -0.7709414 0.45723546 0.6157903 0.42375183 -0.23053749 -0.6370739
