code/gnn/models/training/SAGE/multi-graph-export/8/best_model.pt (torch, 1961 bytes, 2 tensors)

layers.0.lin_l.weight f4 [1, 11]
-0.1875058 -1.1231774 -0.47465158 1.090836 2.8460205 0.94530976 0.8585332 0.42144704
-0.5441496 4.1785827 3.5473075
00000000: 8501 40be 47c4 8fbf 8805 f3be 84a0 8b3f
00000010: 3325 3640 d2ff 713f d5c8 5b3f e8c7 d73e
00000020: 634d 0bbf f3b6 8540 1607 6340

layers.0.lin_r.weight f4 [1, 11]
3.1392918 -3.39016 -1.4515191 0.20310639 -1.1719596 1.3900416 -1.2273844 0.7449118
0.8639668 -4.077589 -7.2880087
00000000: 28ea 4840 62f8 58c0 61cb b9bf 1ffb 4f3e
00000010: c602 96bf e2ec b13f ef1a 9dbf 8ab2 3e3f
00000020: ee2c 5d3f 9c7b 82c0 5e37 e9c0
