code/gnn/models/training/GAT/multi-graph-export/3/best_model.pt (torch, 36258 bytes, 15 tensors)

layers.0.att f4 [1, 4, 32]
000000 ee 4f f8 bb f5 95 9c bd 46 e7 a8 3e a3 73 8b be
       -0.0075778877 -0.076457895 0.32988948 -0.2723666
000010 93 bb 17 3f 3b 0a 3b bd a4 7b 41 be b9 7a 35 3f
       0.5927059 -0.045664053 -0.18894821 0.70890385
000020 9a ae 4f 3d 78 9f 51 3e 28 cd f2 bd 12 d9 fe 3d
       0.050703622 0.20470989 -0.11855537 0.124437466
000030 2f ac 2a 3e dd fe 60 3e 6c ce d0 3e 92 f2 ca 3e
       0.16667245 0.21972223 0.40782487 0.3963819
000040 64 30 07 3e 37 0c e3 be df aa 78 bc 5e 89 4a 3e
       0.13202053 -0.44345257 -0.015177458 0.19778964
000050 d6 c2 bb 3e 9e ca 50 3e d6 ee 26 bf b8 75 8a 3c
       0.36672086 0.20389792 -0.65208185 0.016901836
000060 da 58 69 be 73 a3 26 be 5d 3a 4e be c8 e6 dd be
       -0.227878 -0.16273288 -0.20139451 -0.43340135
000070 4f 0b ef bc c2 cf 14 bf db 5c d3 3e 28 bc cd be
       -0.029180197 -0.58129513 0.4128178 -0.40182614
000080 ec 35 89 3e 81 07 00 3f 15 e1 bf bc b8 ff 0d 3f
       0.26798952 0.5001145 -0.023422757 0.5546832
000090 53 76 45 be db 95 34 3e 8a 5c 13 3d 8d b3 60 be
       -0.19283418 0.1763529 0.035976924 -0.21943493
0000a0 31 b6 b3 bd 0f b6 8e 3e 0b a2 09 be fa be 5f 3d
       -0.08774985 0.27873275 -0.1344072 0.05462549
0000b0 52 ec 7e be cf e0 8e 3d 2d 9d 18 be c2 54 aa be
       -0.24894837 0.069764726 -0.14903708 -0.3326779
0000c0 25 27 5c bd 5c 05 09 be 50 18 14 be 6b b2 dc be
       -0.05374827 -0.1338095 -0.144624 -0.43104872
0000d0 ce 39 16 3e 82 15 7b 3d 9c 22 0f be 1a 29 86 3e
       0.14670488 0.06129981 -0.13978046 0.26203233
0000e0 81 6f bd bd bc 3f 73 be c5 34 38 bd 19 1d 86 be
       -0.09249783 -0.23754781 -0.0449722 -0.26194075
0000f0 78 62 8d 3d 54 4b f5 be f8 f6 53 be 37 5c 98 3e
       0.06903547 -0.47909033 -0.2069968 0.29757854
000100 3a c1 f9 bc e0 5a cf 3d 0e 8a 91 3e 73 72 b3 be
       -0.030487645 0.10124755 0.2842564 -0.35048255
000110 67 a5 d2 bd cd f1 ba bd e9 e1 a7 3e 51 c4 b4 be
       -0.10285454 -0.09128151 0.32789543 -0.35306028
000120 46 72 34 bd 71 b2 22 3f 87 57 fd 3e fc bc 99 3d
       -0.044054292 0.6355353 0.4948084 0.07506749
000130 06 b8 0a 3c 7c c2 ef be 36 f4 af 3e cc 19 c5 3e
       0.008466726 -0.46828067 0.34366006 0.38496244
000140 f0 bb b4 bd 81 80 73 be c4 3d ce 3e cb 4d 5b 3d
       -0.08824909 -0.23779489 0.40281498 0.053540986
000150 99 67 10 bf 6f 3b 09 be 94 7f 70 bd 5a 83 82 3e
       -0.5640808 -0.13401578 -0.058715418 0.25490838
000160 04 4e 24 3e a0 b8 99 bd e1 3d 5d 3e 08 b2 50 be
       0.16045386 -0.075059175 0.21605636 -0.20380414
000170 f7 a2 9a be f8 bb 19 bf e3 e1 21 be c5 bf 52 be
       -0.30202457 -0.6005244 -0.15808825 -0.20580967
000180 2f d3 6c bf 5a 75 7b bd 42 bd d1 3e 27 a8 15 3f
       -0.9250974 -0.061391212 0.40964705 0.58459705
000190 62 ca a4 3d fc 84 9c 3e 75 10 fe 3d 37 2b 73 3e
       0.08046414 0.3057021 0.12405483 0.23746954
0001a0 66 09 8e 3e 04 33 16 bd 4f c1 78 bc 0d 46 95 3e
       0.27741545 -0.036669746 -0.015182807 0.29155007
0001b0 4a f6 24 bf 3e 8b 97 bd 34 d3 b2 3e e3 d1 06 be
       -0.6443831 -0.07399605 0.3492676 -0.13166003
0001c0 29 72 80 bd 3d a3 2d 3e 4a de 3b bd 62 f3 2f be
       -0.06271774 0.16956802 -0.04586629 -0.17182687
0001d0 59 75 16 bf fe 3e f0 3d 11 b7 53 be fc 38 f3 be
       -0.5877281 0.11730765 -0.20675303 -0.47504413
0001e0 6e 9f 06 bd 89 af 48 bd db 37 f7 bd 02 28 ce bd
       -0.032866888 -0.04899553 -0.120712005 -0.10066225
0001f0 53 13 0e 3e b3 3a c1 3d ca 39 0b be 30 4d f5 3e
       0.13874559 0.09435024 -0.13596264 0.47910452

layers.0.bias f4 [128]
000000 6c b7 39 3f 9c ee d8 3d 6b aa 6d bd 9c 59 47 bd
       0.72545505 0.10592386 -0.05802385 -0.048669443
000010 68 ab fc 3d dc 80 03 be f6 d7 26 3e 8f ab ba 3d
       0.12337381 -0.12842125 0.1629332 0.091147535
000020 ad 1e 48 3e 2d ec ad bd 6c a0 40 bd 2d a1 d3 3d
       0.19542952 -0.084923126 -0.04702799 0.10333476
000030 93 17 cc 3d ab 8b 34 3d 53 78 74 3e 6a de 04 be
       0.09965434 0.04407851 0.23874025 -0.12975469
000040 60 28 d8 3d cc ef 4b bd d5 0a a2 3d 3e c1 fc bc
       0.10554576 -0.049789235 0.07912222 -0.030853864
000050 bf 25 87 3e 87 58 05 be 7a 8a 65 3e 48 58 bd 3e
       0.26395985 -0.13022052 0.22416106 0.36981416
000060 87 5e a5 3c 3a 60 aa 3e c3 e8 99 3d fd 28 33 bd
       0.020186676 0.3327654 0.07515099 -0.04374026
000070 12 86 47 bd 4f f7 56 bd 35 d2 2e 3e c9 4b 32 3d
       -0.048711844 -0.052481946 0.17072375 0.043529306
000080 37 dc a1 3e c5 ff 6d bd 17 71 9f bd 9b 1d 2c 3e
       0.31613323 -0.05810525 -0.07785242 0.16808169
000090 0e da 8a bd 12 30 cd 3d 5f 75 b9 3d 33 b6 7c 3e
       -0.06779872 0.10018934 0.0905559 0.24678878
0000a0 51 da aa 3e b6 db d8 3e a6 ac 43 3e fb f6 a4 3c
       0.33369687 0.42355126 0.19108829 0.0201373
0000b0 04 97 20 3e 69 91 d7 3c 7f 72 fe bc b6 43 04 3e
       0.15682608 0.026314454 -0.031060455 0.12916455
0000c0 d8 66 84 bd cc 6c d4 3d 24 7f e4 3d ed 2f be bc
       -0.064649284 0.10372314 0.11157063 -0.023216212
0000d0 d8 3c 4b 3e 4f 15 9d bd 66 72 a4 bd 55 83 02 be
       0.19847429 -0.0767008 -0.08029632 -0.12745412
0000e0 25 a3 3a bd 0b c8 01 3e 90 54 59 bd a0 de 8c bd
       -0.045565743 0.12673967 -0.05305916 -0.068784
0000f0 1f 62 81 3e da a3 e6 3d 2b 3c ee bc 81 9b 9f 3e
       0.25270173 0.11261721 -0.029081425 0.31173328
000100 25 c3 eb 3d 90 50 1b bd 59 47 f1 3c 43 1b ad 3d
       0.1151183 -0.037918627 0.029452967 0.084524654
000110 62 71 7e bd 1d 02 6d 3d 15 88 94 bd c6 2f 8a 3d
       -0.06211985 0.057863344 -0.07252518 0.06747393
000120 75 9f b9 3d 4d 65 29 bd 27 db a8 3d b5 c9 76 bd
       0.09063617 -0.041356374 0.08244925 -0.060250957
000130 77 61 14 bd 2e 69 8b bc b3 06 be 3d ce de c0 3d
       -0.036225762 -0.017017927 0.092786215 0.094174966
000140 9f 9e 29 3d 52 c3 99 3d 85 43 02 bc 4e a2 9a 3e
       0.04141104 0.075079575 -0.007950668 0.30201954
000150 81 ca 96 bc d3 69 68 3d a6 2a 40 3d ab 6c 05 3e
       -0.018407108 0.056741547 0.046915673 0.13029735
000160 bb a1 7b bd a8 a2 00 3d eb f2 5d bd b6 4c 63 3d
       -0.061433535 0.03140512 -0.054186743 0.05549308
000170 58 26 c0 3d ad 2b b1 3c e0 33 e9 3d d5 a7 18 bd
       0.093823135 0.021627272 0.113868475 -0.037269432
000180 5b 85 0f be 0a a5 5b bd d0 b7 f1 3d 43 f5 5c 3d
       -0.14015715 -0.05362419 0.118026376 0.053944837
000190 5c 36 c0 bd b0 86 94 bd 33 4e ea bc 54 35 86 bd
       -0.09385368 -0.07252252 -0.028601741 -0.0655314
0001a0 05 0a c2 3e 56 47 4f 3d 4e c9 fe 3c 7b 06 92 3d
       0.3789827 0.05060514 0.031101849 0.07130142
0001b0 66 84 44 3d 45 29 9b 3d 68 08 80 3c 8e 5a 27 bd
       0.047977827 0.07576231 0.015629008 -0.040857844
0001c0 2a ff 1a bd 7b aa 9c bd 9c a0 a2 3d b1 f9 1f bd
       -0.037841 -0.07649704 0.0794079 -0.039056484
0001d0 28 eb 29 3f fb 7e 06 3d 9d 3e c4 3d 05 cf 41 3d
       0.66374445 0.03283594 0.09582255 0.04731657
0001e0 5c 84 85 3d 60 70 f6 bc 2e d7 e2 3d fc c2 84 3d
       0.06519386 -0.030082881 0.110761985 0.06482503
0001f0 b1 e6 86 3d 9a 52 6b 3d cc d5 2c 3d 82 14 5a 3d
       0.0658697 0.057451822 0.04219608 0.053242214

layers.0.lin_l.weight f4 [128, 11]
000000 f1 65 01 3f 90 0c 7b 3f 04 de c9 3d 97 bf 57 bf
       0.50546175 0.98066044 0.09856799 -0.8427672
000010 d3 78 31 3d 03 05 32 3f 3a 4f 76 3e d8 19 ff bd
       0.043328118 0.695389 0.2405366 -0.12456101
000020 fe 8f 81 3f b3 c5 47 be bd 8a eb 3e f5 94 7d 3e
       1.0122068 -0.1950901 0.46004286 0.24763854
000030 17 22 02 bc ab 6c 45 3e 03 8e 03 3e 20 01 04 be
       -0.007942698 0.19279735 0.12847142 -0.12891054
000040 ee 3b d5 3d c0 64 9f be fd aa 9d bd 0b e7 65 3e
       0.10411821 -0.31131554 -0.07698629 0.22451417
000050 3d b5 3f be d2 9d c2 3e 08 c0 e4 bd 53 b8 82 3e
       -0.1872148 0.38011032 -0.111694396 0.25531253
000060 90 1c ae 3b 45 ec 40 be 3b b8 42 bd cb a0 6d be
       0.0053134635 -0.1884013 -0.047538977 -0.23205869
000070 e5 d1 11 3e eb 05 c3 bc 21 73 77 bb 8e d4 30 3d
       0.14240225 -0.023806533 -0.003775783 0.043171458
000080 0a de 96 be 83 99 f5 bc d5 9d 8f bd 88 15 c7 3d
       -0.29466277 -0.029980427 -0.07012526 0.09720904
000090 c0 c8 65 3e b4 89 4b 3d ec 77 8c be 94 11 86 3d
       0.22439861 0.04969187 -0.27435243 0.065463215
0000a0 f8 cb 11 be a9 73 84 be 54 ab d6 3d b5 3b 19 be
       -0.14237964 -0.25869492 0.10481897 -0.14964183
0000b0 0d f7 da be 2c 7f 73 bf 21 c8 44 3e 5a a2 c7 bd
       -0.4276661 -0.95115924 0.19216968 -0.09747763
0000c0 a3 27 28 be 80 0b 4a 3e 05 22 82 bd 73 a5 e7 3c
       -0.1642137 0.1973095 -0.06354145 0.028277135
0000d0 94 0b 0d bf fc 61 ed 3e 8b 81 5f bd 5c 01 a5 be
       -0.5509579 0.4636382 -0.0545669 -0.322276
0000e0 05 31 cf be a0 48 67 bd 48 a8 ff 3d b7 aa e5 3b
       -0.40467086 -0.056465745 0.12483269 0.007008876
0000f0 24 83 a5 3d e4 66 b8 3b f2 b1 9d bd ea 58 2a 3d
       0.08081654 0.0056275 -0.07699956 0.0415887
000100 9e 35 f0 bd 38 23 d3 bc ff 0d 2d be a6 a0 a6 be
       -0.11728977 -0.02577363 -0.1689987 -0.3254444
000110 d6 68 7b 3c 5c 37 29 3e 69 a1 06 bd 5b 25 c1 bc
       0.015344819 0.16525024 -0.032868776 -0.023577383
000120 d4 01 b9 be 1a fd 8b 3e 11 7b 43 be ea c2 64 be
       -0.36134207 0.2734154 -0.19089915 -0.22339979
000130 cb 3d 29 bd df c6 2e bf be 6f e2 be d1 05 96 3d
       -0.041318696 -0.68272203 -0.44225878 0.07325328
000140 de 64 63 bd 2a 53 25 be 00 7a 6c ba 01 b0 0a be
       -0.055516116 -0.16145006 -0.0009020865 -0.13543703
000150 4f a3 0d 3e da cc f7 be 1d 2b 52 3f ae d0 8c be
       0.13831829 -0.48398477 0.82097036 -0.2750296
000160 14 0e 53 3d 67 17 3a be 6f 34 23 3e 40 c0 08 3d
       0.051527098 -0.1817299 0.1593797 0.03338647
000170 67 f7 10 3e 0b 38 25 3e c1 5a 41 be cf f6 cf bc
       0.14156877 0.1613466 -0.18882276 -0.025386242
000180 3f d3 37 be db ce 00 be fa d5 ce bd cc 48 96 3e
       -0.17951678 -0.12578909 -0.100994065 0.29352415
000190 56 55 89 3e a8 a6 fb 3e c8 42 e5 be 80 11 90 be
       0.2682292 0.49150586 -0.44777513 -0.2813835
0001a0 c6 c9 a7 be c6 ef 20 3f 15 a8 03 bf 7b 71 31 3d
       -0.32771128 0.62865865 -0.5142835 0.043321114
0001b0 9e da 51 bd bb 92 85 be ee 8a 44 3d c2 15 64 3d
       -0.05123388 -0.2608851 0.047984056 0.055684812
0001c0 f7 dd 94 bd d2 b8 86 3d d3 cb df 3c 8b 0b 05 be
       -0.07268899 0.065782204 0.02731887 -0.12992685
0001d0 a1 8c 96 bd 0a 94 39 3b 6f e3 aa 3d a1 85 22 be
       -0.073510416 0.0028316998 0.08344161 -0.15871288
0001e0 9e 47 fe 3d 7d c1 6e be ab 2b af be 4d 03 dc 3c
       0.12416004 -0.23315997 -0.34213004 0.026857043
0001f0 04 58 54 3d e7 4c 31 be 94 26 0f 3e ba a8 77 be
       0.05184175 -0.17314492 0.1397956 -0.24185458
000200 49 fd c8 3e 1b cd b9 be 53 aa 25 bd 19 fd e2 bd
       0.3925574 -0.36289296 -0.040445637 -0.11083431
000210 ac 4f 93 bc 62 16 43 be ab 53 e0 bd 4b 2a 50 3d
       -0.017982326 -0.19051507 -0.109534584 0.050821584
000220 5c c4 3b be b4 ce 46 3e 0e aa b5 bc e7 6a d4 3d
       -0.18336624 0.19414788 -0.022175815 0.103719525
000230 05 13 c0 be 81 42 58 3e 75 d3 d0 3d 20 66 39 be
       -0.3751451 0.21119119 0.10196582 -0.18105364
000240 d4 38 00 bf 8b 2b 12 3e c4 de 94 bc 17 5c 05 3e
       -0.5008671 0.14274423 -0.01817263 0.1302341
000250 2d e0 01 be 07 c3 23 3e d6 0b 0e 3d e1 98 17 bf
       -0.12683173 0.15992366 0.034679256 -0.5921765
000260 cf a8 ab 3e f6 eb b3 bc b8 59 c0 be 48 a2 f6 be
       0.33527228 -0.0219631 -0.3756845 -0.48170686
000270 75 c6 30 3d 9e 90 74 be 5f ea b6 3c fe 08 74 3e
       0.043158013 -0.23883292 0.022328554 0.23831555
000280 c5 ee fe bc bd 3d 9b 3e f0 1e 81 be 5d 94 17 3e
       -0.031119714 0.3032054 -0.25218916 0.1480269
000290 45 c0 af 3c b1 37 c4 be 67 ff 0b 3d 22 e6 dc bc
       0.021453986 -0.3832374 0.034179118 -0.026965205
0002a0 59 e0 4b 3e 86 4f e9 3d 2b 91 a3 3d 63 7a c3 3c
       0.199098 0.11392121 0.07986673 0.02386207
0002b0 3f 54 84 bd 6f ff 48 be 47 3b ae 3c a0 72 e1 be
       -0.06461381 -0.1962869 0.0212685 -0.44032764
0002c0 09 fe e5 bd 2f 60 c8 be 69 0b d0 3d cf 7e 03 3e
       -0.11230094 -0.39135882 0.10158426 0.12841342
0002d0 a3 c3 d1 3b 99 0b f6 3d 92 db d9 bd 9e 21 34 3e
       0.0064014955 0.12013931 -0.10637583 0.17590949
0002e0 31 b0 0c be df cc 8d 3c a2 63 4f be d6 a8 9f bd
       -0.13739087 0.017309604 -0.2025285 -0.07795875
0002f0 c0 aa 1c be 14 29 b5 be 1d d7 70 3e 86 3b 07 3e
       -0.15299511 -0.35382903 0.23519559 0.132063
000300 75 f2 31 3e 5a 00 88 3c 93 d8 ff bd 6d 06 21 3d
       0.17377646 0.01660173 -0.1249248 0.03931277
000310 b5 6f 5d 3d 62 32 aa 3e 6d 38 9e 3d c1 d2 eb 3c
       0.05406161 0.33241564 0.07725606 0.028787019
000320 10 6e 49 3e e0 08 56 3e 3a f1 8f 3d 68 1b 2e 39
       0.19670892 0.20901823 0.07028432 0.00016604143
000330 23 64 ff bd d0 51 3d 3e 01 68 61 3e 91 2f 96 3c
       -0.124702714 0.1848824 0.2201233 0.018333228
000340 73 bf 67 3d e0 76 91 be 6a 67 27 3e 26 73 32 be
       0.056579065 -0.28411007 0.16348043 -0.17426738
000350 40 ca 83 3e 70 c6 32 be 70 17 cd bd cb da 76 3e
       0.25740242 -0.1745851 -0.10014236 0.241069
000360 77 cc d3 3a d7 b3 aa bd b8 ec 31 3e 34 ea a2 be
       0.0016158958 -0.08335083 0.17375457 -0.31819308
000370 f1 4f aa be 02 9c 39 bf 21 e2 51 3e 11 c7 af 3e
       -0.33264115 -0.72503674 0.20496418 0.34331563
000380 c7 71 60 bd bb 51 13 3e 7a a2 50 be 90 d1 6c 3e
       -0.054796007 0.14386646 -0.2037448 0.23126817
000390 aa 2f 23 be 32 2e 41 3e f4 ce e3 bc 81 9d 12 3d
       -0.15936151 0.18865278 -0.027808644 0.03579474
0003a0 d4 38 07 3d 25 5d ef 3d ce 34 80 be a0 a4 40 be
       0.03301318 0.11687688 -0.25040287 -0.188128
0003b0 01 f2 ff 3c 75 cc 50 3e 45 f1 ae be 5f 98 f0 3d
       0.031243326 0.20390494 -0.3416845 0.117478125
0003c0 8c 9f aa 3c ad 8a 4f be 28 cd cf 3e af 94 fe 3e
       0.020828031 -0.20267744 0.4058621 0.49722812
0003d0 1b 96 a1 bc 86 c1 cc 3e 39 6b 9a be 41 cb aa be
       -0.019724896 0.39991397 -0.3015993 -0.33358195
0003e0 c2 a1 e6 bc cb aa b4 3d 1c 62 08 3e 1d 8a 56 bf
       -0.028153304 0.08821639 0.13318676 -0.83804494
0003f0 68 32 a3 3e b8 e9 33 3e 79 b3 f7 3e e8 87 6b bf
       0.31874394 0.17569625 0.48379114 -0.9200425

layers.0.lin_l.bias f4 [128]
000000 43 d8 f0 3e d9 02 28 be b6 d8 80 3e 7b 07 3a 3e
       0.47039995 -0.16407336 0.25165337 0.18166916
000010 e5 6e 86 be bf 3d 57 be cf 5e ae 3d 85 3d d3 be
       -0.2625648 -0.21019648 0.08514177 -0.41257873
000020 41 33 26 3e f7 69 ef bc 1c ee 30 be d4 e1 96 3d
       0.1623049 -0.029225333 -0.17278332 0.07367292
000030 c9 4e c7 bd fb 17 52 be 5d c6 9f bd a2 47 e6 be
       -0.09731824 -0.2051696 -0.07801507 -0.44976526
000040 bf 26 9f 3e 4b 41 8b be fd 64 37 be 28 1f 2c be
       0.31084248 -0.27198252 -0.17909618 -0.1680876
000050 0a 92 9d 3e df 1b 92 3d ff de 66 be d7 0a 25 be
       0.3077548 0.07134222 -0.22546004 -0.16117416
000060 05 aa 09 be e7 1a 27 3d 64 c5 a6 3e b3 a6 a4 3e
       -0.13443764 0.04079714 0.32572472 0.3215843
000070 71 ee 7b be 43 7a 5e 3e 4f 92 8e be 2c 3a 4f 3d
       -0.24602677 0.21726327 -0.27846 0.050592586
000080 8b 20 2d be ae bd 5e bd 11 e6 95 be 40 0f c2 3d
       -0.16906945 -0.05438011 -0.2927709 0.09475565
000090 47 ed 5b 3e 12 90 94 3d 87 1b 6c 3e 4e fa f4 3d
       0.21477233 0.07254042 0.23057376 0.11961804
0000a0 0e f0 e1 3d a6 c8 8b bd 9e 2f a3 3e f3 33 36 3e
       0.11032115 -0.0682538 0.31872267 0.17793255
0000b0 2f 2b 38 be b1 88 bc be 12 2b 06 3e 80 1c 2e be
       -0.17985223 -0.36823037 0.13102368 -0.1700306
0000c0 f2 89 b8 bd 7d bb 0e be 80 c5 c9 3d 6b 95 ca bd
       -0.09010686 -0.13938709 0.09852123 -0.098917805
0000d0 9d 85 44 3e 15 05 bd bb cc cd 82 3e 50 12 14 3e
       0.19191594 -0.005768428 0.25547636 0.1446011
0000e0 fa 03 4f be 38 3d dc 3d b4 40 1e be 50 ba e5 3c
       -0.2021636 0.10753864 -0.1545437 0.028042942
0000f0 81 14 49 be 69 3c 0f be 4c 0a aa 3d 4b 25 31 be
       -0.19636728 -0.13987888 0.08302745 -0.17299382
000100 f0 78 dd bc 8a 4b 67 bd 81 a9 6e be 76 a8 fb 3d
       -0.027035207 -0.056468524 -0.23306848 0.12287991
000110 7d d8 28 be e3 d0 ec 3c ed 8d 9a bd 5f a1 a7 3e
       -0.16488834 0.028908199 -0.075466014 0.32740304
000120 fc 5d 85 3e 14 d2 ab be f0 3e ae 3e 48 71 25 3e
       0.26048267 -0.33558714 0.34032393 0.16156495
000130 59 ba 99 be bd ba 4b be 0e ff 94 3e b8 5c ca bd
       -0.30024984 -0.19895454 0.2910084 -0.09880966
000140 84 d0 63 be 9c d7 99 3e d6 09 80 3c bd 40 c1 bd
       -0.22247511 0.3004731 0.01562969 -0.09436176
000150 91 3c d9 3d 8d 35 59 3e aa 89 75 3e c3 79 1f bc
       0.10607255 0.21211834 0.23978296 -0.00973362
000160 26 2e 0b 3e e9 dd fa bd 86 84 05 3e a7 b2 2d be
       0.13591823 -0.12249357 0.13038835 -0.16962682
000170 57 02 92 bc ba 95 3c be 41 7b 52 be b6 f6 86 bd
       -0.017823381 -0.18416491 -0.2055483 -0.06590025
000180 2c 8d 75 3e fb f2 f8 bd 56 2b 3f be ca ef a1 3d
       0.23979634 -0.1215572 -0.18668875 0.07907064
000190 d6 d8 40 3e fe a5 1f bf 78 10 bf bd ab e5 43 3e
       0.18832716 -0.6236266 -0.09329313 0.1913058
0001a0 7f 28 8b be e2 54 60 be 29 2a a3 be 98 31 37 3e
       -0.27179334 -0.2190738 -0.31868103 0.17890012
0001b0 44 d4 ec 3d 31 dd 96 3e 2f 84 0c bc dc b7 30 3e
       0.11563924 0.2946563 -0.008576437 0.17257637
0001c0 b6 ca 84 be 19 b4 9b 3d 8c a5 06 3e f4 45 82 3e
       -0.25935906 0.0760271 0.13149089 0.25443995
0001d0 4a 90 0f 3e ff fa d0 be 4c 17 32 3d c2 52 ff 3d
       0.14019886 -0.40816495 0.04347925 0.12466957
0001e0 14 56 ce 3c 95 66 e8 3d 01 04 90 3d ef 13 83 3d
       0.02518753 0.11347691 0.07032014 0.064002864
0001f0 cd 04 87 3e 3c d7 1c 3e 55 04 a6 be c5 c8 06 3e
       0.2637085 0.1531648 -0.3242518 0.13162525

layers.0.lin_r.weight f4 [128, 11]
000000 1f cd 3a 3f 51 86 9e bd 81 64 4e be be fc 33 3e
       0.7296924 -0.077404626 -0.20155527 0.17576882
000010 23 dd b5 3e 16 3a 29 be bf 9f 7f 3e 67 59 0c be
       0.35520276 -0.16526064 0.24963282 -0.1370598
000020 ed f9 53 3b 3f a7 df bc 0c 2d bb be 80 88 51 be
       0.0032345012 -0.027301429 -0.36557806 -0.20462227
000030 fa 4a 94 be f1 be 74 be 09 fe e8 3d 14 c1 83 3d
       -0.28963453 -0.23900963 0.11376578 0.06433311
000040 33 1d 19 3d c0 7f 9b bd e5 b0 3a 3e f9 6f e4 be
       0.037381362 -0.07592726 0.18231542 -0.44616678
000050 2a 42 d7 bd 75 11 98 3c 35 ef 4f 3d 81 4e 15 be
       -0.10510667 0.018563012 0.050765235 -0.14580728
000060 73 50 be bd 9e d7 8b 3e 54 6c fc 3c 42 d4 d7 bd
       -0.09292688 0.2731294 0.030813374 -0.10538532
000070 76 a3 af bd ec 63 a4 be 16 24 54 be 66 26 a7 bb
       -0.085760996 -0.32107484 -0.2071689 -0.005101013
000080 b9 c7 34 be 4b dc 40 be 2b 79 0b bf 8d 69 32 be
       -0.17654313 -0.18834035 -0.5448176 -0.17423077
000090 3c e8 c8 3e d4 bf 46 3e 1c 9a cb bd 4d fe 4c bd
       0.3923968 0.19409114 -0.099415034 -0.050047208
0000a0 fe 18 95 3e 13 8e 9e be b7 c1 9d 3e b0 f2 59 bd
       0.2912063 -0.3096777 0.30811855 -0.05320996
0000b0 dc c2 5e 3e 6e 8e c3 be 9a 78 0a 3f ec 23 28 bf
       0.2175402 -0.38194603 0.54090273 -0.6567981
0000c0 b4 f0 fc bd 20 7b ea 3e aa b8 08 3f 62 42 27 bf
       -0.12350598 0.45797062 0.53406775 -0.6533567
0000d0 86 00 3b 3f 2a 79 a5 bc 5d 99 bc be ad b1 3b 3e
       0.73047674 -0.020199377 -0.36835757 0.18329497
0000e0 7e 7e 69 be db c1 36 3e 77 9e e1 3d 80 34 83 3e
       -0.22802159 0.17847387 0.11016553 0.25625992
0000f0 86 e1 61 bd 58 78 cb bd 6e dd 25 be 7d 43 77 3d
       -0.055146717 -0.09935063 -0.1619775 0.060367096
000100 64 d1 80 3d 6d 5e 57 be 9f 9c 06 3d 12 a9 85 be
       0.06289938 -0.21032114 0.03286421 -0.26105553
000110 9e 15 22 bc 56 51 a4 bb 36 25 45 3e 6b 65 88 be
       -0.009892849 -0.005014579 0.19252476 -0.26639876
000120 b8 44 a1 bd 15 e7 0b 3e 26 1a 42 3e 09 bc de bd
       -0.07874435 0.1366237 0.18955287 -0.108757086
000130 0f 11 ab be 62 d3 83 3e ba c5 6d be 9e b9 06 3f
       -0.33411452 0.2574721 -0.23219958 0.5262698
000140 f8 69 39 3e c4 ec 77 bd 81 9f b7 3d 76 a5 1e 3e
       0.1810683 -0.06052853 0.0896597 0.15492806
000150 0f aa b1 be f8 44 1a 3f 85 72 4c bf 3d 4a 02 bf
       -0.34700057 0.6026149 -0.7986224 -0.5089453
000160 44 8a 17 3e 02 d1 7f 3d 5b 33 87 3d 1d 35 3e 3e
       0.14798838 0.062455185 0.06601592 0.18574949
000170 2d 04 0e 3d 34 3c 03 be a8 25 56 3e d9 a3 40 3d
       0.03467195 -0.12815934 0.20912802 0.047031257
000180 b9 1a 5f be b5 bf 73 3d 7b d8 1b be f3 81 8f bd
       -0.21787538 0.059508998 -0.152193 -0.07007208
000190 96 d9 df be 1d b2 26 3d ec a4 7a 3e f0 cf 8a bd
       -0.43720692 0.040697206 0.24476975 -0.06777942
0001a0 73 e0 de be 13 66 21 bd b8 04 d6 bd a4 e2 82 be
       -0.43530616 -0.039403986 -0.10450119 -0.25563538
0001b0 2a bf 81 bc ca e6 da 3e 51 b1 8e be 96 14 82 bd
       -0.015838224 0.42754203 -0.27869657 -0.06351583
0001c0 a1 4c bb 3d e1 73 00 bf 82 b5 fb bd 6e 26 8e 3e
       0.09145475 -0.5017682 -0.12290479 0.27763695
0001d0 56 bd af 3e c6 df 06 bf e8 57 3b 3f 31 0d 97 3d
       0.3432414 -0.526852 0.7318101 0.07375563
0001e0 0f 44 f8 3d 9a 56 b6 3d 4d 71 15 bf 09 06 66 bd
       0.12122356 0.08903237 -0.5837601 -0.0561581
0001f0 a1 75 d6 3e ee 2a 2c 3d 03 c5 65 3e 92 ad 4e be
       0.4188662 0.04203313 0.22438435 -0.201834
000200 98 6c a7 3e a8 08 cb be 59 43 2c 3e ff 37 ca 3d
       0.32700038 -0.39655042 0.16822566 0.09873962
000210 7c c3 8f 3e 04 03 46 bf 19 af 9b 3e d2 a4 84 3e
       0.2807883 -0.7734835 0.30407026 0.25906998
000220 3c dd bd be 01 a3 23 3d ce d1 a2 bd a0 bd 88 3e
       -0.3708285 0.039950375 -0.07950173 0.26707172
000230 06 cc 73 3d 87 9a ac be d6 c2 56 be 1f 3d dc 3d
       0.059520744 -0.33711645 -0.20972762 0.107538454
000240 1f a5 4e be 74 16 4f 3d cb 66 02 3d bd 7a 1b 3e
       -0.20180176 0.050558522 0.031836312 0.1518354
000250 3c 77 17 bf fd 83 8b 3d 4f 6a d2 bd 52 f3 4b 3d
       -0.5916631 0.06812284 -0.10274183 0.049792595
000260 93 14 9d 3e f6 f1 21 bf 1c 16 8d 3e fb 17 34 be
       0.3067976 -0.6325983 0.2755593 -0.17587273
000270 8e c7 75 3e c5 a8 1f bd e0 3a be 3d 6d e8 00 3e
       0.24001905 -0.03897931 0.09288573 0.12588663
000280 82 4e c8 3e 59 7f 2f bf e1 c7 36 3f 5f 48 e4 be
       0.39122397 -0.6855369 0.7139874 -0.44586465
000290 e2 89 bc be 20 d5 6a be 49 6c e3 be 47 77 38 bf
       -0.36823946 -0.22932863 -0.44418553 -0.72057
0002a0 27 7a 22 3f 2d b8 9c 3e 36 c9 46 be 44 82 c2 be
       0.6346764 0.30609265 -0.19412693 -0.3799001
0002b0 35 9a b0 3d ce 48 06 bf 47 14 0e bf 95 c1 86 3d
       0.08623163 -0.5245484 -0.5549969 0.065798916
0002c0 7e 0e 97 bd 72 48 5e bc e0 3f b3 3d a3 2a 03 be
       -0.07375811 -0.013567077 0.087524176 -0.12809233
0002d0 ec 42 56 3e f3 c7 1a 3e 17 53 5d bd 28 22 81 3c
       0.20923966 0.15115337 -0.05403432 0.015763357
0002e0 62 06 02 bc 17 c7 2e bd d8 c0 44 3d 91 f5 ab bd
       -0.007936092 -0.042670336 0.048035473 -0.083964474
0002f0 a9 b8 95 be 1c 82 b9 be 7c 11 82 be 52 fa aa 3d
       -0.29242447 -0.36232078 -0.25403965 0.08348526
000300 03 34 2b 3e 01 7e 1c be 9b 84 12 3d 60 1a 57 be
       0.1671906 -0.15282442 0.035770994 -0.21006155
000310 41 c3 c7 3e a1 0b a5 3d 02 49 85 3e 4d fb b1 3e
       0.39016154 0.08058859 0.26032263 0.3476204
000320 25 4e c8 3e 69 aa 99 be bd a1 15 bd 10 9e f6 bd
       0.3912212 -0.30012825 -0.0365312 -0.12041867
000330 18 4a 09 3d cc 62 e0 3d 2a 0a af 3d c0 2f 37 3d
       0.033517927 0.10956344 0.085468605 0.044723272
000340 8c 88 5e be 7e 60 cb bd 7d 2a 12 bf 26 bb f2 be
       -0.21731776 -0.09930514 -0.5709608 -0.47408408
000350 df 65 01 3f 6e b6 40 3e 34 98 88 be e4 36 d5 be
       0.5054607 0.18819591 -0.26678622 -0.4164344
000360 2b 1e 1e 3e a0 a6 ae be b2 c0 6d be 66 73 92 bc
       0.15441196 -0.341115 -0.23218039 -0.017877292
000370 b0 9d 1c be ae b4 16 bf 18 55 f3 3d 7c fb 42 bd
       -0.15294528 -0.58869445 0.11881465 -0.047603115
000380 91 85 1d be 31 30 c4 be a3 03 23 be cb 59 e2 3e
       -0.15382983 -0.38318017 -0.15919356 0.44209132
000390 bc 09 fc be ea a1 b6 3e 9b 4d c0 be 3e 91 19 3f
       -0.49226177 0.35670406 -0.37559208 0.59987247
0003a0 7e 54 3b 3d ee ab ae 3d 77 02 de 3d b3 9a ee bb
       0.045734875 0.08528887 0.10840314 -0.007281625
0003b0 f1 39 8f be 6f 61 9e 3e da 0f 2d bd f1 3c d3 be
       -0.27973893 0.3093371 -0.042251445 -0.41257432
0003c0 48 3a bc 3d a1 25 87 be d5 f1 3e be 9a c7 9e 3e
       0.09190804 -0.26395896 -0.18646939 0.3101166
0003d0 5a 70 04 3f 8a 5b 13 bf 46 7d 1a be 50 97 f7 bd
       0.51733935 -0.5756155 -0.1508685 -0.120894074
0003e0 14 87 ff 3e f3 ef 2a bf df 48 11 3f 12 53 4c be
       0.49907744 -0.66772383 0.5675182 -0.19953564
0003f0 0c be 6f 3d ab c4 04 3e 1e b8 98 3e 44 fd 4c be
       0.058530852 0.12965648 0.2982797 -0.20018488

layers.0.lin_r.bias f4 [128]
000000 33 ec 96 be 31 a6 28 be bb 4d 9d 3c 70 d0 ef bd
       -0.2947708 -0.16469647 0.019202104 -0.11709678
000010 42 f0 74 3c 35 ec 90 be 17 3f 39 be 83 54 b3 be
       0.01494986 -0.28305212 -0.18090473 -0.35025415
000020 cb da d5 bd 7b 3c a9 3d 7d 05 cf bd 17 98 47 be
       -0.10442122 0.08263489 -0.10108469 -0.19491611
000030 9a 91 63 be 20 d1 1d bf 7c f7 b4 be 19 2d a0 3d
       -0.22223511 -0.61647224 -0.35345066 0.07821102
000040 c7 57 f9 3e 87 d9 16 3e a5 a4 8a bd a3 d8 b4 3d
       0.4869978 0.14731418 -0.06769685 0.08830383
000050 db 1c 82 be eb fb 3d bf 3a 37 cf bc 2c 9c e0 bd
       -0.2541264 -0.7421252 -0.025294889 -0.109672874
000060 bc da 36 be 7d 11 cd be 2c f1 4a bc 1d 09 2e 3e
       -0.17856878 -0.40052405 -0.012386601 0.16995664
000070 1e 10 6e 3d 36 e0 c8 3d f7 65 85 be 53 3b e2 3d
       0.05812084 0.0980839 -0.26054356 0.110464714
000080 57 c2 8f 3d b8 5c d1 bd 26 0c b1 3d 89 12 25 3e
       0.07019489 -0.10222763 0.08644895 0.16120352
000090 b5 aa 66 be d8 e1 76 3e 9b fb ad 3d 9c 94 61 3b
       -0.22526057 0.2410959 0.084952556 0.0034420853
0000a0 4c b3 d2 be c1 02 5f bd 3d 5e a8 be 1c d1 b7 be
       -0.41152418 -0.054445986 -0.32884398 -0.35901725
0000b0 f1 63 0a be f6 77 ef bb cc 3e b6 be 2a d1 bd 3c
       -0.13514687 -0.0073080016 -0.35594785 0.023171026
0000c0 12 65 6c 3d 01 f6 a1 bd 91 48 ad be 5d 7e 63 3e
       0.057713576 -0.0790825 -0.33844426 0.22216173
0000d0 62 53 3b be ea 5e 9a 3e 0c 5e f5 3d af b3 d2 be
       -0.18293527 0.3015054 0.11980829 -0.41152713
0000e0 a9 f2 ac be 4b 07 f5 3d 34 40 42 be f0 6a ce bd
       -0.33778885 0.11964282 -0.18969804 -0.100789905
0000f0 0f 7f 05 be 23 ea e8 be 4c 5d 1f be b4 94 c7 3a
       -0.1303675 -0.45491132 -0.15562934 0.0015226812
000100 1b 19 b8 be 8c d4 15 3e 2c 13 33 3b 40 f2 78 3e
       -0.35956654 0.14631861 0.002732466 0.24311161
000110 d5 b6 79 3d 86 5b 63 3d 8a 3b 3f 3d 91 5d 63 3e
       0.060965378 0.055507205 0.04668764 0.22203662
000120 43 5f 4d 3e b9 fa d0 3d 7a 6f a0 3e 83 ec 4c bd
       0.2005587 0.102040716 0.3133505 -0.050030243
000130 3c 75 0c be 14 c1 84 3c 8b 9e 04 be cf 9f 39 be
       -0.13716596 0.016205348 -0.12951104 -0.18127368
000140 03 5d 2b be 26 29 9e 3d 86 89 bb bc d7 20 90 be
       -0.167347 0.07722692 -0.022892725 -0.28150055
000150 57 d2 a5 be e1 43 8a 3d 59 fe e2 bc 1a e8 53 be
       -0.3238704 0.06751228 -0.027709173 -0.20694008
000160 a5 1f f2 bd 8d 5f 6d be 09 56 23 3e f3 25 cb be
       -0.11822442 -0.23180981 0.15950789 -0.3967739
000170 49 9b bf 3e 4a 39 89 3d 16 23 3e be 1c 34 9f 3e
       0.3742316 0.0670038 -0.18568072 0.31094444
000180 8a 14 06 3e 27 2a 4d be 98 bd 6b 3e be c9 a5 be
       0.13093773 -0.20035611 0.23021543 -0.3238048
000190 ac d5 5f bd 76 de da 3d 12 8a 3f 3d 1d 5d 03 bf
       -0.054647133 0.10686962 0.046762533 -0.51313955
0001a0 5c 5f 09 be 8d f5 2d be 8d b1 b5 bd 8a 3c a9 bd
       -0.13415283 -0.16988201 -0.08871756 -0.082635
0001b0 04 b5 b4 bd e7 f1 74 be 02 22 14 3e ba ca 20 be
       -0.088235885 -0.23920403 0.14466098 -0.15702334
0001c0 fe b6 15 3f 02 80 b0 3e 59 f4 3c be 24 0a 89 3e
       0.5848235 0.34472662 -0.18452586 0.2676555
0001d0 b8 aa b1 3d 1d 93 2f bd 17 9c 1d bd ce bc 29 bd
       0.0867514 -0.042864908 -0.038478937 -0.041439824
0001e0 3c e8 0e 3e 42 85 72 3e fd 1d f3 3e 59 89 01 bd
       0.13955778 0.23683646 0.47483817 -0.031625126
0001f0 7d d7 3b be 04 87 94 3d 6b 69 c6 bd 66 48 85 bd
       -0.18343921 0.07252315 -0.09688076 -0.065079495

layers.0.lin_edge.weight f4 [128, 13]
000000 e6 e2 a4 be 8d 34 c5 be 6d ed a8 3e 95 ea 60 3e
       -0.3220436 -0.38516656 0.32993641 0.21964486
000010 a1 e2 d6 3e c5 48 89 bd 4a b3 03 3f 3c 27 7c be
       0.4196978 -0.06703333 0.5144545 -0.24624342
000020 86 33 8d be 06 29 68 3d ea 29 86 be ca 30 ca bd
       -0.27578372 0.056679748 -0.26203853 -0.09872587
000030 f8 2a 83 3d ef c9 47 bc 5f d0 98 be 0b f4 93 3e
       0.0640468 -0.012194141 -0.29846475 0.28897128
000040 53 21 c7 3d 00 a5 c3 3e 8c d6 ff 3e a0 ab 1f 3d
       0.09723153 0.38211823 0.49968374 0.038982034
000050 17 cb e0 be 3d 40 eb 3e 3a 75 53 be 55 23 0c bf
       -0.43904945 0.45947447 -0.20650187 -0.5474141
000060 85 c4 d7 be 1b cf eb be 93 77 5a be cb ff 87 3e
       -0.4214212 -0.46056446 -0.21334676 0.26562342
000070 40 22 84 be 88 53 59 3e c4 fe 06 be c5 fb d1 bc
       -0.2580738 0.21223271 -0.13183123 -0.025632748
000080 a0 88 e8 be 06 7c a6 3e 33 67 ea 3d f2 f5 85 bd
       -0.45416737 0.32516497 0.11445465 -0.06541051
000090 36 69 aa 3e 4e 24 14 bd 09 60 32 bd ab 96 60 3d
       0.33283395 -0.036167435 -0.043548618 0.05483119
0000a0 9c 0f 27 bf aa 4c b3 3e e4 ee 89 be 6c 1c 29 3e
       -0.65258193 0.35019428 -0.26940072 0.16514748
0000b0 b5 8a b8 3e 9c 1c 25 be d3 73 c8 be f9 b1 15 3f
       0.36043325 -0.16124195 -0.39150867 0.5847469
0000c0 26 40 c3 be f7 22 e4 be 25 7a 00 bf 3f 73 87 be
       -0.3813488 -0.44557926 -0.5018638 -0.26455113
0000d0 53 ab 0d 3d b1 fa 3c be 28 70 ae 3c a6 8d 0e 3e
       0.034587216 -0.18455006 0.021293715 0.13921222
0000e0 f1 02 02 be f5 a3 65 be 19 36 d9 be f1 f7 90 be
       -0.12696435 -0.22425826 -0.42424086 -0.28314164
0000f0 fc 98 ff bc 28 20 77 be 9c f8 95 3e 70 ce 89 bd
       -0.031200878 -0.2413336 0.29291236 -0.06728828
000100 0a ef 98 3b ae fa 65 be 8c 8e fb bc e8 30 69 3c
       0.0046671676 -0.22458908 -0.03070762 0.014232852
000110 b5 45 17 3f 63 b9 26 bd 01 aa 20 3e d5 8f 0d 3d
       0.5909074 -0.040704142 0.15689851 0.034560997
000120 0c 9a 86 3e 91 04 ad 3c 90 37 01 be bf 8d 4e 3c
       0.26289403 0.021120341 -0.12618852 0.012607037
000130 08 97 53 3c 4f b1 a7 bd 6d 23 52 be f4 09 66 be
       0.012914427 -0.08188116 -0.20521326 -0.22464734
000140 fb 95 da 3e 18 4b 48 3e 10 c8 0b bd ad 6d 5d 3e
       0.4269255 0.19559896 -0.03412634 0.21623869
000150 3e 16 87 3d 69 d8 2a be 95 10 56 3e 26 88 c1 be
       0.06596039 -0.16684116 0.20904763 -0.37799186
000160 bc 5b 12 bf ac 26 af bd 4a 37 58 bd 32 97 36 bd
       -0.57171226 -0.08552298 -0.052787103 -0.044577785
000170 4d ba 83 3e 44 8f b0 3d be 7b 28 3e 7a 8d be 3d
       0.25728074 0.08621076 0.16453454 0.09304328
000180 e3 b6 09 be 67 81 26 be 9b 39 09 be 2b 59 32 be
       -0.13448672 -0.162603 -0.13400881 -0.17416827
000190 e9 55 12 be 59 e7 4d 3e af d7 04 bd f3 f4 2a 3e
       -0.14290585 0.20107783 -0.032432254 0.16695003
0001a0 0c bb 5e be e2 aa 00 3e 13 c8 92 39 20 b5 cf 3d
       -0.2175104 0.12565187 0.00027996357 0.10141969
0001b0 44 8a cc 3d d7 8e b3 be 2c 27 6d be bd 7b 61 bd
       0.099873096 -0.35069916 -0.23159474 -0.055049647
0001c0 b6 9c d0 bd ea e9 91 3d b3 a9 f0 3d ec 08 4d 3e
       -0.1018614 0.07124694 0.117511176 0.20022935
0001d0 fb 4c 19 3e 4b e2 ae be 59 db 49 be ca 04 83 be
       0.14970772 -0.34157023 -0.1971258 -0.2558959
0001e0 b9 da f7 3c a0 9b a1 bd f2 e4 6b bc 8f c0 c1 be
       0.030255662 -0.07891011 -0.014397847 -0.37842223
0001f0 47 c2 90 3c fd 89 a0 3e c4 fd 99 bb 98 46 34 be
       0.017670764 0.31355277 -0.0046994407 -0.17605054
000200 38 fd a0 be 7e 90 1b bd a2 10 82 bd 86 46 59 be
       -0.3144319 -0.037979595 -0.06350829 -0.21218309
000210 b2 a6 b7 3e 79 ce a7 3e 85 21 be be 81 f1 36 3e
       0.35869366 0.32774714 -0.37134948 0.17865564
000220 22 31 df bd 54 2f da bd 45 17 e8 3d 4a 20 8f be
       -0.10898043 -0.106535584 0.11332563 -0.27954322
000230 96 e9 1e bf fc 44 23 be 27 1e e7 be 5b d6 9c be
       -0.62075174 -0.15944284 -0.45140192 -0.3063229
000240 55 58 c3 3e 02 f5 f5 bd ee 6e 65 3e 02 74 30 be
       0.3815333 -0.12009622 0.22405598 -0.17231753
000250 8f 8c c3 bd b0 75 69 be 3e f0 f7 3e 5d cb 65 be
       -0.09548294 -0.227988 0.48425478 -0.22440858
000260 35 71 4a 3c 43 5b a0 3e e7 ef 77 3e 55 56 41 bd
       0.012356092 0.31319627 0.24212609 -0.047201473
000270 d3 f0 84 3d cc 8f cc 3e 23 42 51 be ce 2c 27 be
       0.06491246 0.39953458 -0.20435385 -0.16325685
000280 54 59 11 be 77 b0 06 be cc cd 66 be 09 64 3d 3e
       -0.14194232 -0.13153253 -0.22539443 0.18495192
000290 21 b8 43 be fb c8 2d 3e dd 55 f6 3e 1d 4c 2f 3e
       -0.19113208 0.16971199 0.48112383 0.17118879
0002a0 eb 27 cf bc cc e4 15 be fc 6e a3 3d 2b bd 6e be
       -0.025287589 -0.1463806 0.07980153 -0.2331435
0002b0 ef ba 38 3e 66 34 08 bd 69 a3 77 be e9 11 f4 be
       0.1804006 -0.033253096 -0.2418343 -0.47669914
0002c0 b0 a5 ee bd ca 07 3c 3d b0 14 1a be 40 f0 04 3e
       -0.11652696 0.045905866 -0.15046954 0.12982273
0002d0 2c e3 a1 3d 36 48 cb bd 1f 61 c6 bc 57 c8 60 3e
       0.07904658 -0.099258825 -0.024216233 0.21951424
0002e0 42 35 12 be f4 3d a0 3e d3 8c 97 bd 82 99 38 be
       -0.14278129 0.31297266 -0.07399907 -0.18027309
0002f0 b6 3c 7f be bc 63 fc 3d 67 5f 80 3d e2 8d 2f 3e
       -0.24925503 0.1232371 0.062681966 0.17143968
000300 ef b4 5f 3e 53 d7 b4 bd 57 10 fb 3d e4 1d 1c be
       0.21846364 -0.08830132 0.12258976 -0.15245777
000310 f4 0d 33 3f b9 36 d4 be 75 66 2b be 8e 55 11 be
       0.69943166 -0.41448 -0.16738303 -0.14192793
000320 e3 46 77 be 0a c8 a5 3b 61 da 0d 3f 62 10 d2 be
       -0.24148135 0.005059247 0.55411345 -0.41028124
000330 ed a1 df 3d 50 b3 cc 3e f4 1e 46 3e 6d ad 6f 3d
       0.10919557 0.39980555 0.19347745 0.058515
000340 e7 56 3a 3e 81 61 cc 3e 53 09 53 bd f8 a7 4a be
       0.18197213 0.3991814 -0.051522564 -0.19790637
000350 17 49 12 be 52 4d cd be 57 f1 e6 bd 08 34 10 3e
       -0.14285694 -0.40098053 -0.11276501 0.14082348
000360 b9 bc 8b be 25 cc 89 3e da 2d e9 3e d8 b9 e5 3d
       -0.2729242 0.26913562 0.45542794 0.112170875
000370 41 31 df 3d 7a 30 12 3e 18 ce 20 bf a5 2e 26 3f
       0.10898066 0.14276305 -0.62814474 0.64914924
000380 59 4b af 3e b0 e3 aa 3e 77 09 20 3f 45 a2 a0 3c
       0.34237173 0.33376837 0.6251444 0.019608626
000390 47 97 00 bf 06 39 d6 3e 92 27 e5 be 2a d0 f1 be
       -0.5023083 0.4184038 -0.44756752 -0.4722913
0003a0 5d 9d 20 be bc 48 08 bf e6 48 f7 3c 80 1d ee bc
       -0.1568503 -0.53235984 0.030186128 -0.029066801
0003b0 5c 87 41 3e ee 80 c7 be d3 bd cf ba 8b 0a b7 bc
       0.18899292 -0.38965553 -0.0015849419 -0.022343894
0003c0 5a 58 10 3f 94 e6 d8 3d 20 67 ff be 7f 6c d6 3e
       0.56384814 0.10590854 -0.49883366 0.4187965
0003d0 c3 30 84 3e 9d 95 aa 3e f7 ed ff 3e 7f 61 49 be
       0.25818452 0.3331727 0.4998624 -0.19666098
0003e0 7a 84 93 3e de 54 2e be b3 3a 69 3b 74 5a 57 be
       0.2881201 -0.17024562 0.0035587966 -0.21030599
0003f0 c0 c2 23 be 07 ed 30 be 10 77 dc 3e 56 28 e7 bd
       -0.1599226 -0.17277919 0.43059587 -0.1128699

layers.0.res.weight f4 [128, 11]
000000 b1 46 3a bf a5 63 5e 3f 9b 59 68 3e ef b8 0d 3d
       -0.72764117 0.86870795 0.22690432 0.034600195
000010 c3 15 7c 3e da aa 65 bd 20 e1 80 3e 78 c5 97 be
       0.24617676 -0.05607114 0.25171757 -0.29642844
000020 97 6a 5c 3e f4 0c 36 3d 82 66 99 3f 08 8e a6 bd
       0.21525036 0.044445947 1.1984408 -0.08132559
000030 99 89 a2 be 42 04 c2 be 87 96 c1 bd 08 4a 22 3e
       -0.31745604 -0.37893873 -0.09452539 0.15848553
000040 49 24 c2 3e dc 19 ec bd 5e 5a 2d bc 5d 2e 8a be
       0.37918308 -0.1152837 -0.010580627 -0.26988497
000050 6e bc 98 be 9e fc 1d bd 2e 20 06 bd 7a 66 4d 3e
       -0.2983126 -0.038570993 -0.032745533 0.20058623
000060 ca f0 81 bd 67 f2 6a bd 0c bf de bc 06 dd 0a bd
       -0.06344755 -0.05736008 -0.027190708 -0.03390219
000070 ed d9 ab 3c c9 07 71 bd d7 02 63 be 49 19 6f 3d
       0.020977939 -0.058845315 -0.22169052 0.058373723
000080 8e cd 0e 3d b3 cc 02 3d 78 34 3c bd 1c 21 31 bd
       0.034864 0.031933498 -0.045948476 -0.043244466
000090 ac 5e 51 3e dc 9c eb bd 21 fc c6 bd 18 72 0a be
       0.2044627 -0.11504528 -0.097160585 -0.13520086
0000a0 f6 f5 27 be 6a 80 6a 3e 16 f0 d7 3d 9d d2 c1 3c
       -0.1640242 0.22900549 0.1054384 0.023659999
0000b0 14 fa 2d be f4 2d 1a be a7 10 b7 be 2c 5b 94 be
       -0.16989928 -0.15056592 -0.35754892 -0.2897581
0000c0 3f f5 4f 3f c3 58 a9 3e 00 01 67 3e 1b 40 48 bf
       0.8123359 0.33075532 0.22558975 -0.7822282
0000d0 f2 7d b2 3e c9 1b 0e bf 8d 51 bb bd 56 cb 51 be
       0.34861714 -0.55511147 -0.09146414 -0.20487723
0000e0 4c 18 aa bb d1 4f d3 be 19 15 e6 bb 94 37 15 3f
       -0.0051908847 -0.41271833 -0.007021558 0.5828793
0000f0 85 5a 85 3e 32 30 f0 3d 1b 83 1b bf e4 bc a5 3d
       0.26045623 0.117279425 -0.60746926 0.08092669
000100 00 30 1f be af ae 4a be 20 e6 91 3e c0 7b 13 3d
       -0.15545654 -0.19793199 0.28495884 0.03600669
000110 e6 3f 4a bb 81 17 08 be 31 66 14 be 72 a2 de 3e
       -0.003086084 -0.13290216 -0.14492108 0.4348331
000120 c2 86 57 be 4d c0 13 be 8c 7c 61 3c d1 47 50 be
       -0.210475 -0.14428826 0.013762604 -0.20339896
000130 9c eb 8e be 2b da bd bd 4d 44 09 3e 0b ff 0d 3e
       -0.2791413 -0.09270128 0.13404961 0.13866822
000140 2c e9 ad bd 35 7b af be 6b 40 ef 3d 84 b9 e2 bd
       -0.0849174 -0.34273687 0.116822086 -0.110705405
000150 6c 0c f9 bc d4 61 8f bd e1 e9 94 bd 5b 40 b2 be
       -0.030401431 -0.07001081 -0.07271171 -0.34814724
000160 ea 25 c2 3d 3a 24 11 be c8 ec 4f 3e 7e 89 b6 3d
       0.09479888 -0.14173976 0.20305169 0.08912943
000170 8d b9 05 bf bc d2 84 be 32 27 4f be 95 e9 17 3f
       -0.52236253 -0.25942028 -0.20229796 0.5934079
000180 95 ea f3 be 21 c0 15 3e 7e ae b0 be c8 bb 97 be
       -0.4763991 0.14624073 -0.34508127 -0.29635453
000190 8a 1a 57 be 82 ad 21 3e 87 c6 15 bd be af 28 be
       -0.21006218 0.15788844 -0.036566284 -0.1647329
0001a0 5e ea e4 be ff 4c f0 3d 95 97 b7 be 2f 5d b8 3d
       -0.44710058 0.11733436 -0.35857835 0.09002148
0001b0 52 d0 7a bd 87 4d 7d 3e 13 f3 fc 3c af 0d bc 3d
       -0.061233826 0.24736606 0.030877626 0.091822974
0001c0 97 82 1b 3e b9 3a d7 bd 3c bc 71 bb 5d 1d 66 be
       0.15186535 -0.10509247 -0.0036885878 -0.22472139
0001d0 64 82 eb 3d 79 7d 36 3d 4c 0f 17 3e 47 c0 52 3c
       0.114994794 0.044553254 0.14751929 0.012863225
0001e0 3d 13 d2 bd da 76 00 3e 4a dd a0 bc f0 e2 af 3d
       -0.10257576 0.12545338 -0.019636769 0.08588207
0001f0 3f 28 8c bd 6e df af bd 30 b1 a2 3e a7 07 12 be
       -0.06843614 -0.08587538 0.31775808 -0.14260732
000200 f7 f5 7d 3d 78 1b 3f 3e 08 b7 e6 bd 3f 64 9a be
       0.06200215 0.18662822 -0.11265379 -0.30154607
000210 8a 92 08 3e 90 69 97 bc 89 c4 72 3e 21 e6 90 3d
       0.1333715 -0.018482953 0.23707785 0.070751436
000220 b3 d0 93 be ec 27 db 3e 15 d4 21 be 76 f3 4d 3e
       -0.28870162 0.42803895 -0.15803559 0.20112404
000230 ee 59 a8 3d 12 6f ae 3d b8 30 90 be b1 d9 48 be
       0.08220278 0.08517279 -0.2816217 -0.19614293
000240 2f 34 bc 3e c8 21 77 3e b1 07 62 3d b7 16 f7 bd
       0.36758563 0.2413398 0.055183116 -0.120648794
000250 25 be 89 be d7 ad a9 bd a0 11 e4 3e 86 24 c2 3d
       -0.2690288 -0.082851104 0.44544697 0.094796225
000260 c1 dd 25 be 09 f4 5f be 2b f9 1e 3f db 01 31 be
       -0.16197874 -0.21870436 0.6209895 -0.17285864
000270 b9 fd 98 be cc 96 06 be 0d da f7 3e 0d 06 f6 3e
       -0.29881075 -0.13143462 0.48408547 0.4805149
000280 a3 e4 e9 3d 99 af 03 bf 6f ad 72 3c b7 0d 1a bf
       0.11420562 -0.51439816 0.014811858 -0.6017718
000290 bd 14 00 bd 9f 06 36 bb d3 10 0d 3d 21 2e 06 3e
       -0.031269778 -0.0027774943 0.034439873 0.13103534
0002a0 97 86 1e 3e 09 b1 a1 3d c9 d4 30 be 24 59 16 3d
       0.1548103 0.07895095 -0.17268671 0.036706105
0002b0 68 fd ed bc a1 90 bb bc 27 f5 89 bd 0a 96 0b 3d
       -0.029051498 -0.022896113 -0.06736212 0.034078635
0002c0 f6 7e d2 bc 62 dc ec 3c 8f 0c 1a 3b 99 9a b6 bd
       -0.025695305 0.02891368 0.002350602 -0.08916206
0002d0 b7 c1 dd 3c 71 48 b8 3d a0 e5 1d be 07 c3 0a bb
       0.02706991 0.08998192 -0.15419626 -0.0021173374
0002e0 1e c1 ee 3d 97 b2 c5 bd 38 f9 ee bd 7a 87 fe bc
       0.11657928 -0.09653204 -0.116686285 -0.03107046
0002f0 e5 1f 3a bc 95 df ba bd 08 a6 13 be 95 c1 fc bd
       -0.011360143 -0.09124676 -0.14418805 -0.1234161
000300 4a 1a 3d be a8 cf 3b 3d 4f 7c 60 3d 8e 75 73 be
       -0.1846706 0.045852333 0.05480605 -0.23775312
000310 6e 1d c2 bd 8c 2f f4 3d dc 9f 7e bd a3 c6 e2 bd
       -0.094782695 0.11923131 -0.062164173 -0.11073043
000320 94 a8 97 3a c4 20 ea bd 8d 4f 09 be eb 4b b3 3e
       0.0011570626 -0.11432031 -0.13409252 0.35018858
000330 d3 62 c5 be c3 b2 6d 3e 51 70 2b bd a6 b7 3b bc
       -0.3855196 0.23212723 -0.04185516 -0.011457359
000340 03 42 8b 3c 69 5f a0 3d 96 fa bb 3d 6b de fe bb
       0.01699925 0.07830698 0.09178655 -0.007777979
000350 83 9b 6c 3e b0 27 ed bd 2f 6f bd bc dd 1d 9b bd
       0.23106198 -0.115798354 -0.023124306 -0.07574055
000360 98 0d f7 bd 14 63 71 be 11 a2 a7 3c 44 bd 4c be
       -0.1206314 -0.23572952 0.020463021 -0.19994074
000370 ac 57 b1 bc f4 15 af 3e d2 43 dd 3d 4b bf 9e be
       -0.02164825 0.34196436 0.10803951 -0.3100532
000380 0f 94 63 3e 9c 81 c1 3e 39 c7 ef 3d 75 51 b6 be
       0.22224449 0.37794197 0.117079206 -0.35609022
000390 0f 66 96 3e a6 42 ef be 14 ad 6e be bd 34 e9 bc
       0.2937474 -0.46730536 -0.23308212 -0.02846753
0003a0 87 3d 1e be ad 5c fd 3d 84 3b bc bd 11 73 a9 bd
       -0.15453158 0.12371192 -0.09191039 -0.082739
0003b0 9b 2c 40 bc ab 0a 87 3e 86 5f 8c be fd e1 53 bd
       -0.011729385 0.26375327 -0.2741663 -0.05172919
0003c0 8f a6 6a 3e 96 fe 53 be b9 45 d8 3d 76 ba d1 bd
       0.229151 -0.20702586 0.105601735 -0.10240643
0003d0 4b f3 a8 be ca b4 22 3f c2 82 8d 3e 56 1d 1f 3d
       -0.32998118 0.6355711 0.27638823 0.038846336
0003e0 59 92 3d be b6 29 2f 3f be 5b e6 bd cb 75 3d be
       -0.18512858 0.6842302 -0.11247967 -0.18501966
0003f0 e2 bc a1 bd 0c 56 56 be 6e c4 02 3f ae 1b 5d be
       -0.07897355 -0.20931262 0.5108098 -0.2159259

layers.1.att f4 [1, 4, 1]
000000 ca 2e 0c bf 05 01 69 bf 26 ba 21 3f 7a b7 6f 3e
       -0.54758894 -0.9101718 0.63174665 0.23409835

layers.1.lin_l.weight f4 [4, 128]
000000 4c 96 32 bf be b9 1f bc b1 db 82 3d bd 87 2c 3e
       -0.69760585 -0.009748874 0.06389559 0.16848655
000010 2a 16 f5 bd b3 38 04 be 45 e1 86 bc 8b 78 48 be
       -0.11967118 -0.12912254 -0.016464839 -0.19577233
000020 4d e2 eb 3e f0 86 b1 3c 43 38 cb 3c e6 07 6b 3c
       0.4607109 0.021670789 0.024807101 0.014345145
000030 8b 1d 0e 3d 72 95 d4 3d 44 2a b4 3d 9f 35 6d 3e
       0.034696143 0.10380067 0.08797124 0.23164986
000040 73 bd c2 bd e0 3e 06 be 54 d7 fb 3c c8 86 e2 bd
       -0.09508791 -0.13109922 0.030742325 -0.11060864
000050 00 07 06 be 51 03 0f 3e a3 b1 b7 3d 0d ac cf bd
       -0.13088608 0.13966109 0.089694284 -0.10140238
000060 1b 9e 3f 3d 21 6f 55 3e a7 d0 84 3e 05 dd 14 3e
       0.04678164 0.20843174 0.2594044 0.14537437
000070 82 1a 24 3d c8 fc d2 bc c0 07 d2 bc 77 f7 82 3e
       0.040064342 -0.025755301 -0.025638461 0.25579426
000080 3d e2 54 be 3a d2 fc bd f4 78 80 bd 0f fe 8c bd
       -0.20789428 -0.12344785 -0.0627307 -0.06884395
000090 e4 61 3a 3e 30 11 26 bc cf 30 6d 3e 6c 6a a5 3e
       0.18201405 -0.010135934 0.2316315 0.32307756
0000a0 2b c2 88 bc 46 43 7b 3d 22 b4 6a 3e c8 5f 95 3c
       -0.016694149 0.061343454 0.22920278 0.018234149
0000b0 71 1c 8b be 3f ec 89 3e 16 d5 52 3d ce 19 cc 3d
       -0.27170137 0.26938054 0.051472746 0.09965859
0000c0 8a 3a 29 3d 6b 88 bd 3e 94 95 94 3e a4 46 cf 3d
       0.041315593 0.3701814 0.2902037 0.101208955
0000d0 91 d0 e0 3d eb 3e 12 3e 10 26 f4 3d 14 92 b3 3c
       0.10977281 0.14281814 0.11921322 0.021920241
0000e0 2a 63 7c 3e 50 5a 06 3f 2a 57 f7 3d e3 2e c9 bd
       0.24647203 0.52481556 0.12077172 -0.09823396
0000f0 15 0e 44 3e b2 49 dc 3c 85 a8 0e 3e 8f ec 82 3c
       0.19145997 0.02689061 0.13931473 0.01598194
000100 f8 ca c2 3b 07 12 8d bd d9 d7 7a 3e 4b 6e 92 3e
       0.005944606 -0.06888204 0.24496402 0.28599772
000110 2f 83 fc 3c 67 d7 b3 bd 9f 9a df bd 38 65 23 3e
       0.030824272 -0.08781319 -0.109181635 0.1595658
000120 e8 80 da 3d d1 cb 7c 3e 01 22 65 3c 68 fe 91 3e
       0.10669118 0.24687125 0.013985158 0.2851441
000130 3b bf b0 bd 24 84 8a bd 05 00 54 bd 8c bc b9 bd
       -0.08630224 -0.06763485 -0.05175783 -0.090691656
000140 cc 04 ef 3d 9a 38 48 3e bf 6a 09 3e 6a cd b5 be
       0.11670837 0.19552842 0.13419627 -0.3550828
000150 41 39 35 be 36 f5 0d 3e ad 8b 87 3e 69 5a 95 bc
       -0.17697622 0.13863072 0.26473752 -0.018231587
000160 d8 9b 29 3c 47 b6 6e 3e da 66 e2 3d ae 31 00 be
       0.010352097 0.23311721 0.11054774 -0.12518951
000170 04 6b 0f 3e a0 d0 82 3e 4d 4e 2d bf ce ab f0 bd
       0.14005667 0.25549793 -0.676976 -0.11751519
000180 06 69 7d 3e f6 b7 94 3b 5b 91 c4 bd fe 89 df 3d
       0.24747095 0.0045385314 -0.09598037 0.10914992
000190 6e 6e 4c 3e 74 8f f2 bd 5f 7c 28 3e c3 fa 02 be
       0.19964 -0.11843768 0.16453694 -0.1279097
0001a0 2a dd 05 bf 7e 21 ff 3d 6a b7 3f bc 2e c4 dd bd
       -0.52290595 0.1245756 -0.011701444 -0.10828434
0001b0 19 92 8d bd 24 6a 85 3e 5b e5 1b 3e 7f 6c 0f 3d
       -0.069126315 0.2605754 0.15224211 0.03501558
0001c0 ec ce 79 3e 45 fc eb bd 29 50 1e be 22 e1 0a be
       0.2439534 -0.11522726 -0.15460266 -0.13562444
0001d0 7d 8f 21 be 8e f1 27 be df 99 5b be e1 76 3b 3e
       -0.15777393 -0.1640074 -0.21445416 0.18307067
0001e0 d1 2e f6 3d 54 7a a2 bd 39 cc 2d 3e 21 a0 22 be
       0.12020648 -0.079334885 0.16972436 -0.15881397
0001f0 86 c5 05 be a0 96 0b be d2 ad 25 be 63 5e 55 bd
       -0.1306363 -0.13631678 -0.16179588 -0.052091967
000200 c2 81 07 bf d0 99 0b 3d a0 cb 95 3d 99 bd b4 bd
       -0.5293237 0.034082234 0.07314229 -0.088252254
000210 b2 60 6b 3d 61 56 2a 3c 11 de 8a 3d d6 27 11 be
       0.057465263 0.010396571 0.06780637 -0.14175352
000220 59 d4 e6 3d 92 13 e1 3e cd a5 a4 bd a2 2a ca bc
       0.11270971 0.43960243 -0.080394365 -0.024678532
000230 5f 6c 34 3d 15 3c 1e 3d 0b aa 9a bd 6f 36 a1 3d
       0.044048663 0.038631517 -0.07551964 0.078717105
000240 e3 c3 02 be ec 76 13 be c7 52 64 3e 16 1e c9 bd
       -0.12770037 -0.14400834 0.22297202 -0.098201916
000250 af 57 d0 bd 4c ea 88 3e 03 4b 23 3e c7 35 57 3d
       -0.10172974 0.26741254 0.15946583 0.05254152
000260 79 78 b7 bc 7e 45 9f 3e 72 2b a2 3d b6 13 b5 bc
       -0.022396313 0.31107706 0.07918443 -0.022104125
000270 82 38 db 3d 9a 28 3e 3e e5 cd 0e be a9 7d d9 bd
       0.107041374 0.18570176 -0.1394573 -0.10619671
000280 26 67 22 be 6d 4a b1 3d 8e 3f 30 3e 80 7d 55 bd
       -0.1585966 0.08656774 0.17211744 -0.05212164
000290 5e 6d a9 3d 0a 7f 7d 3e ed bd 3c 3e ff bd cf 3e
       0.08272813 0.24755493 0.18431826 0.40574643
0002a0 50 18 d5 3d f5 01 79 3d ff a9 09 3e 76 4f 4e 3e
       0.10405028 0.060792882 0.13443755 0.201475
0002b0 c6 15 c1 3e b9 17 55 3e 6a 29 c1 3d 6f 6f 34 3c
       0.37711924 0.2080983 0.09431727 0.011012896
0002c0 41 08 16 be bf 53 40 3e 82 7b d0 bc 5a 18 e0 3d
       -0.14651586 0.18781947 -0.025449518 0.10942145
0002d0 31 c3 8d 3d 4c dd 00 be 62 a8 ce 3c 90 09 47 3e
       0.069219954 -0.12584418 0.025226776 0.19437242
0002e0 57 03 18 be be dc 20 3a 6c 5e 87 bc bb ab 17 be
       -0.14845024 0.0006136409 -0.016524516 -0.14811604
0002f0 43 e6 22 3b b7 4f 13 3e 07 01 70 3e 79 d8 8d 3d
       0.0024856485 0.14385878 0.23437892 0.069260545
000300 b1 5a 99 3e 93 6a 14 be fd 1d 9a 3d 4b 13 0b bc
       0.29952005 -0.1449378 0.07525251 -0.0084884865
000310 f0 68 df bd 54 cc 2a 3e a1 0e 99 3e 9c cf d5 bd
       -0.10908687 0.16679507 0.29893973 -0.10439989
000320 62 07 3a 3e 6a e2 37 bc c5 7d 0d 3e 4f b8 0f 3c
       0.18166879 -0.011223415 0.13817509 0.00877197
000330 f0 66 76 3e f9 ab 68 bd 1f 31 b8 bd c9 fc fd 3d
       0.24062705 -0.05680463 -0.08993744 0.124017306
000340 94 68 6c be 53 4f 99 3d 4d cb 90 3d b6 2b a4 bd
       -0.23086768 0.07485833 0.070700265 -0.0801615
000350 22 74 e0 3b 30 15 0e 3e a2 3a 0a 3e ee f3 24 3f
       0.0068497816 0.1387527 0.13498929 0.6443471
000360 61 7d 2d 3d e4 b9 a2 3d 74 3c 1d be 6f de a6 be
       0.0423559 0.07945612 -0.15355092 -0.32591578
000370 6a fd 0e be 60 c3 32 3e aa 25 da bb 15 56 8b bd
       -0.13963857 0.17457342 -0.006657322 -0.06803528
000380 35 b0 ba bc 5e a8 2d bd db e0 f8 bd d4 fc b5 3d
       -0.0227891 -0.042396896 -0.12152263 0.08886114
000390 20 d0 e9 bd 29 3e 44 3d ff 21 16 3d 76 87 55 ba
       -0.1141665 0.047910843 0.036653515 -0.00081454904
0003a0 54 79 9c 3e d1 80 03 3c 84 7c 18 be da 28 69 3d
       0.30561316 0.008026318 -0.14891249 0.056923725
0003b0 52 8a 1a be b5 94 07 be 91 66 17 3e 08 7b 9b bd
       -0.15091828 -0.13240321 0.1478522 -0.07591826
0003c0 45 ed d3 bc 2c e0 de 3d 90 12 0a 3e 32 4f ca bd
       -0.025869975 0.10882601 0.13483644 -0.098783866
0003d0 60 fe 0a 3e ea d9 03 be 95 f3 1b 3e 3c 91 06 3e
       0.13573599 -0.12876096 0.15229638 0.1314134
0003e0 0d 40 29 3c b0 51 b7 3d 3f 9d 63 3d 33 01 14 3e
       0.010330212 0.089511275 0.055569883 0.14453582
0003f0 a6 8c e6 bc 24 54 13 3e ba ac 61 be cf c5 02 3e
       -0.028143238 0.14387566 -0.22038546 0.1277077

layers.1.lin_l.bias f4 [4]
000000 e8 47 f2 3d 60 ee 30 3d 48 1e 1a 3d 9d 91 16 3a
       0.11830121 0.043196082 0.037626535 0.0005743744
