code/gnn/models/training/GCN/export/4/best_model.pt (torch, 6376 bytes, 3 tensors)

layers.0.bias f4 [64]
00000000: 8060 64be c51e a0bd 19d4 5ebe b6be bb3f
00000010: 2343 ab3f 7ca5 ab3f a3a3 a43f 9d6a 61be
00000020: 0237 f53e 6e2a a03f 438d 133f e634 0dbe
00000030: 664f 7b3f 3f7e 903e 690c 623f adee ad3f
00000040: bcab 973e 09b5 34bd b29a 0bbd 1812 c03f
00000050: ab22 adbc 57e9 9bbd d260 61be e975 ac3f
00000060: d26f fdbe 7aa6 a43f c183 5f3f 11f1 d0be
00000070: c23d 8d3d c51f 7f3f 4514 acbe 054e 8b3e
00000080: a5d3 83be 49c1 bc3f 2edd 323f 93b6 7b3f
00000090: ace7 ab3f c59f 10be 3829 893f c0a8 11bf
000000a0: 5f28 59be 387f cdbd 90a3 19be f430 b83f
000000b0: 9a5c bf3f 7858 85be 0178 833f 9acf 693f
000000c0: 15f2 393f ddef 6d3f 6f62 8fbe 3d00 ecbb
000000d0: d6ca f83d 2ef9 df3d d318 b53f ed56 493f
000000e0: bd65 ab3f d832 823f 2f3d 763e e85d 5d3f
000000f0: c74c 8f3f 8062 27be 17a4 33be c477 1abd
-0.22302437 -0.07818369 -0.21760596 1.4667575 1.3379864 1.3409877 1.2862438 -0.22013326
0.4789353 1.2512949 0.57637423 -0.1378971 0.9816803 0.28221318 0.88300186 1.3588463
0.2962321 -0.04411796 -0.034083076 1.5005522 -0.021134695 -0.076128654 -0.2200959 1.3473483
-0.49499375 1.2863305 0.87310416 -0.4080892 0.06896545 0.9965785 -0.33609214 0.27207962
-0.2574741 1.4746486 0.69868743 0.9832546 1.3430076 -0.14123447 1.0715704 -0.5689812
-0.21206807 -0.10034031 -0.150038 1.4389939 1.4950135 -0.2604406 1.0270997 0.913324
0.7263501 0.9294413 -0.28004786 -0.007202177 0.12148063 0.10936199 1.4148201 0.78648263
1.3390423 1.0171766 0.24046777 0.86471415 1.1195306 -0.16346169 -0.17543064 -0.037711874

layers.0.lin.weight f4 [64, 14]
00000000: d0bf 41bd 1fa8 a3bf 2f86 613e f930 84be
00000010: 8c84 db3e 3996 01bf 1fc2 e93e e717 6d3f
00000020: 20bb bfbe 8134 03bf cc48 e13e 6a5b 07bf
00000030: 3ee8 09bf bc51 063e 1321 d4bd 18cd ec3d
00000040: b9e6 d8bc f1aa cdbd c57f a53d 065e 873d
00000050: a462 f0bb ecb1 0fbe 47c2 003e 8ac4 0d3d
00000060: 7073 91be 96dc a4bd 5531 a5be 75c7 253e
00000070: b9a3 fc3d 22de 1bbf f88b 613e ea49 aabe
00000080: f75c 63be 914b aabe b33b af3f 7e5a 3a3f
00000090: 97a6 14be b5e5 47bf 3c01 a13e 81a4 01bf
000000a0: 7a09 2cbf 4f9e ca3e 0d25 a3be 3849 0abf
000000b0: 310d d93e e226 2ebe d162 cbbe 3d07 163f
000000c0: 034a 53be c814 b7bf ff79 2b3e c8b3 ca3c
000000d0: 4e02 5fbe e457 863f 4ec9 a8bf 6c0f 873d
000000e0: 67d2 9abe 2da5 94be f1fa b43e bbc3 9bbe
000000f0: 3d20 01bf fb02 083f ba08 6cbe 4ad3 8ebf
00000100: f61b 983e 2500 e53d ae7b 71be 4e67 933f
00000110: c88e aabf 1a23 963e 2836 10bf 183f acbe
00000120: 4a90 f23e 5624 413e 6fb8 18bf c3ba b03e
00000130: 9924 c6be 1c6b bbbf b3e8 743e dfac 7c3d
00000140: 521b 89be 57d0 753f 81b6 9abf e433 993e
00000150: 54ad c8be cede 63be f378 ad3e edf0 df3e
00000160: de86 8a3e df0a 4e3e 3d46 f8be 7b1d a5bf
00000170: 5f29 c13e 73be 273e 78c6 b2bd a537 913f
00000180: 4225 9abf 157b 2c3f ae57 5f3f 627f b8be
00000190: ec85 3c3d 8a9f d5be 6bb8 c2be 7801 b7be
000001a0: db61 5d3f 2664 863f 7f55 2abe acae 10bf
000001b0: cf15 353f 3f58 41bf 2a08 2cbf 5214 683f
000001c0: e30f 6d3b 8c85 7f3d 34a2 7dbe a6b4 1dbe
000001d0: 9463 823d e980 c6bd 68ab 64bd 2a07 dabe
000001e0: 9c2e b03f d82e 83bf cd5e a93e f04b 183f
000001f0: 6a68 1abf 0543 45be 873b 11be 5937 91be
00000200: ab19 9e3e a59b ffb9 fc42 72be 912d a83d
00000210: a87e bebe 4c5d abbf 5cfb 793e fad7 ba3e
00000220: f2ac f1be f81d 923f 8db1 98bf b6a7 5f3f
00000230: 9b39 88be f934 c1bc 4374 c73e 1280 903d
00000240: 0ed4 2fbf b3dc 40be 4931 733d 42f5 5cbe
00000250: 2fe9 a73e 6fe5 e6be 5e93 313e c3cd 5c3f
00000260: 7b10 143e ded8 903d d2c3 e7be ff35 b0bf
00000270: c0b9 ba3e 61bc 95be 9183 103f e79f 13bf
00000280: dce7 103f 8a60 4f3f 5c40 f5be ff1f 23bf
00000290: 4e7a f13e 272d 1ebf 6a99 34be a10a 2a3e
000002a0: 6913 54bd f1a2 adbc 9605 a93e 79b5 97be
000002b0: 1acd 51bf 9664 2d3f 8123 88be 0b46 0bbf
000002c0: f235 19bf 6b5e 0f3f 2389 04bf d2b5 263f
000002d0: bf61 17bf 8608 e23d 55fd cabf b81e 43c0
000002e0: fab1 c1bd 12fc a53f 3c20 103f b988 81be
000002f0: 1307 82bf dd2e c93d c2b1 d6be bbc2 763f
00000300: 76cb 59bf 8ce6 bfbe 2632 883c 7a87 5abe
00000310: 8ae1 e93e be1e 3c3f d55b 953e 40fe 613e
00000320: cc52 f03e 0eaf 363e 5852 2ebf 14b7 f5be
00000330: a6f0 143f 376d 043f 8572 be3e 7f66 b23e
00000340: c215 e9bd 2d6f 57bd da12 ab3d 7bb0 96be
00000350: 87a3 8f3d 2f14 91be df24 013b f1a9 56be
00000360: 423f 56be 00c7 74bf 8ea9 6ebe b327 fe3e
00000370: f51a 8cbf f211 d63f 3f49 56bf 3395 6c3f
00000380: ea33 32c0 e1a2 4bbf 6d8e acbe ab9d d2bf
00000390: f766 143f 3811 823e 6efb cabe 754d 25bf
000003a0: 0f7f 5dbe 0ec0 2f3f c0cb d0be d3af 98be
000003b0: d726 c73e 8b55 afbe fa73 7bbf 5755 4bbf
000003c0: 1a82 95bf cef7 c53e b67b 043f d1de dfbc
000003d0: 2085 0b3e 4b6d 903d 9943 66be d40b febc
000003e0: 9930 b5be 783f b5be 594f 35be e696 003f
000003f0: 9013 123f 20ca 10bf d6cc 38be d77e 333e
-0.047302067 -1.2785681 0.22023843 -0.25818613 0.42874563 -0.50619847 0.45655915 0.926146
-0.37447453 -0.5125199 0.44000852 -0.5287386 -0.5387 0.13117117 -0.10357871 0.11562556
-0.026477205 -0.1004237 0.08081011 0.066097304 -0.0073359776 -0.14032716 0.12574111 0.034611262
-0.28408384 -0.08049886 -0.322642 0.16189368 0.12335915 -0.6088582 0.2202605 -0.33259517
-0.22203432 -0.33260778 1.3690094 0.7279433 -0.14516674 -0.7808488 0.31446254 -0.5064164
-0.6720196 0.39573905 -0.31864205 -0.5401797 0.42392877 -0.1700702 -0.39723828 0.58604795
-0.20633702 -1.4303217 0.16745757 0.02474393 -0.21778223 1.0495572 -1.3186433 0.06594738
-0.3023865 -0.2903227 0.35347703 -0.30422768 -0.50439817 0.5312955 -0.23050204 -1.115823
0.29708833 0.11181668 -0.23582336 1.1515901 -1.3324823 0.29323655 -0.56332636 -0.33641887
0.4737571 0.18861517 -0.59656423 0.34517488 -0.38699797 -1.4642062 0.23916893 0.0616883
-0.26778656 0.96021026 -1.2086946 0.29922402 -0.3919474 -0.22252962 0.3388134 0.437385
0.2705602 0.20121334 -0.48491088 -1.2899622 0.37726876 0.16381244 -0.08729261 1.1345106
-1.204262 0.6737531 0.87243164 -0.36034685 0.046026155 -0.4172328 -0.38031325 -0.35743308
0.8647744 1.0499313 -0.16634177 -0.5651653 0.707364 -0.7552528 -0.6719996 0.90656006
0.00361728 0.06238322 -0.24768907 -0.15400943 0.06366649 -0.096925564 -0.05582753 -0.4258359
1.3764224 -1.024867 0.3308014 0.5949087 -0.60315573 -0.19263847 -0.14182864 -0.2836254
0.30878958 -0.00048753354 -0.23658365 0.08211816 -0.37206006 -1.3387847 0.24412292 0.36492902
-0.4720226 1.1415396 -1.1929184 0.8736528 -0.2660645 -0.02358483 0.38955888 0.070556775
-0.68682945 -0.1883419 0.059373174 -0.21577933 0.32795092 -0.4509692 0.17341372 0.8625147
0.14459412 0.07072614 -0.45266587 -1.3766478 0.3646984 -0.29245284 0.56450754 -0.57665867
0.5660379 0.8100668 -0.47900665 -0.637207 0.47163624 -0.61787647 -0.17636648 0.16605617
-0.051776323 -0.02119586 0.33012074 -0.2963064 -0.81953585 0.67731607 -0.26589587 -0.5440375
-0.5984794 0.56003445 -0.51771754 0.65121186 -0.59133524 0.11036782 -1.5858561 -3.04875
-0.094577745 1.2967551 0.56299186 -0.25299624 -1.0158409 0.098233916 -0.41932493 0.96390885
-0.8507608 -0.3748058 0.016625475 -0.21340743 0.45679885 0.7348441 0.29171625 0.22069645
0.4693817 0.17840216 -0.68094397 -0.4799124 0.581797 0.5172915 0.37196746 0.34843823
-0.11381103 -0.05259626 0.08353205 -0.2943152 0.07013612 -0.2833571 0.0019705815 -0.20963265
-0.20922568 -0.9561615 -0.23306867 0.49639663 -1.0945727 1.6724226 -0.83705515 0.9241516
-2.7844186 -0.7954541 -0.33702412 -1.6454366 0.5796961 0.25403762 -0.3964495 -0.64571315
-0.216305 0.6865243 -0.4078045 -0.29821643 0.3889682 -0.34244952 -0.9822384 -0.79427093
-1.1680329 0.38665622 0.5175127 -0.027327927 0.13625002 0.07052096 -0.22486724 -0.0310115
-0.3538864 -0.35399985 -0.1770605 0.5023025 0.570611 -0.5655842 -0.18046889 0.17528854

layers.1.lin.weight f4 [1, 64]
00000000: 6140 25bf efb5 ee3b 8535 3abf fdb1 5340
00000010: 3c73 3f40 a685 3440 dbc1 2040 5c8b 6dbf
00000020: 730f bf3e 857c 2740 5c04 053d ffd1 3abf
00000030: c85b 563f fbbd f4bf 8bc7 293f 2043 4340
00000040: e344 b7bf b531 4cbf 39d7 88bf aae0 5b40
00000050: 3978 81bf 28bf 24bf 29df 5abf 58ef 2440
00000060: 84ae c5bf 2ba9 f83f b2aa 063f 641b f7bf
00000070: 2d06 90bf 0bac 543f 746a 1dbf 65f4 efbf
00000080: 6afb 36bf 0b5e 6b40 7b1c 533e ede2 653f
00000090: a1be 2840 7e37 61bf 7a36 a43f 00ca d4bf
000000a0: cf64 20bf 065b 123d 93bd 19bf 8425 2b40
000000b0: 3087 4740 5adc f0be c6de 9d3f d317 743f
000000c0: f0f9 063f 189b 8d3f 2f69 24bf 0260 a9bf
000000d0: e2de 9cbf c6c2 d4bf 31d3 1c40 aa87 043f
000000e0: 27d4 3340 e237 5d3f 801b e7bf caec 4f3f
000000f0: 90ce a53f b757 febe 0864 abbe 3e10 da3c
-0.6455136 0.007284872 -0.72737914 3.3077385 2.9914083 2.8206573 2.511832 -0.9279077
0.37316474 2.616975 0.03247486 -0.7297668 0.837338 -1.9120477 0.66320103 3.050972
-1.4317898 -0.79763347 -1.0690681 3.4355874 -1.0114814 -0.6435418 -0.85496765 2.5771084
-1.5443883 1.9426626 0.5260421 -1.9305234 -1.1251885 0.83075017 -0.6149056 -1.8746458
-0.7147738 3.677615 0.20616333 0.89799386 2.636635 -0.879753 1.2829125 -1.6624146
-0.6265382 0.035731338 -0.6005489 2.6741648 3.1176262 -0.47043115 1.233361 0.9534885
0.52725124 1.1062956 -0.64223 -1.3232424 -1.2255518 -1.662194 2.45039 0.51769507
2.8098238 0.86413395 -1.8055267 0.81220686 1.2953663 -0.49676296 -0.33474755 0.026619073
