code/gnn/models/training/SAGE/export/6/best_model.pt (torch, 18790 bytes, 5 tensors)

layers.0.lin_l.weight f4 [128, 14]
00000000: a073 1cbe 5f82 6bbe 6b2c 52bd 4564 2cbe
00000010: b0ac 823d 1a4b 82bd c60d dbbd f0c2 cebc
00000020: 80b8 1539 7647 a7bd 7edb d23d 8dee 87bd
00000030: d16b acbd f286 7f3e c3cb d7bd 5388 dfbd
00000040: 0d44 573d 6a5c 823b 6c2e b1bd 3341 943d
00000050: 70bf 43be 6a51 42be 6997 4dbe b04b 8fbe
00000060: 24ec 25be 268c 7fbd ea1b 3b3e 616e 95be
00000070: f3b3 6a3d e36e 4b3e d304 e4bc 4b60 24be
00000080: 6152 51be d3d1 233e e6ee a23d 760d 16bd
00000090: f5e1 0c3e 802a 433e b0f7 90be fe5c 303e
000000a0: 2ecd 643b 05f7 93be b02a 8fbd 1d99 643e
000000b0: f6f1 5e3e 1c6c 9a3c 1682 33be c0f6 1dbe
000000c0: c7c9 c53d 21ff 1dbe 2b3b fd3c 82a1 983e
000000d0: a6e0 a83d e1d7 943e fd55 aa3d e69d 9fbd
000000e0: 8010 8cbe d36c 623c 04a3 0fbd 38d4 35be
000000f0: 9c5b c23d 0be0 c7be 70bc 273e f563 0b3e
00000100: c7be 6ebd 6aea 61be 1317 40be 8833 aabe
00000110: 997e 713e 807a 54be 9264 523e 8cf4 703e
00000120: 716b 35be 6fbd c8bc 471e 1fbe 9114 303e
00000130: 8b1c d03b dd48 6e3d 5094 153e 7b81 e6bd
00000140: 1f23 1d3d 8c21 f5bd 4adc 283e c351 ccbe
00000150: 0376 7cbe f3ea fa3d 7ba5 3e3e abcd 8fbe
00000160: aba4 8abe 2147 dcbd e46a 3f3e 57b8 4fbd
00000170: bbe3 6b3d 78bb 0e3e 92d2 5dbd 144f a83d
00000180: 7384 4cbd f108 81be ca2c 873e ab2e 62be
00000190: d526 203d 07ab 223e 2672 403c 53b0 27be
000001a0: f481 4a3e e630 1bbe cdbd f73d 8258 d2bd
000001b0: 273f 1a3e 4e32 153d a9e0 ebbc b8d5 c4be
000001c0: 56de e33c 6712 5dbb 0cb2 dd3c 8de1 f6bc
000001d0: f944 173c 3bab 223e dd79 423e c900 f93d
000001e0: 862d ba3d 4210 4d3d c5ec 3fbd bdc0 cbbd
000001f0: 4bc1 a83c 3748 bfbc 30f1 343e 4a93 c13c
00000200: 675a 773e 0b7c 373c 3873 eb3c 9dc5 e6be
00000210: 3a39 6bbe 0317 9abe 01fa 553e 97b1 0fbd
00000220: 1f28 6dbd c7c8 00bf 5c99 5cbe acdf 163e
00000230: 840e efbd f245 e03d 54f9 333d e694 3cbe
00000240: dad0 15be 0c55 bebe b7d9 23be d973 43be
00000250: ee70 6c3d 17f7 cbbc 75d9 3d3e 4f48 d73d
00000260: 45d2 273e 933f 79be 5016 5abe 19e0 c3bd
00000270: 6101 833e 81ca 66be 270f 0f3e 89f0 d9bc
00000280: 4233 1dbc ef4e 6c3e 2e04 84be 8578 a4bd
00000290: d38d 46be 05a5 53bc 4ff7 793e abac 08be
000002a0: e4b4 283d e9c6 d6bc 9b4a 0f3e 5e93 803e
000002b0: 9d14 1fbe d913 733d a619 b9bc d950 733d
000002c0: 81a0 bd3c 794d 9c3c 3e47 acbd 0544 913d
000002d0: b42b 983d d9ea c93e 383f 5ebe c309 2bbd
000002e0: ac54 783d 1125 713e 6382 b8bd dfc9 6a3d
000002f0: 59a4 d43b f76b 28ba 71cc 4ebe f4a0 8abe
00000300: d295 24bd 1f30 60be b482 cc3c 5d45 a43d
00000310: c57e 333e fd48 293e 8964 46be 0f65 263e
00000320: 688a adbe 1398 ec3d 5097 b93c f4a5 023e
00000330: e59b 46be 8b93 c93c 4a5c 873c 1e9e 0dbd
00000340: 3481 b43e c1cb a63e 2b9c 96bd 8e8e 4f3e
00000350: 92ce 4fbd 704c a2be b136 f9bd 5a27 5bbd
00000360: 93d4 3f3d 7aff 4c3e 51f8 4c3c 676a 87be
00000370: 8f5d 93be 3d6e ac3d c744 e8bd bedd a63c
00000380: 4350 9b3e b990 87be f7cc 4c3e 3a03 2d3c
00000390: 41da edbd ec63 25bc 8aac ccbe edcd 73be
000003a0: 81bc 02be 74de 7b3e 06ad 4dbe eb67 c03d
000003b0: ee82 8ebe 725d 3d3e 580c 32be 7b8d 94be
000003c0: 66cc ca3d c9a7 173e d66b 773d e25c 9abe
000003d0: 1259 cdbd ea92 d53d e1ba 1f3e 3647 5b3e
000003e0: 73d4 f4bc 9107 043e e836 8ebe 1205 abbe
000003f0: ef09 cfbd 60b2 3c3e 9751 e7bd 74e3 273e
-0.15278482 -0.22998951 -0.05131189 -0.16835125 0.06380594 -0.06361981 -0.106959864 -0.025239438
0.00014278479 -0.08167927 0.10295771 -0.06637297 -0.08419002 0.24953821 -0.10536911 -0.10914674
0.052555133 0.003978302 -0.086514324 0.07238998 -0.19115996 -0.1897637 -0.2007729 -0.27987432
-0.16203362 -0.062389515 0.18272367 -0.29185775 0.05730052 0.19866519 -0.027834332 -0.16052358
-0.20441581 0.1599801 0.079557225 -0.03663393 0.13758071 0.19059181 -0.2831397 0.17222974
0.0034912336 -0.28899398 -0.06990564 0.22324033 0.21771988 0.018850379 -0.17530093 -0.15426159
0.096576266 -0.15429355 0.030912003 0.2981072 0.08245973 0.29070953 0.08317182 -0.077937886
-0.27356339 0.013819891 -0.035067573 -0.17756736 0.09490129 -0.3903812 0.16380477 0.1361235
-0.05828741 -0.22062078 -0.18758802 -0.3324244 0.2358345 -0.20749855 0.20546177 0.23530787
-0.17716767 -0.024504391 -0.15538894 0.17195345 0.006351059 0.058174957 0.14607358 -0.11255165
0.038363572 -0.11969289 0.16490284 -0.3990613 -0.24654393 0.12251844 0.18617813 -0.280866
-0.27078757 -0.10755754 0.1869312 -0.05071291 0.057590228 0.13938701 -0.054155894 0.08218208
-0.049931 -0.25202134 0.2640136 -0.22088115 0.039099533 0.15885554 0.011745965 -0.16375856
0.19776136 -0.15155372 0.120967485 -0.10270788 0.15063153 0.036424927 -0.02879365 -0.38444304
0.027815979 -0.0033732892 0.027062438 -0.030136848 0.009232753 0.15885632 0.189918 0.12158353
0.09090714 0.050064333 -0.04685666 -0.09948871 0.020599982 -0.023349864 0.1767013 0.023629803
0.2415558 0.011199008 0.028741464 -0.45072642 -0.22971049 -0.30095682 0.2089615 -0.035081472
-0.05789959 -0.5030636 -0.21542877 0.14733762 -0.116726905 0.10950841 0.04393895 -0.18416175
-0.14630452 -0.3717426 -0.1600102 -0.19087161 0.057724886 -0.024898095 0.18539985 0.10511839
0.16388805 -0.24340658 -0.21297574 -0.095642276 0.2558699 -0.22538187 0.13970624 -0.026603954
-0.00959474 0.23076986 -0.2578444 -0.080308 -0.19390039 -0.012917762 0.24410747 -0.13347118
0.041188136 -0.026217895 0.13993303 0.25112432 -0.15535207 0.0593451 -0.022595238 0.059403274
0.023147823 0.01907991 -0.08412026 0.07093052 0.07430211 0.39436987 -0.21703804 -0.041757356
0.060627624 0.23549296 -0.09009244 0.057321426 0.0064893183 -0.00064247794 -0.20195176 -0.27075922
-0.040181942 -0.21893357 0.024964668 0.080210425 0.17528827 0.16531749 -0.19374289 0.16249488
-0.33894658 0.11552443 0.02265516 0.12758619 -0.19395407 0.024606487 0.016523499 -0.03457462
0.35254824 0.32577327 -0.073540054 0.20269224 -0.05073411 -0.31698942 -0.12168635 -0.053504325
0.046833586 0.20019332 0.012510375 -0.26448366 -0.28782317 0.08419464 -0.11341243 0.020369407
0.30334672 -0.26477602 0.20000063 0.010559851 -0.11613894 -0.010094624 -0.39975387 -0.23809023
-0.12767221 0.24596578 -0.20085534 0.09394821 -0.27834266 0.18492678 -0.17387521 -0.2901419
0.09902267 0.14810099 0.060405575 -0.3014899 -0.100267544 0.10428412 0.15598632 0.21413884
-0.02988646 0.12893511 -0.27776265 -0.33402306 -0.101093166 0.1842742 -0.11294859 0.1639536

layers.0.lin_l.bias f4 [128]
00000000: 3d49 f7bd c1b4 8bbe 4f68 0f3e 9883 863e
00000010: 16ad da3e 8991 46be 056a 513e 1e29 5e3e
00000020: 05a4 723d 2258 253e 89bd f43e ae30 333e
00000030: 502f 8bbe 462c aa3e a45e 50be 9aa1 a13d
00000040: 5160 2c3d 71f9 2abe bbca 16be 73fd a73e
00000050: c5c8 66be e69b 4a3e 5637 a43e 7106 01be
00000060: 6a34 643e 5023 ab3d 2e4e b3bd b861 be3d
00000070: 2c8b c33d ec2d 59be b546 c8bd eec5 74be
00000080: c999 b5bd f44b 1c3d 6035 b2bd d40f 143e
00000090: 228c 473e 78f0 e43d 326e a2bc 312e ff3d
000000a0: e887 b1bd d0ba a53e 4c72 843e 0be8 013e
000000b0: c532 dabd a849 38be b0c9 a03e e9eb 563d
000000c0: e98f 6f3e 6db7 c9bb 7524 273e e94c 823e
000000d0: fc59 723d 13af 36be 8fd6 603d 28cf 6fbe
000000e0: 22d0 5dbe 71d3 473e fba3 cf3e 0656 81bd
000000f0: 8b4d 8bbe 58f3 e53c 0c1d 903c 90c0 b0bb
00000100: c2ac 77bd b6ae 13be 7b41 0a3e 41f0 71bd
00000110: dffa d63d 4e7e 7e3e 48c6 203e 3650 26be
00000120: 317a 80be 93e1 8b3e a440 5bbd c388 02be
00000130: 468c 86bd 4287 843e b5c4 6d3e 07f2 833d
00000140: 3713 3d3d 6c4c 2b3e cd2f 413b d09d debc
00000150: 2bd5 1ebe b9c1 fb3d 1422 14bd 16b3 013e
00000160: 3496 f03d cca0 85be 7370 9a3e 6c03 6e3d
00000170: 32d0 453e 7465 5fbe d931 c43d 68d0 77be
00000180: 91c3 a9bc 4942 69bd d6ab 9a3c ae25 a63e
00000190: 1229 5cbd 1e33 cebd 9706 f63b f0b4 09be
000001a0: dd04 21be 119c b33d 50e3 873e 7bb8 cc3e
000001b0: c017 52be 165e febb bc37 6e3d 8d5f 90be
000001c0: 3e68 a53e ba33 e63e 8d82 053e 4522 a73e
000001d0: e316 8f3e 6d27 393d 7f33 a8bd ff92 ecbd
000001e0: ae13 19be 6d2d 933e 91ae 3f3e 89e6 e53d
000001f0: 0598 8ebe c50a 99bd 07b9 b73d 4551 3bbe
-0.12074516 -0.27286342 0.14004634 0.26272273 0.4271018 -0.19391455 0.204506 0.21695372
0.059238452 0.16146901 0.47800854 0.17499039 -0.27184534 0.33236903 -0.20348603 0.07892151
0.042084042 -0.16696717 -0.14725773 0.32810554 -0.22537525 0.19786033 0.32073468 -0.12600113
0.2228562 0.08356345 -0.08755146 0.09295982 0.09548029 -0.21208924 -0.09779111 -0.23903629
-0.08867223 0.038158372 -0.08701587 0.14459163 0.1948705 0.11178678 -0.019827936 0.12459982
-0.086685 0.3236909 0.25868452 0.12686174 -0.10654215 -0.17996848 0.31403875 0.052471075
0.23394741 -0.0061558993 0.16322501 0.25449303 0.059167847 -0.17840223 0.05489212 -0.23418868
-0.21661428 0.19514252 0.40554795 -0.06315236 -0.27207598 0.028070137 0.017591976 -0.005394049
-0.06046749 -0.14422116 0.13501541 -0.059067015 0.104970686 0.24852869 0.15700638 -0.16241536
-0.25093225 0.27320537 -0.053528443 -0.12747483 -0.06569724 0.25884444 0.23219569 0.064426474
0.046160903 0.16728371 0.0029477954 -0.02717486 -0.15511005 0.12292809 -0.036165312 0.12665972
0.11747399 -0.2609924 0.30163917 0.058108732 0.19317701 -0.21816045 0.0957982 -0.24200594
-0.020723136 -0.05694798 0.018880766 0.32450622 -0.053750105 -0.100683436 0.00750811 -0.13447928
-0.15724511 0.08770002 0.26540613 0.39984497 -0.20516872 -0.0077626808 0.05815862 -0.281979
0.32306093 0.4496134 0.13038082 0.32643333 0.2794715 0.045203615 -0.08212947 -0.11551475
-0.14948913 0.28745595 0.18718936 0.11225612 -0.27850357 -0.07472757 0.08970838 -0.1829272

layers.0.lin_r.weight f4 [128, 14]
00000000: 1ca8 173e f5b5 b33d 8615 0e3e 4386 c4bb
00000010: 4c3d b9bd eb74 b93d dcd2 d2bd c1e2 0dbe
00000020: 9187 81bc e5b9 3d3e 954c 67be 601f 1d3e
00000030: e873 8bbe 94cc 163c 509a dfbd 0fe6 06be
00000040: 3b21 c6bd a977 4ebe 8801 59be 8d4f 71bd
00000050: 538f 5bbe 039d 20bd b9c3 5c3e c997 3bbe
00000060: 9414 a6bd dcd0 3a3e 6bb6 9ebb 351e 92bd
00000070: 1f45 203d fbbd 1d3e 47ee 89be 1114 223e
00000080: 4ddd 4dbe 7cdc 703e f63c 45ba 2dbd 2fbd
00000090: 7c53 27bd 64c7 96bd 3c0e 333c 50bd 8d3e
000000a0: e6a4 38be 49ff 65bd da5a 633e b475 3cbe
000000b0: e777 383e 8689 8f3c a754 64bc edb7 91be
000000c0: 25bc a0bc 994b 0dbe 5ff1 423c 628e c73c
000000d0: 79f3 6fbd 7365 16be 23da 64be bb29 753e
000000e0: 6e3e 763d 7ac2 173e f561 f8bd 7693 033d
000000f0: ef96 7fbd 78c4 8d3d d8fc 813d 105f a7bd
00000100: 8e4c aebe 661e edbd 63b1 6cbe 83b9 ba3c
00000110: a2c6 193f 0d67 e3bd 5247 38bd 4156 db3e
00000120: 0f7f f8bd 607e d43b 8926 babe 3da8 a73e
00000130: c35c bc3e 8161 d93e 1031 05be 3e04 993d
00000140: 66cf c4bd 18f9 763b 7d53 b73d 1e88 69be
00000150: 137f 143e fea5 6a3e d9af c1be 90ca 1e3d
00000160: 2dee 29be fa47 ab3d c210 383e c78d 553e
00000170: 1549 ab3c d13d 36be 5083 7fbe 6fd4 913e
00000180: 4af5 093f 4a3d b3bd 0dab 27be d7e5 2abc
00000190: 59b7 2e3e eb0d c9bd 7e17 a5be 673f a03d
000001a0: 0110 15bd b18a 423e ee79 7d3e cffa 4cbe
000001b0: 7ca0 a63e 946f 7dbc ebcf 893e 3c93 21be
000001c0: 353c e83b 616c d5bd 9e34 0cbe 1478 7c3e
000001d0: 1734 d9bd 361e 03be 55a0 cd3e 60eb 9d3d
000001e0: 1c1a 2fbe dab3 71be d103 15be 83cd 72be
000001f0: e014 2bbe 08d9 123e af58 7fbe 64c4 15bd
00000200: fe4f 0abf 8db8 c3bd 13c4 7c3e 544c 89be
00000210: edd3 8b3d 80bd 3fbe 726f f5bd 1939 923e
00000220: 02ba 413e 4cb3 b8bd bdb4 9c3e fe6e 1fbd
00000230: 0ec3 73be bf16 043e 6106 a2be dcd1 06be
00000240: 3ae5 8dbd 8ebd b2be e782 b9be a370 e0bd
00000250: 3997 99be ea94 c03d 0f13 213d 80d2 3f3d
00000260: 75b8 053f 620e 7dbd a07c ef3c 5351 383e
00000270: 5ded 27be 033b 9a3d 140d 29be 64ce 04be
00000280: e96e 39be 1368 b53e eb93 86be 814f 8fbc
00000290: 163f 3cbe 254e 28be 6514 b83e 2e60 36bd
000002a0: 6e69 4fbe e65a a6be 8ad6 54be fde5 673e
000002b0: 04b0 dfbd c813 3b3e 5c25 88be ba75 8e3d
000002c0: 1d10 f93d 630b 813d 0a66 13be d026 763e
000002d0: cfc3 08be ed6a 9e3e fd68 613e 7444 84be
000002e0: 148d b2be 764f 4cbe a2e3 64be 6504 913d
000002f0: bc00 a3bd c86f b43b 8362 8fbe d6e9 97bd
00000300: 44f8 a53c b966 6cbe 6e8d a23e 5f04 3abd
00000310: 23b4 a5bd 917d 9ebe f520 fc3d c03b b7bc
00000320: 61b9 cc3e ae00 233e 939e 34be 96eb 91b9
00000330: f4c9 a3bc cdc2 30be 51ea 71be 1289 b9bd
00000340: 920e 38bd 138f 983e 8ded febd 9ebb d93d
00000350: 467a c6be b7ab b9bc a564 2cbe 57ee b0bb
00000360: ed56 84be fa31 39be bba3 3cbe 419e 0a3d
00000370: 2a73 f6bc 47ee a0bc 76ca 5e3e c246 eabd
00000380: bfd4 d03c 6aeb 0e3d 509a bcbe ae9b 8c3d
00000390: 4d69 783e 61eb b3bb 5ef0 2c3e ffa1 42be
000003a0: 081c 483e 143e 043c 919d 5a3e b7bb 6fbd
000003b0: d9ad 613e a199 04bd 154b 3b3e 92f7 813e
000003c0: a7a8 84be 4760 b03d 42a2 b5bd e178 e53d
000003d0: a36e 4bbe 9f68 6a3d b67d 70bd 489d 55bc
000003e0: 396d 483e 1fd0 493d 64e2 b7bc 9912 c33d
000003f0: 2aa4 86bd a84d 5b3e 78f7 573e f2a6 e7bd
0.14810222 0.0877494 0.13875398 -0.0059974506 -0.090448946 0.090555035 -0.102941245 -0.13856031
-0.015811713 0.18527944 -0.22587807 0.15344 -0.27236867 0.009204049 -0.10918105 -0.13173698
-0.09674307 -0.20162834 -0.2119199 -0.058913756 -0.21441393 -0.039212238 0.21559037 -0.1831962
-0.08109394 0.18243736 -0.0048435233 -0.07134668 0.03912842 0.15404503 -0.26939604 0.15827967
-0.20103951 0.23521608 -0.00075240375 -0.04290502 -0.0408511 -0.073622495 0.010928687 0.27683496
-0.18031654 -0.056151662 0.22202626 -0.18404275 0.18014489 0.017521631 -0.013936198 -0.28460637
-0.019620964 -0.1379837 0.011898368 0.024359886 -0.058581803 -0.14687137 -0.22348838 0.239417
0.06011813 0.1482028 -0.12128059 0.03212305 -0.0623998 0.06922239 0.06347054 -0.081724286
-0.34042782 -0.11578064 -0.23114543 0.022793537 0.60068715 -0.1110364 -0.04498989 0.42839244
-0.121336095 0.0064847916 -0.36357525 0.32745543 0.36789522 0.42457202 -0.13006997 0.07471512
-0.096098706 0.0037685093 0.08951471 -0.22805831 0.145016 0.22914883 -0.37829474 0.038767397
-0.16594763 0.08363338 0.17975143 0.20854865 0.020908872 -0.17797019 -0.24952435 0.28482386
0.53889906 -0.08751924 -0.16373844 -0.010430775 0.17062129 -0.09817108 -0.32244486 0.07824593
-0.036392216 0.18998219 0.24753544 -0.20017551 0.32544315 -0.015468497 0.2691644 -0.15778822
0.0070872554 -0.10421062 -0.13691947 0.24655181 -0.106056385 -0.12804493 0.40161386 0.0771091
-0.17099804 -0.23603764 -0.14552237 -0.23711209 -0.16707182 0.14340603 -0.24936174 -0.036564246
-0.5402831 -0.09556685 0.24684171 -0.26816046 0.06827531 -0.18724632 -0.11984147 0.28559187
0.18918613 -0.09018573 0.30606642 -0.03892421 -0.23804876 0.12899302 -0.31645492 -0.13165992
-0.06928487 -0.34910244 -0.36232683 -0.10958984 -0.29998186 0.09403403 0.039324816 0.046831608
0.52234584 -0.061781295 0.02923423 0.17999773 -0.1639914 0.07530787 -0.16508895 -0.12969357
-0.18108715 0.35430965 -0.26284727 -0.017493965 -0.1838344 -0.1643606 0.3595306 -0.044525318
-0.20255062 -0.32491225 -0.20784965 0.22646327 -0.10922244 0.18269265 -0.26591003 0.06956048
0.121612765 0.06301 -0.14394394 0.24038243 -0.13355945 0.30940953 0.22012706 -0.25833476
-0.3487326 -0.19952187 -0.2235246 0.07080916 -0.079591244 0.0055064894 -0.28004846 -0.074176475
0.020259984 -0.2308606 0.31748527 -0.045414325 -0.08090999 -0.30955175 0.123109736 -0.022367358
0.39985183 0.15918228 -0.17638616 -0.0002783208 -0.01999376 -0.1726181 -0.23624541 -0.09059347
-0.04493577 0.29796657 -0.12447653 0.10631488 -0.38765162 -0.022664888 -0.16835268 -0.005399506
-0.2584757 -0.18085471 -0.18421833 0.03384233 -0.030084211 -0.01964487 0.2175692 -0.11439277
0.02549207 0.034892477 -0.3683648 0.06865631 0.24258919 -0.005490706 0.16888568 -0.19007109
0.19541943 0.008071441 0.2134917 -0.05852863 0.22038974 -0.032373074 0.1829036 0.25384194
-0.25909922 0.086121134 -0.08868839 0.112046964 -0.19866423 0.05722868 -0.058713637 -0.013037987
0.19572915 0.049270745 -0.022446819 0.095250316 -0.065742806 0.21416342 0.21090496 -0.11311139

layers.1.lin_l.weight f4 [1, 128]
00000000: 6e5a e9bb ba10 0abd 2e38 1e3d 5fa9 d0bd
00000010: 9290 2c3e 1341 04bd f6d5 1f3e 41e8 8fbb
00000020: 4a9e 383d 34e0 9f3e 0ec0 853e c51d 343e
00000030: 740f 9c3d a6cb 4a3e ae63 90bd 81bf a53d
00000040: 711c 103e e577 863d 8b91 96ba f1ae 473e
00000050: 8429 fa3d 85c4 5b3e 6c31 fabd efb2 7fbc
00000060: f3f8 a83c 3471 ccbc d999 9fbd 10d0 403e
00000070: e80d 573e cae5 82bd f16d 7c3e d9f6 6d3d
00000080: 4e1c b33c e55a b13e c655 123a 5bef febd
00000090: bb15 9dbd a2b7 de39 4e5e e53d bc42 80bd
000000a0: 0c93 98bd 8cf2 9e3e 201d ee3d 6872 e83d
000000b0: 4ef9 5e3e 0671 433e 8856 d33d 589f d3bc
000000c0: 3ddb 613d f734 943d 95b7 713e c77b 3f3d
000000d0: 90e3 4a3e 0c1d 173c 3606 083e 171d a23c
000000e0: 7d3e c6bd 7d11 0a3c daa1 563e 613a f9bc
000000f0: c550 043e 2062 3abd 7246 a9bc 5ba6 bbbd
00000100: aae3 b4bc a896 a43d 661d d9bd 5818 d83d
00000110: 0b0e 913d 4d8d 1a3e 139e e8bd aa19 973c
00000120: 415a 84bd e0e5 1b3e e519 1a3e aac3 a13c
00000130: ea35 8d3d a466 5d3e c8b3 7e3d 243a 09bd
00000140: 47f7 48bb 083e a2bc dc91 913b 8196 5fbc
00000150: eda8 833c af1e cabc 74af 563d a814 4dbb
00000160: 29aa e7bd 4e34 5c3d 035e 813d 8fd0 d4bd
00000170: 1f95 2dbc ce30 f53b c772 29bd 0d32 c93c
00000180: 57f2 3dbd 10b4 243e a042 acbd ca1b eebd
00000190: a243 3c3e 1f8f 143d 2a01 033d 9373 b3bc
000001a0: 8343 d6bd dabb 613a 8ee0 39bd 9ed3 c73d
000001b0: 157b 09bc 9791 b2bd f014 073d 2b80 173e
000001c0: 95f8 52bc 60c2 123e 1ce3 af3c 985c 3d3d
000001d0: 30b2 803d 9b37 3f3b ac46 993d b2e6 363d
000001e0: 7b7b a93c b5aa 9b3e a002 283e 46e3 6dbd
000001f0: 403f f13d a25d aebc 9a70 473e 7c38 a7bb
-0.0071213758 -0.033707358 0.038627796 -0.10188555 0.16852024 -0.032288622 0.15608963 -0.0043917005
0.04507283 0.3122574 0.2612309 0.17589481 0.07620135 0.19804248 -0.070502624 0.08093167
0.1407335 0.06565837 -0.0011487467 0.19500329 0.1221495 0.21461685 -0.12216458 -0.015606626
0.02062652 -0.024956323 -0.07793016 0.1882937 0.21001399 -0.06391485 0.24651314 0.05809674
0.021864083 0.3463966 0.0005582239 -0.12447997 -0.076701604 0.00042479957 0.11199628 -0.062627286
-0.07449922 0.31044424 0.11626649 0.11349946 0.2177479 0.19086084 0.10319239 -0.025832817
0.055140723 0.07236665 0.23605187 0.046748903 0.1981337 0.009223234 0.1328362 0.019789262
-0.096798874 0.008427021 0.20960179 -0.030423345 0.12921436 -0.045503736 -0.020663474 -0.09162589
-0.022081215 0.08036548 -0.106013104 0.10551518 0.070827566 0.15092964 -0.11358275 0.018444855
-0.06462527 0.15224409 0.1504894 0.01974662 0.06895049 0.21621186 0.06218317 -0.033502713
-0.0030664967 -0.01980497 0.0044424366 -0.013646723 0.016071761 -0.024672834 0.05241342 -0.003129283
-0.11311752 0.05376082 0.063167594 -0.10391342 -0.010594635 0.0074826246 -0.041369226 0.024559999
-0.04637369 0.16084313 -0.08411145 -0.11626394 0.18385175 0.036269303 0.031983532 -0.021905696
-0.104620956 0.0008611061 -0.045380168 0.0975716 -0.008391161 -0.08719175 0.032978952 0.14794986
-0.012876649 0.1433196 0.021470599 0.046230882 0.062839866 0.002917743 0.07484183 0.044653602
0.020688763 0.30403677 0.16407251 -0.058078073 0.11779642 -0.021284882 0.19476548 -0.005103169

layers.1.lin_r.weight f4 [1, 128]
00000000: a7cc c93c e378 40be 8432 cabd af11 963b
00000010: f3f4 a7be 6a4a 5ebe 108b 15be 7840 0abe
00000020: 4304 0dbe 787e 13be 18cb 5cbe 4ae7 d6bd
00000030: 0259 973d f78c abbd 855b 8e3d c839 03bd
00000040: 7592 0fbe 7ec1 76bd 86a3 60bd fb3b 1a3e
00000050: 98f8 b1bd 820e fbbd 2faa 04bd 702d 9ebd
00000060: 1a62 09be cf8b 2b3d 796f 58bd 0ef7 03be
00000070: 304f 4d3c 34a3 263d c8b2 223d 1275 45bd
00000080: 89a0 8dbe 0b82 efbd a8da 4fbe b839 d33d
00000090: 76b8 213d 8e52 27be c039 9dbd 1c1e c63d
000000a0: 659c 823d 48ef 98bd f8e3 01be 2055 adbd
000000b0: 4bf8 8f3d a633 413d 1f29 f4bd becd 31be
000000c0: 173c 9ebd 80d5 38be 4863 38bd 0e46 d3bd
000000d0: 1260 cebc c191 d2bd d78e 1abe 01ec bf3d
000000e0: bc5f 563d 72d1 b3bd 860a 35be 2863 29ba
000000f0: 34e8 803d 7cce 39bd 5b52 79bc 43a0 91bc
00000100: 28c0 c13d 1989 14be 2d60 033d a5b9 3cbe
00000110: e682 5f3d 4c55 0bbe 5428 81bb 1904 703c
00000120: a8cc c03d a02d bebd fdab 21be 33c8 a9bb
00000130: 8373 babd 4c65 babd 9c38 b2bd 9bc2 87be
00000140: bf79 50be e237 f2bd 1bdd 663c ef0c 77be
00000150: 18d1 eabd 785e 1b3e 36a9 aebc 0a45 67be
00000160: f8fb ea3d b4b1 4d3b 2e4a 82be 1f6a e43d
00000170: 21c8 45bd bf4f 4fbe ece7 af3c c0ce 81be
00000180: b812 33be 9773 3abd e62c d93d ce0a e4bc
00000190: b534 2dbd eba0 64bc a1a3 8b3d 082e 0a3c
000001a0: ff90 d5bd 09e9 2d3c e36f 88bc 1e8f dfbe
000001b0: e0ad 77bd 2c82 30bd 2213 d1bd 4471 d0bd
000001c0: 9337 f7bd eeea 8ebe 1c53 fbbb e9a6 4cbe
000001d0: 98cc 60be 8995 30bb 7507 3abe fa16 653d
000001e0: e396 3f3d 3873 9cbd 6b76 ccbe 691f 2cbe
000001f0: 5549 abbd 8781 53be 486f b6bd 6846 66bd
0.024633719 -0.18796115 -0.09872916 0.004579745 -0.3280407 -0.21708074 -0.1460383 -0.13501155
-0.13771157 -0.14403713 -0.21561849 -0.10493334 0.07390024 -0.08376496 0.0695105 -0.032037526
-0.14020713 -0.060243122 -0.054843448 0.15061943 -0.086899936 -0.122586265 -0.032388862 -0.0772351
-0.13416329 0.04188138 -0.052840684 -0.12887213 0.012531087 0.040682986 0.03972128 -0.04820735
-0.2766154 -0.116947256 -0.20298254 0.10313743 0.039482556 -0.16340086 -0.076770306 0.09673712
0.06377486 -0.07467514 -0.1268462 -0.08463502 0.0702978 0.047168396 -0.11921906 -0.1736364
-0.07726305 -0.18050194 -0.045016557 -0.10316096 -0.025192294 -0.102817066 -0.15093552 0.09371186
0.052337393 -0.08780183 -0.17679796 -0.0006461614 0.06294289 -0.045362934 -0.015217389 -0.017776614
0.09460479 -0.14505424 0.032074142 -0.18430193 0.054568194 -0.13606757 -0.003941575 0.014649414
0.09414035 -0.09286046 -0.15788265 -0.0051813363 -0.09104063 -0.09101352 -0.08702204 -0.2651566
-0.20358942 -0.11827065 0.014090802 -0.24126028 -0.11465663 0.15172756 -0.02132092 -0.2258493
0.114738405 0.0031386437 -0.2544722 0.111530535 -0.04828656 -0.20245264 0.021472894 -0.2535305
-0.1748761 -0.04552039 0.10604267 -0.027837183 -0.042286593 -0.013954381 0.06818319 0.008433826
-0.104280464 0.010614642 -0.016654914 -0.43663877 -0.060468554 -0.04309289 -0.102087274 -0.10177854
-0.12071147 -0.27913612 -0.0076698195 -0.19985546 -0.21953046 -0.0026944599 -0.18166907 0.055930115
0.046774756 -0.07639164 -0.39934096 -0.16808857 -0.08363596 -0.2065488 -0.08907944 -0.05621949
