code/gnn/models/training/GCN/total/3/best_model.pt (torch, 6376 bytes, 3 tensors)

layers.0.bias f4 [64]
00000000: e673 8c3f b04f 54bf 0093 233f ff27 353f
00000010: de0d 143f d04d 853f 718b 8c3f 6a81 8c3f
00000020: b3cd a23e 9af7 913f 7ece 6b3f cbf1 2a3f
00000030: d596 6b3f f974 603f 2400 28bf dc0b d53e
00000040: c379 6a3f 1322 e3be dd88 2e3e 1d5f 99bd
00000050: c12d 863f b896 4d3f c58f 393f 98b7 773e
00000060: ec7f 8b3e 97f6 4e3f 2af2 533f 7ac6 163f
00000070: 7e24 153f bdd7 f13d 51af 833f b847 763f
00000080: 74ec 893f 6100 203f 6ea7 773f 7621 a2bc
00000090: b7eb 603f ad2f f63e 665c 363f 76a0 563f
000000a0: 0227 a93e 5d9b 703f ab79 6abe 9561 50bf
000000b0: cc6b 8cbc f988 44bd ea13 ae3d 97cf debc
000000c0: 3245 8c3f 3222 5f3f 0d1a d33e a3a5 2e3f
000000d0: ff8e d83e cd66 9a3f 97ef 943f 6688 523e
000000e0: 65a1 5c3f 95c7 593e 97e4 873f d87d 783f
000000f0: de58 643e e2b7 4e3f 68ec 3fbd 274f 6f3f
1.0972869 -0.82934093 0.6389618 0.70764154 0.5783366 1.0414371 1.0980054 1.0976994
0.3179756 1.1403687 0.9211196 0.66775197 0.92027026 0.87678486 -0.65625215 0.4161061
0.91592044 -0.44361934 0.17044397 -0.074888445 1.0482713 0.80308104 0.72485 0.24191129
0.27246034 0.80845016 0.8279139 0.588966 0.5825881 0.11808727 1.0287877 0.96203184
1.0775285 0.6250058 0.9673985 -0.019791346 0.8785967 0.4808325 0.7123474 0.83838594
0.33037573 0.93987066 -0.22897975 -0.813989 -0.017141245 -0.04798219 0.08499892 -0.027198596
1.0958617 0.8716155 0.41230813 0.6822149 0.42296597 1.2062622 1.1635617 0.20559844
0.8618377 0.21267541 1.0616635 0.9706702 0.22299525 0.8074933 -0.046856314 0.9348015

layers.0.lin.weight f4 [64, 14]
00000000: 4fdf a4bf 44c6 bc3d 6874 673f 7f1a 20bf
00000010: 76e3 e23e 9e9e 813f 7855 04bf b946 abbf
00000020: daee ae3f c06d 293d 2b62 053f 7588 173d
00000030: 4cb8 c9be 9a8b 653f 082d 5bbd 9efd 21c0
00000040: 04f9 29bf 985f 7c3f 17a3 ae3f 3a55 6a3f
00000050: 16f6 11bf 1ca0 04c0 c0b2 033f a1ac 263f
00000060: c240 29c0 26d1 853f 1eee f93f 3f07 cbbe
00000070: 299d 8f3f e304 6f3f 0484 0fc0 63ee 9cbf
00000080: c3ca 96be d348 2cbe 36d3 bf3f d97f 8f3e
00000090: 05ad 9d3f 9a82 5bc0 f253 723f 16f1 863d
000000a0: bc31 02c0 2434 1fbc da35 61be 56a1 933f
000000b0: ff09 413f 6d73 09bd 9302 34bf a602 cb3c
000000c0: e764 4cbe 76d3 a3bd e757 2bbd 3837 7b3e
000000d0: 6744 793e 34e9 933d db3d c5bd f191 8ebe
000000e0: 57ea c73f 859c 343f 1d40 0cc0 c140 95bf
000000f0: 4289 033e ca4c 4bbe 43ec 983f ac26 8f3e
00000100: 658d 7f3f 2aaf 46c0 c891 623f 5a95 893d
00000110: 5bd7 0ec0 c9f1 343d 6c14 c5bf 9799 1cbf
00000120: 741d 13be 5e36 2cbf cd4a c83d e30e 873f
00000130: 2ee7 edbe f5d0 89bf 8984 2b3f cedc a43e
00000140: 3d05 8a3d 3d6a 643e 2afb d7bf c89b 1d3f
00000150: 346b 19c0 a727 e5bf ffcd e2bd ffaa af3c
00000160: 194a 2fbf 334d 28be d68a a8be 2ad3 fabd
00000170: 6df2 e4be 42b7 273f 9a1d f0be 8beb f73d
00000180: fa41 b6bf 7fe1 e13e 8f81 0ac0 12d5 be3e
00000190: 720f cb3e 180a 1d3e 7b8d 3ebf fb6f 313f
000001a0: 68db 86bd af8d 59bf 784a 203f f03d a9be
000001b0: 0984 a43e 659a 613e b8ce d3bf 82bc 5d3e
000001c0: 1105 f43f 6760 8cbc a768 09c0 ff80 213f
000001d0: fd37 643f 58d5 c8bd 3516 8ebd e474 16be
000001e0: 1b12 ff3c 098e 95be 9c5e 0a3f 344d 74be
000001f0: 3220 b4bf 5223 a8be d1c8 49bf 89ac e5bf
00000200: 213d e0be 3de1 03bf d347 cb3d e237 9e3e
00000210: 244d 2abf 1cfe 72bf 3f2c b33e e445 183f
00000220: 0b2c 24bf 2a75 093f cfbf a9bf 788c 893f
00000230: 6e5d 16c0 c946 343f 90be ce3e 3696 303d
00000240: 23e8 d4be 97d9 213f 3ecb eabe fa87 84bf
00000250: e297 973e fc97 7e3e 8a79 2cbe 9dec bc3e
00000260: dfa5 dabf 18c2 e1bd 6333 123f 060a c53f
00000270: a56d 213f 8a4b 07c0 06e3 3a3d 8f51 663f
00000280: 8d8b 15bf 489b 7dbf c3dc 063f fc7d d83e
00000290: 60ee 573d 77fc d2bd 7d39 07bd 4c64 e6bd
000002a0: 5b7e 1dc0 2a59 2e3f 6515 8d3e 73a6 263e
000002b0: 6ea6 15bf 1e80 1f3f 2fa9 8dbe 850b 47bf
000002c0: 8087 a33e fd45 723e e773 d6be 1aab d43e
000002d0: 60ea cbbf b65a a4be 9e56 edbf 1831 c6bf
000002e0: 9f2d 20bd 4f81 b23e b1a4 32bf 3665 b83e
000002f0: 5a44 edbe e215 bcbe 2192 b7be 889c 173f
00000300: 537d 94bf 246b 0e3f 852d f0bf 004b 19be
00000310: 71b8 823e d5e5 72bf e2b0 1bbf 00a1 5dbe
00000320: 7e53 953f 881f 44be 50c3 20bf ba97 47bf
00000330: 4cc9 243f eb22 a13e 00fe 1fbf 15dc 193f
00000340: b0b3 b73f 0da0 12bf 008f 433f 109d 713f
00000350: 4183 f5bf bae3 3abf d00e d23e 9109 8f3d
00000360: a208 bf3f 6bdf d13e c21c aa3f 2750 40c0
00000370: 5375 903f d50b 9ebe dbaa b7bf 7047 023f
00000380: 52c4 1cc0 e257 873f 98df 8a3e 8dad ae3e
00000390: 8d87 d7be ffdc c83e 091b f8bd 7e32 48bf
000003a0: 06e6 473e 97f3 18bc c360 98be 715a fb3e
000003b0: 06e8 e1bf 7853 bbbe 59c0 b3bf aed0 ebbe
000003c0: 6e70 4cbf 21c7 2fc0 8f15 f83e 9341 77be
000003d0: 5cc5 33bc 3480 01bc a373 0bbb e7f8 093e
000003e0: d32e 32bf c255 073f 25ab d83f d033 f8bd
000003f0: 06a9 713f c45c 663f c15e ccbf 5b10 3ebf
-1.2880648 0.09217504 0.90411997 -0.6254043 0.44314164 1.0126531 -0.51692915 -1.3380958
1.3666642 0.04136443 0.5210292 0.03699537 -0.3939842 0.8966614 -0.053509742 -2.5311046
-0.6639559 0.98583364 1.3643521 0.91536295 -0.5701612 -2.0722723 0.51444626 0.6510716
-2.6445775 1.0454452 1.9525793 -0.39653966 1.1219836 0.9336683 -2.2424326 -1.226025
-0.2945157 -0.16824655 1.4986331 0.28027228 1.2318426 -3.4298463 0.9465934 0.06588952
-2.0342855 -0.009717021 -0.21993199 1.1533611 0.7540588 -0.033557344 -0.7031643 0.024781536
-0.19960366 -0.07999317 -0.041831877 0.24532783 0.243425 0.07222214 -0.096309386 -0.2784572
1.561839 0.7055133 -2.1914132 -1.1660386 0.12845328 -0.19853511 1.1947101 0.27959192
0.99825126 -3.1044412 0.88503695 0.0671794 -2.2318943 0.044175897 -1.5396857 -0.6117186
-0.14366704 -0.6727046 0.09779892 1.0551418 -0.4646544 -1.0766894 0.6699911 0.3219971
0.067392804 0.22306152 -1.6873524 0.6156583 -2.3971682 -1.7902726 -0.11074447 0.021443842
-0.6847244 -0.16435699 -0.32918423 -0.122473076 -0.44716206 0.65514004 -0.46897584 0.12105473
-1.4238884 0.44117352 -2.1641576 0.37271935 0.3966022 0.15335882 -0.7443463 0.69311494
-0.06584817 -0.84981817 0.6261363 -0.33055067 0.32131985 0.22031553 -1.654746 0.21653941
1.9064046 -0.017135812 -2.1470125 0.6308746 0.8914793 -0.09806317 -0.069378294 -0.14693028
0.031136563 -0.29209927 0.5405061 -0.23857576 -1.4072325 -0.32839447 -0.78822047 -1.7943279
-0.43796638 -0.5151556 0.09925809 0.3090201 -0.6652396 -0.9491899 0.34994695 0.59481645
-0.64129704 0.53694403 -1.326166 1.0745993 -2.3494525 0.7042051 0.40379763 0.043112002
-0.41583356 0.6322264 -0.45858186 -1.0353997 0.29608065 0.24862665 -0.16843238 0.36899272
-1.708187 -0.110233486 0.5710966 1.5393684 0.6305793 -2.1139855 0.045626663 0.899682
-0.5841606 -0.99065065 0.52680606 0.42283618 0.052717566 -0.1030206 -0.03301381 -0.11249599
-2.4608371 0.68104804 0.27555385 0.16274433 -0.58457077 0.62304866 -0.2766814 -0.7775195
0.31939316 0.23659511 -0.418853 0.4153679 -1.59309 -0.32100457 -1.8542058 -1.5483732
-0.039106008 0.3486428 -0.6978255 0.36014718 -0.4634121 -0.36735445 -0.35853675 0.5922322
-1.1600746 0.55632234 -1.8763891 -0.14970016 0.25531343 -0.94881946 -0.60816777 -0.21643448
1.1666105 -0.19152653 -0.62798023 -0.7796589 0.64369655 0.31471953 -0.6249695 0.60101444
1.4351711 -0.5727547 0.76390076 0.94380283 -1.918068 -0.73003733 0.41026926 0.069842465
1.492451 0.40990767 1.3290026 -3.004892 1.1285805 -0.30868402 -1.4349016 0.50890255
-2.4494824 1.0573695 0.27123713 0.34116784 -0.42095605 0.39231107 -0.121145315 -0.78202045
0.1952134 -0.00933542 -0.29761323 0.4909244 -1.7648933 -0.3658712 -1.4043075 -0.46057647
-0.79859054 -2.7465289 0.48453948 -0.24146108 -0.010972347 -0.007904101 -0.0021278642 0.13473855
-0.696027 0.5286523 1.6927229 -0.121192575 0.94398534 0.899853 -1.5966417 -0.74243706

layers.1.lin.weight f4 [1, 64]
00000000: 5f4c 4c40 ded5 8fc0 0951 7fc0 fc57 d13e
00000010: 7f68 66c0 9251 4740 5a53 0440 b501 5340
00000020: ae1a 46c0 330b 5140 0df4 4e40 dfbc 903f
00000030: 085c 2f40 bb9c 0a40 8427 abbf 395b 58c0
00000040: ecf3 3040 30d3 ecbf 0a21 68c0 b7aa ae3c
00000050: 8fe4 5040 5305 72c0 60a4 88c0 43c0 6cc0
00000060: 372c 17c0 9366 5cc0 958d 0d3f d98b 91c0
00000070: 2abb 87c0 9352 20c0 cac1 5640 a05c 6a40
00000080: 2742 3b40 7722 95c0 d0c8 1940 3a99 a5bd
00000090: c56b 113f f0df 08c0 ca7f 9cc0 e8f2 2540
000000a0: 1eba 68c0 e1c0 1b40 3a38 e9bf 1bee 28c0
000000b0: 2f35 4b3d e04e 0cc0 1743 d1bf 41dd 2bc0
000000c0: 8847 5f40 e11a 143f a866 7bc0 ed94 30c0
000000d0: 4c82 e7bf 4904 5540 0089 4640 6862 66c0
000000e0: 23c1 0e3f 04ed 34c0 0761 2240 94fa 3740
000000f0: b729 79c0 db37 0a3f dfdb 49bd c3ba 5740
3.1921613 -4.494857 -3.989321 0.4088744 -3.600128 3.1143537 2.0675874 3.2969792
-3.0953784 3.2663085 3.2336457 1.1307639 2.7399921 2.165816 -1.3371434 -3.3805678
2.7648878 -1.8501949 -3.6270165 0.021321638 3.26395 -3.781575 -4.2700653 -3.6992347
-2.3620737 -3.4437606 0.5529416 -4.5483212 -4.241597 -2.50504 3.355578 3.6619034
2.9259126 -4.660457 2.4028816 -0.08085866 0.5680507 -2.138668 -4.8905993 2.5929508
-3.6363597 2.4336474 -1.8220284 -2.6395328 0.049611267 -2.1923141 -1.6348599 -2.6853793
3.488741 0.57853514 -3.9281406 -2.7590897 -1.8086638 3.3283865 3.1021118 -3.5997562
0.55763453 -2.8269663 2.537172 2.874669 -3.893171 0.5399148 -0.04928195 3.370774
